#loc = loc(unknown)
module @block_cache_7 attributes {ada300.rxops_codegen = "full", ada300.rxops_placeholder_ops = 29 : i64, ada300.rxops_supported_ops = 59 : i64, module.FLOPs = 121716736 : i64, module.addr_mode = "basic", module.asymmetric = false, module.chip = "ada300", module.coeff_addr = 0 : i64, module.coeff_size = 27715072 : i64, module.cores = 1 : i64, module.devices = 1 : i64, module.high_precision = false, module.mode = "F16", module.neuron_addr = 0 : i64, module.neuron_size = 25358656 : i64, module.platform = "LLM_QUANTIZED", module.q_group_size = 0 : i64, module.q_symmetric = false, module.state = "TPU_ADDRESSED", module.top_run_mode = "STATIC", module.weight_file = "block_cache_7_tpu_addressed_ada300_f16_weight.npz", tpu.gmem_bytes = 536870912 : i64, tpu.sram_bank_bytes = 262144 : i64, tpu.sram_bank_count = 5 : i64, tpu.target = "ada300", tpu.weight_memory_bytes = 268435456 : i64} {
  func.func private @rxops_bridge_silu_f16(!llvm.ptr, !llvm.ptr, i64) -> i32 loc(#loc)
  func.func private @rxops_bridge_add_f16(!llvm.ptr, !llvm.ptr, !llvm.ptr, i64) -> i32 loc(#loc)
  func.func private @rxops_bridge_mul_f16(!llvm.ptr, !llvm.ptr, !llvm.ptr, i64) -> i32 loc(#loc)
  func.func private @rxops_bridge_fattention_f16(!llvm.ptr, !llvm.ptr, !llvm.ptr, !llvm.ptr, !llvm.ptr, i64, i64, i64, i64, i64, i64, i64, i64) -> i32 loc(#loc)
  func.func private @rxops_bridge_concat2_nd(!llvm.ptr, !llvm.ptr, !llvm.ptr, i64, i64, i64, i64, i64, i64, i64, i64, i64, i64, i64, i64, i64, i64, i64, i64, i64, i64, i64, i64, i64) -> i32 loc(#loc)
  func.func private @rxops_bridge_rope_contiguous_f16(!llvm.ptr, !llvm.ptr, !llvm.ptr, !llvm.ptr, i64, i64, i64, i64) -> i32 loc(#loc)
  func.func private @rxops_bridge_transpose_nd(!llvm.ptr, !llvm.ptr, i64, i64, i64, i64, i64, i64, i64, i64, i64, i64, i64, i64, i64, i64, i64, i64, i64, i64, i64, i64) -> i32 loc(#loc)
  func.func private @rxops_bridge_gather_nd(!llvm.ptr, !llvm.ptr, !llvm.ptr, i64, i64, i64, i64, i64, i64, i64, i64, i64, i64, i64, i64, i64, i64, i64, i64, i64, i64, i64, i64) -> i32 loc(#loc)
  func.func private @rxops_bridge_rms_norm_f16(!llvm.ptr, !llvm.ptr, !llvm.ptr, i64, i64, i64) -> i32 loc(#loc)
  func.func private @rxops_bridge_sigmoid_f16(!llvm.ptr, !llvm.ptr, i64) -> i32 loc(#loc)
  func.func private @rxops_bridge_slice_nd(!llvm.ptr, !llvm.ptr, i64, i64, i64, i64, i64, i64, i64, i64, i64, i64, i64, i64, i64, i64, i64, i64, i64, i64, i64, i64, i64, i64, i64, i64, i64, i64) -> i32 loc(#loc)
  func.func private @rxops_bridge_reshape_bytes(!llvm.ptr, !llvm.ptr, i64) -> i32 loc(#loc)
  func.func private @rxops_bridge_a16matmul_f16(!llvm.ptr, !llvm.ptr, !llvm.ptr, !llvm.ptr, !llvm.ptr, i64, i64, i64, i64, i64) -> i32 loc(#loc)
  func.func private @rxops_bridge_rms_norm_f32(!llvm.ptr, !llvm.ptr, !llvm.ptr, i64, i64, i64) -> i32 loc(#loc)
  func.func @main(%arg0: tensor<1x1x2048xf32> loc(unknown), %arg1: tensor<3x1xsi32> loc(unknown), %arg2: tensor<1x1x1x2049xf32> loc(unknown), %arg3: tensor<1x2048x2x256xf32> loc(unknown), %arg4: tensor<1x2048x2x256xf32> loc(unknown)) -> (tensor<1x1x2048xf16>, tensor<1x1x2x256xf16>, tensor<1x1x2x256xf16>) {
    %0 = tensor.empty() : tensor<1x1x2048xf16> loc(#loc)
    %1 = bufferization.to_memref %arg0 : memref<1x1x2048xf32> loc(#loc)
    %alloc = memref.alloc() : memref<1x1x2048xf16> loc(#loc)
    %2 = bufferization.to_memref %0 : memref<1x1x2048xf16> loc(#loc)
    %intptr = memref.extract_aligned_pointer_as_index %alloc : memref<1x1x2048xf16> -> index loc(#loc)
    %3 = arith.index_cast %intptr : index to i64 loc(#loc)
    %4 = llvm.inttoptr %3 : i64 to !llvm.ptr loc(#loc)
    %intptr_0 = memref.extract_aligned_pointer_as_index %1 : memref<1x1x2048xf32> -> index loc(#loc)
    %5 = arith.index_cast %intptr_0 : index to i64 loc(#loc)
    %6 = llvm.inttoptr %5 : i64 to !llvm.ptr loc(#loc)
    %intptr_1 = memref.extract_aligned_pointer_as_index %2 : memref<1x1x2048xf16> -> index loc(#loc)
    %7 = arith.index_cast %intptr_1 : index to i64 loc(#loc)
    %8 = llvm.inttoptr %7 : i64 to !llvm.ptr loc(#loc)
    %9 = llvm.mlir.constant(1 : i64) : i64 loc(#loc)
    %10 = llvm.mlir.constant(2048 : i64) : i64 loc(#loc)
    %11 = llvm.mlir.constant(4517329193108106637 : i64) : i64 loc(#loc)
    %12 = call @rxops_bridge_rms_norm_f32(%4, %6, %8, %9, %10, %11) {ada300.rxops.keep = true} : (!llvm.ptr, !llvm.ptr, !llvm.ptr, i64, i64, i64) -> i32 loc(#loc)
    %13 = bufferization.to_tensor %alloc restrict : memref<1x1x2048xf16> loc(#loc)
    %14 = tensor.empty() : tensor<4096x1024xui8> loc(#loc)
    %15 = tensor.empty() : tensor<4096x16xui8> loc(#loc)
    %16 = tensor.empty() : tensor<4096x16xf16> loc(#loc)
    %17 = bufferization.to_memref %16 : memref<4096x16xf16> loc(#loc)
    %18 = bufferization.to_memref %15 : memref<4096x16xui8> loc(#loc)
    %19 = bufferization.to_memref %13 : memref<1x1x2048xf16> loc(#loc)
    %20 = bufferization.to_memref %14 : memref<4096x1024xui8> loc(#loc)
    %alloc_2 = memref.alloc() : memref<1x1x4096xf16> loc(#loc)
    %intptr_3 = memref.extract_aligned_pointer_as_index %alloc_2 : memref<1x1x4096xf16> -> index loc(#loc)
    %21 = arith.index_cast %intptr_3 : index to i64 loc(#loc)
    %22 = llvm.inttoptr %21 : i64 to !llvm.ptr loc(#loc)
    %intptr_4 = memref.extract_aligned_pointer_as_index %19 : memref<1x1x2048xf16> -> index loc(#loc)
    %23 = arith.index_cast %intptr_4 : index to i64 loc(#loc)
    %24 = llvm.inttoptr %23 : i64 to !llvm.ptr loc(#loc)
    %intptr_5 = memref.extract_aligned_pointer_as_index %20 : memref<4096x1024xui8> -> index loc(#loc)
    %25 = arith.index_cast %intptr_5 : index to i64 loc(#loc)
    %26 = llvm.inttoptr %25 : i64 to !llvm.ptr loc(#loc)
    %intptr_6 = memref.extract_aligned_pointer_as_index %17 : memref<4096x16xf16> -> index loc(#loc)
    %27 = arith.index_cast %intptr_6 : index to i64 loc(#loc)
    %28 = llvm.inttoptr %27 : i64 to !llvm.ptr loc(#loc)
    %intptr_7 = memref.extract_aligned_pointer_as_index %18 : memref<4096x16xui8> -> index loc(#loc)
    %29 = arith.index_cast %intptr_7 : index to i64 loc(#loc)
    %30 = llvm.inttoptr %29 : i64 to !llvm.ptr loc(#loc)
    %31 = llvm.mlir.constant(1 : i64) : i64 loc(#loc)
    %32 = llvm.mlir.constant(2048 : i64) : i64 loc(#loc)
    %33 = llvm.mlir.constant(4096 : i64) : i64 loc(#loc)
    %34 = llvm.mlir.constant(128 : i64) : i64 loc(#loc)
    %35 = llvm.mlir.constant(4 : i64) : i64 loc(#loc)
    %36 = call @rxops_bridge_a16matmul_f16(%22, %24, %26, %28, %30, %31, %32, %33, %34, %35) {ada300.rxops.keep = true} : (!llvm.ptr, !llvm.ptr, !llvm.ptr, !llvm.ptr, !llvm.ptr, i64, i64, i64, i64, i64) -> i32 loc(#loc)
    %37 = bufferization.to_tensor %alloc_2 restrict : memref<1x1x4096xf16> loc(#loc)
    %38 = bufferization.to_memref %37 : memref<1x1x4096xf16> loc(#loc)
    %alloc_8 = memref.alloc() : memref<1x1x8x512xf16> loc(#loc)
    %intptr_9 = memref.extract_aligned_pointer_as_index %alloc_8 : memref<1x1x8x512xf16> -> index loc(#loc)
    %39 = arith.index_cast %intptr_9 : index to i64 loc(#loc)
    %40 = llvm.inttoptr %39 : i64 to !llvm.ptr loc(#loc)
    %intptr_10 = memref.extract_aligned_pointer_as_index %38 : memref<1x1x4096xf16> -> index loc(#loc)
    %41 = arith.index_cast %intptr_10 : index to i64 loc(#loc)
    %42 = llvm.inttoptr %41 : i64 to !llvm.ptr loc(#loc)
    %43 = llvm.mlir.constant(8192 : i64) : i64 loc(#loc)
    %44 = call @rxops_bridge_reshape_bytes(%40, %42, %43) {ada300.rxops.keep = true} : (!llvm.ptr, !llvm.ptr, i64) -> i32 loc(#loc)
    %45 = bufferization.to_tensor %alloc_8 restrict : memref<1x1x8x512xf16> loc(#loc)
    %46 = bufferization.to_memref %45 : memref<1x1x8x512xf16> loc(#loc)
    %alloc_11 = memref.alloc() : memref<1x1x8x256xf16> loc(#loc)
    %intptr_12 = memref.extract_aligned_pointer_as_index %alloc_11 : memref<1x1x8x256xf16> -> index loc(#loc)
    %47 = arith.index_cast %intptr_12 : index to i64 loc(#loc)
    %48 = llvm.inttoptr %47 : i64 to !llvm.ptr loc(#loc)
    %intptr_13 = memref.extract_aligned_pointer_as_index %46 : memref<1x1x8x512xf16> -> index loc(#loc)
    %49 = arith.index_cast %intptr_13 : index to i64 loc(#loc)
    %50 = llvm.inttoptr %49 : i64 to !llvm.ptr loc(#loc)
    %51 = llvm.mlir.constant(2 : i64) : i64 loc(#loc)
    %52 = llvm.mlir.constant(4 : i64) : i64 loc(#loc)
    %53 = llvm.mlir.constant(1 : i64) : i64 loc(#loc)
    %54 = llvm.mlir.constant(1 : i64) : i64 loc(#loc)
    %55 = llvm.mlir.constant(8 : i64) : i64 loc(#loc)
    %56 = llvm.mlir.constant(256 : i64) : i64 loc(#loc)
    %57 = llvm.mlir.constant(1 : i64) : i64 loc(#loc)
    %58 = llvm.mlir.constant(1 : i64) : i64 loc(#loc)
    %59 = llvm.mlir.constant(1 : i64) : i64 loc(#loc)
    %60 = llvm.mlir.constant(1 : i64) : i64 loc(#loc)
    %61 = llvm.mlir.constant(8 : i64) : i64 loc(#loc)
    %62 = llvm.mlir.constant(512 : i64) : i64 loc(#loc)
    %63 = llvm.mlir.constant(1 : i64) : i64 loc(#loc)
    %64 = llvm.mlir.constant(1 : i64) : i64 loc(#loc)
    %65 = llvm.mlir.constant(0 : i64) : i64 loc(#loc)
    %66 = llvm.mlir.constant(0 : i64) : i64 loc(#loc)
    %67 = llvm.mlir.constant(0 : i64) : i64 loc(#loc)
    %68 = llvm.mlir.constant(0 : i64) : i64 loc(#loc)
    %69 = llvm.mlir.constant(1 : i64) : i64 loc(#loc)
    %70 = llvm.mlir.constant(1 : i64) : i64 loc(#loc)
    %71 = llvm.mlir.constant(1 : i64) : i64 loc(#loc)
    %72 = llvm.mlir.constant(1 : i64) : i64 loc(#loc)
    %73 = llvm.mlir.constant(1 : i64) : i64 loc(#loc)
    %74 = llvm.mlir.constant(1 : i64) : i64 loc(#loc)
    %75 = llvm.mlir.constant(1 : i64) : i64 loc(#loc)
    %76 = llvm.mlir.constant(1 : i64) : i64 loc(#loc)
    %77 = call @rxops_bridge_slice_nd(%48, %50, %51, %52, %53, %54, %55, %56, %57, %58, %59, %60, %61, %62, %63, %64, %65, %66, %67, %68, %69, %70, %71, %72, %73, %74, %75, %76) {ada300.rxops.keep = true} : (!llvm.ptr, !llvm.ptr, i64, i64, i64, i64, i64, i64, i64, i64, i64, i64, i64, i64, i64, i64, i64, i64, i64, i64, i64, i64, i64, i64, i64, i64, i64, i64) -> i32 loc(#loc)
    %78 = bufferization.to_tensor %alloc_11 restrict : memref<1x1x8x256xf16> loc(#loc)
    %79 = bufferization.to_memref %45 : memref<1x1x8x512xf16> loc(#loc)
    %alloc_14 = memref.alloc() : memref<1x1x8x256xf16> loc(#loc)
    %intptr_15 = memref.extract_aligned_pointer_as_index %alloc_14 : memref<1x1x8x256xf16> -> index loc(#loc)
    %80 = arith.index_cast %intptr_15 : index to i64 loc(#loc)
    %81 = llvm.inttoptr %80 : i64 to !llvm.ptr loc(#loc)
    %intptr_16 = memref.extract_aligned_pointer_as_index %79 : memref<1x1x8x512xf16> -> index loc(#loc)
    %82 = arith.index_cast %intptr_16 : index to i64 loc(#loc)
    %83 = llvm.inttoptr %82 : i64 to !llvm.ptr loc(#loc)
    %84 = llvm.mlir.constant(2 : i64) : i64 loc(#loc)
    %85 = llvm.mlir.constant(4 : i64) : i64 loc(#loc)
    %86 = llvm.mlir.constant(1 : i64) : i64 loc(#loc)
    %87 = llvm.mlir.constant(1 : i64) : i64 loc(#loc)
    %88 = llvm.mlir.constant(8 : i64) : i64 loc(#loc)
    %89 = llvm.mlir.constant(256 : i64) : i64 loc(#loc)
    %90 = llvm.mlir.constant(1 : i64) : i64 loc(#loc)
    %91 = llvm.mlir.constant(1 : i64) : i64 loc(#loc)
    %92 = llvm.mlir.constant(1 : i64) : i64 loc(#loc)
    %93 = llvm.mlir.constant(1 : i64) : i64 loc(#loc)
    %94 = llvm.mlir.constant(8 : i64) : i64 loc(#loc)
    %95 = llvm.mlir.constant(512 : i64) : i64 loc(#loc)
    %96 = llvm.mlir.constant(1 : i64) : i64 loc(#loc)
    %97 = llvm.mlir.constant(1 : i64) : i64 loc(#loc)
    %98 = llvm.mlir.constant(0 : i64) : i64 loc(#loc)
    %99 = llvm.mlir.constant(0 : i64) : i64 loc(#loc)
    %100 = llvm.mlir.constant(0 : i64) : i64 loc(#loc)
    %101 = llvm.mlir.constant(256 : i64) : i64 loc(#loc)
    %102 = llvm.mlir.constant(1 : i64) : i64 loc(#loc)
    %103 = llvm.mlir.constant(1 : i64) : i64 loc(#loc)
    %104 = llvm.mlir.constant(1 : i64) : i64 loc(#loc)
    %105 = llvm.mlir.constant(1 : i64) : i64 loc(#loc)
    %106 = llvm.mlir.constant(1 : i64) : i64 loc(#loc)
    %107 = llvm.mlir.constant(1 : i64) : i64 loc(#loc)
    %108 = llvm.mlir.constant(1 : i64) : i64 loc(#loc)
    %109 = llvm.mlir.constant(1 : i64) : i64 loc(#loc)
    %110 = call @rxops_bridge_slice_nd(%81, %83, %84, %85, %86, %87, %88, %89, %90, %91, %92, %93, %94, %95, %96, %97, %98, %99, %100, %101, %102, %103, %104, %105, %106, %107, %108, %109) {ada300.rxops.keep = true} : (!llvm.ptr, !llvm.ptr, i64, i64, i64, i64, i64, i64, i64, i64, i64, i64, i64, i64, i64, i64, i64, i64, i64, i64, i64, i64, i64, i64, i64, i64, i64, i64) -> i32 loc(#loc)
    %111 = bufferization.to_tensor %alloc_14 restrict : memref<1x1x8x256xf16> loc(#loc)
    %112 = bufferization.to_memref %111 : memref<1x1x8x256xf16> loc(#loc)
    %alloc_17 = memref.alloc() : memref<1x1x8x256xf16> loc(#loc)
    %intptr_18 = memref.extract_aligned_pointer_as_index %alloc_17 : memref<1x1x8x256xf16> -> index loc(#loc)
    %113 = arith.index_cast %intptr_18 : index to i64 loc(#loc)
    %114 = llvm.inttoptr %113 : i64 to !llvm.ptr loc(#loc)
    %intptr_19 = memref.extract_aligned_pointer_as_index %112 : memref<1x1x8x256xf16> -> index loc(#loc)
    %115 = arith.index_cast %intptr_19 : index to i64 loc(#loc)
    %116 = llvm.inttoptr %115 : i64 to !llvm.ptr loc(#loc)
    %117 = llvm.mlir.constant(2048 : i64) : i64 loc(#loc)
    %118 = call @rxops_bridge_sigmoid_f16(%114, %116, %117) {ada300.rxops.keep = true} : (!llvm.ptr, !llvm.ptr, i64) -> i32 loc(#loc)
    %119 = bufferization.to_tensor %alloc_17 restrict : memref<1x1x8x256xf16> loc(#loc)
    %120 = tensor.empty() : tensor<512x1024xui8> loc(#loc)
    %121 = tensor.empty() : tensor<512x16xui8> loc(#loc)
    %122 = tensor.empty() : tensor<512x16xf16> loc(#loc)
    %123 = bufferization.to_memref %122 : memref<512x16xf16> loc(#loc)
    %124 = bufferization.to_memref %121 : memref<512x16xui8> loc(#loc)
    %125 = bufferization.to_memref %13 : memref<1x1x2048xf16> loc(#loc)
    %126 = bufferization.to_memref %120 : memref<512x1024xui8> loc(#loc)
    %alloc_20 = memref.alloc() : memref<1x1x512xf16> loc(#loc)
    %intptr_21 = memref.extract_aligned_pointer_as_index %alloc_20 : memref<1x1x512xf16> -> index loc(#loc)
    %127 = arith.index_cast %intptr_21 : index to i64 loc(#loc)
    %128 = llvm.inttoptr %127 : i64 to !llvm.ptr loc(#loc)
    %intptr_22 = memref.extract_aligned_pointer_as_index %125 : memref<1x1x2048xf16> -> index loc(#loc)
    %129 = arith.index_cast %intptr_22 : index to i64 loc(#loc)
    %130 = llvm.inttoptr %129 : i64 to !llvm.ptr loc(#loc)
    %intptr_23 = memref.extract_aligned_pointer_as_index %126 : memref<512x1024xui8> -> index loc(#loc)
    %131 = arith.index_cast %intptr_23 : index to i64 loc(#loc)
    %132 = llvm.inttoptr %131 : i64 to !llvm.ptr loc(#loc)
    %intptr_24 = memref.extract_aligned_pointer_as_index %123 : memref<512x16xf16> -> index loc(#loc)
    %133 = arith.index_cast %intptr_24 : index to i64 loc(#loc)
    %134 = llvm.inttoptr %133 : i64 to !llvm.ptr loc(#loc)
    %intptr_25 = memref.extract_aligned_pointer_as_index %124 : memref<512x16xui8> -> index loc(#loc)
    %135 = arith.index_cast %intptr_25 : index to i64 loc(#loc)
    %136 = llvm.inttoptr %135 : i64 to !llvm.ptr loc(#loc)
    %137 = llvm.mlir.constant(1 : i64) : i64 loc(#loc)
    %138 = llvm.mlir.constant(2048 : i64) : i64 loc(#loc)
    %139 = llvm.mlir.constant(512 : i64) : i64 loc(#loc)
    %140 = llvm.mlir.constant(128 : i64) : i64 loc(#loc)
    %141 = llvm.mlir.constant(4 : i64) : i64 loc(#loc)
    %142 = call @rxops_bridge_a16matmul_f16(%128, %130, %132, %134, %136, %137, %138, %139, %140, %141) {ada300.rxops.keep = true} : (!llvm.ptr, !llvm.ptr, !llvm.ptr, !llvm.ptr, !llvm.ptr, i64, i64, i64, i64, i64) -> i32 loc(#loc)
    %143 = bufferization.to_tensor %alloc_20 restrict : memref<1x1x512xf16> loc(#loc)
    %144 = tensor.empty() : tensor<512x1024xui8> loc(#loc)
    %145 = tensor.empty() : tensor<512x16xui8> loc(#loc)
    %146 = tensor.empty() : tensor<512x16xf16> loc(#loc)
    %147 = bufferization.to_memref %146 : memref<512x16xf16> loc(#loc)
    %148 = bufferization.to_memref %145 : memref<512x16xui8> loc(#loc)
    %149 = bufferization.to_memref %13 : memref<1x1x2048xf16> loc(#loc)
    %150 = bufferization.to_memref %144 : memref<512x1024xui8> loc(#loc)
    %alloc_26 = memref.alloc() : memref<1x1x512xf16> loc(#loc)
    %intptr_27 = memref.extract_aligned_pointer_as_index %alloc_26 : memref<1x1x512xf16> -> index loc(#loc)
    %151 = arith.index_cast %intptr_27 : index to i64 loc(#loc)
    %152 = llvm.inttoptr %151 : i64 to !llvm.ptr loc(#loc)
    %intptr_28 = memref.extract_aligned_pointer_as_index %149 : memref<1x1x2048xf16> -> index loc(#loc)
    %153 = arith.index_cast %intptr_28 : index to i64 loc(#loc)
    %154 = llvm.inttoptr %153 : i64 to !llvm.ptr loc(#loc)
    %intptr_29 = memref.extract_aligned_pointer_as_index %150 : memref<512x1024xui8> -> index loc(#loc)
    %155 = arith.index_cast %intptr_29 : index to i64 loc(#loc)
    %156 = llvm.inttoptr %155 : i64 to !llvm.ptr loc(#loc)
    %intptr_30 = memref.extract_aligned_pointer_as_index %147 : memref<512x16xf16> -> index loc(#loc)
    %157 = arith.index_cast %intptr_30 : index to i64 loc(#loc)
    %158 = llvm.inttoptr %157 : i64 to !llvm.ptr loc(#loc)
    %intptr_31 = memref.extract_aligned_pointer_as_index %148 : memref<512x16xui8> -> index loc(#loc)
    %159 = arith.index_cast %intptr_31 : index to i64 loc(#loc)
    %160 = llvm.inttoptr %159 : i64 to !llvm.ptr loc(#loc)
    %161 = llvm.mlir.constant(1 : i64) : i64 loc(#loc)
    %162 = llvm.mlir.constant(2048 : i64) : i64 loc(#loc)
    %163 = llvm.mlir.constant(512 : i64) : i64 loc(#loc)
    %164 = llvm.mlir.constant(128 : i64) : i64 loc(#loc)
    %165 = llvm.mlir.constant(4 : i64) : i64 loc(#loc)
    %166 = call @rxops_bridge_a16matmul_f16(%152, %154, %156, %158, %160, %161, %162, %163, %164, %165) {ada300.rxops.keep = true} : (!llvm.ptr, !llvm.ptr, !llvm.ptr, !llvm.ptr, !llvm.ptr, i64, i64, i64, i64, i64) -> i32 loc(#loc)
    %167 = bufferization.to_tensor %alloc_26 restrict : memref<1x1x512xf16> loc(#loc)
    %168 = bufferization.to_memref %143 : memref<1x1x512xf16> loc(#loc)
    %alloc_32 = memref.alloc() : memref<1x1x2x256xf16> loc(#loc)
    %intptr_33 = memref.extract_aligned_pointer_as_index %alloc_32 : memref<1x1x2x256xf16> -> index loc(#loc)
    %169 = arith.index_cast %intptr_33 : index to i64 loc(#loc)
    %170 = llvm.inttoptr %169 : i64 to !llvm.ptr loc(#loc)
    %intptr_34 = memref.extract_aligned_pointer_as_index %168 : memref<1x1x512xf16> -> index loc(#loc)
    %171 = arith.index_cast %intptr_34 : index to i64 loc(#loc)
    %172 = llvm.inttoptr %171 : i64 to !llvm.ptr loc(#loc)
    %173 = llvm.mlir.constant(1024 : i64) : i64 loc(#loc)
    %174 = call @rxops_bridge_reshape_bytes(%170, %172, %173) {ada300.rxops.keep = true} : (!llvm.ptr, !llvm.ptr, i64) -> i32 loc(#loc)
    %175 = bufferization.to_tensor %alloc_32 restrict : memref<1x1x2x256xf16> loc(#loc)
    %176 = bufferization.to_memref %167 : memref<1x1x512xf16> loc(#loc)
    %alloc_35 = memref.alloc() : memref<1x1x2x256xf16> loc(#loc)
    %intptr_36 = memref.extract_aligned_pointer_as_index %alloc_35 : memref<1x1x2x256xf16> -> index loc(#loc)
    %177 = arith.index_cast %intptr_36 : index to i64 loc(#loc)
    %178 = llvm.inttoptr %177 : i64 to !llvm.ptr loc(#loc)
    %intptr_37 = memref.extract_aligned_pointer_as_index %176 : memref<1x1x512xf16> -> index loc(#loc)
    %179 = arith.index_cast %intptr_37 : index to i64 loc(#loc)
    %180 = llvm.inttoptr %179 : i64 to !llvm.ptr loc(#loc)
    %181 = llvm.mlir.constant(1024 : i64) : i64 loc(#loc)
    %182 = call @rxops_bridge_reshape_bytes(%178, %180, %181) {ada300.rxops.keep = true} : (!llvm.ptr, !llvm.ptr, i64) -> i32 loc(#loc)
    %183 = bufferization.to_tensor %alloc_35 restrict : memref<1x1x2x256xf16> loc(#loc)
    %184 = tensor.empty() : tensor<1x1x1x256xf16> loc(#loc)
    %185 = bufferization.to_memref %78 : memref<1x1x8x256xf16> loc(#loc)
    %alloc_38 = memref.alloc() : memref<1x1x8x256xf16> loc(#loc)
    %186 = bufferization.to_memref %184 : memref<1x1x1x256xf16> loc(#loc)
    %intptr_39 = memref.extract_aligned_pointer_as_index %alloc_38 : memref<1x1x8x256xf16> -> index loc(#loc)
    %187 = arith.index_cast %intptr_39 : index to i64 loc(#loc)
    %188 = llvm.inttoptr %187 : i64 to !llvm.ptr loc(#loc)
    %intptr_40 = memref.extract_aligned_pointer_as_index %185 : memref<1x1x8x256xf16> -> index loc(#loc)
    %189 = arith.index_cast %intptr_40 : index to i64 loc(#loc)
    %190 = llvm.inttoptr %189 : i64 to !llvm.ptr loc(#loc)
    %intptr_41 = memref.extract_aligned_pointer_as_index %186 : memref<1x1x1x256xf16> -> index loc(#loc)
    %191 = arith.index_cast %intptr_41 : index to i64 loc(#loc)
    %192 = llvm.inttoptr %191 : i64 to !llvm.ptr loc(#loc)
    %193 = llvm.mlir.constant(8 : i64) : i64 loc(#loc)
    %194 = llvm.mlir.constant(256 : i64) : i64 loc(#loc)
    %195 = llvm.mlir.constant(4517329193108106637 : i64) : i64 loc(#loc)
    %196 = call @rxops_bridge_rms_norm_f16(%188, %190, %192, %193, %194, %195) {ada300.rxops.keep = true} : (!llvm.ptr, !llvm.ptr, !llvm.ptr, i64, i64, i64) -> i32 loc(#loc)
    %197 = bufferization.to_tensor %alloc_38 restrict : memref<1x1x8x256xf16> loc(#loc)
    %198 = tensor.empty() : tensor<1x1x1x256xf16> loc(#loc)
    %199 = bufferization.to_memref %175 : memref<1x1x2x256xf16> loc(#loc)
    %alloc_42 = memref.alloc() : memref<1x1x2x256xf16> loc(#loc)
    %200 = bufferization.to_memref %198 : memref<1x1x1x256xf16> loc(#loc)
    %intptr_43 = memref.extract_aligned_pointer_as_index %alloc_42 : memref<1x1x2x256xf16> -> index loc(#loc)
    %201 = arith.index_cast %intptr_43 : index to i64 loc(#loc)
    %202 = llvm.inttoptr %201 : i64 to !llvm.ptr loc(#loc)
    %intptr_44 = memref.extract_aligned_pointer_as_index %199 : memref<1x1x2x256xf16> -> index loc(#loc)
    %203 = arith.index_cast %intptr_44 : index to i64 loc(#loc)
    %204 = llvm.inttoptr %203 : i64 to !llvm.ptr loc(#loc)
    %intptr_45 = memref.extract_aligned_pointer_as_index %200 : memref<1x1x1x256xf16> -> index loc(#loc)
    %205 = arith.index_cast %intptr_45 : index to i64 loc(#loc)
    %206 = llvm.inttoptr %205 : i64 to !llvm.ptr loc(#loc)
    %207 = llvm.mlir.constant(2 : i64) : i64 loc(#loc)
    %208 = llvm.mlir.constant(256 : i64) : i64 loc(#loc)
    %209 = llvm.mlir.constant(4517329193108106637 : i64) : i64 loc(#loc)
    %210 = call @rxops_bridge_rms_norm_f16(%202, %204, %206, %207, %208, %209) {ada300.rxops.keep = true} : (!llvm.ptr, !llvm.ptr, !llvm.ptr, i64, i64, i64) -> i32 loc(#loc)
    %211 = bufferization.to_tensor %alloc_42 restrict : memref<1x1x2x256xf16> loc(#loc)
    %212 = tensor.empty() : tensor<2048x1x32xf16> loc(#loc)
    %213 = bufferization.to_memref %212 : memref<2048x1x32xf16> loc(#loc)
    %214 = bufferization.to_memref %arg1 : memref<3x1xsi32> loc(#loc)
    %alloc_46 = memref.alloc() : memref<3x1x1x32xf16> loc(#loc)
    %intptr_47 = memref.extract_aligned_pointer_as_index %alloc_46 : memref<3x1x1x32xf16> -> index loc(#loc)
    %215 = arith.index_cast %intptr_47 : index to i64 loc(#loc)
    %216 = llvm.inttoptr %215 : i64 to !llvm.ptr loc(#loc)
    %intptr_48 = memref.extract_aligned_pointer_as_index %213 : memref<2048x1x32xf16> -> index loc(#loc)
    %217 = arith.index_cast %intptr_48 : index to i64 loc(#loc)
    %218 = llvm.inttoptr %217 : i64 to !llvm.ptr loc(#loc)
    %intptr_49 = memref.extract_aligned_pointer_as_index %214 : memref<3x1xsi32> -> index loc(#loc)
    %219 = arith.index_cast %intptr_49 : index to i64 loc(#loc)
    %220 = llvm.inttoptr %219 : i64 to !llvm.ptr loc(#loc)
    %221 = llvm.mlir.constant(0 : i64) : i64 loc(#loc)
    %222 = llvm.mlir.constant(2 : i64) : i64 loc(#loc)
    %223 = llvm.mlir.constant(2048 : i64) : i64 loc(#loc)
    %224 = llvm.mlir.constant(1 : i64) : i64 loc(#loc)
    %225 = llvm.mlir.constant(32 : i64) : i64 loc(#loc)
    %226 = llvm.mlir.constant(1 : i64) : i64 loc(#loc)
    %227 = llvm.mlir.constant(1 : i64) : i64 loc(#loc)
    %228 = llvm.mlir.constant(1 : i64) : i64 loc(#loc)
    %229 = llvm.mlir.constant(3 : i64) : i64 loc(#loc)
    %230 = llvm.mlir.constant(1 : i64) : i64 loc(#loc)
    %231 = llvm.mlir.constant(1 : i64) : i64 loc(#loc)
    %232 = llvm.mlir.constant(1 : i64) : i64 loc(#loc)
    %233 = llvm.mlir.constant(1 : i64) : i64 loc(#loc)
    %234 = llvm.mlir.constant(1 : i64) : i64 loc(#loc)
    %235 = llvm.mlir.constant(3 : i64) : i64 loc(#loc)
    %236 = llvm.mlir.constant(1 : i64) : i64 loc(#loc)
    %237 = llvm.mlir.constant(1 : i64) : i64 loc(#loc)
    %238 = llvm.mlir.constant(32 : i64) : i64 loc(#loc)
    %239 = llvm.mlir.constant(1 : i64) : i64 loc(#loc)
    %240 = llvm.mlir.constant(1 : i64) : i64 loc(#loc)
    %241 = call @rxops_bridge_gather_nd(%216, %218, %220, %221, %222, %223, %224, %225, %226, %227, %228, %229, %230, %231, %232, %233, %234, %235, %236, %237, %238, %239, %240) {ada300.rxops.keep = true} : (!llvm.ptr, !llvm.ptr, !llvm.ptr, i64, i64, i64, i64, i64, i64, i64, i64, i64, i64, i64, i64, i64, i64, i64, i64, i64, i64, i64, i64) -> i32 loc(#loc)
    %242 = bufferization.to_tensor %alloc_46 restrict : memref<3x1x1x32xf16> loc(#loc)
    %243 = bufferization.to_memref %242 : memref<3x1x1x32xf16> loc(#loc)
    %alloc_50 = memref.alloc() : memref<3x32x1x1xf16> loc(#loc)
    %intptr_51 = memref.extract_aligned_pointer_as_index %alloc_50 : memref<3x32x1x1xf16> -> index loc(#loc)
    %244 = arith.index_cast %intptr_51 : index to i64 loc(#loc)
    %245 = llvm.inttoptr %244 : i64 to !llvm.ptr loc(#loc)
    %intptr_52 = memref.extract_aligned_pointer_as_index %243 : memref<3x1x1x32xf16> -> index loc(#loc)
    %246 = arith.index_cast %intptr_52 : index to i64 loc(#loc)
    %247 = llvm.inttoptr %246 : i64 to !llvm.ptr loc(#loc)
    %248 = llvm.mlir.constant(2 : i64) : i64 loc(#loc)
    %249 = llvm.mlir.constant(4 : i64) : i64 loc(#loc)
    %250 = llvm.mlir.constant(0 : i64) : i64 loc(#loc)
    %251 = llvm.mlir.constant(3 : i64) : i64 loc(#loc)
    %252 = llvm.mlir.constant(2 : i64) : i64 loc(#loc)
    %253 = llvm.mlir.constant(1 : i64) : i64 loc(#loc)
    %254 = llvm.mlir.constant(1 : i64) : i64 loc(#loc)
    %255 = llvm.mlir.constant(1 : i64) : i64 loc(#loc)
    %256 = llvm.mlir.constant(3 : i64) : i64 loc(#loc)
    %257 = llvm.mlir.constant(1 : i64) : i64 loc(#loc)
    %258 = llvm.mlir.constant(1 : i64) : i64 loc(#loc)
    %259 = llvm.mlir.constant(32 : i64) : i64 loc(#loc)
    %260 = llvm.mlir.constant(1 : i64) : i64 loc(#loc)
    %261 = llvm.mlir.constant(1 : i64) : i64 loc(#loc)
    %262 = llvm.mlir.constant(3 : i64) : i64 loc(#loc)
    %263 = llvm.mlir.constant(32 : i64) : i64 loc(#loc)
    %264 = llvm.mlir.constant(1 : i64) : i64 loc(#loc)
    %265 = llvm.mlir.constant(1 : i64) : i64 loc(#loc)
    %266 = llvm.mlir.constant(1 : i64) : i64 loc(#loc)
    %267 = llvm.mlir.constant(1 : i64) : i64 loc(#loc)
    %268 = call @rxops_bridge_transpose_nd(%245, %247, %248, %249, %250, %251, %252, %253, %254, %255, %256, %257, %258, %259, %260, %261, %262, %263, %264, %265, %266, %267) {ada300.rxops.keep = true} : (!llvm.ptr, !llvm.ptr, i64, i64, i64, i64, i64, i64, i64, i64, i64, i64, i64, i64, i64, i64, i64, i64, i64, i64, i64, i64) -> i32 loc(#loc)
    %269 = bufferization.to_tensor %alloc_50 restrict : memref<3x32x1x1xf16> loc(#loc)
    %270 = bufferization.to_memref %269 : memref<3x32x1x1xf16> loc(#loc)
    %alloc_53 = memref.alloc() : memref<96x1x1xf16> loc(#loc)
    %intptr_54 = memref.extract_aligned_pointer_as_index %alloc_53 : memref<96x1x1xf16> -> index loc(#loc)
    %271 = arith.index_cast %intptr_54 : index to i64 loc(#loc)
    %272 = llvm.inttoptr %271 : i64 to !llvm.ptr loc(#loc)
    %intptr_55 = memref.extract_aligned_pointer_as_index %270 : memref<3x32x1x1xf16> -> index loc(#loc)
    %273 = arith.index_cast %intptr_55 : index to i64 loc(#loc)
    %274 = llvm.inttoptr %273 : i64 to !llvm.ptr loc(#loc)
    %275 = llvm.mlir.constant(192 : i64) : i64 loc(#loc)
    %276 = call @rxops_bridge_reshape_bytes(%272, %274, %275) {ada300.rxops.keep = true} : (!llvm.ptr, !llvm.ptr, i64) -> i32 loc(#loc)
    %277 = bufferization.to_tensor %alloc_53 restrict : memref<96x1x1xf16> loc(#loc)
    %278 = tensor.empty() : tensor<1x64xi32> loc(#loc)
    %279 = bufferization.to_memref %277 : memref<96x1x1xf16> loc(#loc)
    %280 = bufferization.to_memref %278 : memref<1x64xi32> loc(#loc)
    %alloc_56 = memref.alloc() : memref<1x64x1x1xf16> loc(#loc)
    %intptr_57 = memref.extract_aligned_pointer_as_index %alloc_56 : memref<1x64x1x1xf16> -> index loc(#loc)
    %281 = arith.index_cast %intptr_57 : index to i64 loc(#loc)
    %282 = llvm.inttoptr %281 : i64 to !llvm.ptr loc(#loc)
    %intptr_58 = memref.extract_aligned_pointer_as_index %279 : memref<96x1x1xf16> -> index loc(#loc)
    %283 = arith.index_cast %intptr_58 : index to i64 loc(#loc)
    %284 = llvm.inttoptr %283 : i64 to !llvm.ptr loc(#loc)
    %intptr_59 = memref.extract_aligned_pointer_as_index %280 : memref<1x64xi32> -> index loc(#loc)
    %285 = arith.index_cast %intptr_59 : index to i64 loc(#loc)
    %286 = llvm.inttoptr %285 : i64 to !llvm.ptr loc(#loc)
    %287 = llvm.mlir.constant(0 : i64) : i64 loc(#loc)
    %288 = llvm.mlir.constant(2 : i64) : i64 loc(#loc)
    %289 = llvm.mlir.constant(96 : i64) : i64 loc(#loc)
    %290 = llvm.mlir.constant(1 : i64) : i64 loc(#loc)
    %291 = llvm.mlir.constant(1 : i64) : i64 loc(#loc)
    %292 = llvm.mlir.constant(1 : i64) : i64 loc(#loc)
    %293 = llvm.mlir.constant(1 : i64) : i64 loc(#loc)
    %294 = llvm.mlir.constant(1 : i64) : i64 loc(#loc)
    %295 = llvm.mlir.constant(1 : i64) : i64 loc(#loc)
    %296 = llvm.mlir.constant(64 : i64) : i64 loc(#loc)
    %297 = llvm.mlir.constant(1 : i64) : i64 loc(#loc)
    %298 = llvm.mlir.constant(1 : i64) : i64 loc(#loc)
    %299 = llvm.mlir.constant(1 : i64) : i64 loc(#loc)
    %300 = llvm.mlir.constant(1 : i64) : i64 loc(#loc)
    %301 = llvm.mlir.constant(1 : i64) : i64 loc(#loc)
    %302 = llvm.mlir.constant(64 : i64) : i64 loc(#loc)
    %303 = llvm.mlir.constant(1 : i64) : i64 loc(#loc)
    %304 = llvm.mlir.constant(1 : i64) : i64 loc(#loc)
    %305 = llvm.mlir.constant(1 : i64) : i64 loc(#loc)
    %306 = llvm.mlir.constant(1 : i64) : i64 loc(#loc)
    %307 = call @rxops_bridge_gather_nd(%282, %284, %286, %287, %288, %289, %290, %291, %292, %293, %294, %295, %296, %297, %298, %299, %300, %301, %302, %303, %304, %305, %306) {ada300.rxops.keep = true} : (!llvm.ptr, !llvm.ptr, !llvm.ptr, i64, i64, i64, i64, i64, i64, i64, i64, i64, i64, i64, i64, i64, i64, i64, i64, i64, i64, i64, i64) -> i32 loc(#loc)
    %308 = bufferization.to_tensor %alloc_56 restrict : memref<1x64x1x1xf16> loc(#loc)
    %309 = bufferization.to_memref %308 : memref<1x64x1x1xf16> loc(#loc)
    %alloc_60 = memref.alloc() : memref<1x1x1x64xf16> loc(#loc)
    %intptr_61 = memref.extract_aligned_pointer_as_index %alloc_60 : memref<1x1x1x64xf16> -> index loc(#loc)
    %310 = arith.index_cast %intptr_61 : index to i64 loc(#loc)
    %311 = llvm.inttoptr %310 : i64 to !llvm.ptr loc(#loc)
    %intptr_62 = memref.extract_aligned_pointer_as_index %309 : memref<1x64x1x1xf16> -> index loc(#loc)
    %312 = arith.index_cast %intptr_62 : index to i64 loc(#loc)
    %313 = llvm.inttoptr %312 : i64 to !llvm.ptr loc(#loc)
    %314 = llvm.mlir.constant(2 : i64) : i64 loc(#loc)
    %315 = llvm.mlir.constant(4 : i64) : i64 loc(#loc)
    %316 = llvm.mlir.constant(0 : i64) : i64 loc(#loc)
    %317 = llvm.mlir.constant(3 : i64) : i64 loc(#loc)
    %318 = llvm.mlir.constant(2 : i64) : i64 loc(#loc)
    %319 = llvm.mlir.constant(1 : i64) : i64 loc(#loc)
    %320 = llvm.mlir.constant(1 : i64) : i64 loc(#loc)
    %321 = llvm.mlir.constant(1 : i64) : i64 loc(#loc)
    %322 = llvm.mlir.constant(1 : i64) : i64 loc(#loc)
    %323 = llvm.mlir.constant(64 : i64) : i64 loc(#loc)
    %324 = llvm.mlir.constant(1 : i64) : i64 loc(#loc)
    %325 = llvm.mlir.constant(1 : i64) : i64 loc(#loc)
    %326 = llvm.mlir.constant(1 : i64) : i64 loc(#loc)
    %327 = llvm.mlir.constant(1 : i64) : i64 loc(#loc)
    %328 = llvm.mlir.constant(1 : i64) : i64 loc(#loc)
    %329 = llvm.mlir.constant(1 : i64) : i64 loc(#loc)
    %330 = llvm.mlir.constant(1 : i64) : i64 loc(#loc)
    %331 = llvm.mlir.constant(64 : i64) : i64 loc(#loc)
    %332 = llvm.mlir.constant(1 : i64) : i64 loc(#loc)
    %333 = llvm.mlir.constant(1 : i64) : i64 loc(#loc)
    %334 = call @rxops_bridge_transpose_nd(%311, %313, %314, %315, %316, %317, %318, %319, %320, %321, %322, %323, %324, %325, %326, %327, %328, %329, %330, %331, %332, %333) {ada300.rxops.keep = true} : (!llvm.ptr, !llvm.ptr, i64, i64, i64, i64, i64, i64, i64, i64, i64, i64, i64, i64, i64, i64, i64, i64, i64, i64, i64, i64) -> i32 loc(#loc)
    %335 = bufferization.to_tensor %alloc_60 restrict : memref<1x1x1x64xf16> loc(#loc)
    %336 = tensor.empty() : tensor<2048x1x32xf16> loc(#loc)
    %337 = bufferization.to_memref %336 : memref<2048x1x32xf16> loc(#loc)
    %338 = bufferization.to_memref %arg1 : memref<3x1xsi32> loc(#loc)
    %alloc_63 = memref.alloc() : memref<3x1x1x32xf16> loc(#loc)
    %intptr_64 = memref.extract_aligned_pointer_as_index %alloc_63 : memref<3x1x1x32xf16> -> index loc(#loc)
    %339 = arith.index_cast %intptr_64 : index to i64 loc(#loc)
    %340 = llvm.inttoptr %339 : i64 to !llvm.ptr loc(#loc)
    %intptr_65 = memref.extract_aligned_pointer_as_index %337 : memref<2048x1x32xf16> -> index loc(#loc)
    %341 = arith.index_cast %intptr_65 : index to i64 loc(#loc)
    %342 = llvm.inttoptr %341 : i64 to !llvm.ptr loc(#loc)
    %intptr_66 = memref.extract_aligned_pointer_as_index %338 : memref<3x1xsi32> -> index loc(#loc)
    %343 = arith.index_cast %intptr_66 : index to i64 loc(#loc)
    %344 = llvm.inttoptr %343 : i64 to !llvm.ptr loc(#loc)
    %345 = llvm.mlir.constant(0 : i64) : i64 loc(#loc)
    %346 = llvm.mlir.constant(2 : i64) : i64 loc(#loc)
    %347 = llvm.mlir.constant(2048 : i64) : i64 loc(#loc)
    %348 = llvm.mlir.constant(1 : i64) : i64 loc(#loc)
    %349 = llvm.mlir.constant(32 : i64) : i64 loc(#loc)
    %350 = llvm.mlir.constant(1 : i64) : i64 loc(#loc)
    %351 = llvm.mlir.constant(1 : i64) : i64 loc(#loc)
    %352 = llvm.mlir.constant(1 : i64) : i64 loc(#loc)
    %353 = llvm.mlir.constant(3 : i64) : i64 loc(#loc)
    %354 = llvm.mlir.constant(1 : i64) : i64 loc(#loc)
    %355 = llvm.mlir.constant(1 : i64) : i64 loc(#loc)
    %356 = llvm.mlir.constant(1 : i64) : i64 loc(#loc)
    %357 = llvm.mlir.constant(1 : i64) : i64 loc(#loc)
    %358 = llvm.mlir.constant(1 : i64) : i64 loc(#loc)
    %359 = llvm.mlir.constant(3 : i64) : i64 loc(#loc)
    %360 = llvm.mlir.constant(1 : i64) : i64 loc(#loc)
    %361 = llvm.mlir.constant(1 : i64) : i64 loc(#loc)
    %362 = llvm.mlir.constant(32 : i64) : i64 loc(#loc)
    %363 = llvm.mlir.constant(1 : i64) : i64 loc(#loc)
    %364 = llvm.mlir.constant(1 : i64) : i64 loc(#loc)
    %365 = call @rxops_bridge_gather_nd(%340, %342, %344, %345, %346, %347, %348, %349, %350, %351, %352, %353, %354, %355, %356, %357, %358, %359, %360, %361, %362, %363, %364) {ada300.rxops.keep = true} : (!llvm.ptr, !llvm.ptr, !llvm.ptr, i64, i64, i64, i64, i64, i64, i64, i64, i64, i64, i64, i64, i64, i64, i64, i64, i64, i64, i64, i64) -> i32 loc(#loc)
    %366 = bufferization.to_tensor %alloc_63 restrict : memref<3x1x1x32xf16> loc(#loc)
    %367 = bufferization.to_memref %366 : memref<3x1x1x32xf16> loc(#loc)
    %alloc_67 = memref.alloc() : memref<3x32x1x1xf16> loc(#loc)
    %intptr_68 = memref.extract_aligned_pointer_as_index %alloc_67 : memref<3x32x1x1xf16> -> index loc(#loc)
    %368 = arith.index_cast %intptr_68 : index to i64 loc(#loc)
    %369 = llvm.inttoptr %368 : i64 to !llvm.ptr loc(#loc)
    %intptr_69 = memref.extract_aligned_pointer_as_index %367 : memref<3x1x1x32xf16> -> index loc(#loc)
    %370 = arith.index_cast %intptr_69 : index to i64 loc(#loc)
    %371 = llvm.inttoptr %370 : i64 to !llvm.ptr loc(#loc)
    %372 = llvm.mlir.constant(2 : i64) : i64 loc(#loc)
    %373 = llvm.mlir.constant(4 : i64) : i64 loc(#loc)
    %374 = llvm.mlir.constant(0 : i64) : i64 loc(#loc)
    %375 = llvm.mlir.constant(3 : i64) : i64 loc(#loc)
    %376 = llvm.mlir.constant(2 : i64) : i64 loc(#loc)
    %377 = llvm.mlir.constant(1 : i64) : i64 loc(#loc)
    %378 = llvm.mlir.constant(1 : i64) : i64 loc(#loc)
    %379 = llvm.mlir.constant(1 : i64) : i64 loc(#loc)
    %380 = llvm.mlir.constant(3 : i64) : i64 loc(#loc)
    %381 = llvm.mlir.constant(1 : i64) : i64 loc(#loc)
    %382 = llvm.mlir.constant(1 : i64) : i64 loc(#loc)
    %383 = llvm.mlir.constant(32 : i64) : i64 loc(#loc)
    %384 = llvm.mlir.constant(1 : i64) : i64 loc(#loc)
    %385 = llvm.mlir.constant(1 : i64) : i64 loc(#loc)
    %386 = llvm.mlir.constant(3 : i64) : i64 loc(#loc)
    %387 = llvm.mlir.constant(32 : i64) : i64 loc(#loc)
    %388 = llvm.mlir.constant(1 : i64) : i64 loc(#loc)
    %389 = llvm.mlir.constant(1 : i64) : i64 loc(#loc)
    %390 = llvm.mlir.constant(1 : i64) : i64 loc(#loc)
    %391 = llvm.mlir.constant(1 : i64) : i64 loc(#loc)
    %392 = call @rxops_bridge_transpose_nd(%369, %371, %372, %373, %374, %375, %376, %377, %378, %379, %380, %381, %382, %383, %384, %385, %386, %387, %388, %389, %390, %391) {ada300.rxops.keep = true} : (!llvm.ptr, !llvm.ptr, i64, i64, i64, i64, i64, i64, i64, i64, i64, i64, i64, i64, i64, i64, i64, i64, i64, i64, i64, i64) -> i32 loc(#loc)
    %393 = bufferization.to_tensor %alloc_67 restrict : memref<3x32x1x1xf16> loc(#loc)
    %394 = bufferization.to_memref %393 : memref<3x32x1x1xf16> loc(#loc)
    %alloc_70 = memref.alloc() : memref<96x1x1xf16> loc(#loc)
    %intptr_71 = memref.extract_aligned_pointer_as_index %alloc_70 : memref<96x1x1xf16> -> index loc(#loc)
    %395 = arith.index_cast %intptr_71 : index to i64 loc(#loc)
    %396 = llvm.inttoptr %395 : i64 to !llvm.ptr loc(#loc)
    %intptr_72 = memref.extract_aligned_pointer_as_index %394 : memref<3x32x1x1xf16> -> index loc(#loc)
    %397 = arith.index_cast %intptr_72 : index to i64 loc(#loc)
    %398 = llvm.inttoptr %397 : i64 to !llvm.ptr loc(#loc)
    %399 = llvm.mlir.constant(192 : i64) : i64 loc(#loc)
    %400 = call @rxops_bridge_reshape_bytes(%396, %398, %399) {ada300.rxops.keep = true} : (!llvm.ptr, !llvm.ptr, i64) -> i32 loc(#loc)
    %401 = bufferization.to_tensor %alloc_70 restrict : memref<96x1x1xf16> loc(#loc)
    %402 = tensor.empty() : tensor<1x64xi32> loc(#loc)
    %403 = bufferization.to_memref %401 : memref<96x1x1xf16> loc(#loc)
    %404 = bufferization.to_memref %402 : memref<1x64xi32> loc(#loc)
    %alloc_73 = memref.alloc() : memref<1x64x1x1xf16> loc(#loc)
    %intptr_74 = memref.extract_aligned_pointer_as_index %alloc_73 : memref<1x64x1x1xf16> -> index loc(#loc)
    %405 = arith.index_cast %intptr_74 : index to i64 loc(#loc)
    %406 = llvm.inttoptr %405 : i64 to !llvm.ptr loc(#loc)
    %intptr_75 = memref.extract_aligned_pointer_as_index %403 : memref<96x1x1xf16> -> index loc(#loc)
    %407 = arith.index_cast %intptr_75 : index to i64 loc(#loc)
    %408 = llvm.inttoptr %407 : i64 to !llvm.ptr loc(#loc)
    %intptr_76 = memref.extract_aligned_pointer_as_index %404 : memref<1x64xi32> -> index loc(#loc)
    %409 = arith.index_cast %intptr_76 : index to i64 loc(#loc)
    %410 = llvm.inttoptr %409 : i64 to !llvm.ptr loc(#loc)
    %411 = llvm.mlir.constant(0 : i64) : i64 loc(#loc)
    %412 = llvm.mlir.constant(2 : i64) : i64 loc(#loc)
    %413 = llvm.mlir.constant(96 : i64) : i64 loc(#loc)
    %414 = llvm.mlir.constant(1 : i64) : i64 loc(#loc)
    %415 = llvm.mlir.constant(1 : i64) : i64 loc(#loc)
    %416 = llvm.mlir.constant(1 : i64) : i64 loc(#loc)
    %417 = llvm.mlir.constant(1 : i64) : i64 loc(#loc)
    %418 = llvm.mlir.constant(1 : i64) : i64 loc(#loc)
    %419 = llvm.mlir.constant(1 : i64) : i64 loc(#loc)
    %420 = llvm.mlir.constant(64 : i64) : i64 loc(#loc)
    %421 = llvm.mlir.constant(1 : i64) : i64 loc(#loc)
    %422 = llvm.mlir.constant(1 : i64) : i64 loc(#loc)
    %423 = llvm.mlir.constant(1 : i64) : i64 loc(#loc)
    %424 = llvm.mlir.constant(1 : i64) : i64 loc(#loc)
    %425 = llvm.mlir.constant(1 : i64) : i64 loc(#loc)
    %426 = llvm.mlir.constant(64 : i64) : i64 loc(#loc)
    %427 = llvm.mlir.constant(1 : i64) : i64 loc(#loc)
    %428 = llvm.mlir.constant(1 : i64) : i64 loc(#loc)
    %429 = llvm.mlir.constant(1 : i64) : i64 loc(#loc)
    %430 = llvm.mlir.constant(1 : i64) : i64 loc(#loc)
    %431 = call @rxops_bridge_gather_nd(%406, %408, %410, %411, %412, %413, %414, %415, %416, %417, %418, %419, %420, %421, %422, %423, %424, %425, %426, %427, %428, %429, %430) {ada300.rxops.keep = true} : (!llvm.ptr, !llvm.ptr, !llvm.ptr, i64, i64, i64, i64, i64, i64, i64, i64, i64, i64, i64, i64, i64, i64, i64, i64, i64, i64, i64, i64) -> i32 loc(#loc)
    %432 = bufferization.to_tensor %alloc_73 restrict : memref<1x64x1x1xf16> loc(#loc)
    %433 = bufferization.to_memref %432 : memref<1x64x1x1xf16> loc(#loc)
    %alloc_77 = memref.alloc() : memref<1x1x1x64xf16> loc(#loc)
    %intptr_78 = memref.extract_aligned_pointer_as_index %alloc_77 : memref<1x1x1x64xf16> -> index loc(#loc)
    %434 = arith.index_cast %intptr_78 : index to i64 loc(#loc)
    %435 = llvm.inttoptr %434 : i64 to !llvm.ptr loc(#loc)
    %intptr_79 = memref.extract_aligned_pointer_as_index %433 : memref<1x64x1x1xf16> -> index loc(#loc)
    %436 = arith.index_cast %intptr_79 : index to i64 loc(#loc)
    %437 = llvm.inttoptr %436 : i64 to !llvm.ptr loc(#loc)
    %438 = llvm.mlir.constant(2 : i64) : i64 loc(#loc)
    %439 = llvm.mlir.constant(4 : i64) : i64 loc(#loc)
    %440 = llvm.mlir.constant(0 : i64) : i64 loc(#loc)
    %441 = llvm.mlir.constant(3 : i64) : i64 loc(#loc)
    %442 = llvm.mlir.constant(2 : i64) : i64 loc(#loc)
    %443 = llvm.mlir.constant(1 : i64) : i64 loc(#loc)
    %444 = llvm.mlir.constant(1 : i64) : i64 loc(#loc)
    %445 = llvm.mlir.constant(1 : i64) : i64 loc(#loc)
    %446 = llvm.mlir.constant(1 : i64) : i64 loc(#loc)
    %447 = llvm.mlir.constant(64 : i64) : i64 loc(#loc)
    %448 = llvm.mlir.constant(1 : i64) : i64 loc(#loc)
    %449 = llvm.mlir.constant(1 : i64) : i64 loc(#loc)
    %450 = llvm.mlir.constant(1 : i64) : i64 loc(#loc)
    %451 = llvm.mlir.constant(1 : i64) : i64 loc(#loc)
    %452 = llvm.mlir.constant(1 : i64) : i64 loc(#loc)
    %453 = llvm.mlir.constant(1 : i64) : i64 loc(#loc)
    %454 = llvm.mlir.constant(1 : i64) : i64 loc(#loc)
    %455 = llvm.mlir.constant(64 : i64) : i64 loc(#loc)
    %456 = llvm.mlir.constant(1 : i64) : i64 loc(#loc)
    %457 = llvm.mlir.constant(1 : i64) : i64 loc(#loc)
    %458 = call @rxops_bridge_transpose_nd(%435, %437, %438, %439, %440, %441, %442, %443, %444, %445, %446, %447, %448, %449, %450, %451, %452, %453, %454, %455, %456, %457) {ada300.rxops.keep = true} : (!llvm.ptr, !llvm.ptr, i64, i64, i64, i64, i64, i64, i64, i64, i64, i64, i64, i64, i64, i64, i64, i64, i64, i64, i64, i64) -> i32 loc(#loc)
    %459 = bufferization.to_tensor %alloc_77 restrict : memref<1x1x1x64xf16> loc(#loc)
    %460 = bufferization.to_memref %197 : memref<1x1x8x256xf16> loc(#loc)
    %alloc_80 = memref.alloc() : memref<1x1x8x64xf16> loc(#loc)
    %intptr_81 = memref.extract_aligned_pointer_as_index %alloc_80 : memref<1x1x8x64xf16> -> index loc(#loc)
    %461 = arith.index_cast %intptr_81 : index to i64 loc(#loc)
    %462 = llvm.inttoptr %461 : i64 to !llvm.ptr loc(#loc)
    %intptr_82 = memref.extract_aligned_pointer_as_index %460 : memref<1x1x8x256xf16> -> index loc(#loc)
    %463 = arith.index_cast %intptr_82 : index to i64 loc(#loc)
    %464 = llvm.inttoptr %463 : i64 to !llvm.ptr loc(#loc)
    %465 = llvm.mlir.constant(2 : i64) : i64 loc(#loc)
    %466 = llvm.mlir.constant(4 : i64) : i64 loc(#loc)
    %467 = llvm.mlir.constant(1 : i64) : i64 loc(#loc)
    %468 = llvm.mlir.constant(1 : i64) : i64 loc(#loc)
    %469 = llvm.mlir.constant(8 : i64) : i64 loc(#loc)
    %470 = llvm.mlir.constant(64 : i64) : i64 loc(#loc)
    %471 = llvm.mlir.constant(1 : i64) : i64 loc(#loc)
    %472 = llvm.mlir.constant(1 : i64) : i64 loc(#loc)
    %473 = llvm.mlir.constant(1 : i64) : i64 loc(#loc)
    %474 = llvm.mlir.constant(1 : i64) : i64 loc(#loc)
    %475 = llvm.mlir.constant(8 : i64) : i64 loc(#loc)
    %476 = llvm.mlir.constant(256 : i64) : i64 loc(#loc)
    %477 = llvm.mlir.constant(1 : i64) : i64 loc(#loc)
    %478 = llvm.mlir.constant(1 : i64) : i64 loc(#loc)
    %479 = llvm.mlir.constant(0 : i64) : i64 loc(#loc)
    %480 = llvm.mlir.constant(0 : i64) : i64 loc(#loc)
    %481 = llvm.mlir.constant(0 : i64) : i64 loc(#loc)
    %482 = llvm.mlir.constant(0 : i64) : i64 loc(#loc)
    %483 = llvm.mlir.constant(1 : i64) : i64 loc(#loc)
    %484 = llvm.mlir.constant(1 : i64) : i64 loc(#loc)
    %485 = llvm.mlir.constant(1 : i64) : i64 loc(#loc)
    %486 = llvm.mlir.constant(1 : i64) : i64 loc(#loc)
    %487 = llvm.mlir.constant(1 : i64) : i64 loc(#loc)
    %488 = llvm.mlir.constant(1 : i64) : i64 loc(#loc)
    %489 = llvm.mlir.constant(1 : i64) : i64 loc(#loc)
    %490 = llvm.mlir.constant(1 : i64) : i64 loc(#loc)
    %491 = call @rxops_bridge_slice_nd(%462, %464, %465, %466, %467, %468, %469, %470, %471, %472, %473, %474, %475, %476, %477, %478, %479, %480, %481, %482, %483, %484, %485, %486, %487, %488, %489, %490) {ada300.rxops.keep = true} : (!llvm.ptr, !llvm.ptr, i64, i64, i64, i64, i64, i64, i64, i64, i64, i64, i64, i64, i64, i64, i64, i64, i64, i64, i64, i64, i64, i64, i64, i64, i64, i64) -> i32 loc(#loc)
    %492 = bufferization.to_tensor %alloc_80 restrict : memref<1x1x8x64xf16> loc(#loc)
    %493 = bufferization.to_memref %197 : memref<1x1x8x256xf16> loc(#loc)
    %alloc_83 = memref.alloc() : memref<1x1x8x192xf16> loc(#loc)
    %intptr_84 = memref.extract_aligned_pointer_as_index %alloc_83 : memref<1x1x8x192xf16> -> index loc(#loc)
    %494 = arith.index_cast %intptr_84 : index to i64 loc(#loc)
    %495 = llvm.inttoptr %494 : i64 to !llvm.ptr loc(#loc)
    %intptr_85 = memref.extract_aligned_pointer_as_index %493 : memref<1x1x8x256xf16> -> index loc(#loc)
    %496 = arith.index_cast %intptr_85 : index to i64 loc(#loc)
    %497 = llvm.inttoptr %496 : i64 to !llvm.ptr loc(#loc)
    %498 = llvm.mlir.constant(2 : i64) : i64 loc(#loc)
    %499 = llvm.mlir.constant(4 : i64) : i64 loc(#loc)
    %500 = llvm.mlir.constant(1 : i64) : i64 loc(#loc)
    %501 = llvm.mlir.constant(1 : i64) : i64 loc(#loc)
    %502 = llvm.mlir.constant(8 : i64) : i64 loc(#loc)
    %503 = llvm.mlir.constant(192 : i64) : i64 loc(#loc)
    %504 = llvm.mlir.constant(1 : i64) : i64 loc(#loc)
    %505 = llvm.mlir.constant(1 : i64) : i64 loc(#loc)
    %506 = llvm.mlir.constant(1 : i64) : i64 loc(#loc)
    %507 = llvm.mlir.constant(1 : i64) : i64 loc(#loc)
    %508 = llvm.mlir.constant(8 : i64) : i64 loc(#loc)
    %509 = llvm.mlir.constant(256 : i64) : i64 loc(#loc)
    %510 = llvm.mlir.constant(1 : i64) : i64 loc(#loc)
    %511 = llvm.mlir.constant(1 : i64) : i64 loc(#loc)
    %512 = llvm.mlir.constant(0 : i64) : i64 loc(#loc)
    %513 = llvm.mlir.constant(0 : i64) : i64 loc(#loc)
    %514 = llvm.mlir.constant(0 : i64) : i64 loc(#loc)
    %515 = llvm.mlir.constant(64 : i64) : i64 loc(#loc)
    %516 = llvm.mlir.constant(1 : i64) : i64 loc(#loc)
    %517 = llvm.mlir.constant(1 : i64) : i64 loc(#loc)
    %518 = llvm.mlir.constant(1 : i64) : i64 loc(#loc)
    %519 = llvm.mlir.constant(1 : i64) : i64 loc(#loc)
    %520 = llvm.mlir.constant(1 : i64) : i64 loc(#loc)
    %521 = llvm.mlir.constant(1 : i64) : i64 loc(#loc)
    %522 = llvm.mlir.constant(1 : i64) : i64 loc(#loc)
    %523 = llvm.mlir.constant(1 : i64) : i64 loc(#loc)
    %524 = call @rxops_bridge_slice_nd(%495, %497, %498, %499, %500, %501, %502, %503, %504, %505, %506, %507, %508, %509, %510, %511, %512, %513, %514, %515, %516, %517, %518, %519, %520, %521, %522, %523) {ada300.rxops.keep = true} : (!llvm.ptr, !llvm.ptr, i64, i64, i64, i64, i64, i64, i64, i64, i64, i64, i64, i64, i64, i64, i64, i64, i64, i64, i64, i64, i64, i64, i64, i64, i64, i64) -> i32 loc(#loc)
    %525 = bufferization.to_tensor %alloc_83 restrict : memref<1x1x8x192xf16> loc(#loc)
    %526 = bufferization.to_memref %492 : memref<1x1x8x64xf16> loc(#loc)
    %527 = bufferization.to_memref %335 : memref<1x1x1x64xf16> loc(#loc)
    %528 = bufferization.to_memref %459 : memref<1x1x1x64xf16> loc(#loc)
    %alloc_86 = memref.alloc() : memref<1x1x8x64xf16> loc(#loc)
    %intptr_87 = memref.extract_aligned_pointer_as_index %alloc_86 : memref<1x1x8x64xf16> -> index loc(#loc)
    %529 = arith.index_cast %intptr_87 : index to i64 loc(#loc)
    %530 = llvm.inttoptr %529 : i64 to !llvm.ptr loc(#loc)
    %intptr_88 = memref.extract_aligned_pointer_as_index %526 : memref<1x1x8x64xf16> -> index loc(#loc)
    %531 = arith.index_cast %intptr_88 : index to i64 loc(#loc)
    %532 = llvm.inttoptr %531 : i64 to !llvm.ptr loc(#loc)
    %intptr_89 = memref.extract_aligned_pointer_as_index %527 : memref<1x1x1x64xf16> -> index loc(#loc)
    %533 = arith.index_cast %intptr_89 : index to i64 loc(#loc)
    %534 = llvm.inttoptr %533 : i64 to !llvm.ptr loc(#loc)
    %intptr_90 = memref.extract_aligned_pointer_as_index %528 : memref<1x1x1x64xf16> -> index loc(#loc)
    %535 = arith.index_cast %intptr_90 : index to i64 loc(#loc)
    %536 = llvm.inttoptr %535 : i64 to !llvm.ptr loc(#loc)
    %537 = llvm.mlir.constant(1 : i64) : i64 loc(#loc)
    %538 = llvm.mlir.constant(8 : i64) : i64 loc(#loc)
    %539 = llvm.mlir.constant(64 : i64) : i64 loc(#loc)
    %540 = llvm.mlir.constant(1 : i64) : i64 loc(#loc)
    %541 = call @rxops_bridge_rope_contiguous_f16(%530, %532, %534, %536, %537, %538, %539, %540) {ada300.rxops.keep = true} : (!llvm.ptr, !llvm.ptr, !llvm.ptr, !llvm.ptr, i64, i64, i64, i64) -> i32 loc(#loc)
    %542 = bufferization.to_tensor %alloc_86 restrict : memref<1x1x8x64xf16> loc(#loc)
    %543 = bufferization.to_memref %542 : memref<1x1x8x64xf16> loc(#loc)
    %544 = bufferization.to_memref %525 : memref<1x1x8x192xf16> loc(#loc)
    %alloc_91 = memref.alloc() : memref<1x1x8x256xf16> loc(#loc)
    %intptr_92 = memref.extract_aligned_pointer_as_index %alloc_91 : memref<1x1x8x256xf16> -> index loc(#loc)
    %545 = arith.index_cast %intptr_92 : index to i64 loc(#loc)
    %546 = llvm.inttoptr %545 : i64 to !llvm.ptr loc(#loc)
    %intptr_93 = memref.extract_aligned_pointer_as_index %543 : memref<1x1x8x64xf16> -> index loc(#loc)
    %547 = arith.index_cast %intptr_93 : index to i64 loc(#loc)
    %548 = llvm.inttoptr %547 : i64 to !llvm.ptr loc(#loc)
    %intptr_94 = memref.extract_aligned_pointer_as_index %544 : memref<1x1x8x192xf16> -> index loc(#loc)
    %549 = arith.index_cast %intptr_94 : index to i64 loc(#loc)
    %550 = llvm.inttoptr %549 : i64 to !llvm.ptr loc(#loc)
    %551 = llvm.mlir.constant(2 : i64) : i64 loc(#loc)
    %552 = llvm.mlir.constant(4 : i64) : i64 loc(#loc)
    %553 = llvm.mlir.constant(3 : i64) : i64 loc(#loc)
    %554 = llvm.mlir.constant(1 : i64) : i64 loc(#loc)
    %555 = llvm.mlir.constant(1 : i64) : i64 loc(#loc)
    %556 = llvm.mlir.constant(8 : i64) : i64 loc(#loc)
    %557 = llvm.mlir.constant(256 : i64) : i64 loc(#loc)
    %558 = llvm.mlir.constant(1 : i64) : i64 loc(#loc)
    %559 = llvm.mlir.constant(1 : i64) : i64 loc(#loc)
    %560 = llvm.mlir.constant(1 : i64) : i64 loc(#loc)
    %561 = llvm.mlir.constant(1 : i64) : i64 loc(#loc)
    %562 = llvm.mlir.constant(8 : i64) : i64 loc(#loc)
    %563 = llvm.mlir.constant(64 : i64) : i64 loc(#loc)
    %564 = llvm.mlir.constant(1 : i64) : i64 loc(#loc)
    %565 = llvm.mlir.constant(1 : i64) : i64 loc(#loc)
    %566 = llvm.mlir.constant(1 : i64) : i64 loc(#loc)
    %567 = llvm.mlir.constant(1 : i64) : i64 loc(#loc)
    %568 = llvm.mlir.constant(8 : i64) : i64 loc(#loc)
    %569 = llvm.mlir.constant(192 : i64) : i64 loc(#loc)
    %570 = llvm.mlir.constant(1 : i64) : i64 loc(#loc)
    %571 = llvm.mlir.constant(1 : i64) : i64 loc(#loc)
    %572 = call @rxops_bridge_concat2_nd(%546, %548, %550, %551, %552, %553, %554, %555, %556, %557, %558, %559, %560, %561, %562, %563, %564, %565, %566, %567, %568, %569, %570, %571) {ada300.rxops.keep = true} : (!llvm.ptr, !llvm.ptr, !llvm.ptr, i64, i64, i64, i64, i64, i64, i64, i64, i64, i64, i64, i64, i64, i64, i64, i64, i64, i64, i64, i64, i64) -> i32 loc(#loc)
    %573 = bufferization.to_tensor %alloc_91 restrict : memref<1x1x8x256xf16> loc(#loc)
    %574 = bufferization.to_memref %211 : memref<1x1x2x256xf16> loc(#loc)
    %alloc_95 = memref.alloc() : memref<1x1x2x64xf16> loc(#loc)
    %intptr_96 = memref.extract_aligned_pointer_as_index %alloc_95 : memref<1x1x2x64xf16> -> index loc(#loc)
    %575 = arith.index_cast %intptr_96 : index to i64 loc(#loc)
    %576 = llvm.inttoptr %575 : i64 to !llvm.ptr loc(#loc)
    %intptr_97 = memref.extract_aligned_pointer_as_index %574 : memref<1x1x2x256xf16> -> index loc(#loc)
    %577 = arith.index_cast %intptr_97 : index to i64 loc(#loc)
    %578 = llvm.inttoptr %577 : i64 to !llvm.ptr loc(#loc)
    %579 = llvm.mlir.constant(2 : i64) : i64 loc(#loc)
    %580 = llvm.mlir.constant(4 : i64) : i64 loc(#loc)
    %581 = llvm.mlir.constant(1 : i64) : i64 loc(#loc)
    %582 = llvm.mlir.constant(1 : i64) : i64 loc(#loc)
    %583 = llvm.mlir.constant(2 : i64) : i64 loc(#loc)
    %584 = llvm.mlir.constant(64 : i64) : i64 loc(#loc)
    %585 = llvm.mlir.constant(1 : i64) : i64 loc(#loc)
    %586 = llvm.mlir.constant(1 : i64) : i64 loc(#loc)
    %587 = llvm.mlir.constant(1 : i64) : i64 loc(#loc)
    %588 = llvm.mlir.constant(1 : i64) : i64 loc(#loc)
    %589 = llvm.mlir.constant(2 : i64) : i64 loc(#loc)
    %590 = llvm.mlir.constant(256 : i64) : i64 loc(#loc)
    %591 = llvm.mlir.constant(1 : i64) : i64 loc(#loc)
    %592 = llvm.mlir.constant(1 : i64) : i64 loc(#loc)
    %593 = llvm.mlir.constant(0 : i64) : i64 loc(#loc)
    %594 = llvm.mlir.constant(0 : i64) : i64 loc(#loc)
    %595 = llvm.mlir.constant(0 : i64) : i64 loc(#loc)
    %596 = llvm.mlir.constant(0 : i64) : i64 loc(#loc)
    %597 = llvm.mlir.constant(1 : i64) : i64 loc(#loc)
    %598 = llvm.mlir.constant(1 : i64) : i64 loc(#loc)
    %599 = llvm.mlir.constant(1 : i64) : i64 loc(#loc)
    %600 = llvm.mlir.constant(1 : i64) : i64 loc(#loc)
    %601 = llvm.mlir.constant(1 : i64) : i64 loc(#loc)
    %602 = llvm.mlir.constant(1 : i64) : i64 loc(#loc)
    %603 = llvm.mlir.constant(1 : i64) : i64 loc(#loc)
    %604 = llvm.mlir.constant(1 : i64) : i64 loc(#loc)
    %605 = call @rxops_bridge_slice_nd(%576, %578, %579, %580, %581, %582, %583, %584, %585, %586, %587, %588, %589, %590, %591, %592, %593, %594, %595, %596, %597, %598, %599, %600, %601, %602, %603, %604) {ada300.rxops.keep = true} : (!llvm.ptr, !llvm.ptr, i64, i64, i64, i64, i64, i64, i64, i64, i64, i64, i64, i64, i64, i64, i64, i64, i64, i64, i64, i64, i64, i64, i64, i64, i64, i64) -> i32 loc(#loc)
    %606 = bufferization.to_tensor %alloc_95 restrict : memref<1x1x2x64xf16> loc(#loc)
    %607 = bufferization.to_memref %211 : memref<1x1x2x256xf16> loc(#loc)
    %alloc_98 = memref.alloc() : memref<1x1x2x192xf16> loc(#loc)
    %intptr_99 = memref.extract_aligned_pointer_as_index %alloc_98 : memref<1x1x2x192xf16> -> index loc(#loc)
    %608 = arith.index_cast %intptr_99 : index to i64 loc(#loc)
    %609 = llvm.inttoptr %608 : i64 to !llvm.ptr loc(#loc)
    %intptr_100 = memref.extract_aligned_pointer_as_index %607 : memref<1x1x2x256xf16> -> index loc(#loc)
    %610 = arith.index_cast %intptr_100 : index to i64 loc(#loc)
    %611 = llvm.inttoptr %610 : i64 to !llvm.ptr loc(#loc)
    %612 = llvm.mlir.constant(2 : i64) : i64 loc(#loc)
    %613 = llvm.mlir.constant(4 : i64) : i64 loc(#loc)
    %614 = llvm.mlir.constant(1 : i64) : i64 loc(#loc)
    %615 = llvm.mlir.constant(1 : i64) : i64 loc(#loc)
    %616 = llvm.mlir.constant(2 : i64) : i64 loc(#loc)
    %617 = llvm.mlir.constant(192 : i64) : i64 loc(#loc)
    %618 = llvm.mlir.constant(1 : i64) : i64 loc(#loc)
    %619 = llvm.mlir.constant(1 : i64) : i64 loc(#loc)
    %620 = llvm.mlir.constant(1 : i64) : i64 loc(#loc)
    %621 = llvm.mlir.constant(1 : i64) : i64 loc(#loc)
    %622 = llvm.mlir.constant(2 : i64) : i64 loc(#loc)
    %623 = llvm.mlir.constant(256 : i64) : i64 loc(#loc)
    %624 = llvm.mlir.constant(1 : i64) : i64 loc(#loc)
    %625 = llvm.mlir.constant(1 : i64) : i64 loc(#loc)
    %626 = llvm.mlir.constant(0 : i64) : i64 loc(#loc)
    %627 = llvm.mlir.constant(0 : i64) : i64 loc(#loc)
    %628 = llvm.mlir.constant(0 : i64) : i64 loc(#loc)
    %629 = llvm.mlir.constant(64 : i64) : i64 loc(#loc)
    %630 = llvm.mlir.constant(1 : i64) : i64 loc(#loc)
    %631 = llvm.mlir.constant(1 : i64) : i64 loc(#loc)
    %632 = llvm.mlir.constant(1 : i64) : i64 loc(#loc)
    %633 = llvm.mlir.constant(1 : i64) : i64 loc(#loc)
    %634 = llvm.mlir.constant(1 : i64) : i64 loc(#loc)
    %635 = llvm.mlir.constant(1 : i64) : i64 loc(#loc)
    %636 = llvm.mlir.constant(1 : i64) : i64 loc(#loc)
    %637 = llvm.mlir.constant(1 : i64) : i64 loc(#loc)
    %638 = call @rxops_bridge_slice_nd(%609, %611, %612, %613, %614, %615, %616, %617, %618, %619, %620, %621, %622, %623, %624, %625, %626, %627, %628, %629, %630, %631, %632, %633, %634, %635, %636, %637) {ada300.rxops.keep = true} : (!llvm.ptr, !llvm.ptr, i64, i64, i64, i64, i64, i64, i64, i64, i64, i64, i64, i64, i64, i64, i64, i64, i64, i64, i64, i64, i64, i64, i64, i64, i64, i64) -> i32 loc(#loc)
    %639 = bufferization.to_tensor %alloc_98 restrict : memref<1x1x2x192xf16> loc(#loc)
    %640 = bufferization.to_memref %606 : memref<1x1x2x64xf16> loc(#loc)
    %641 = bufferization.to_memref %335 : memref<1x1x1x64xf16> loc(#loc)
    %642 = bufferization.to_memref %459 : memref<1x1x1x64xf16> loc(#loc)
    %alloc_101 = memref.alloc() : memref<1x1x2x64xf16> loc(#loc)
    %intptr_102 = memref.extract_aligned_pointer_as_index %alloc_101 : memref<1x1x2x64xf16> -> index loc(#loc)
    %643 = arith.index_cast %intptr_102 : index to i64 loc(#loc)
    %644 = llvm.inttoptr %643 : i64 to !llvm.ptr loc(#loc)
    %intptr_103 = memref.extract_aligned_pointer_as_index %640 : memref<1x1x2x64xf16> -> index loc(#loc)
    %645 = arith.index_cast %intptr_103 : index to i64 loc(#loc)
    %646 = llvm.inttoptr %645 : i64 to !llvm.ptr loc(#loc)
    %intptr_104 = memref.extract_aligned_pointer_as_index %641 : memref<1x1x1x64xf16> -> index loc(#loc)
    %647 = arith.index_cast %intptr_104 : index to i64 loc(#loc)
    %648 = llvm.inttoptr %647 : i64 to !llvm.ptr loc(#loc)
    %intptr_105 = memref.extract_aligned_pointer_as_index %642 : memref<1x1x1x64xf16> -> index loc(#loc)
    %649 = arith.index_cast %intptr_105 : index to i64 loc(#loc)
    %650 = llvm.inttoptr %649 : i64 to !llvm.ptr loc(#loc)
    %651 = llvm.mlir.constant(1 : i64) : i64 loc(#loc)
    %652 = llvm.mlir.constant(2 : i64) : i64 loc(#loc)
    %653 = llvm.mlir.constant(64 : i64) : i64 loc(#loc)
    %654 = llvm.mlir.constant(1 : i64) : i64 loc(#loc)
    %655 = call @rxops_bridge_rope_contiguous_f16(%644, %646, %648, %650, %651, %652, %653, %654) {ada300.rxops.keep = true} : (!llvm.ptr, !llvm.ptr, !llvm.ptr, !llvm.ptr, i64, i64, i64, i64) -> i32 loc(#loc)
    %656 = bufferization.to_tensor %alloc_101 restrict : memref<1x1x2x64xf16> loc(#loc)
    %657 = bufferization.to_memref %656 : memref<1x1x2x64xf16> loc(#loc)
    %658 = bufferization.to_memref %639 : memref<1x1x2x192xf16> loc(#loc)
    %alloc_106 = memref.alloc() : memref<1x1x2x256xf16> loc(#loc)
    %intptr_107 = memref.extract_aligned_pointer_as_index %alloc_106 : memref<1x1x2x256xf16> -> index loc(#loc)
    %659 = arith.index_cast %intptr_107 : index to i64 loc(#loc)
    %660 = llvm.inttoptr %659 : i64 to !llvm.ptr loc(#loc)
    %intptr_108 = memref.extract_aligned_pointer_as_index %657 : memref<1x1x2x64xf16> -> index loc(#loc)
    %661 = arith.index_cast %intptr_108 : index to i64 loc(#loc)
    %662 = llvm.inttoptr %661 : i64 to !llvm.ptr loc(#loc)
    %intptr_109 = memref.extract_aligned_pointer_as_index %658 : memref<1x1x2x192xf16> -> index loc(#loc)
    %663 = arith.index_cast %intptr_109 : index to i64 loc(#loc)
    %664 = llvm.inttoptr %663 : i64 to !llvm.ptr loc(#loc)
    %665 = llvm.mlir.constant(2 : i64) : i64 loc(#loc)
    %666 = llvm.mlir.constant(4 : i64) : i64 loc(#loc)
    %667 = llvm.mlir.constant(3 : i64) : i64 loc(#loc)
    %668 = llvm.mlir.constant(1 : i64) : i64 loc(#loc)
    %669 = llvm.mlir.constant(1 : i64) : i64 loc(#loc)
    %670 = llvm.mlir.constant(2 : i64) : i64 loc(#loc)
    %671 = llvm.mlir.constant(256 : i64) : i64 loc(#loc)
    %672 = llvm.mlir.constant(1 : i64) : i64 loc(#loc)
    %673 = llvm.mlir.constant(1 : i64) : i64 loc(#loc)
    %674 = llvm.mlir.constant(1 : i64) : i64 loc(#loc)
    %675 = llvm.mlir.constant(1 : i64) : i64 loc(#loc)
    %676 = llvm.mlir.constant(2 : i64) : i64 loc(#loc)
    %677 = llvm.mlir.constant(64 : i64) : i64 loc(#loc)
    %678 = llvm.mlir.constant(1 : i64) : i64 loc(#loc)
    %679 = llvm.mlir.constant(1 : i64) : i64 loc(#loc)
    %680 = llvm.mlir.constant(1 : i64) : i64 loc(#loc)
    %681 = llvm.mlir.constant(1 : i64) : i64 loc(#loc)
    %682 = llvm.mlir.constant(2 : i64) : i64 loc(#loc)
    %683 = llvm.mlir.constant(192 : i64) : i64 loc(#loc)
    %684 = llvm.mlir.constant(1 : i64) : i64 loc(#loc)
    %685 = llvm.mlir.constant(1 : i64) : i64 loc(#loc)
    %686 = call @rxops_bridge_concat2_nd(%660, %662, %664, %665, %666, %667, %668, %669, %670, %671, %672, %673, %674, %675, %676, %677, %678, %679, %680, %681, %682, %683, %684, %685) {ada300.rxops.keep = true} : (!llvm.ptr, !llvm.ptr, !llvm.ptr, i64, i64, i64, i64, i64, i64, i64, i64, i64, i64, i64, i64, i64, i64, i64, i64, i64, i64, i64, i64, i64) -> i32 loc(#loc)
    %687 = bufferization.to_tensor %alloc_106 restrict : memref<1x1x2x256xf16> loc(#loc)
    %688 = bufferization.to_memref %arg3 : memref<1x2048x2x256xf32> loc(#loc)
    %689 = bufferization.to_memref %687 : memref<1x1x2x256xf16> loc(#loc)
    %alloc_110 = memref.alloc() : memref<1x2049x2x256xf32> loc(#loc)
    %intptr_111 = memref.extract_aligned_pointer_as_index %alloc_110 : memref<1x2049x2x256xf32> -> index loc(#loc)
    %690 = arith.index_cast %intptr_111 : index to i64 loc(#loc)
    %691 = llvm.inttoptr %690 : i64 to !llvm.ptr loc(#loc)
    %intptr_112 = memref.extract_aligned_pointer_as_index %688 : memref<1x2048x2x256xf32> -> index loc(#loc)
    %692 = arith.index_cast %intptr_112 : index to i64 loc(#loc)
    %693 = llvm.inttoptr %692 : i64 to !llvm.ptr loc(#loc)
    %intptr_113 = memref.extract_aligned_pointer_as_index %689 : memref<1x1x2x256xf16> -> index loc(#loc)
    %694 = arith.index_cast %intptr_113 : index to i64 loc(#loc)
    %695 = llvm.inttoptr %694 : i64 to !llvm.ptr loc(#loc)
    %696 = llvm.mlir.constant(4 : i64) : i64 loc(#loc)
    %697 = llvm.mlir.constant(4 : i64) : i64 loc(#loc)
    %698 = llvm.mlir.constant(1 : i64) : i64 loc(#loc)
    %699 = llvm.mlir.constant(1 : i64) : i64 loc(#loc)
    %700 = llvm.mlir.constant(2049 : i64) : i64 loc(#loc)
    %701 = llvm.mlir.constant(2 : i64) : i64 loc(#loc)
    %702 = llvm.mlir.constant(256 : i64) : i64 loc(#loc)
    %703 = llvm.mlir.constant(1 : i64) : i64 loc(#loc)
    %704 = llvm.mlir.constant(1 : i64) : i64 loc(#loc)
    %705 = llvm.mlir.constant(1 : i64) : i64 loc(#loc)
    %706 = llvm.mlir.constant(2048 : i64) : i64 loc(#loc)
    %707 = llvm.mlir.constant(2 : i64) : i64 loc(#loc)
    %708 = llvm.mlir.constant(256 : i64) : i64 loc(#loc)
    %709 = llvm.mlir.constant(1 : i64) : i64 loc(#loc)
    %710 = llvm.mlir.constant(1 : i64) : i64 loc(#loc)
    %711 = llvm.mlir.constant(1 : i64) : i64 loc(#loc)
    %712 = llvm.mlir.constant(1 : i64) : i64 loc(#loc)
    %713 = llvm.mlir.constant(2 : i64) : i64 loc(#loc)
    %714 = llvm.mlir.constant(256 : i64) : i64 loc(#loc)
    %715 = llvm.mlir.constant(1 : i64) : i64 loc(#loc)
    %716 = llvm.mlir.constant(1 : i64) : i64 loc(#loc)
    %717 = call @rxops_bridge_concat2_nd(%691, %693, %695, %696, %697, %698, %699, %700, %701, %702, %703, %704, %705, %706, %707, %708, %709, %710, %711, %712, %713, %714, %715, %716) {ada300.rxops.keep = true} : (!llvm.ptr, !llvm.ptr, !llvm.ptr, i64, i64, i64, i64, i64, i64, i64, i64, i64, i64, i64, i64, i64, i64, i64, i64, i64, i64, i64, i64, i64) -> i32 loc(#loc)
    %718 = bufferization.to_tensor %alloc_110 restrict : memref<1x2049x2x256xf32> loc(#loc)
    %719 = bufferization.to_memref %arg4 : memref<1x2048x2x256xf32> loc(#loc)
    %720 = bufferization.to_memref %183 : memref<1x1x2x256xf16> loc(#loc)
    %alloc_114 = memref.alloc() : memref<1x2049x2x256xf32> loc(#loc)
    %intptr_115 = memref.extract_aligned_pointer_as_index %alloc_114 : memref<1x2049x2x256xf32> -> index loc(#loc)
    %721 = arith.index_cast %intptr_115 : index to i64 loc(#loc)
    %722 = llvm.inttoptr %721 : i64 to !llvm.ptr loc(#loc)
    %intptr_116 = memref.extract_aligned_pointer_as_index %719 : memref<1x2048x2x256xf32> -> index loc(#loc)
    %723 = arith.index_cast %intptr_116 : index to i64 loc(#loc)
    %724 = llvm.inttoptr %723 : i64 to !llvm.ptr loc(#loc)
    %intptr_117 = memref.extract_aligned_pointer_as_index %720 : memref<1x1x2x256xf16> -> index loc(#loc)
    %725 = arith.index_cast %intptr_117 : index to i64 loc(#loc)
    %726 = llvm.inttoptr %725 : i64 to !llvm.ptr loc(#loc)
    %727 = llvm.mlir.constant(4 : i64) : i64 loc(#loc)
    %728 = llvm.mlir.constant(4 : i64) : i64 loc(#loc)
    %729 = llvm.mlir.constant(1 : i64) : i64 loc(#loc)
    %730 = llvm.mlir.constant(1 : i64) : i64 loc(#loc)
    %731 = llvm.mlir.constant(2049 : i64) : i64 loc(#loc)
    %732 = llvm.mlir.constant(2 : i64) : i64 loc(#loc)
    %733 = llvm.mlir.constant(256 : i64) : i64 loc(#loc)
    %734 = llvm.mlir.constant(1 : i64) : i64 loc(#loc)
    %735 = llvm.mlir.constant(1 : i64) : i64 loc(#loc)
    %736 = llvm.mlir.constant(1 : i64) : i64 loc(#loc)
    %737 = llvm.mlir.constant(2048 : i64) : i64 loc(#loc)
    %738 = llvm.mlir.constant(2 : i64) : i64 loc(#loc)
    %739 = llvm.mlir.constant(256 : i64) : i64 loc(#loc)
    %740 = llvm.mlir.constant(1 : i64) : i64 loc(#loc)
    %741 = llvm.mlir.constant(1 : i64) : i64 loc(#loc)
    %742 = llvm.mlir.constant(1 : i64) : i64 loc(#loc)
    %743 = llvm.mlir.constant(1 : i64) : i64 loc(#loc)
    %744 = llvm.mlir.constant(2 : i64) : i64 loc(#loc)
    %745 = llvm.mlir.constant(256 : i64) : i64 loc(#loc)
    %746 = llvm.mlir.constant(1 : i64) : i64 loc(#loc)
    %747 = llvm.mlir.constant(1 : i64) : i64 loc(#loc)
    %748 = call @rxops_bridge_concat2_nd(%722, %724, %726, %727, %728, %729, %730, %731, %732, %733, %734, %735, %736, %737, %738, %739, %740, %741, %742, %743, %744, %745, %746, %747) {ada300.rxops.keep = true} : (!llvm.ptr, !llvm.ptr, !llvm.ptr, i64, i64, i64, i64, i64, i64, i64, i64, i64, i64, i64, i64, i64, i64, i64, i64, i64, i64, i64, i64, i64) -> i32 loc(#loc)
    %749 = bufferization.to_tensor %alloc_114 restrict : memref<1x2049x2x256xf32> loc(#loc)
    %750 = bufferization.to_memref %arg2 : memref<1x1x1x2049xf32> loc(#loc)
    %751 = bufferization.to_memref %573 : memref<1x1x8x256xf16> loc(#loc)
    %752 = bufferization.to_memref %718 : memref<1x2049x2x256xf32> loc(#loc)
    %753 = bufferization.to_memref %749 : memref<1x2049x2x256xf32> loc(#loc)
    %alloc_118 = memref.alloc() : memref<1x1x2048xf16> loc(#loc)
    %intptr_119 = memref.extract_aligned_pointer_as_index %alloc_118 : memref<1x1x2048xf16> -> index loc(#loc)
    %754 = arith.index_cast %intptr_119 : index to i64 loc(#loc)
    %755 = llvm.inttoptr %754 : i64 to !llvm.ptr loc(#loc)
    %intptr_120 = memref.extract_aligned_pointer_as_index %751 : memref<1x1x8x256xf16> -> index loc(#loc)
    %756 = arith.index_cast %intptr_120 : index to i64 loc(#loc)
    %757 = llvm.inttoptr %756 : i64 to !llvm.ptr loc(#loc)
    %intptr_121 = memref.extract_aligned_pointer_as_index %752 : memref<1x2049x2x256xf32> -> index loc(#loc)
    %758 = arith.index_cast %intptr_121 : index to i64 loc(#loc)
    %759 = llvm.inttoptr %758 : i64 to !llvm.ptr loc(#loc)
    %intptr_122 = memref.extract_aligned_pointer_as_index %753 : memref<1x2049x2x256xf32> -> index loc(#loc)
    %760 = arith.index_cast %intptr_122 : index to i64 loc(#loc)
    %761 = llvm.inttoptr %760 : i64 to !llvm.ptr loc(#loc)
    %intptr_123 = memref.extract_aligned_pointer_as_index %750 : memref<1x1x1x2049xf32> -> index loc(#loc)
    %762 = arith.index_cast %intptr_123 : index to i64 loc(#loc)
    %763 = llvm.inttoptr %762 : i64 to !llvm.ptr loc(#loc)
    %764 = llvm.mlir.constant(1 : i64) : i64 loc(#loc)
    %765 = llvm.mlir.constant(1 : i64) : i64 loc(#loc)
    %766 = llvm.mlir.constant(2049 : i64) : i64 loc(#loc)
    %767 = llvm.mlir.constant(8 : i64) : i64 loc(#loc)
    %768 = llvm.mlir.constant(2 : i64) : i64 loc(#loc)
    %769 = llvm.mlir.constant(256 : i64) : i64 loc(#loc)
    %770 = llvm.mlir.constant(4589168020290535424 : i64) : i64 loc(#loc)
    %771 = llvm.mlir.constant(1 : i64) : i64 loc(#loc)
    %772 = call @rxops_bridge_fattention_f16(%755, %757, %759, %761, %763, %764, %765, %766, %767, %768, %769, %770, %771) {ada300.rxops.keep = true} : (!llvm.ptr, !llvm.ptr, !llvm.ptr, !llvm.ptr, !llvm.ptr, i64, i64, i64, i64, i64, i64, i64, i64) -> i32 loc(#loc)
    %773 = bufferization.to_tensor %alloc_118 restrict : memref<1x1x2048xf16> loc(#loc)
    %774 = bufferization.to_memref %119 : memref<1x1x8x256xf16> loc(#loc)
    %alloc_124 = memref.alloc() : memref<1x1x2048xf16> loc(#loc)
    %intptr_125 = memref.extract_aligned_pointer_as_index %alloc_124 : memref<1x1x2048xf16> -> index loc(#loc)
    %775 = arith.index_cast %intptr_125 : index to i64 loc(#loc)
    %776 = llvm.inttoptr %775 : i64 to !llvm.ptr loc(#loc)
    %intptr_126 = memref.extract_aligned_pointer_as_index %774 : memref<1x1x8x256xf16> -> index loc(#loc)
    %777 = arith.index_cast %intptr_126 : index to i64 loc(#loc)
    %778 = llvm.inttoptr %777 : i64 to !llvm.ptr loc(#loc)
    %779 = llvm.mlir.constant(4096 : i64) : i64 loc(#loc)
    %780 = call @rxops_bridge_reshape_bytes(%776, %778, %779) {ada300.rxops.keep = true} : (!llvm.ptr, !llvm.ptr, i64) -> i32 loc(#loc)
    %781 = bufferization.to_tensor %alloc_124 restrict : memref<1x1x2048xf16> loc(#loc)
    %782 = bufferization.to_memref %773 : memref<1x1x2048xf16> loc(#loc)
    %783 = bufferization.to_memref %781 : memref<1x1x2048xf16> loc(#loc)
    %alloc_127 = memref.alloc() : memref<1x1x2048xf16> loc(#loc)
    %intptr_128 = memref.extract_aligned_pointer_as_index %alloc_127 : memref<1x1x2048xf16> -> index loc(#loc)
    %784 = arith.index_cast %intptr_128 : index to i64 loc(#loc)
    %785 = llvm.inttoptr %784 : i64 to !llvm.ptr loc(#loc)
    %intptr_129 = memref.extract_aligned_pointer_as_index %782 : memref<1x1x2048xf16> -> index loc(#loc)
    %786 = arith.index_cast %intptr_129 : index to i64 loc(#loc)
    %787 = llvm.inttoptr %786 : i64 to !llvm.ptr loc(#loc)
    %intptr_130 = memref.extract_aligned_pointer_as_index %783 : memref<1x1x2048xf16> -> index loc(#loc)
    %788 = arith.index_cast %intptr_130 : index to i64 loc(#loc)
    %789 = llvm.inttoptr %788 : i64 to !llvm.ptr loc(#loc)
    %790 = llvm.mlir.constant(2048 : i64) : i64 loc(#loc)
    %791 = call @rxops_bridge_mul_f16(%785, %787, %789, %790) {ada300.rxops.keep = true} : (!llvm.ptr, !llvm.ptr, !llvm.ptr, i64) -> i32 loc(#loc)
    %792 = bufferization.to_tensor %alloc_127 restrict : memref<1x1x2048xf16> loc(#loc)
    %793 = tensor.empty() : tensor<2048x1024xui8> loc(#loc)
    %794 = tensor.empty() : tensor<2048x16xui8> loc(#loc)
    %795 = tensor.empty() : tensor<2048x16xf16> loc(#loc)
    %796 = bufferization.to_memref %795 : memref<2048x16xf16> loc(#loc)
    %797 = bufferization.to_memref %794 : memref<2048x16xui8> loc(#loc)
    %798 = bufferization.to_memref %792 : memref<1x1x2048xf16> loc(#loc)
    %799 = bufferization.to_memref %793 : memref<2048x1024xui8> loc(#loc)
    %alloc_131 = memref.alloc() : memref<1x1x2048xf16> loc(#loc)
    %intptr_132 = memref.extract_aligned_pointer_as_index %alloc_131 : memref<1x1x2048xf16> -> index loc(#loc)
    %800 = arith.index_cast %intptr_132 : index to i64 loc(#loc)
    %801 = llvm.inttoptr %800 : i64 to !llvm.ptr loc(#loc)
    %intptr_133 = memref.extract_aligned_pointer_as_index %798 : memref<1x1x2048xf16> -> index loc(#loc)
    %802 = arith.index_cast %intptr_133 : index to i64 loc(#loc)
    %803 = llvm.inttoptr %802 : i64 to !llvm.ptr loc(#loc)
    %intptr_134 = memref.extract_aligned_pointer_as_index %799 : memref<2048x1024xui8> -> index loc(#loc)
    %804 = arith.index_cast %intptr_134 : index to i64 loc(#loc)
    %805 = llvm.inttoptr %804 : i64 to !llvm.ptr loc(#loc)
    %intptr_135 = memref.extract_aligned_pointer_as_index %796 : memref<2048x16xf16> -> index loc(#loc)
    %806 = arith.index_cast %intptr_135 : index to i64 loc(#loc)
    %807 = llvm.inttoptr %806 : i64 to !llvm.ptr loc(#loc)
    %intptr_136 = memref.extract_aligned_pointer_as_index %797 : memref<2048x16xui8> -> index loc(#loc)
    %808 = arith.index_cast %intptr_136 : index to i64 loc(#loc)
    %809 = llvm.inttoptr %808 : i64 to !llvm.ptr loc(#loc)
    %810 = llvm.mlir.constant(1 : i64) : i64 loc(#loc)
    %811 = llvm.mlir.constant(2048 : i64) : i64 loc(#loc)
    %812 = llvm.mlir.constant(2048 : i64) : i64 loc(#loc)
    %813 = llvm.mlir.constant(128 : i64) : i64 loc(#loc)
    %814 = llvm.mlir.constant(4 : i64) : i64 loc(#loc)
    %815 = call @rxops_bridge_a16matmul_f16(%801, %803, %805, %807, %809, %810, %811, %812, %813, %814) {ada300.rxops.keep = true} : (!llvm.ptr, !llvm.ptr, !llvm.ptr, !llvm.ptr, !llvm.ptr, i64, i64, i64, i64, i64) -> i32 loc(#loc)
    %816 = bufferization.to_tensor %alloc_131 restrict : memref<1x1x2048xf16> loc(#loc)
    %817 = bufferization.to_memref %arg0 : memref<1x1x2048xf32> loc(#loc)
    %818 = bufferization.to_memref %816 : memref<1x1x2048xf16> loc(#loc)
    %alloc_137 = memref.alloc() : memref<1x1x2048xf16> loc(#loc)
    %intptr_138 = memref.extract_aligned_pointer_as_index %alloc_137 : memref<1x1x2048xf16> -> index loc(#loc)
    %819 = arith.index_cast %intptr_138 : index to i64 loc(#loc)
    %820 = llvm.inttoptr %819 : i64 to !llvm.ptr loc(#loc)
    %intptr_139 = memref.extract_aligned_pointer_as_index %817 : memref<1x1x2048xf32> -> index loc(#loc)
    %821 = arith.index_cast %intptr_139 : index to i64 loc(#loc)
    %822 = llvm.inttoptr %821 : i64 to !llvm.ptr loc(#loc)
    %intptr_140 = memref.extract_aligned_pointer_as_index %818 : memref<1x1x2048xf16> -> index loc(#loc)
    %823 = arith.index_cast %intptr_140 : index to i64 loc(#loc)
    %824 = llvm.inttoptr %823 : i64 to !llvm.ptr loc(#loc)
    %825 = llvm.mlir.constant(2048 : i64) : i64 loc(#loc)
    %826 = call @rxops_bridge_add_f16(%820, %822, %824, %825) {ada300.rxops.keep = true} : (!llvm.ptr, !llvm.ptr, !llvm.ptr, i64) -> i32 loc(#loc)
    %827 = bufferization.to_tensor %alloc_137 restrict : memref<1x1x2048xf16> loc(#loc)
    %828 = tensor.empty() : tensor<1x1x2048xf16> loc(#loc)
    %829 = bufferization.to_memref %827 : memref<1x1x2048xf16> loc(#loc)
    %alloc_141 = memref.alloc() : memref<1x1x2048xf16> loc(#loc)
    %830 = bufferization.to_memref %828 : memref<1x1x2048xf16> loc(#loc)
    %intptr_142 = memref.extract_aligned_pointer_as_index %alloc_141 : memref<1x1x2048xf16> -> index loc(#loc)
    %831 = arith.index_cast %intptr_142 : index to i64 loc(#loc)
    %832 = llvm.inttoptr %831 : i64 to !llvm.ptr loc(#loc)
    %intptr_143 = memref.extract_aligned_pointer_as_index %829 : memref<1x1x2048xf16> -> index loc(#loc)
    %833 = arith.index_cast %intptr_143 : index to i64 loc(#loc)
    %834 = llvm.inttoptr %833 : i64 to !llvm.ptr loc(#loc)
    %intptr_144 = memref.extract_aligned_pointer_as_index %830 : memref<1x1x2048xf16> -> index loc(#loc)
    %835 = arith.index_cast %intptr_144 : index to i64 loc(#loc)
    %836 = llvm.inttoptr %835 : i64 to !llvm.ptr loc(#loc)
    %837 = llvm.mlir.constant(1 : i64) : i64 loc(#loc)
    %838 = llvm.mlir.constant(2048 : i64) : i64 loc(#loc)
    %839 = llvm.mlir.constant(4517329193108106637 : i64) : i64 loc(#loc)
    %840 = call @rxops_bridge_rms_norm_f16(%832, %834, %836, %837, %838, %839) {ada300.rxops.keep = true} : (!llvm.ptr, !llvm.ptr, !llvm.ptr, i64, i64, i64) -> i32 loc(#loc)
    %841 = bufferization.to_tensor %alloc_141 restrict : memref<1x1x2048xf16> loc(#loc)
    %842 = tensor.empty() : tensor<6144x1024xui8> loc(#loc)
    %843 = tensor.empty() : tensor<6144x16xui8> loc(#loc)
    %844 = tensor.empty() : tensor<6144x16xf16> loc(#loc)
    %845 = bufferization.to_memref %844 : memref<6144x16xf16> loc(#loc)
    %846 = bufferization.to_memref %843 : memref<6144x16xui8> loc(#loc)
    %847 = bufferization.to_memref %841 : memref<1x1x2048xf16> loc(#loc)
    %848 = bufferization.to_memref %842 : memref<6144x1024xui8> loc(#loc)
    %alloc_145 = memref.alloc() : memref<1x1x6144xf16> loc(#loc)
    %intptr_146 = memref.extract_aligned_pointer_as_index %alloc_145 : memref<1x1x6144xf16> -> index loc(#loc)
    %849 = arith.index_cast %intptr_146 : index to i64 loc(#loc)
    %850 = llvm.inttoptr %849 : i64 to !llvm.ptr loc(#loc)
    %intptr_147 = memref.extract_aligned_pointer_as_index %847 : memref<1x1x2048xf16> -> index loc(#loc)
    %851 = arith.index_cast %intptr_147 : index to i64 loc(#loc)
    %852 = llvm.inttoptr %851 : i64 to !llvm.ptr loc(#loc)
    %intptr_148 = memref.extract_aligned_pointer_as_index %848 : memref<6144x1024xui8> -> index loc(#loc)
    %853 = arith.index_cast %intptr_148 : index to i64 loc(#loc)
    %854 = llvm.inttoptr %853 : i64 to !llvm.ptr loc(#loc)
    %intptr_149 = memref.extract_aligned_pointer_as_index %845 : memref<6144x16xf16> -> index loc(#loc)
    %855 = arith.index_cast %intptr_149 : index to i64 loc(#loc)
    %856 = llvm.inttoptr %855 : i64 to !llvm.ptr loc(#loc)
    %intptr_150 = memref.extract_aligned_pointer_as_index %846 : memref<6144x16xui8> -> index loc(#loc)
    %857 = arith.index_cast %intptr_150 : index to i64 loc(#loc)
    %858 = llvm.inttoptr %857 : i64 to !llvm.ptr loc(#loc)
    %859 = llvm.mlir.constant(1 : i64) : i64 loc(#loc)
    %860 = llvm.mlir.constant(2048 : i64) : i64 loc(#loc)
    %861 = llvm.mlir.constant(6144 : i64) : i64 loc(#loc)
    %862 = llvm.mlir.constant(128 : i64) : i64 loc(#loc)
    %863 = llvm.mlir.constant(4 : i64) : i64 loc(#loc)
    %864 = call @rxops_bridge_a16matmul_f16(%850, %852, %854, %856, %858, %859, %860, %861, %862, %863) {ada300.rxops.keep = true} : (!llvm.ptr, !llvm.ptr, !llvm.ptr, !llvm.ptr, !llvm.ptr, i64, i64, i64, i64, i64) -> i32 loc(#loc)
    %865 = bufferization.to_tensor %alloc_145 restrict : memref<1x1x6144xf16> loc(#loc)
    %866 = bufferization.to_memref %865 : memref<1x1x6144xf16> loc(#loc)
    %alloc_151 = memref.alloc() : memref<1x1x6144xf16> loc(#loc)
    %intptr_152 = memref.extract_aligned_pointer_as_index %alloc_151 : memref<1x1x6144xf16> -> index loc(#loc)
    %867 = arith.index_cast %intptr_152 : index to i64 loc(#loc)
    %868 = llvm.inttoptr %867 : i64 to !llvm.ptr loc(#loc)
    %intptr_153 = memref.extract_aligned_pointer_as_index %866 : memref<1x1x6144xf16> -> index loc(#loc)
    %869 = arith.index_cast %intptr_153 : index to i64 loc(#loc)
    %870 = llvm.inttoptr %869 : i64 to !llvm.ptr loc(#loc)
    %871 = llvm.mlir.constant(6144 : i64) : i64 loc(#loc)
    %872 = call @rxops_bridge_silu_f16(%868, %870, %871) {ada300.rxops.keep = true} : (!llvm.ptr, !llvm.ptr, i64) -> i32 loc(#loc)
    %873 = bufferization.to_tensor %alloc_151 restrict : memref<1x1x6144xf16> loc(#loc)
    %874 = tensor.empty() : tensor<6144x1024xui8> loc(#loc)
    %875 = tensor.empty() : tensor<6144x16xui8> loc(#loc)
    %876 = tensor.empty() : tensor<6144x16xf16> loc(#loc)
    %877 = bufferization.to_memref %876 : memref<6144x16xf16> loc(#loc)
    %878 = bufferization.to_memref %875 : memref<6144x16xui8> loc(#loc)
    %879 = bufferization.to_memref %841 : memref<1x1x2048xf16> loc(#loc)
    %880 = bufferization.to_memref %874 : memref<6144x1024xui8> loc(#loc)
    %alloc_154 = memref.alloc() : memref<1x1x6144xf16> loc(#loc)
    %intptr_155 = memref.extract_aligned_pointer_as_index %alloc_154 : memref<1x1x6144xf16> -> index loc(#loc)
    %881 = arith.index_cast %intptr_155 : index to i64 loc(#loc)
    %882 = llvm.inttoptr %881 : i64 to !llvm.ptr loc(#loc)
    %intptr_156 = memref.extract_aligned_pointer_as_index %879 : memref<1x1x2048xf16> -> index loc(#loc)
    %883 = arith.index_cast %intptr_156 : index to i64 loc(#loc)
    %884 = llvm.inttoptr %883 : i64 to !llvm.ptr loc(#loc)
    %intptr_157 = memref.extract_aligned_pointer_as_index %880 : memref<6144x1024xui8> -> index loc(#loc)
    %885 = arith.index_cast %intptr_157 : index to i64 loc(#loc)
    %886 = llvm.inttoptr %885 : i64 to !llvm.ptr loc(#loc)
    %intptr_158 = memref.extract_aligned_pointer_as_index %877 : memref<6144x16xf16> -> index loc(#loc)
    %887 = arith.index_cast %intptr_158 : index to i64 loc(#loc)
    %888 = llvm.inttoptr %887 : i64 to !llvm.ptr loc(#loc)
    %intptr_159 = memref.extract_aligned_pointer_as_index %878 : memref<6144x16xui8> -> index loc(#loc)
    %889 = arith.index_cast %intptr_159 : index to i64 loc(#loc)
    %890 = llvm.inttoptr %889 : i64 to !llvm.ptr loc(#loc)
    %891 = llvm.mlir.constant(1 : i64) : i64 loc(#loc)
    %892 = llvm.mlir.constant(2048 : i64) : i64 loc(#loc)
    %893 = llvm.mlir.constant(6144 : i64) : i64 loc(#loc)
    %894 = llvm.mlir.constant(128 : i64) : i64 loc(#loc)
    %895 = llvm.mlir.constant(4 : i64) : i64 loc(#loc)
    %896 = call @rxops_bridge_a16matmul_f16(%882, %884, %886, %888, %890, %891, %892, %893, %894, %895) {ada300.rxops.keep = true} : (!llvm.ptr, !llvm.ptr, !llvm.ptr, !llvm.ptr, !llvm.ptr, i64, i64, i64, i64, i64) -> i32 loc(#loc)
    %897 = bufferization.to_tensor %alloc_154 restrict : memref<1x1x6144xf16> loc(#loc)
    %898 = bufferization.to_memref %873 : memref<1x1x6144xf16> loc(#loc)
    %899 = bufferization.to_memref %897 : memref<1x1x6144xf16> loc(#loc)
    %alloc_160 = memref.alloc() : memref<1x1x6144xf16> loc(#loc)
    %intptr_161 = memref.extract_aligned_pointer_as_index %alloc_160 : memref<1x1x6144xf16> -> index loc(#loc)
    %900 = arith.index_cast %intptr_161 : index to i64 loc(#loc)
    %901 = llvm.inttoptr %900 : i64 to !llvm.ptr loc(#loc)
    %intptr_162 = memref.extract_aligned_pointer_as_index %898 : memref<1x1x6144xf16> -> index loc(#loc)
    %902 = arith.index_cast %intptr_162 : index to i64 loc(#loc)
    %903 = llvm.inttoptr %902 : i64 to !llvm.ptr loc(#loc)
    %intptr_163 = memref.extract_aligned_pointer_as_index %899 : memref<1x1x6144xf16> -> index loc(#loc)
    %904 = arith.index_cast %intptr_163 : index to i64 loc(#loc)
    %905 = llvm.inttoptr %904 : i64 to !llvm.ptr loc(#loc)
    %906 = llvm.mlir.constant(6144 : i64) : i64 loc(#loc)
    %907 = call @rxops_bridge_mul_f16(%901, %903, %905, %906) {ada300.rxops.keep = true} : (!llvm.ptr, !llvm.ptr, !llvm.ptr, i64) -> i32 loc(#loc)
    %908 = bufferization.to_tensor %alloc_160 restrict : memref<1x1x6144xf16> loc(#loc)
    %909 = tensor.empty() : tensor<2048x3072xui8> loc(#loc)
    %910 = tensor.empty() : tensor<2048x48xui8> loc(#loc)
    %911 = tensor.empty() : tensor<2048x48xf16> loc(#loc)
    %912 = bufferization.to_memref %911 : memref<2048x48xf16> loc(#loc)
    %913 = bufferization.to_memref %910 : memref<2048x48xui8> loc(#loc)
    %914 = bufferization.to_memref %908 : memref<1x1x6144xf16> loc(#loc)
    %915 = bufferization.to_memref %909 : memref<2048x3072xui8> loc(#loc)
    %alloc_164 = memref.alloc() : memref<1x1x2048xf16> loc(#loc)
    %intptr_165 = memref.extract_aligned_pointer_as_index %alloc_164 : memref<1x1x2048xf16> -> index loc(#loc)
    %916 = arith.index_cast %intptr_165 : index to i64 loc(#loc)
    %917 = llvm.inttoptr %916 : i64 to !llvm.ptr loc(#loc)
    %intptr_166 = memref.extract_aligned_pointer_as_index %914 : memref<1x1x6144xf16> -> index loc(#loc)
    %918 = arith.index_cast %intptr_166 : index to i64 loc(#loc)
    %919 = llvm.inttoptr %918 : i64 to !llvm.ptr loc(#loc)
    %intptr_167 = memref.extract_aligned_pointer_as_index %915 : memref<2048x3072xui8> -> index loc(#loc)
    %920 = arith.index_cast %intptr_167 : index to i64 loc(#loc)
    %921 = llvm.inttoptr %920 : i64 to !llvm.ptr loc(#loc)
    %intptr_168 = memref.extract_aligned_pointer_as_index %912 : memref<2048x48xf16> -> index loc(#loc)
    %922 = arith.index_cast %intptr_168 : index to i64 loc(#loc)
    %923 = llvm.inttoptr %922 : i64 to !llvm.ptr loc(#loc)
    %intptr_169 = memref.extract_aligned_pointer_as_index %913 : memref<2048x48xui8> -> index loc(#loc)
    %924 = arith.index_cast %intptr_169 : index to i64 loc(#loc)
    %925 = llvm.inttoptr %924 : i64 to !llvm.ptr loc(#loc)
    %926 = llvm.mlir.constant(1 : i64) : i64 loc(#loc)
    %927 = llvm.mlir.constant(6144 : i64) : i64 loc(#loc)
    %928 = llvm.mlir.constant(2048 : i64) : i64 loc(#loc)
    %929 = llvm.mlir.constant(128 : i64) : i64 loc(#loc)
    %930 = llvm.mlir.constant(4 : i64) : i64 loc(#loc)
    %931 = call @rxops_bridge_a16matmul_f16(%917, %919, %921, %923, %925, %926, %927, %928, %929, %930) {ada300.rxops.keep = true} : (!llvm.ptr, !llvm.ptr, !llvm.ptr, !llvm.ptr, !llvm.ptr, i64, i64, i64, i64, i64) -> i32 loc(#loc)
    %932 = bufferization.to_tensor %alloc_164 restrict : memref<1x1x2048xf16> loc(#loc)
    %933 = bufferization.to_memref %827 : memref<1x1x2048xf16> loc(#loc)
    %934 = bufferization.to_memref %932 : memref<1x1x2048xf16> loc(#loc)
    %alloc_170 = memref.alloc() : memref<1x1x2048xf16> loc(#loc)
    %intptr_171 = memref.extract_aligned_pointer_as_index %alloc_170 : memref<1x1x2048xf16> -> index loc(#loc)
    %935 = arith.index_cast %intptr_171 : index to i64 loc(#loc)
    %936 = llvm.inttoptr %935 : i64 to !llvm.ptr loc(#loc)
    %intptr_172 = memref.extract_aligned_pointer_as_index %933 : memref<1x1x2048xf16> -> index loc(#loc)
    %937 = arith.index_cast %intptr_172 : index to i64 loc(#loc)
    %938 = llvm.inttoptr %937 : i64 to !llvm.ptr loc(#loc)
    %intptr_173 = memref.extract_aligned_pointer_as_index %934 : memref<1x1x2048xf16> -> index loc(#loc)
    %939 = arith.index_cast %intptr_173 : index to i64 loc(#loc)
    %940 = llvm.inttoptr %939 : i64 to !llvm.ptr loc(#loc)
    %941 = llvm.mlir.constant(2048 : i64) : i64 loc(#loc)
    %942 = call @rxops_bridge_add_f16(%936, %938, %940, %941) {ada300.rxops.keep = true} : (!llvm.ptr, !llvm.ptr, !llvm.ptr, i64) -> i32 loc(#loc)
    %943 = bufferization.to_tensor %alloc_170 restrict : memref<1x1x2048xf16> loc(#loc)
    return %943, %687, %183 : tensor<1x1x2048xf16>, tensor<1x1x2x256xf16>, tensor<1x1x2x256xf16> loc(#loc)
  } loc(#loc)
} loc(#loc)

