#loc = loc(unknown)
module @lm_head attributes {ada300.rxops_codegen = "full", ada300.rxops_placeholder_ops = 1 : i64, ada300.rxops_supported_ops = 7 : i64, module.FLOPs = 1017118720 : i64, module.addr_mode = "basic", module.asymmetric = false, module.chip = "ada300", module.coeff_addr = 0 : i64, module.coeff_size = 1017118720 : i64, module.cores = 1 : i64, module.devices = 1 : i64, module.high_precision = false, module.mode = "F16", module.neuron_addr = 0 : i64, module.neuron_size = 2007168 : i64, module.platform = "LLM_QUANTIZED", module.q_group_size = 0 : i64, module.q_symmetric = false, module.state = "TPU_ADDRESSED", module.top_run_mode = "STATIC", module.weight_file = "lm_head_tpu_addressed_ada300_f16_weight.npz", tpu.gmem_bytes = 536870912 : i64, tpu.sram_bank_bytes = 262144 : i64, tpu.sram_bank_count = 5 : i64, tpu.target = "ada300", tpu.weight_memory_bytes = 268435456 : i64} {
  func.func private @rxops_bridge_topk_f16(!llvm.ptr, !llvm.ptr, !llvm.ptr, i64, i64, i64, i64) -> i32 loc(#loc)
  func.func private @rxops_bridge_reshape_bytes(!llvm.ptr, !llvm.ptr, i64) -> i32 loc(#loc)
  func.func private @rxops_bridge_matmul_f16(!llvm.ptr, !llvm.ptr, !llvm.ptr, i64, i64, i64) -> i32 loc(#loc)
  func.func @main(%arg0: tensor<1x2048xf32> loc(unknown)) -> tensor<1x1xf32> {
    %0 = tensor.empty() : tensor<248320x2048xf16> loc(#loc)
    %1 = bufferization.to_memref %0 : memref<248320x2048xf16> loc(#loc)
    %2 = bufferization.to_memref %arg0 : memref<1x2048xf32> loc(#loc)
    %alloc = memref.alloc() : memref<248320x1xf16> loc(#loc)
    %intptr = memref.extract_aligned_pointer_as_index %alloc : memref<248320x1xf16> -> index loc(#loc)
    %3 = arith.index_cast %intptr : index to i64 loc(#loc)
    %4 = llvm.inttoptr %3 : i64 to !llvm.ptr loc(#loc)
    %intptr_0 = memref.extract_aligned_pointer_as_index %1 : memref<248320x2048xf16> -> index loc(#loc)
    %5 = arith.index_cast %intptr_0 : index to i64 loc(#loc)
    %6 = llvm.inttoptr %5 : i64 to !llvm.ptr loc(#loc)
    %intptr_1 = memref.extract_aligned_pointer_as_index %2 : memref<1x2048xf32> -> index loc(#loc)
    %7 = arith.index_cast %intptr_1 : index to i64 loc(#loc)
    %8 = llvm.inttoptr %7 : i64 to !llvm.ptr loc(#loc)
    %9 = llvm.mlir.constant(248320 : i64) : i64 loc(#loc)
    %10 = llvm.mlir.constant(2048 : i64) : i64 loc(#loc)
    %11 = llvm.mlir.constant(2048 : i64) : i64 loc(#loc)
    %12 = call @rxops_bridge_matmul_f16(%4, %6, %8, %9, %10, %11) {ada300.rxops.keep = true} : (!llvm.ptr, !llvm.ptr, !llvm.ptr, i64, i64, i64) -> i32 loc(#loc)
    %13 = bufferization.to_tensor %alloc restrict : memref<248320x1xf16> loc(#loc)
    %14 = bufferization.to_memref %13 : memref<248320x1xf16> loc(#loc)
    %alloc_2 = memref.alloc() : memref<1x248320xf16> loc(#loc)
    %intptr_3 = memref.extract_aligned_pointer_as_index %alloc_2 : memref<1x248320xf16> -> index loc(#loc)
    %15 = arith.index_cast %intptr_3 : index to i64 loc(#loc)
    %16 = llvm.inttoptr %15 : i64 to !llvm.ptr loc(#loc)
    %intptr_4 = memref.extract_aligned_pointer_as_index %14 : memref<248320x1xf16> -> index loc(#loc)
    %17 = arith.index_cast %intptr_4 : index to i64 loc(#loc)
    %18 = llvm.inttoptr %17 : i64 to !llvm.ptr loc(#loc)
    %19 = llvm.mlir.constant(496640 : i64) : i64 loc(#loc)
    %20 = call @rxops_bridge_reshape_bytes(%16, %18, %19) {ada300.rxops.keep = true} : (!llvm.ptr, !llvm.ptr, i64) -> i32 loc(#loc)
    %21 = bufferization.to_tensor %alloc_2 restrict : memref<1x248320xf16> loc(#loc)
    %22 = bufferization.to_memref %21 : memref<1x248320xf16> loc(#loc)
    %alloc_5 = memref.alloc() : memref<1x1xf16> loc(#loc)
    %alloc_6 = memref.alloc() : memref<1x1xf32> loc(#loc)
    %intptr_7 = memref.extract_aligned_pointer_as_index %alloc_5 : memref<1x1xf16> -> index loc(#loc)
    %23 = arith.index_cast %intptr_7 : index to i64 loc(#loc)
    %24 = llvm.inttoptr %23 : i64 to !llvm.ptr loc(#loc)
    %intptr_8 = memref.extract_aligned_pointer_as_index %alloc_6 : memref<1x1xf32> -> index loc(#loc)
    %25 = arith.index_cast %intptr_8 : index to i64 loc(#loc)
    %26 = llvm.inttoptr %25 : i64 to !llvm.ptr loc(#loc)
    %intptr_9 = memref.extract_aligned_pointer_as_index %22 : memref<1x248320xf16> -> index loc(#loc)
    %27 = arith.index_cast %intptr_9 : index to i64 loc(#loc)
    %28 = llvm.inttoptr %27 : i64 to !llvm.ptr loc(#loc)
    %29 = llvm.mlir.constant(1 : i64) : i64 loc(#loc)
    %30 = llvm.mlir.constant(1 : i64) : i64 loc(#loc)
    %31 = llvm.mlir.constant(248320 : i64) : i64 loc(#loc)
    %32 = llvm.mlir.constant(1 : i64) : i64 loc(#loc)
    %33 = call @rxops_bridge_topk_f16(%24, %26, %28, %29, %30, %31, %32) {ada300.rxops.keep = true} : (!llvm.ptr, !llvm.ptr, !llvm.ptr, i64, i64, i64, i64) -> i32 loc(#loc)
    %34 = bufferization.to_tensor %alloc_6 restrict : memref<1x1xf32> loc(#loc)
    return %34 : tensor<1x1xf32> loc(#loc)
  } loc(#loc)
} loc(#loc)

