#loc = loc(unknown)
module @vit attributes {module.chip = "ALL", module.platform = "LLM_QUANTIZED", module.state = "TOP_F32", module.top_run_mode = "STATIC", module.weight_file = "../vit_top_weights.npz"} {
  func.func @main(%arg0: tensor<2304x1536xf32> loc(unknown), %arg1: tensor<2304x2xsi32> loc(unknown), %arg2: tensor<2304x4xsi32> loc(unknown), %arg3: tensor<2304x4x1xf32> loc(unknown)) -> tensor<576x2048xf32> {
    %0 = "top.None"() : () -> none loc(#loc)
    %1 = "top.Input"(%arg0) {do_preprocess = false} : (tensor<2304x1536xf32>) -> tensor<2304x1536xf32> loc(#loc1)
    %2 = "top.Input"(%arg1) {do_preprocess = false} : (tensor<2304x2xsi32>) -> tensor<2304x2xf32> loc(#loc2)
    %3 = "top.Input"(%arg2) {do_preprocess = false} : (tensor<2304x4xsi32>) -> tensor<2304x4xf32> loc(#loc3)
    %4 = "top.Input"(%arg3) {do_preprocess = false} : (tensor<2304x4x1xf32>) -> tensor<2304x4x1xf32> loc(#loc4)
    %5 = "top.Weight"() : () -> tensor<1536x1024xf32> loc(#loc5)
    %6 = "top.Weight"() : () -> tensor<1x1024xf32> loc(#loc6)
    %7 = "top.MatMul"(%1, %5, %6) {do_relu = false, dq_type = "NONE", hdim_is_batch = false, is_lora = false, keep_dims = true, left_transpose = false, output_transpose = false, q_group_size = 0 : i64, relu_limit = -1.000000e+00 : f64, right_transpose = false} : (tensor<2304x1536xf32>, tensor<1536x1024xf32>, tensor<1x1024xf32>) -> tensor<2304x1024xf32> loc(#loc7)
    %8 = "top.Weight"() : () -> tensor<2304x1024xf32> loc(#loc8)
    %9 = "top.Gather"(%8, %3) {axis = 0 : si32, is_lora = false, is_scalar = false, keepdims = true} : (tensor<2304x1024xf32>, tensor<2304x4xf32>) -> tensor<2304x4x1024xf32> loc(#loc9)
    %10 = "top.Mul"(%9, %4) {do_relu = false, is_scalar = false, relu_limit = -1.000000e+00 : f64} : (tensor<2304x4x1024xf32>, tensor<2304x4x1xf32>) -> tensor<2304x4x1024xf32> loc(#loc10)
    %11 = "top.Reduce"(%10) {axes = [1], is_scalar = false, keepdims = false, mode = "ReduceSum"} : (tensor<2304x4x1024xf32>) -> tensor<2304x1024xf32> loc(#loc11)
    %12 = "top.Add"(%7, %11) {do_relu = false, is_scalar = false, relu_limit = -1.000000e+00 : f64} : (tensor<2304x1024xf32>, tensor<2304x1024xf32>) -> tensor<2304x1024xf32> loc(#loc12)
    %13 = "top.Weight"() : () -> tensor<2304x16xf32> loc(#loc13)
    %14 = "top.Gather"(%13, %2) {axis = 0 : si32, is_lora = false, is_scalar = false, keepdims = true} : (tensor<2304x16xf32>, tensor<2304x2xf32>) -> tensor<2304x2x16xf32> loc(#loc14)
    %15 = "top.Reshape"(%14) {flatten_start_dim = -1 : i64, shape = [1, -1, 1, 32]} : (tensor<2304x2x16xf32>) -> tensor<1x2304x1x32xf32> loc(#loc15)
    %16 = "top.Tile"(%15) {tile = [1, 1, 1, 2]} : (tensor<1x2304x1x32xf32>) -> tensor<1x2304x1x64xf32> loc(#loc16)
    %17 = "top.Weight"() : () -> tensor<2304x16xf32> loc(#loc17)
    %18 = "top.Gather"(%17, %2) {axis = 0 : si32, is_lora = false, is_scalar = false, keepdims = true} : (tensor<2304x16xf32>, tensor<2304x2xf32>) -> tensor<2304x2x16xf32> loc(#loc18)
    %19 = "top.Reshape"(%18) {flatten_start_dim = -1 : i64, shape = [1, -1, 1, 32]} : (tensor<2304x2x16xf32>) -> tensor<1x2304x1x32xf32> loc(#loc19)
    %20 = "top.Tile"(%19) {tile = [1, 1, 1, 2]} : (tensor<1x2304x1x32xf32>) -> tensor<1x2304x1x64xf32> loc(#loc20)
    %21 = "top.Weight"() : () -> tensor<1x1024xf32> loc(#loc21)
    %22 = "top.Weight"() : () -> tensor<1x1024xf32> loc(#loc22)
    %23 = "top.LayerNorm"(%12, %21, %22) {axis = 1 : si32, eps = 9.9999999999999995E-7 : f64, normalized_shape = [1024]} : (tensor<2304x1024xf32>, tensor<1x1024xf32>, tensor<1x1024xf32>) -> tensor<2304x1024xf32> loc(#loc23)
    %24 = "top.Weight"() : () -> tensor<1x1024xf32> loc(#loc24)
    %25 = "top.Weight"() : () -> tensor<1024x1024xf32> loc(#loc25)
    %26 = "top.MatMul"(%23, %25, %24) {do_relu = false, dq_type = "NONE", hdim_is_batch = false, is_lora = false, keep_dims = true, left_transpose = false, output_transpose = false, q_group_size = 0 : i64, relu_limit = -1.000000e+00 : f64, right_transpose = false} : (tensor<2304x1024xf32>, tensor<1024x1024xf32>, tensor<1x1024xf32>) -> tensor<2304x1024xf32> loc(#loc26)
    %27 = "top.Weight"() : () -> tensor<1x1024xf32> loc(#loc27)
    %28 = "top.Weight"() : () -> tensor<1024x1024xf32> loc(#loc28)
    %29 = "top.MatMul"(%23, %28, %27) {do_relu = false, dq_type = "NONE", hdim_is_batch = false, is_lora = false, keep_dims = true, left_transpose = false, output_transpose = false, q_group_size = 0 : i64, relu_limit = -1.000000e+00 : f64, right_transpose = false} : (tensor<2304x1024xf32>, tensor<1024x1024xf32>, tensor<1x1024xf32>) -> tensor<2304x1024xf32> loc(#loc29)
    %30 = "top.Weight"() : () -> tensor<1x1024xf32> loc(#loc30)
    %31 = "top.Weight"() : () -> tensor<1024x1024xf32> loc(#loc31)
    %32 = "top.MatMul"(%23, %31, %30) {do_relu = false, dq_type = "NONE", hdim_is_batch = false, is_lora = false, keep_dims = true, left_transpose = false, output_transpose = false, q_group_size = 0 : i64, relu_limit = -1.000000e+00 : f64, right_transpose = false} : (tensor<2304x1024xf32>, tensor<1024x1024xf32>, tensor<1x1024xf32>) -> tensor<2304x1024xf32> loc(#loc32)
    %33 = "top.Reshape"(%26) {flatten_start_dim = -1 : i64, shape = [1, -1, 16, 64]} : (tensor<2304x1024xf32>) -> tensor<1x2304x16x64xf32> loc(#loc33)
    %34 = "top.Reshape"(%29) {flatten_start_dim = -1 : i64, shape = [1, -1, 16, 64]} : (tensor<2304x1024xf32>) -> tensor<1x2304x16x64xf32> loc(#loc34)
    %35 = "top.Reshape"(%32) {flatten_start_dim = -1 : i64, shape = [1, -1, 16, 64]} : (tensor<2304x1024xf32>) -> tensor<1x2304x16x64xf32> loc(#loc35)
    %36 = "top.Rope"(%33, %20, %16) {add_round_mode = "HalfAwayFromZero", add_saturation = true, add_shift = 0 : si32, force_f32 = true, is_permute_optimize = false, mul1_round_mode = "HalfAwayFromZero", mul1_saturation = true, mul1_shift = 0 : si32, mul2_round_mode = "HalfAwayFromZero", mul2_saturation = true, mul2_shift = 0 : si32, rope_mode = "contiguous_halves"} : (tensor<1x2304x16x64xf32>, tensor<1x2304x1x64xf32>, tensor<1x2304x1x64xf32>) -> tensor<1x2304x16x64xf32> loc(#loc36)
    %37 = "top.Rope"(%34, %20, %16) {add_round_mode = "HalfAwayFromZero", add_saturation = true, add_shift = 0 : si32, force_f32 = true, is_permute_optimize = false, mul1_round_mode = "HalfAwayFromZero", mul1_saturation = true, mul1_shift = 0 : si32, mul2_round_mode = "HalfAwayFromZero", mul2_saturation = true, mul2_shift = 0 : si32, rope_mode = "contiguous_halves"} : (tensor<1x2304x16x64xf32>, tensor<1x2304x1x64xf32>, tensor<1x2304x1x64xf32>) -> tensor<1x2304x16x64xf32> loc(#loc37)
    %38 = "top.FAttention"(%36, %37, %35, %0, %0) {batch = 1 : i64, dim = 64 : i64, keep_dims = true, kv_head = 16 : i64, mk = 2304 : i64, mq = 2304 : i64, q_head = 16 : i64, scale = 1.250000e-01 : f64} : (tensor<1x2304x16x64xf32>, tensor<1x2304x16x64xf32>, tensor<1x2304x16x64xf32>, none, none) -> tensor<1x2304x16x64xf32> loc(#loc38)
    %39 = "top.Reshape"(%38) {flatten_start_dim = -1 : i64, shape = [-1, 1024]} : (tensor<1x2304x16x64xf32>) -> tensor<2304x1024xf32> loc(#loc39)
    %40 = "top.Weight"() : () -> tensor<1x1024xf32> loc(#loc40)
    %41 = "top.Weight"() : () -> tensor<1024x1024xf32> loc(#loc41)
    %42 = "top.MatMul"(%39, %41, %40) {do_relu = false, dq_type = "NONE", hdim_is_batch = false, is_lora = false, keep_dims = true, left_transpose = false, output_transpose = false, q_group_size = 0 : i64, relu_limit = -1.000000e+00 : f64, right_transpose = false} : (tensor<2304x1024xf32>, tensor<1024x1024xf32>, tensor<1x1024xf32>) -> tensor<2304x1024xf32> loc(#loc42)
    %43 = "top.Add"(%12, %42) {do_relu = false, is_scalar = false, relu_limit = -1.000000e+00 : f64} : (tensor<2304x1024xf32>, tensor<2304x1024xf32>) -> tensor<2304x1024xf32> loc(#loc43)
    %44 = "top.Weight"() : () -> tensor<1x1024xf32> loc(#loc44)
    %45 = "top.Weight"() : () -> tensor<1x1024xf32> loc(#loc45)
    %46 = "top.LayerNorm"(%43, %44, %45) {axis = 1 : si32, eps = 9.9999999999999995E-7 : f64, normalized_shape = [1024]} : (tensor<2304x1024xf32>, tensor<1x1024xf32>, tensor<1x1024xf32>) -> tensor<2304x1024xf32> loc(#loc46)
    %47 = "top.Weight"() : () -> tensor<1x4096xf32> loc(#loc47)
    %48 = "top.Weight"() : () -> tensor<1024x4096xf32> loc(#loc48)
    %49 = "top.MatMul"(%46, %48, %47) {do_relu = false, dq_type = "NONE", hdim_is_batch = false, is_lora = false, keep_dims = true, left_transpose = false, output_transpose = false, q_group_size = 0 : i64, relu_limit = -1.000000e+00 : f64, right_transpose = false} : (tensor<2304x1024xf32>, tensor<1024x4096xf32>, tensor<1x4096xf32>) -> tensor<2304x4096xf32> loc(#loc49)
    %50 = "top.GELU"(%49) {approx_mode = "tanh", round_mode = "HalfAwayFromZero"} : (tensor<2304x4096xf32>) -> tensor<2304x4096xf32> loc(#loc50)
    %51 = "top.Weight"() : () -> tensor<1x1024xf32> loc(#loc51)
    %52 = "top.Weight"() : () -> tensor<4096x1024xf32> loc(#loc52)
    %53 = "top.MatMul"(%50, %52, %51) {do_relu = false, dq_type = "NONE", hdim_is_batch = false, is_lora = false, keep_dims = true, left_transpose = false, output_transpose = false, q_group_size = 0 : i64, relu_limit = -1.000000e+00 : f64, right_transpose = false} : (tensor<2304x4096xf32>, tensor<4096x1024xf32>, tensor<1x1024xf32>) -> tensor<2304x1024xf32> loc(#loc53)
    %54 = "top.Add"(%43, %53) {do_relu = false, is_scalar = false, relu_limit = -1.000000e+00 : f64} : (tensor<2304x1024xf32>, tensor<2304x1024xf32>) -> tensor<2304x1024xf32> loc(#loc54)
    %55 = "top.Weight"() : () -> tensor<1x1024xf32> loc(#loc55)
    %56 = "top.Weight"() : () -> tensor<1x1024xf32> loc(#loc56)
    %57 = "top.LayerNorm"(%54, %55, %56) {axis = 1 : si32, eps = 9.9999999999999995E-7 : f64, normalized_shape = [1024]} : (tensor<2304x1024xf32>, tensor<1x1024xf32>, tensor<1x1024xf32>) -> tensor<2304x1024xf32> loc(#loc57)
    %58 = "top.Weight"() : () -> tensor<1x1024xf32> loc(#loc58)
    %59 = "top.Weight"() : () -> tensor<1024x1024xf32> loc(#loc59)
    %60 = "top.MatMul"(%57, %59, %58) {do_relu = false, dq_type = "NONE", hdim_is_batch = false, is_lora = false, keep_dims = true, left_transpose = false, output_transpose = false, q_group_size = 0 : i64, relu_limit = -1.000000e+00 : f64, right_transpose = false} : (tensor<2304x1024xf32>, tensor<1024x1024xf32>, tensor<1x1024xf32>) -> tensor<2304x1024xf32> loc(#loc60)
    %61 = "top.Weight"() : () -> tensor<1x1024xf32> loc(#loc61)
    %62 = "top.Weight"() : () -> tensor<1024x1024xf32> loc(#loc62)
    %63 = "top.MatMul"(%57, %62, %61) {do_relu = false, dq_type = "NONE", hdim_is_batch = false, is_lora = false, keep_dims = true, left_transpose = false, output_transpose = false, q_group_size = 0 : i64, relu_limit = -1.000000e+00 : f64, right_transpose = false} : (tensor<2304x1024xf32>, tensor<1024x1024xf32>, tensor<1x1024xf32>) -> tensor<2304x1024xf32> loc(#loc63)
    %64 = "top.Weight"() : () -> tensor<1x1024xf32> loc(#loc64)
    %65 = "top.Weight"() : () -> tensor<1024x1024xf32> loc(#loc65)
    %66 = "top.MatMul"(%57, %65, %64) {do_relu = false, dq_type = "NONE", hdim_is_batch = false, is_lora = false, keep_dims = true, left_transpose = false, output_transpose = false, q_group_size = 0 : i64, relu_limit = -1.000000e+00 : f64, right_transpose = false} : (tensor<2304x1024xf32>, tensor<1024x1024xf32>, tensor<1x1024xf32>) -> tensor<2304x1024xf32> loc(#loc66)
    %67 = "top.Reshape"(%60) {flatten_start_dim = -1 : i64, shape = [1, -1, 16, 64]} : (tensor<2304x1024xf32>) -> tensor<1x2304x16x64xf32> loc(#loc67)
    %68 = "top.Reshape"(%63) {flatten_start_dim = -1 : i64, shape = [1, -1, 16, 64]} : (tensor<2304x1024xf32>) -> tensor<1x2304x16x64xf32> loc(#loc68)
    %69 = "top.Reshape"(%66) {flatten_start_dim = -1 : i64, shape = [1, -1, 16, 64]} : (tensor<2304x1024xf32>) -> tensor<1x2304x16x64xf32> loc(#loc69)
    %70 = "top.Rope"(%67, %20, %16) {add_round_mode = "HalfAwayFromZero", add_saturation = true, add_shift = 0 : si32, force_f32 = true, is_permute_optimize = false, mul1_round_mode = "HalfAwayFromZero", mul1_saturation = true, mul1_shift = 0 : si32, mul2_round_mode = "HalfAwayFromZero", mul2_saturation = true, mul2_shift = 0 : si32, rope_mode = "contiguous_halves"} : (tensor<1x2304x16x64xf32>, tensor<1x2304x1x64xf32>, tensor<1x2304x1x64xf32>) -> tensor<1x2304x16x64xf32> loc(#loc70)
    %71 = "top.Rope"(%68, %20, %16) {add_round_mode = "HalfAwayFromZero", add_saturation = true, add_shift = 0 : si32, force_f32 = true, is_permute_optimize = false, mul1_round_mode = "HalfAwayFromZero", mul1_saturation = true, mul1_shift = 0 : si32, mul2_round_mode = "HalfAwayFromZero", mul2_saturation = true, mul2_shift = 0 : si32, rope_mode = "contiguous_halves"} : (tensor<1x2304x16x64xf32>, tensor<1x2304x1x64xf32>, tensor<1x2304x1x64xf32>) -> tensor<1x2304x16x64xf32> loc(#loc71)
    %72 = "top.FAttention"(%70, %71, %69, %0, %0) {batch = 1 : i64, dim = 64 : i64, keep_dims = true, kv_head = 16 : i64, mk = 2304 : i64, mq = 2304 : i64, q_head = 16 : i64, scale = 1.250000e-01 : f64} : (tensor<1x2304x16x64xf32>, tensor<1x2304x16x64xf32>, tensor<1x2304x16x64xf32>, none, none) -> tensor<1x2304x16x64xf32> loc(#loc72)
    %73 = "top.Reshape"(%72) {flatten_start_dim = -1 : i64, shape = [-1, 1024]} : (tensor<1x2304x16x64xf32>) -> tensor<2304x1024xf32> loc(#loc73)
    %74 = "top.Weight"() : () -> tensor<1x1024xf32> loc(#loc74)
    %75 = "top.Weight"() : () -> tensor<1024x1024xf32> loc(#loc75)
    %76 = "top.MatMul"(%73, %75, %74) {do_relu = false, dq_type = "NONE", hdim_is_batch = false, is_lora = false, keep_dims = true, left_transpose = false, output_transpose = false, q_group_size = 0 : i64, relu_limit = -1.000000e+00 : f64, right_transpose = false} : (tensor<2304x1024xf32>, tensor<1024x1024xf32>, tensor<1x1024xf32>) -> tensor<2304x1024xf32> loc(#loc76)
    %77 = "top.Add"(%54, %76) {do_relu = false, is_scalar = false, relu_limit = -1.000000e+00 : f64} : (tensor<2304x1024xf32>, tensor<2304x1024xf32>) -> tensor<2304x1024xf32> loc(#loc77)
    %78 = "top.Weight"() : () -> tensor<1x1024xf32> loc(#loc78)
    %79 = "top.Weight"() : () -> tensor<1x1024xf32> loc(#loc79)
    %80 = "top.LayerNorm"(%77, %78, %79) {axis = 1 : si32, eps = 9.9999999999999995E-7 : f64, normalized_shape = [1024]} : (tensor<2304x1024xf32>, tensor<1x1024xf32>, tensor<1x1024xf32>) -> tensor<2304x1024xf32> loc(#loc80)
    %81 = "top.Weight"() : () -> tensor<1x4096xf32> loc(#loc81)
    %82 = "top.Weight"() : () -> tensor<1024x4096xf32> loc(#loc82)
    %83 = "top.MatMul"(%80, %82, %81) {do_relu = false, dq_type = "NONE", hdim_is_batch = false, is_lora = false, keep_dims = true, left_transpose = false, output_transpose = false, q_group_size = 0 : i64, relu_limit = -1.000000e+00 : f64, right_transpose = false} : (tensor<2304x1024xf32>, tensor<1024x4096xf32>, tensor<1x4096xf32>) -> tensor<2304x4096xf32> loc(#loc83)
    %84 = "top.GELU"(%83) {approx_mode = "tanh", round_mode = "HalfAwayFromZero"} : (tensor<2304x4096xf32>) -> tensor<2304x4096xf32> loc(#loc84)
    %85 = "top.Weight"() : () -> tensor<1x1024xf32> loc(#loc85)
    %86 = "top.Weight"() : () -> tensor<4096x1024xf32> loc(#loc86)
    %87 = "top.MatMul"(%84, %86, %85) {do_relu = false, dq_type = "NONE", hdim_is_batch = false, is_lora = false, keep_dims = true, left_transpose = false, output_transpose = false, q_group_size = 0 : i64, relu_limit = -1.000000e+00 : f64, right_transpose = false} : (tensor<2304x4096xf32>, tensor<4096x1024xf32>, tensor<1x1024xf32>) -> tensor<2304x1024xf32> loc(#loc87)
    %88 = "top.Add"(%77, %87) {do_relu = false, is_scalar = false, relu_limit = -1.000000e+00 : f64} : (tensor<2304x1024xf32>, tensor<2304x1024xf32>) -> tensor<2304x1024xf32> loc(#loc88)
    %89 = "top.Weight"() : () -> tensor<1x1024xf32> loc(#loc89)
    %90 = "top.Weight"() : () -> tensor<1x1024xf32> loc(#loc90)
    %91 = "top.LayerNorm"(%88, %89, %90) {axis = 1 : si32, eps = 9.9999999999999995E-7 : f64, normalized_shape = [1024]} : (tensor<2304x1024xf32>, tensor<1x1024xf32>, tensor<1x1024xf32>) -> tensor<2304x1024xf32> loc(#loc91)
    %92 = "top.Weight"() : () -> tensor<1x1024xf32> loc(#loc92)
    %93 = "top.Weight"() : () -> tensor<1024x1024xf32> loc(#loc93)
    %94 = "top.MatMul"(%91, %93, %92) {do_relu = false, dq_type = "NONE", hdim_is_batch = false, is_lora = false, keep_dims = true, left_transpose = false, output_transpose = false, q_group_size = 0 : i64, relu_limit = -1.000000e+00 : f64, right_transpose = false} : (tensor<2304x1024xf32>, tensor<1024x1024xf32>, tensor<1x1024xf32>) -> tensor<2304x1024xf32> loc(#loc94)
    %95 = "top.Weight"() : () -> tensor<1x1024xf32> loc(#loc95)
    %96 = "top.Weight"() : () -> tensor<1024x1024xf32> loc(#loc96)
    %97 = "top.MatMul"(%91, %96, %95) {do_relu = false, dq_type = "NONE", hdim_is_batch = false, is_lora = false, keep_dims = true, left_transpose = false, output_transpose = false, q_group_size = 0 : i64, relu_limit = -1.000000e+00 : f64, right_transpose = false} : (tensor<2304x1024xf32>, tensor<1024x1024xf32>, tensor<1x1024xf32>) -> tensor<2304x1024xf32> loc(#loc97)
    %98 = "top.Weight"() : () -> tensor<1x1024xf32> loc(#loc98)
    %99 = "top.Weight"() : () -> tensor<1024x1024xf32> loc(#loc99)
    %100 = "top.MatMul"(%91, %99, %98) {do_relu = false, dq_type = "NONE", hdim_is_batch = false, is_lora = false, keep_dims = true, left_transpose = false, output_transpose = false, q_group_size = 0 : i64, relu_limit = -1.000000e+00 : f64, right_transpose = false} : (tensor<2304x1024xf32>, tensor<1024x1024xf32>, tensor<1x1024xf32>) -> tensor<2304x1024xf32> loc(#loc100)
    %101 = "top.Reshape"(%94) {flatten_start_dim = -1 : i64, shape = [1, -1, 16, 64]} : (tensor<2304x1024xf32>) -> tensor<1x2304x16x64xf32> loc(#loc101)
    %102 = "top.Reshape"(%97) {flatten_start_dim = -1 : i64, shape = [1, -1, 16, 64]} : (tensor<2304x1024xf32>) -> tensor<1x2304x16x64xf32> loc(#loc102)
    %103 = "top.Reshape"(%100) {flatten_start_dim = -1 : i64, shape = [1, -1, 16, 64]} : (tensor<2304x1024xf32>) -> tensor<1x2304x16x64xf32> loc(#loc103)
    %104 = "top.Rope"(%101, %20, %16) {add_round_mode = "HalfAwayFromZero", add_saturation = true, add_shift = 0 : si32, force_f32 = true, is_permute_optimize = false, mul1_round_mode = "HalfAwayFromZero", mul1_saturation = true, mul1_shift = 0 : si32, mul2_round_mode = "HalfAwayFromZero", mul2_saturation = true, mul2_shift = 0 : si32, rope_mode = "contiguous_halves"} : (tensor<1x2304x16x64xf32>, tensor<1x2304x1x64xf32>, tensor<1x2304x1x64xf32>) -> tensor<1x2304x16x64xf32> loc(#loc104)
    %105 = "top.Rope"(%102, %20, %16) {add_round_mode = "HalfAwayFromZero", add_saturation = true, add_shift = 0 : si32, force_f32 = true, is_permute_optimize = false, mul1_round_mode = "HalfAwayFromZero", mul1_saturation = true, mul1_shift = 0 : si32, mul2_round_mode = "HalfAwayFromZero", mul2_saturation = true, mul2_shift = 0 : si32, rope_mode = "contiguous_halves"} : (tensor<1x2304x16x64xf32>, tensor<1x2304x1x64xf32>, tensor<1x2304x1x64xf32>) -> tensor<1x2304x16x64xf32> loc(#loc105)
    %106 = "top.FAttention"(%104, %105, %103, %0, %0) {batch = 1 : i64, dim = 64 : i64, keep_dims = true, kv_head = 16 : i64, mk = 2304 : i64, mq = 2304 : i64, q_head = 16 : i64, scale = 1.250000e-01 : f64} : (tensor<1x2304x16x64xf32>, tensor<1x2304x16x64xf32>, tensor<1x2304x16x64xf32>, none, none) -> tensor<1x2304x16x64xf32> loc(#loc106)
    %107 = "top.Reshape"(%106) {flatten_start_dim = -1 : i64, shape = [-1, 1024]} : (tensor<1x2304x16x64xf32>) -> tensor<2304x1024xf32> loc(#loc107)
    %108 = "top.Weight"() : () -> tensor<1x1024xf32> loc(#loc108)
    %109 = "top.Weight"() : () -> tensor<1024x1024xf32> loc(#loc109)
    %110 = "top.MatMul"(%107, %109, %108) {do_relu = false, dq_type = "NONE", hdim_is_batch = false, is_lora = false, keep_dims = true, left_transpose = false, output_transpose = false, q_group_size = 0 : i64, relu_limit = -1.000000e+00 : f64, right_transpose = false} : (tensor<2304x1024xf32>, tensor<1024x1024xf32>, tensor<1x1024xf32>) -> tensor<2304x1024xf32> loc(#loc110)
    %111 = "top.Add"(%88, %110) {do_relu = false, is_scalar = false, relu_limit = -1.000000e+00 : f64} : (tensor<2304x1024xf32>, tensor<2304x1024xf32>) -> tensor<2304x1024xf32> loc(#loc111)
    %112 = "top.Weight"() : () -> tensor<1x1024xf32> loc(#loc112)
    %113 = "top.Weight"() : () -> tensor<1x1024xf32> loc(#loc113)
    %114 = "top.LayerNorm"(%111, %112, %113) {axis = 1 : si32, eps = 9.9999999999999995E-7 : f64, normalized_shape = [1024]} : (tensor<2304x1024xf32>, tensor<1x1024xf32>, tensor<1x1024xf32>) -> tensor<2304x1024xf32> loc(#loc114)
    %115 = "top.Weight"() : () -> tensor<1x4096xf32> loc(#loc115)
    %116 = "top.Weight"() : () -> tensor<1024x4096xf32> loc(#loc116)
    %117 = "top.MatMul"(%114, %116, %115) {do_relu = false, dq_type = "NONE", hdim_is_batch = false, is_lora = false, keep_dims = true, left_transpose = false, output_transpose = false, q_group_size = 0 : i64, relu_limit = -1.000000e+00 : f64, right_transpose = false} : (tensor<2304x1024xf32>, tensor<1024x4096xf32>, tensor<1x4096xf32>) -> tensor<2304x4096xf32> loc(#loc117)
    %118 = "top.GELU"(%117) {approx_mode = "tanh", round_mode = "HalfAwayFromZero"} : (tensor<2304x4096xf32>) -> tensor<2304x4096xf32> loc(#loc118)
    %119 = "top.Weight"() : () -> tensor<1x1024xf32> loc(#loc119)
    %120 = "top.Weight"() : () -> tensor<4096x1024xf32> loc(#loc120)
    %121 = "top.MatMul"(%118, %120, %119) {do_relu = false, dq_type = "NONE", hdim_is_batch = false, is_lora = false, keep_dims = true, left_transpose = false, output_transpose = false, q_group_size = 0 : i64, relu_limit = -1.000000e+00 : f64, right_transpose = false} : (tensor<2304x4096xf32>, tensor<4096x1024xf32>, tensor<1x1024xf32>) -> tensor<2304x1024xf32> loc(#loc121)
    %122 = "top.Add"(%111, %121) {do_relu = false, is_scalar = false, relu_limit = -1.000000e+00 : f64} : (tensor<2304x1024xf32>, tensor<2304x1024xf32>) -> tensor<2304x1024xf32> loc(#loc122)
    %123 = "top.Weight"() : () -> tensor<1x1024xf32> loc(#loc123)
    %124 = "top.Weight"() : () -> tensor<1x1024xf32> loc(#loc124)
    %125 = "top.LayerNorm"(%122, %123, %124) {axis = 1 : si32, eps = 9.9999999999999995E-7 : f64, normalized_shape = [1024]} : (tensor<2304x1024xf32>, tensor<1x1024xf32>, tensor<1x1024xf32>) -> tensor<2304x1024xf32> loc(#loc125)
    %126 = "top.Weight"() : () -> tensor<1x1024xf32> loc(#loc126)
    %127 = "top.Weight"() : () -> tensor<1024x1024xf32> loc(#loc127)
    %128 = "top.MatMul"(%125, %127, %126) {do_relu = false, dq_type = "NONE", hdim_is_batch = false, is_lora = false, keep_dims = true, left_transpose = false, output_transpose = false, q_group_size = 0 : i64, relu_limit = -1.000000e+00 : f64, right_transpose = false} : (tensor<2304x1024xf32>, tensor<1024x1024xf32>, tensor<1x1024xf32>) -> tensor<2304x1024xf32> loc(#loc128)
    %129 = "top.Weight"() : () -> tensor<1x1024xf32> loc(#loc129)
    %130 = "top.Weight"() : () -> tensor<1024x1024xf32> loc(#loc130)
    %131 = "top.MatMul"(%125, %130, %129) {do_relu = false, dq_type = "NONE", hdim_is_batch = false, is_lora = false, keep_dims = true, left_transpose = false, output_transpose = false, q_group_size = 0 : i64, relu_limit = -1.000000e+00 : f64, right_transpose = false} : (tensor<2304x1024xf32>, tensor<1024x1024xf32>, tensor<1x1024xf32>) -> tensor<2304x1024xf32> loc(#loc131)
    %132 = "top.Weight"() : () -> tensor<1x1024xf32> loc(#loc132)
    %133 = "top.Weight"() : () -> tensor<1024x1024xf32> loc(#loc133)
    %134 = "top.MatMul"(%125, %133, %132) {do_relu = false, dq_type = "NONE", hdim_is_batch = false, is_lora = false, keep_dims = true, left_transpose = false, output_transpose = false, q_group_size = 0 : i64, relu_limit = -1.000000e+00 : f64, right_transpose = false} : (tensor<2304x1024xf32>, tensor<1024x1024xf32>, tensor<1x1024xf32>) -> tensor<2304x1024xf32> loc(#loc134)
    %135 = "top.Reshape"(%128) {flatten_start_dim = -1 : i64, shape = [1, -1, 16, 64]} : (tensor<2304x1024xf32>) -> tensor<1x2304x16x64xf32> loc(#loc135)
    %136 = "top.Reshape"(%131) {flatten_start_dim = -1 : i64, shape = [1, -1, 16, 64]} : (tensor<2304x1024xf32>) -> tensor<1x2304x16x64xf32> loc(#loc136)
    %137 = "top.Reshape"(%134) {flatten_start_dim = -1 : i64, shape = [1, -1, 16, 64]} : (tensor<2304x1024xf32>) -> tensor<1x2304x16x64xf32> loc(#loc137)
    %138 = "top.Rope"(%135, %20, %16) {add_round_mode = "HalfAwayFromZero", add_saturation = true, add_shift = 0 : si32, force_f32 = true, is_permute_optimize = false, mul1_round_mode = "HalfAwayFromZero", mul1_saturation = true, mul1_shift = 0 : si32, mul2_round_mode = "HalfAwayFromZero", mul2_saturation = true, mul2_shift = 0 : si32, rope_mode = "contiguous_halves"} : (tensor<1x2304x16x64xf32>, tensor<1x2304x1x64xf32>, tensor<1x2304x1x64xf32>) -> tensor<1x2304x16x64xf32> loc(#loc138)
    %139 = "top.Rope"(%136, %20, %16) {add_round_mode = "HalfAwayFromZero", add_saturation = true, add_shift = 0 : si32, force_f32 = true, is_permute_optimize = false, mul1_round_mode = "HalfAwayFromZero", mul1_saturation = true, mul1_shift = 0 : si32, mul2_round_mode = "HalfAwayFromZero", mul2_saturation = true, mul2_shift = 0 : si32, rope_mode = "contiguous_halves"} : (tensor<1x2304x16x64xf32>, tensor<1x2304x1x64xf32>, tensor<1x2304x1x64xf32>) -> tensor<1x2304x16x64xf32> loc(#loc139)
    %140 = "top.FAttention"(%138, %139, %137, %0, %0) {batch = 1 : i64, dim = 64 : i64, keep_dims = true, kv_head = 16 : i64, mk = 2304 : i64, mq = 2304 : i64, q_head = 16 : i64, scale = 1.250000e-01 : f64} : (tensor<1x2304x16x64xf32>, tensor<1x2304x16x64xf32>, tensor<1x2304x16x64xf32>, none, none) -> tensor<1x2304x16x64xf32> loc(#loc140)
    %141 = "top.Reshape"(%140) {flatten_start_dim = -1 : i64, shape = [-1, 1024]} : (tensor<1x2304x16x64xf32>) -> tensor<2304x1024xf32> loc(#loc141)
    %142 = "top.Weight"() : () -> tensor<1x1024xf32> loc(#loc142)
    %143 = "top.Weight"() : () -> tensor<1024x1024xf32> loc(#loc143)
    %144 = "top.MatMul"(%141, %143, %142) {do_relu = false, dq_type = "NONE", hdim_is_batch = false, is_lora = false, keep_dims = true, left_transpose = false, output_transpose = false, q_group_size = 0 : i64, relu_limit = -1.000000e+00 : f64, right_transpose = false} : (tensor<2304x1024xf32>, tensor<1024x1024xf32>, tensor<1x1024xf32>) -> tensor<2304x1024xf32> loc(#loc144)
    %145 = "top.Add"(%122, %144) {do_relu = false, is_scalar = false, relu_limit = -1.000000e+00 : f64} : (tensor<2304x1024xf32>, tensor<2304x1024xf32>) -> tensor<2304x1024xf32> loc(#loc145)
    %146 = "top.Weight"() : () -> tensor<1x1024xf32> loc(#loc146)
    %147 = "top.Weight"() : () -> tensor<1x1024xf32> loc(#loc147)
    %148 = "top.LayerNorm"(%145, %146, %147) {axis = 1 : si32, eps = 9.9999999999999995E-7 : f64, normalized_shape = [1024]} : (tensor<2304x1024xf32>, tensor<1x1024xf32>, tensor<1x1024xf32>) -> tensor<2304x1024xf32> loc(#loc148)
    %149 = "top.Weight"() : () -> tensor<1x4096xf32> loc(#loc149)
    %150 = "top.Weight"() : () -> tensor<1024x4096xf32> loc(#loc150)
    %151 = "top.MatMul"(%148, %150, %149) {do_relu = false, dq_type = "NONE", hdim_is_batch = false, is_lora = false, keep_dims = true, left_transpose = false, output_transpose = false, q_group_size = 0 : i64, relu_limit = -1.000000e+00 : f64, right_transpose = false} : (tensor<2304x1024xf32>, tensor<1024x4096xf32>, tensor<1x4096xf32>) -> tensor<2304x4096xf32> loc(#loc151)
    %152 = "top.GELU"(%151) {approx_mode = "tanh", round_mode = "HalfAwayFromZero"} : (tensor<2304x4096xf32>) -> tensor<2304x4096xf32> loc(#loc152)
    %153 = "top.Weight"() : () -> tensor<1x1024xf32> loc(#loc153)
    %154 = "top.Weight"() : () -> tensor<4096x1024xf32> loc(#loc154)
    %155 = "top.MatMul"(%152, %154, %153) {do_relu = false, dq_type = "NONE", hdim_is_batch = false, is_lora = false, keep_dims = true, left_transpose = false, output_transpose = false, q_group_size = 0 : i64, relu_limit = -1.000000e+00 : f64, right_transpose = false} : (tensor<2304x4096xf32>, tensor<4096x1024xf32>, tensor<1x1024xf32>) -> tensor<2304x1024xf32> loc(#loc155)
    %156 = "top.Add"(%145, %155) {do_relu = false, is_scalar = false, relu_limit = -1.000000e+00 : f64} : (tensor<2304x1024xf32>, tensor<2304x1024xf32>) -> tensor<2304x1024xf32> loc(#loc156)
    %157 = "top.Weight"() : () -> tensor<1x1024xf32> loc(#loc157)
    %158 = "top.Weight"() : () -> tensor<1x1024xf32> loc(#loc158)
    %159 = "top.LayerNorm"(%156, %157, %158) {axis = 1 : si32, eps = 9.9999999999999995E-7 : f64, normalized_shape = [1024]} : (tensor<2304x1024xf32>, tensor<1x1024xf32>, tensor<1x1024xf32>) -> tensor<2304x1024xf32> loc(#loc159)
    %160 = "top.Weight"() : () -> tensor<1x1024xf32> loc(#loc160)
    %161 = "top.Weight"() : () -> tensor<1024x1024xf32> loc(#loc161)
    %162 = "top.MatMul"(%159, %161, %160) {do_relu = false, dq_type = "NONE", hdim_is_batch = false, is_lora = false, keep_dims = true, left_transpose = false, output_transpose = false, q_group_size = 0 : i64, relu_limit = -1.000000e+00 : f64, right_transpose = false} : (tensor<2304x1024xf32>, tensor<1024x1024xf32>, tensor<1x1024xf32>) -> tensor<2304x1024xf32> loc(#loc162)
    %163 = "top.Weight"() : () -> tensor<1x1024xf32> loc(#loc163)
    %164 = "top.Weight"() : () -> tensor<1024x1024xf32> loc(#loc164)
    %165 = "top.MatMul"(%159, %164, %163) {do_relu = false, dq_type = "NONE", hdim_is_batch = false, is_lora = false, keep_dims = true, left_transpose = false, output_transpose = false, q_group_size = 0 : i64, relu_limit = -1.000000e+00 : f64, right_transpose = false} : (tensor<2304x1024xf32>, tensor<1024x1024xf32>, tensor<1x1024xf32>) -> tensor<2304x1024xf32> loc(#loc165)
    %166 = "top.Weight"() : () -> tensor<1x1024xf32> loc(#loc166)
    %167 = "top.Weight"() : () -> tensor<1024x1024xf32> loc(#loc167)
    %168 = "top.MatMul"(%159, %167, %166) {do_relu = false, dq_type = "NONE", hdim_is_batch = false, is_lora = false, keep_dims = true, left_transpose = false, output_transpose = false, q_group_size = 0 : i64, relu_limit = -1.000000e+00 : f64, right_transpose = false} : (tensor<2304x1024xf32>, tensor<1024x1024xf32>, tensor<1x1024xf32>) -> tensor<2304x1024xf32> loc(#loc168)
    %169 = "top.Reshape"(%162) {flatten_start_dim = -1 : i64, shape = [1, -1, 16, 64]} : (tensor<2304x1024xf32>) -> tensor<1x2304x16x64xf32> loc(#loc169)
    %170 = "top.Reshape"(%165) {flatten_start_dim = -1 : i64, shape = [1, -1, 16, 64]} : (tensor<2304x1024xf32>) -> tensor<1x2304x16x64xf32> loc(#loc170)
    %171 = "top.Reshape"(%168) {flatten_start_dim = -1 : i64, shape = [1, -1, 16, 64]} : (tensor<2304x1024xf32>) -> tensor<1x2304x16x64xf32> loc(#loc171)
    %172 = "top.Rope"(%169, %20, %16) {add_round_mode = "HalfAwayFromZero", add_saturation = true, add_shift = 0 : si32, force_f32 = true, is_permute_optimize = false, mul1_round_mode = "HalfAwayFromZero", mul1_saturation = true, mul1_shift = 0 : si32, mul2_round_mode = "HalfAwayFromZero", mul2_saturation = true, mul2_shift = 0 : si32, rope_mode = "contiguous_halves"} : (tensor<1x2304x16x64xf32>, tensor<1x2304x1x64xf32>, tensor<1x2304x1x64xf32>) -> tensor<1x2304x16x64xf32> loc(#loc172)
    %173 = "top.Rope"(%170, %20, %16) {add_round_mode = "HalfAwayFromZero", add_saturation = true, add_shift = 0 : si32, force_f32 = true, is_permute_optimize = false, mul1_round_mode = "HalfAwayFromZero", mul1_saturation = true, mul1_shift = 0 : si32, mul2_round_mode = "HalfAwayFromZero", mul2_saturation = true, mul2_shift = 0 : si32, rope_mode = "contiguous_halves"} : (tensor<1x2304x16x64xf32>, tensor<1x2304x1x64xf32>, tensor<1x2304x1x64xf32>) -> tensor<1x2304x16x64xf32> loc(#loc173)
    %174 = "top.FAttention"(%172, %173, %171, %0, %0) {batch = 1 : i64, dim = 64 : i64, keep_dims = true, kv_head = 16 : i64, mk = 2304 : i64, mq = 2304 : i64, q_head = 16 : i64, scale = 1.250000e-01 : f64} : (tensor<1x2304x16x64xf32>, tensor<1x2304x16x64xf32>, tensor<1x2304x16x64xf32>, none, none) -> tensor<1x2304x16x64xf32> loc(#loc174)
    %175 = "top.Reshape"(%174) {flatten_start_dim = -1 : i64, shape = [-1, 1024]} : (tensor<1x2304x16x64xf32>) -> tensor<2304x1024xf32> loc(#loc175)
    %176 = "top.Weight"() : () -> tensor<1x1024xf32> loc(#loc176)
    %177 = "top.Weight"() : () -> tensor<1024x1024xf32> loc(#loc177)
    %178 = "top.MatMul"(%175, %177, %176) {do_relu = false, dq_type = "NONE", hdim_is_batch = false, is_lora = false, keep_dims = true, left_transpose = false, output_transpose = false, q_group_size = 0 : i64, relu_limit = -1.000000e+00 : f64, right_transpose = false} : (tensor<2304x1024xf32>, tensor<1024x1024xf32>, tensor<1x1024xf32>) -> tensor<2304x1024xf32> loc(#loc178)
    %179 = "top.Add"(%156, %178) {do_relu = false, is_scalar = false, relu_limit = -1.000000e+00 : f64} : (tensor<2304x1024xf32>, tensor<2304x1024xf32>) -> tensor<2304x1024xf32> loc(#loc179)
    %180 = "top.Weight"() : () -> tensor<1x1024xf32> loc(#loc180)
    %181 = "top.Weight"() : () -> tensor<1x1024xf32> loc(#loc181)
    %182 = "top.LayerNorm"(%179, %180, %181) {axis = 1 : si32, eps = 9.9999999999999995E-7 : f64, normalized_shape = [1024]} : (tensor<2304x1024xf32>, tensor<1x1024xf32>, tensor<1x1024xf32>) -> tensor<2304x1024xf32> loc(#loc182)
    %183 = "top.Weight"() : () -> tensor<1x4096xf32> loc(#loc183)
    %184 = "top.Weight"() : () -> tensor<1024x4096xf32> loc(#loc184)
    %185 = "top.MatMul"(%182, %184, %183) {do_relu = false, dq_type = "NONE", hdim_is_batch = false, is_lora = false, keep_dims = true, left_transpose = false, output_transpose = false, q_group_size = 0 : i64, relu_limit = -1.000000e+00 : f64, right_transpose = false} : (tensor<2304x1024xf32>, tensor<1024x4096xf32>, tensor<1x4096xf32>) -> tensor<2304x4096xf32> loc(#loc185)
    %186 = "top.GELU"(%185) {approx_mode = "tanh", round_mode = "HalfAwayFromZero"} : (tensor<2304x4096xf32>) -> tensor<2304x4096xf32> loc(#loc186)
    %187 = "top.Weight"() : () -> tensor<1x1024xf32> loc(#loc187)
    %188 = "top.Weight"() : () -> tensor<4096x1024xf32> loc(#loc188)
    %189 = "top.MatMul"(%186, %188, %187) {do_relu = false, dq_type = "NONE", hdim_is_batch = false, is_lora = false, keep_dims = true, left_transpose = false, output_transpose = false, q_group_size = 0 : i64, relu_limit = -1.000000e+00 : f64, right_transpose = false} : (tensor<2304x4096xf32>, tensor<4096x1024xf32>, tensor<1x1024xf32>) -> tensor<2304x1024xf32> loc(#loc189)
    %190 = "top.Add"(%179, %189) {do_relu = false, is_scalar = false, relu_limit = -1.000000e+00 : f64} : (tensor<2304x1024xf32>, tensor<2304x1024xf32>) -> tensor<2304x1024xf32> loc(#loc190)
    %191 = "top.Weight"() : () -> tensor<1x1024xf32> loc(#loc191)
    %192 = "top.Weight"() : () -> tensor<1x1024xf32> loc(#loc192)
    %193 = "top.LayerNorm"(%190, %191, %192) {axis = 1 : si32, eps = 9.9999999999999995E-7 : f64, normalized_shape = [1024]} : (tensor<2304x1024xf32>, tensor<1x1024xf32>, tensor<1x1024xf32>) -> tensor<2304x1024xf32> loc(#loc193)
    %194 = "top.Weight"() : () -> tensor<1x1024xf32> loc(#loc194)
    %195 = "top.Weight"() : () -> tensor<1024x1024xf32> loc(#loc195)
    %196 = "top.MatMul"(%193, %195, %194) {do_relu = false, dq_type = "NONE", hdim_is_batch = false, is_lora = false, keep_dims = true, left_transpose = false, output_transpose = false, q_group_size = 0 : i64, relu_limit = -1.000000e+00 : f64, right_transpose = false} : (tensor<2304x1024xf32>, tensor<1024x1024xf32>, tensor<1x1024xf32>) -> tensor<2304x1024xf32> loc(#loc196)
    %197 = "top.Weight"() : () -> tensor<1x1024xf32> loc(#loc197)
    %198 = "top.Weight"() : () -> tensor<1024x1024xf32> loc(#loc198)
    %199 = "top.MatMul"(%193, %198, %197) {do_relu = false, dq_type = "NONE", hdim_is_batch = false, is_lora = false, keep_dims = true, left_transpose = false, output_transpose = false, q_group_size = 0 : i64, relu_limit = -1.000000e+00 : f64, right_transpose = false} : (tensor<2304x1024xf32>, tensor<1024x1024xf32>, tensor<1x1024xf32>) -> tensor<2304x1024xf32> loc(#loc199)
    %200 = "top.Weight"() : () -> tensor<1x1024xf32> loc(#loc200)
    %201 = "top.Weight"() : () -> tensor<1024x1024xf32> loc(#loc201)
    %202 = "top.MatMul"(%193, %201, %200) {do_relu = false, dq_type = "NONE", hdim_is_batch = false, is_lora = false, keep_dims = true, left_transpose = false, output_transpose = false, q_group_size = 0 : i64, relu_limit = -1.000000e+00 : f64, right_transpose = false} : (tensor<2304x1024xf32>, tensor<1024x1024xf32>, tensor<1x1024xf32>) -> tensor<2304x1024xf32> loc(#loc202)
    %203 = "top.Reshape"(%196) {flatten_start_dim = -1 : i64, shape = [1, -1, 16, 64]} : (tensor<2304x1024xf32>) -> tensor<1x2304x16x64xf32> loc(#loc203)
    %204 = "top.Reshape"(%199) {flatten_start_dim = -1 : i64, shape = [1, -1, 16, 64]} : (tensor<2304x1024xf32>) -> tensor<1x2304x16x64xf32> loc(#loc204)
    %205 = "top.Reshape"(%202) {flatten_start_dim = -1 : i64, shape = [1, -1, 16, 64]} : (tensor<2304x1024xf32>) -> tensor<1x2304x16x64xf32> loc(#loc205)
    %206 = "top.Rope"(%203, %20, %16) {add_round_mode = "HalfAwayFromZero", add_saturation = true, add_shift = 0 : si32, force_f32 = true, is_permute_optimize = false, mul1_round_mode = "HalfAwayFromZero", mul1_saturation = true, mul1_shift = 0 : si32, mul2_round_mode = "HalfAwayFromZero", mul2_saturation = true, mul2_shift = 0 : si32, rope_mode = "contiguous_halves"} : (tensor<1x2304x16x64xf32>, tensor<1x2304x1x64xf32>, tensor<1x2304x1x64xf32>) -> tensor<1x2304x16x64xf32> loc(#loc206)
    %207 = "top.Rope"(%204, %20, %16) {add_round_mode = "HalfAwayFromZero", add_saturation = true, add_shift = 0 : si32, force_f32 = true, is_permute_optimize = false, mul1_round_mode = "HalfAwayFromZero", mul1_saturation = true, mul1_shift = 0 : si32, mul2_round_mode = "HalfAwayFromZero", mul2_saturation = true, mul2_shift = 0 : si32, rope_mode = "contiguous_halves"} : (tensor<1x2304x16x64xf32>, tensor<1x2304x1x64xf32>, tensor<1x2304x1x64xf32>) -> tensor<1x2304x16x64xf32> loc(#loc207)
    %208 = "top.FAttention"(%206, %207, %205, %0, %0) {batch = 1 : i64, dim = 64 : i64, keep_dims = true, kv_head = 16 : i64, mk = 2304 : i64, mq = 2304 : i64, q_head = 16 : i64, scale = 1.250000e-01 : f64} : (tensor<1x2304x16x64xf32>, tensor<1x2304x16x64xf32>, tensor<1x2304x16x64xf32>, none, none) -> tensor<1x2304x16x64xf32> loc(#loc208)
    %209 = "top.Reshape"(%208) {flatten_start_dim = -1 : i64, shape = [-1, 1024]} : (tensor<1x2304x16x64xf32>) -> tensor<2304x1024xf32> loc(#loc209)
    %210 = "top.Weight"() : () -> tensor<1x1024xf32> loc(#loc210)
    %211 = "top.Weight"() : () -> tensor<1024x1024xf32> loc(#loc211)
    %212 = "top.MatMul"(%209, %211, %210) {do_relu = false, dq_type = "NONE", hdim_is_batch = false, is_lora = false, keep_dims = true, left_transpose = false, output_transpose = false, q_group_size = 0 : i64, relu_limit = -1.000000e+00 : f64, right_transpose = false} : (tensor<2304x1024xf32>, tensor<1024x1024xf32>, tensor<1x1024xf32>) -> tensor<2304x1024xf32> loc(#loc212)
    %213 = "top.Add"(%190, %212) {do_relu = false, is_scalar = false, relu_limit = -1.000000e+00 : f64} : (tensor<2304x1024xf32>, tensor<2304x1024xf32>) -> tensor<2304x1024xf32> loc(#loc213)
    %214 = "top.Weight"() : () -> tensor<1x1024xf32> loc(#loc214)
    %215 = "top.Weight"() : () -> tensor<1x1024xf32> loc(#loc215)
    %216 = "top.LayerNorm"(%213, %214, %215) {axis = 1 : si32, eps = 9.9999999999999995E-7 : f64, normalized_shape = [1024]} : (tensor<2304x1024xf32>, tensor<1x1024xf32>, tensor<1x1024xf32>) -> tensor<2304x1024xf32> loc(#loc216)
    %217 = "top.Weight"() : () -> tensor<1x4096xf32> loc(#loc217)
    %218 = "top.Weight"() : () -> tensor<1024x4096xf32> loc(#loc218)
    %219 = "top.MatMul"(%216, %218, %217) {do_relu = false, dq_type = "NONE", hdim_is_batch = false, is_lora = false, keep_dims = true, left_transpose = false, output_transpose = false, q_group_size = 0 : i64, relu_limit = -1.000000e+00 : f64, right_transpose = false} : (tensor<2304x1024xf32>, tensor<1024x4096xf32>, tensor<1x4096xf32>) -> tensor<2304x4096xf32> loc(#loc219)
    %220 = "top.GELU"(%219) {approx_mode = "tanh", round_mode = "HalfAwayFromZero"} : (tensor<2304x4096xf32>) -> tensor<2304x4096xf32> loc(#loc220)
    %221 = "top.Weight"() : () -> tensor<1x1024xf32> loc(#loc221)
    %222 = "top.Weight"() : () -> tensor<4096x1024xf32> loc(#loc222)
    %223 = "top.MatMul"(%220, %222, %221) {do_relu = false, dq_type = "NONE", hdim_is_batch = false, is_lora = false, keep_dims = true, left_transpose = false, output_transpose = false, q_group_size = 0 : i64, relu_limit = -1.000000e+00 : f64, right_transpose = false} : (tensor<2304x4096xf32>, tensor<4096x1024xf32>, tensor<1x1024xf32>) -> tensor<2304x1024xf32> loc(#loc223)
    %224 = "top.Add"(%213, %223) {do_relu = false, is_scalar = false, relu_limit = -1.000000e+00 : f64} : (tensor<2304x1024xf32>, tensor<2304x1024xf32>) -> tensor<2304x1024xf32> loc(#loc224)
    %225 = "top.Weight"() : () -> tensor<1x1024xf32> loc(#loc225)
    %226 = "top.Weight"() : () -> tensor<1x1024xf32> loc(#loc226)
    %227 = "top.LayerNorm"(%224, %225, %226) {axis = 1 : si32, eps = 9.9999999999999995E-7 : f64, normalized_shape = [1024]} : (tensor<2304x1024xf32>, tensor<1x1024xf32>, tensor<1x1024xf32>) -> tensor<2304x1024xf32> loc(#loc227)
    %228 = "top.Weight"() : () -> tensor<1x1024xf32> loc(#loc228)
    %229 = "top.Weight"() : () -> tensor<1024x1024xf32> loc(#loc229)
    %230 = "top.MatMul"(%227, %229, %228) {do_relu = false, dq_type = "NONE", hdim_is_batch = false, is_lora = false, keep_dims = true, left_transpose = false, output_transpose = false, q_group_size = 0 : i64, relu_limit = -1.000000e+00 : f64, right_transpose = false} : (tensor<2304x1024xf32>, tensor<1024x1024xf32>, tensor<1x1024xf32>) -> tensor<2304x1024xf32> loc(#loc230)
    %231 = "top.Weight"() : () -> tensor<1x1024xf32> loc(#loc231)
    %232 = "top.Weight"() : () -> tensor<1024x1024xf32> loc(#loc232)
    %233 = "top.MatMul"(%227, %232, %231) {do_relu = false, dq_type = "NONE", hdim_is_batch = false, is_lora = false, keep_dims = true, left_transpose = false, output_transpose = false, q_group_size = 0 : i64, relu_limit = -1.000000e+00 : f64, right_transpose = false} : (tensor<2304x1024xf32>, tensor<1024x1024xf32>, tensor<1x1024xf32>) -> tensor<2304x1024xf32> loc(#loc233)
    %234 = "top.Weight"() : () -> tensor<1x1024xf32> loc(#loc234)
    %235 = "top.Weight"() : () -> tensor<1024x1024xf32> loc(#loc235)
    %236 = "top.MatMul"(%227, %235, %234) {do_relu = false, dq_type = "NONE", hdim_is_batch = false, is_lora = false, keep_dims = true, left_transpose = false, output_transpose = false, q_group_size = 0 : i64, relu_limit = -1.000000e+00 : f64, right_transpose = false} : (tensor<2304x1024xf32>, tensor<1024x1024xf32>, tensor<1x1024xf32>) -> tensor<2304x1024xf32> loc(#loc236)
    %237 = "top.Reshape"(%230) {flatten_start_dim = -1 : i64, shape = [1, -1, 16, 64]} : (tensor<2304x1024xf32>) -> tensor<1x2304x16x64xf32> loc(#loc237)
    %238 = "top.Reshape"(%233) {flatten_start_dim = -1 : i64, shape = [1, -1, 16, 64]} : (tensor<2304x1024xf32>) -> tensor<1x2304x16x64xf32> loc(#loc238)
    %239 = "top.Reshape"(%236) {flatten_start_dim = -1 : i64, shape = [1, -1, 16, 64]} : (tensor<2304x1024xf32>) -> tensor<1x2304x16x64xf32> loc(#loc239)
    %240 = "top.Rope"(%237, %20, %16) {add_round_mode = "HalfAwayFromZero", add_saturation = true, add_shift = 0 : si32, force_f32 = true, is_permute_optimize = false, mul1_round_mode = "HalfAwayFromZero", mul1_saturation = true, mul1_shift = 0 : si32, mul2_round_mode = "HalfAwayFromZero", mul2_saturation = true, mul2_shift = 0 : si32, rope_mode = "contiguous_halves"} : (tensor<1x2304x16x64xf32>, tensor<1x2304x1x64xf32>, tensor<1x2304x1x64xf32>) -> tensor<1x2304x16x64xf32> loc(#loc240)
    %241 = "top.Rope"(%238, %20, %16) {add_round_mode = "HalfAwayFromZero", add_saturation = true, add_shift = 0 : si32, force_f32 = true, is_permute_optimize = false, mul1_round_mode = "HalfAwayFromZero", mul1_saturation = true, mul1_shift = 0 : si32, mul2_round_mode = "HalfAwayFromZero", mul2_saturation = true, mul2_shift = 0 : si32, rope_mode = "contiguous_halves"} : (tensor<1x2304x16x64xf32>, tensor<1x2304x1x64xf32>, tensor<1x2304x1x64xf32>) -> tensor<1x2304x16x64xf32> loc(#loc241)
    %242 = "top.FAttention"(%240, %241, %239, %0, %0) {batch = 1 : i64, dim = 64 : i64, keep_dims = true, kv_head = 16 : i64, mk = 2304 : i64, mq = 2304 : i64, q_head = 16 : i64, scale = 1.250000e-01 : f64} : (tensor<1x2304x16x64xf32>, tensor<1x2304x16x64xf32>, tensor<1x2304x16x64xf32>, none, none) -> tensor<1x2304x16x64xf32> loc(#loc242)
    %243 = "top.Reshape"(%242) {flatten_start_dim = -1 : i64, shape = [-1, 1024]} : (tensor<1x2304x16x64xf32>) -> tensor<2304x1024xf32> loc(#loc243)
    %244 = "top.Weight"() : () -> tensor<1x1024xf32> loc(#loc244)
    %245 = "top.Weight"() : () -> tensor<1024x1024xf32> loc(#loc245)
    %246 = "top.MatMul"(%243, %245, %244) {do_relu = false, dq_type = "NONE", hdim_is_batch = false, is_lora = false, keep_dims = true, left_transpose = false, output_transpose = false, q_group_size = 0 : i64, relu_limit = -1.000000e+00 : f64, right_transpose = false} : (tensor<2304x1024xf32>, tensor<1024x1024xf32>, tensor<1x1024xf32>) -> tensor<2304x1024xf32> loc(#loc246)
    %247 = "top.Add"(%224, %246) {do_relu = false, is_scalar = false, relu_limit = -1.000000e+00 : f64} : (tensor<2304x1024xf32>, tensor<2304x1024xf32>) -> tensor<2304x1024xf32> loc(#loc247)
    %248 = "top.Weight"() : () -> tensor<1x1024xf32> loc(#loc248)
    %249 = "top.Weight"() : () -> tensor<1x1024xf32> loc(#loc249)
    %250 = "top.LayerNorm"(%247, %248, %249) {axis = 1 : si32, eps = 9.9999999999999995E-7 : f64, normalized_shape = [1024]} : (tensor<2304x1024xf32>, tensor<1x1024xf32>, tensor<1x1024xf32>) -> tensor<2304x1024xf32> loc(#loc250)
    %251 = "top.Weight"() : () -> tensor<1x4096xf32> loc(#loc251)
    %252 = "top.Weight"() : () -> tensor<1024x4096xf32> loc(#loc252)
    %253 = "top.MatMul"(%250, %252, %251) {do_relu = false, dq_type = "NONE", hdim_is_batch = false, is_lora = false, keep_dims = true, left_transpose = false, output_transpose = false, q_group_size = 0 : i64, relu_limit = -1.000000e+00 : f64, right_transpose = false} : (tensor<2304x1024xf32>, tensor<1024x4096xf32>, tensor<1x4096xf32>) -> tensor<2304x4096xf32> loc(#loc253)
    %254 = "top.GELU"(%253) {approx_mode = "tanh", round_mode = "HalfAwayFromZero"} : (tensor<2304x4096xf32>) -> tensor<2304x4096xf32> loc(#loc254)
    %255 = "top.Weight"() : () -> tensor<1x1024xf32> loc(#loc255)
    %256 = "top.Weight"() : () -> tensor<4096x1024xf32> loc(#loc256)
    %257 = "top.MatMul"(%254, %256, %255) {do_relu = false, dq_type = "NONE", hdim_is_batch = false, is_lora = false, keep_dims = true, left_transpose = false, output_transpose = false, q_group_size = 0 : i64, relu_limit = -1.000000e+00 : f64, right_transpose = false} : (tensor<2304x4096xf32>, tensor<4096x1024xf32>, tensor<1x1024xf32>) -> tensor<2304x1024xf32> loc(#loc257)
    %258 = "top.Add"(%247, %257) {do_relu = false, is_scalar = false, relu_limit = -1.000000e+00 : f64} : (tensor<2304x1024xf32>, tensor<2304x1024xf32>) -> tensor<2304x1024xf32> loc(#loc258)
    %259 = "top.Weight"() : () -> tensor<1x1024xf32> loc(#loc259)
    %260 = "top.Weight"() : () -> tensor<1x1024xf32> loc(#loc260)
    %261 = "top.LayerNorm"(%258, %259, %260) {axis = 1 : si32, eps = 9.9999999999999995E-7 : f64, normalized_shape = [1024]} : (tensor<2304x1024xf32>, tensor<1x1024xf32>, tensor<1x1024xf32>) -> tensor<2304x1024xf32> loc(#loc261)
    %262 = "top.Weight"() : () -> tensor<1x1024xf32> loc(#loc262)
    %263 = "top.Weight"() : () -> tensor<1024x1024xf32> loc(#loc263)
    %264 = "top.MatMul"(%261, %263, %262) {do_relu = false, dq_type = "NONE", hdim_is_batch = false, is_lora = false, keep_dims = true, left_transpose = false, output_transpose = false, q_group_size = 0 : i64, relu_limit = -1.000000e+00 : f64, right_transpose = false} : (tensor<2304x1024xf32>, tensor<1024x1024xf32>, tensor<1x1024xf32>) -> tensor<2304x1024xf32> loc(#loc264)
    %265 = "top.Weight"() : () -> tensor<1x1024xf32> loc(#loc265)
    %266 = "top.Weight"() : () -> tensor<1024x1024xf32> loc(#loc266)
    %267 = "top.MatMul"(%261, %266, %265) {do_relu = false, dq_type = "NONE", hdim_is_batch = false, is_lora = false, keep_dims = true, left_transpose = false, output_transpose = false, q_group_size = 0 : i64, relu_limit = -1.000000e+00 : f64, right_transpose = false} : (tensor<2304x1024xf32>, tensor<1024x1024xf32>, tensor<1x1024xf32>) -> tensor<2304x1024xf32> loc(#loc267)
    %268 = "top.Weight"() : () -> tensor<1x1024xf32> loc(#loc268)
    %269 = "top.Weight"() : () -> tensor<1024x1024xf32> loc(#loc269)
    %270 = "top.MatMul"(%261, %269, %268) {do_relu = false, dq_type = "NONE", hdim_is_batch = false, is_lora = false, keep_dims = true, left_transpose = false, output_transpose = false, q_group_size = 0 : i64, relu_limit = -1.000000e+00 : f64, right_transpose = false} : (tensor<2304x1024xf32>, tensor<1024x1024xf32>, tensor<1x1024xf32>) -> tensor<2304x1024xf32> loc(#loc270)
    %271 = "top.Reshape"(%264) {flatten_start_dim = -1 : i64, shape = [1, -1, 16, 64]} : (tensor<2304x1024xf32>) -> tensor<1x2304x16x64xf32> loc(#loc271)
    %272 = "top.Reshape"(%267) {flatten_start_dim = -1 : i64, shape = [1, -1, 16, 64]} : (tensor<2304x1024xf32>) -> tensor<1x2304x16x64xf32> loc(#loc272)
    %273 = "top.Reshape"(%270) {flatten_start_dim = -1 : i64, shape = [1, -1, 16, 64]} : (tensor<2304x1024xf32>) -> tensor<1x2304x16x64xf32> loc(#loc273)
    %274 = "top.Rope"(%271, %20, %16) {add_round_mode = "HalfAwayFromZero", add_saturation = true, add_shift = 0 : si32, force_f32 = true, is_permute_optimize = false, mul1_round_mode = "HalfAwayFromZero", mul1_saturation = true, mul1_shift = 0 : si32, mul2_round_mode = "HalfAwayFromZero", mul2_saturation = true, mul2_shift = 0 : si32, rope_mode = "contiguous_halves"} : (tensor<1x2304x16x64xf32>, tensor<1x2304x1x64xf32>, tensor<1x2304x1x64xf32>) -> tensor<1x2304x16x64xf32> loc(#loc274)
    %275 = "top.Rope"(%272, %20, %16) {add_round_mode = "HalfAwayFromZero", add_saturation = true, add_shift = 0 : si32, force_f32 = true, is_permute_optimize = false, mul1_round_mode = "HalfAwayFromZero", mul1_saturation = true, mul1_shift = 0 : si32, mul2_round_mode = "HalfAwayFromZero", mul2_saturation = true, mul2_shift = 0 : si32, rope_mode = "contiguous_halves"} : (tensor<1x2304x16x64xf32>, tensor<1x2304x1x64xf32>, tensor<1x2304x1x64xf32>) -> tensor<1x2304x16x64xf32> loc(#loc275)
    %276 = "top.FAttention"(%274, %275, %273, %0, %0) {batch = 1 : i64, dim = 64 : i64, keep_dims = true, kv_head = 16 : i64, mk = 2304 : i64, mq = 2304 : i64, q_head = 16 : i64, scale = 1.250000e-01 : f64} : (tensor<1x2304x16x64xf32>, tensor<1x2304x16x64xf32>, tensor<1x2304x16x64xf32>, none, none) -> tensor<1x2304x16x64xf32> loc(#loc276)
    %277 = "top.Reshape"(%276) {flatten_start_dim = -1 : i64, shape = [-1, 1024]} : (tensor<1x2304x16x64xf32>) -> tensor<2304x1024xf32> loc(#loc277)
    %278 = "top.Weight"() : () -> tensor<1x1024xf32> loc(#loc278)
    %279 = "top.Weight"() : () -> tensor<1024x1024xf32> loc(#loc279)
    %280 = "top.MatMul"(%277, %279, %278) {do_relu = false, dq_type = "NONE", hdim_is_batch = false, is_lora = false, keep_dims = true, left_transpose = false, output_transpose = false, q_group_size = 0 : i64, relu_limit = -1.000000e+00 : f64, right_transpose = false} : (tensor<2304x1024xf32>, tensor<1024x1024xf32>, tensor<1x1024xf32>) -> tensor<2304x1024xf32> loc(#loc280)
    %281 = "top.Add"(%258, %280) {do_relu = false, is_scalar = false, relu_limit = -1.000000e+00 : f64} : (tensor<2304x1024xf32>, tensor<2304x1024xf32>) -> tensor<2304x1024xf32> loc(#loc281)
    %282 = "top.Weight"() : () -> tensor<1x1024xf32> loc(#loc282)
    %283 = "top.Weight"() : () -> tensor<1x1024xf32> loc(#loc283)
    %284 = "top.LayerNorm"(%281, %282, %283) {axis = 1 : si32, eps = 9.9999999999999995E-7 : f64, normalized_shape = [1024]} : (tensor<2304x1024xf32>, tensor<1x1024xf32>, tensor<1x1024xf32>) -> tensor<2304x1024xf32> loc(#loc284)
    %285 = "top.Weight"() : () -> tensor<1x4096xf32> loc(#loc285)
    %286 = "top.Weight"() : () -> tensor<1024x4096xf32> loc(#loc286)
    %287 = "top.MatMul"(%284, %286, %285) {do_relu = false, dq_type = "NONE", hdim_is_batch = false, is_lora = false, keep_dims = true, left_transpose = false, output_transpose = false, q_group_size = 0 : i64, relu_limit = -1.000000e+00 : f64, right_transpose = false} : (tensor<2304x1024xf32>, tensor<1024x4096xf32>, tensor<1x4096xf32>) -> tensor<2304x4096xf32> loc(#loc287)
    %288 = "top.GELU"(%287) {approx_mode = "tanh", round_mode = "HalfAwayFromZero"} : (tensor<2304x4096xf32>) -> tensor<2304x4096xf32> loc(#loc288)
    %289 = "top.Weight"() : () -> tensor<1x1024xf32> loc(#loc289)
    %290 = "top.Weight"() : () -> tensor<4096x1024xf32> loc(#loc290)
    %291 = "top.MatMul"(%288, %290, %289) {do_relu = false, dq_type = "NONE", hdim_is_batch = false, is_lora = false, keep_dims = true, left_transpose = false, output_transpose = false, q_group_size = 0 : i64, relu_limit = -1.000000e+00 : f64, right_transpose = false} : (tensor<2304x4096xf32>, tensor<4096x1024xf32>, tensor<1x1024xf32>) -> tensor<2304x1024xf32> loc(#loc291)
    %292 = "top.Add"(%281, %291) {do_relu = false, is_scalar = false, relu_limit = -1.000000e+00 : f64} : (tensor<2304x1024xf32>, tensor<2304x1024xf32>) -> tensor<2304x1024xf32> loc(#loc292)
    %293 = "top.Weight"() : () -> tensor<1x1024xf32> loc(#loc293)
    %294 = "top.Weight"() : () -> tensor<1x1024xf32> loc(#loc294)
    %295 = "top.LayerNorm"(%292, %293, %294) {axis = 1 : si32, eps = 9.9999999999999995E-7 : f64, normalized_shape = [1024]} : (tensor<2304x1024xf32>, tensor<1x1024xf32>, tensor<1x1024xf32>) -> tensor<2304x1024xf32> loc(#loc295)
    %296 = "top.Weight"() : () -> tensor<1x1024xf32> loc(#loc296)
    %297 = "top.Weight"() : () -> tensor<1024x1024xf32> loc(#loc297)
    %298 = "top.MatMul"(%295, %297, %296) {do_relu = false, dq_type = "NONE", hdim_is_batch = false, is_lora = false, keep_dims = true, left_transpose = false, output_transpose = false, q_group_size = 0 : i64, relu_limit = -1.000000e+00 : f64, right_transpose = false} : (tensor<2304x1024xf32>, tensor<1024x1024xf32>, tensor<1x1024xf32>) -> tensor<2304x1024xf32> loc(#loc298)
    %299 = "top.Weight"() : () -> tensor<1x1024xf32> loc(#loc299)
    %300 = "top.Weight"() : () -> tensor<1024x1024xf32> loc(#loc300)
    %301 = "top.MatMul"(%295, %300, %299) {do_relu = false, dq_type = "NONE", hdim_is_batch = false, is_lora = false, keep_dims = true, left_transpose = false, output_transpose = false, q_group_size = 0 : i64, relu_limit = -1.000000e+00 : f64, right_transpose = false} : (tensor<2304x1024xf32>, tensor<1024x1024xf32>, tensor<1x1024xf32>) -> tensor<2304x1024xf32> loc(#loc301)
    %302 = "top.Weight"() : () -> tensor<1x1024xf32> loc(#loc302)
    %303 = "top.Weight"() : () -> tensor<1024x1024xf32> loc(#loc303)
    %304 = "top.MatMul"(%295, %303, %302) {do_relu = false, dq_type = "NONE", hdim_is_batch = false, is_lora = false, keep_dims = true, left_transpose = false, output_transpose = false, q_group_size = 0 : i64, relu_limit = -1.000000e+00 : f64, right_transpose = false} : (tensor<2304x1024xf32>, tensor<1024x1024xf32>, tensor<1x1024xf32>) -> tensor<2304x1024xf32> loc(#loc304)
    %305 = "top.Reshape"(%298) {flatten_start_dim = -1 : i64, shape = [1, -1, 16, 64]} : (tensor<2304x1024xf32>) -> tensor<1x2304x16x64xf32> loc(#loc305)
    %306 = "top.Reshape"(%301) {flatten_start_dim = -1 : i64, shape = [1, -1, 16, 64]} : (tensor<2304x1024xf32>) -> tensor<1x2304x16x64xf32> loc(#loc306)
    %307 = "top.Reshape"(%304) {flatten_start_dim = -1 : i64, shape = [1, -1, 16, 64]} : (tensor<2304x1024xf32>) -> tensor<1x2304x16x64xf32> loc(#loc307)
    %308 = "top.Rope"(%305, %20, %16) {add_round_mode = "HalfAwayFromZero", add_saturation = true, add_shift = 0 : si32, force_f32 = true, is_permute_optimize = false, mul1_round_mode = "HalfAwayFromZero", mul1_saturation = true, mul1_shift = 0 : si32, mul2_round_mode = "HalfAwayFromZero", mul2_saturation = true, mul2_shift = 0 : si32, rope_mode = "contiguous_halves"} : (tensor<1x2304x16x64xf32>, tensor<1x2304x1x64xf32>, tensor<1x2304x1x64xf32>) -> tensor<1x2304x16x64xf32> loc(#loc308)
    %309 = "top.Rope"(%306, %20, %16) {add_round_mode = "HalfAwayFromZero", add_saturation = true, add_shift = 0 : si32, force_f32 = true, is_permute_optimize = false, mul1_round_mode = "HalfAwayFromZero", mul1_saturation = true, mul1_shift = 0 : si32, mul2_round_mode = "HalfAwayFromZero", mul2_saturation = true, mul2_shift = 0 : si32, rope_mode = "contiguous_halves"} : (tensor<1x2304x16x64xf32>, tensor<1x2304x1x64xf32>, tensor<1x2304x1x64xf32>) -> tensor<1x2304x16x64xf32> loc(#loc309)
    %310 = "top.FAttention"(%308, %309, %307, %0, %0) {batch = 1 : i64, dim = 64 : i64, keep_dims = true, kv_head = 16 : i64, mk = 2304 : i64, mq = 2304 : i64, q_head = 16 : i64, scale = 1.250000e-01 : f64} : (tensor<1x2304x16x64xf32>, tensor<1x2304x16x64xf32>, tensor<1x2304x16x64xf32>, none, none) -> tensor<1x2304x16x64xf32> loc(#loc310)
    %311 = "top.Reshape"(%310) {flatten_start_dim = -1 : i64, shape = [-1, 1024]} : (tensor<1x2304x16x64xf32>) -> tensor<2304x1024xf32> loc(#loc311)
    %312 = "top.Weight"() : () -> tensor<1x1024xf32> loc(#loc312)
    %313 = "top.Weight"() : () -> tensor<1024x1024xf32> loc(#loc313)
    %314 = "top.MatMul"(%311, %313, %312) {do_relu = false, dq_type = "NONE", hdim_is_batch = false, is_lora = false, keep_dims = true, left_transpose = false, output_transpose = false, q_group_size = 0 : i64, relu_limit = -1.000000e+00 : f64, right_transpose = false} : (tensor<2304x1024xf32>, tensor<1024x1024xf32>, tensor<1x1024xf32>) -> tensor<2304x1024xf32> loc(#loc314)
    %315 = "top.Add"(%292, %314) {do_relu = false, is_scalar = false, relu_limit = -1.000000e+00 : f64} : (tensor<2304x1024xf32>, tensor<2304x1024xf32>) -> tensor<2304x1024xf32> loc(#loc315)
    %316 = "top.Weight"() : () -> tensor<1x1024xf32> loc(#loc316)
    %317 = "top.Weight"() : () -> tensor<1x1024xf32> loc(#loc317)
    %318 = "top.LayerNorm"(%315, %316, %317) {axis = 1 : si32, eps = 9.9999999999999995E-7 : f64, normalized_shape = [1024]} : (tensor<2304x1024xf32>, tensor<1x1024xf32>, tensor<1x1024xf32>) -> tensor<2304x1024xf32> loc(#loc318)
    %319 = "top.Weight"() : () -> tensor<1x4096xf32> loc(#loc319)
    %320 = "top.Weight"() : () -> tensor<1024x4096xf32> loc(#loc320)
    %321 = "top.MatMul"(%318, %320, %319) {do_relu = false, dq_type = "NONE", hdim_is_batch = false, is_lora = false, keep_dims = true, left_transpose = false, output_transpose = false, q_group_size = 0 : i64, relu_limit = -1.000000e+00 : f64, right_transpose = false} : (tensor<2304x1024xf32>, tensor<1024x4096xf32>, tensor<1x4096xf32>) -> tensor<2304x4096xf32> loc(#loc321)
    %322 = "top.GELU"(%321) {approx_mode = "tanh", round_mode = "HalfAwayFromZero"} : (tensor<2304x4096xf32>) -> tensor<2304x4096xf32> loc(#loc322)
    %323 = "top.Weight"() : () -> tensor<1x1024xf32> loc(#loc323)
    %324 = "top.Weight"() : () -> tensor<4096x1024xf32> loc(#loc324)
    %325 = "top.MatMul"(%322, %324, %323) {do_relu = false, dq_type = "NONE", hdim_is_batch = false, is_lora = false, keep_dims = true, left_transpose = false, output_transpose = false, q_group_size = 0 : i64, relu_limit = -1.000000e+00 : f64, right_transpose = false} : (tensor<2304x4096xf32>, tensor<4096x1024xf32>, tensor<1x1024xf32>) -> tensor<2304x1024xf32> loc(#loc325)
    %326 = "top.Add"(%315, %325) {do_relu = false, is_scalar = false, relu_limit = -1.000000e+00 : f64} : (tensor<2304x1024xf32>, tensor<2304x1024xf32>) -> tensor<2304x1024xf32> loc(#loc326)
    %327 = "top.Weight"() : () -> tensor<1x1024xf32> loc(#loc327)
    %328 = "top.Weight"() : () -> tensor<1x1024xf32> loc(#loc328)
    %329 = "top.LayerNorm"(%326, %327, %328) {axis = 1 : si32, eps = 9.9999999999999995E-7 : f64, normalized_shape = [1024]} : (tensor<2304x1024xf32>, tensor<1x1024xf32>, tensor<1x1024xf32>) -> tensor<2304x1024xf32> loc(#loc329)
    %330 = "top.Weight"() : () -> tensor<1x1024xf32> loc(#loc330)
    %331 = "top.Weight"() : () -> tensor<1024x1024xf32> loc(#loc331)
    %332 = "top.MatMul"(%329, %331, %330) {do_relu = false, dq_type = "NONE", hdim_is_batch = false, is_lora = false, keep_dims = true, left_transpose = false, output_transpose = false, q_group_size = 0 : i64, relu_limit = -1.000000e+00 : f64, right_transpose = false} : (tensor<2304x1024xf32>, tensor<1024x1024xf32>, tensor<1x1024xf32>) -> tensor<2304x1024xf32> loc(#loc332)
    %333 = "top.Weight"() : () -> tensor<1x1024xf32> loc(#loc333)
    %334 = "top.Weight"() : () -> tensor<1024x1024xf32> loc(#loc334)
    %335 = "top.MatMul"(%329, %334, %333) {do_relu = false, dq_type = "NONE", hdim_is_batch = false, is_lora = false, keep_dims = true, left_transpose = false, output_transpose = false, q_group_size = 0 : i64, relu_limit = -1.000000e+00 : f64, right_transpose = false} : (tensor<2304x1024xf32>, tensor<1024x1024xf32>, tensor<1x1024xf32>) -> tensor<2304x1024xf32> loc(#loc335)
    %336 = "top.Weight"() : () -> tensor<1x1024xf32> loc(#loc336)
    %337 = "top.Weight"() : () -> tensor<1024x1024xf32> loc(#loc337)
    %338 = "top.MatMul"(%329, %337, %336) {do_relu = false, dq_type = "NONE", hdim_is_batch = false, is_lora = false, keep_dims = true, left_transpose = false, output_transpose = false, q_group_size = 0 : i64, relu_limit = -1.000000e+00 : f64, right_transpose = false} : (tensor<2304x1024xf32>, tensor<1024x1024xf32>, tensor<1x1024xf32>) -> tensor<2304x1024xf32> loc(#loc338)
    %339 = "top.Reshape"(%332) {flatten_start_dim = -1 : i64, shape = [1, -1, 16, 64]} : (tensor<2304x1024xf32>) -> tensor<1x2304x16x64xf32> loc(#loc339)
    %340 = "top.Reshape"(%335) {flatten_start_dim = -1 : i64, shape = [1, -1, 16, 64]} : (tensor<2304x1024xf32>) -> tensor<1x2304x16x64xf32> loc(#loc340)
    %341 = "top.Reshape"(%338) {flatten_start_dim = -1 : i64, shape = [1, -1, 16, 64]} : (tensor<2304x1024xf32>) -> tensor<1x2304x16x64xf32> loc(#loc341)
    %342 = "top.Rope"(%339, %20, %16) {add_round_mode = "HalfAwayFromZero", add_saturation = true, add_shift = 0 : si32, force_f32 = true, is_permute_optimize = false, mul1_round_mode = "HalfAwayFromZero", mul1_saturation = true, mul1_shift = 0 : si32, mul2_round_mode = "HalfAwayFromZero", mul2_saturation = true, mul2_shift = 0 : si32, rope_mode = "contiguous_halves"} : (tensor<1x2304x16x64xf32>, tensor<1x2304x1x64xf32>, tensor<1x2304x1x64xf32>) -> tensor<1x2304x16x64xf32> loc(#loc342)
    %343 = "top.Rope"(%340, %20, %16) {add_round_mode = "HalfAwayFromZero", add_saturation = true, add_shift = 0 : si32, force_f32 = true, is_permute_optimize = false, mul1_round_mode = "HalfAwayFromZero", mul1_saturation = true, mul1_shift = 0 : si32, mul2_round_mode = "HalfAwayFromZero", mul2_saturation = true, mul2_shift = 0 : si32, rope_mode = "contiguous_halves"} : (tensor<1x2304x16x64xf32>, tensor<1x2304x1x64xf32>, tensor<1x2304x1x64xf32>) -> tensor<1x2304x16x64xf32> loc(#loc343)
    %344 = "top.FAttention"(%342, %343, %341, %0, %0) {batch = 1 : i64, dim = 64 : i64, keep_dims = true, kv_head = 16 : i64, mk = 2304 : i64, mq = 2304 : i64, q_head = 16 : i64, scale = 1.250000e-01 : f64} : (tensor<1x2304x16x64xf32>, tensor<1x2304x16x64xf32>, tensor<1x2304x16x64xf32>, none, none) -> tensor<1x2304x16x64xf32> loc(#loc344)
    %345 = "top.Reshape"(%344) {flatten_start_dim = -1 : i64, shape = [-1, 1024]} : (tensor<1x2304x16x64xf32>) -> tensor<2304x1024xf32> loc(#loc345)
    %346 = "top.Weight"() : () -> tensor<1x1024xf32> loc(#loc346)
    %347 = "top.Weight"() : () -> tensor<1024x1024xf32> loc(#loc347)
    %348 = "top.MatMul"(%345, %347, %346) {do_relu = false, dq_type = "NONE", hdim_is_batch = false, is_lora = false, keep_dims = true, left_transpose = false, output_transpose = false, q_group_size = 0 : i64, relu_limit = -1.000000e+00 : f64, right_transpose = false} : (tensor<2304x1024xf32>, tensor<1024x1024xf32>, tensor<1x1024xf32>) -> tensor<2304x1024xf32> loc(#loc348)
    %349 = "top.Add"(%326, %348) {do_relu = false, is_scalar = false, relu_limit = -1.000000e+00 : f64} : (tensor<2304x1024xf32>, tensor<2304x1024xf32>) -> tensor<2304x1024xf32> loc(#loc349)
    %350 = "top.Weight"() : () -> tensor<1x1024xf32> loc(#loc350)
    %351 = "top.Weight"() : () -> tensor<1x1024xf32> loc(#loc351)
    %352 = "top.LayerNorm"(%349, %350, %351) {axis = 1 : si32, eps = 9.9999999999999995E-7 : f64, normalized_shape = [1024]} : (tensor<2304x1024xf32>, tensor<1x1024xf32>, tensor<1x1024xf32>) -> tensor<2304x1024xf32> loc(#loc352)
    %353 = "top.Weight"() : () -> tensor<1x4096xf32> loc(#loc353)
    %354 = "top.Weight"() : () -> tensor<1024x4096xf32> loc(#loc354)
    %355 = "top.MatMul"(%352, %354, %353) {do_relu = false, dq_type = "NONE", hdim_is_batch = false, is_lora = false, keep_dims = true, left_transpose = false, output_transpose = false, q_group_size = 0 : i64, relu_limit = -1.000000e+00 : f64, right_transpose = false} : (tensor<2304x1024xf32>, tensor<1024x4096xf32>, tensor<1x4096xf32>) -> tensor<2304x4096xf32> loc(#loc355)
    %356 = "top.GELU"(%355) {approx_mode = "tanh", round_mode = "HalfAwayFromZero"} : (tensor<2304x4096xf32>) -> tensor<2304x4096xf32> loc(#loc356)
    %357 = "top.Weight"() : () -> tensor<1x1024xf32> loc(#loc357)
    %358 = "top.Weight"() : () -> tensor<4096x1024xf32> loc(#loc358)
    %359 = "top.MatMul"(%356, %358, %357) {do_relu = false, dq_type = "NONE", hdim_is_batch = false, is_lora = false, keep_dims = true, left_transpose = false, output_transpose = false, q_group_size = 0 : i64, relu_limit = -1.000000e+00 : f64, right_transpose = false} : (tensor<2304x4096xf32>, tensor<4096x1024xf32>, tensor<1x1024xf32>) -> tensor<2304x1024xf32> loc(#loc359)
    %360 = "top.Add"(%349, %359) {do_relu = false, is_scalar = false, relu_limit = -1.000000e+00 : f64} : (tensor<2304x1024xf32>, tensor<2304x1024xf32>) -> tensor<2304x1024xf32> loc(#loc360)
    %361 = "top.Weight"() : () -> tensor<1x1024xf32> loc(#loc361)
    %362 = "top.Weight"() : () -> tensor<1x1024xf32> loc(#loc362)
    %363 = "top.LayerNorm"(%360, %361, %362) {axis = 1 : si32, eps = 9.9999999999999995E-7 : f64, normalized_shape = [1024]} : (tensor<2304x1024xf32>, tensor<1x1024xf32>, tensor<1x1024xf32>) -> tensor<2304x1024xf32> loc(#loc363)
    %364 = "top.Weight"() : () -> tensor<1x1024xf32> loc(#loc364)
    %365 = "top.Weight"() : () -> tensor<1024x1024xf32> loc(#loc365)
    %366 = "top.MatMul"(%363, %365, %364) {do_relu = false, dq_type = "NONE", hdim_is_batch = false, is_lora = false, keep_dims = true, left_transpose = false, output_transpose = false, q_group_size = 0 : i64, relu_limit = -1.000000e+00 : f64, right_transpose = false} : (tensor<2304x1024xf32>, tensor<1024x1024xf32>, tensor<1x1024xf32>) -> tensor<2304x1024xf32> loc(#loc366)
    %367 = "top.Weight"() : () -> tensor<1x1024xf32> loc(#loc367)
    %368 = "top.Weight"() : () -> tensor<1024x1024xf32> loc(#loc368)
    %369 = "top.MatMul"(%363, %368, %367) {do_relu = false, dq_type = "NONE", hdim_is_batch = false, is_lora = false, keep_dims = true, left_transpose = false, output_transpose = false, q_group_size = 0 : i64, relu_limit = -1.000000e+00 : f64, right_transpose = false} : (tensor<2304x1024xf32>, tensor<1024x1024xf32>, tensor<1x1024xf32>) -> tensor<2304x1024xf32> loc(#loc369)
    %370 = "top.Weight"() : () -> tensor<1x1024xf32> loc(#loc370)
    %371 = "top.Weight"() : () -> tensor<1024x1024xf32> loc(#loc371)
    %372 = "top.MatMul"(%363, %371, %370) {do_relu = false, dq_type = "NONE", hdim_is_batch = false, is_lora = false, keep_dims = true, left_transpose = false, output_transpose = false, q_group_size = 0 : i64, relu_limit = -1.000000e+00 : f64, right_transpose = false} : (tensor<2304x1024xf32>, tensor<1024x1024xf32>, tensor<1x1024xf32>) -> tensor<2304x1024xf32> loc(#loc372)
    %373 = "top.Reshape"(%366) {flatten_start_dim = -1 : i64, shape = [1, -1, 16, 64]} : (tensor<2304x1024xf32>) -> tensor<1x2304x16x64xf32> loc(#loc373)
    %374 = "top.Reshape"(%369) {flatten_start_dim = -1 : i64, shape = [1, -1, 16, 64]} : (tensor<2304x1024xf32>) -> tensor<1x2304x16x64xf32> loc(#loc374)
    %375 = "top.Reshape"(%372) {flatten_start_dim = -1 : i64, shape = [1, -1, 16, 64]} : (tensor<2304x1024xf32>) -> tensor<1x2304x16x64xf32> loc(#loc375)
    %376 = "top.Rope"(%373, %20, %16) {add_round_mode = "HalfAwayFromZero", add_saturation = true, add_shift = 0 : si32, force_f32 = true, is_permute_optimize = false, mul1_round_mode = "HalfAwayFromZero", mul1_saturation = true, mul1_shift = 0 : si32, mul2_round_mode = "HalfAwayFromZero", mul2_saturation = true, mul2_shift = 0 : si32, rope_mode = "contiguous_halves"} : (tensor<1x2304x16x64xf32>, tensor<1x2304x1x64xf32>, tensor<1x2304x1x64xf32>) -> tensor<1x2304x16x64xf32> loc(#loc376)
    %377 = "top.Rope"(%374, %20, %16) {add_round_mode = "HalfAwayFromZero", add_saturation = true, add_shift = 0 : si32, force_f32 = true, is_permute_optimize = false, mul1_round_mode = "HalfAwayFromZero", mul1_saturation = true, mul1_shift = 0 : si32, mul2_round_mode = "HalfAwayFromZero", mul2_saturation = true, mul2_shift = 0 : si32, rope_mode = "contiguous_halves"} : (tensor<1x2304x16x64xf32>, tensor<1x2304x1x64xf32>, tensor<1x2304x1x64xf32>) -> tensor<1x2304x16x64xf32> loc(#loc377)
    %378 = "top.FAttention"(%376, %377, %375, %0, %0) {batch = 1 : i64, dim = 64 : i64, keep_dims = true, kv_head = 16 : i64, mk = 2304 : i64, mq = 2304 : i64, q_head = 16 : i64, scale = 1.250000e-01 : f64} : (tensor<1x2304x16x64xf32>, tensor<1x2304x16x64xf32>, tensor<1x2304x16x64xf32>, none, none) -> tensor<1x2304x16x64xf32> loc(#loc378)
    %379 = "top.Reshape"(%378) {flatten_start_dim = -1 : i64, shape = [-1, 1024]} : (tensor<1x2304x16x64xf32>) -> tensor<2304x1024xf32> loc(#loc379)
    %380 = "top.Weight"() : () -> tensor<1x1024xf32> loc(#loc380)
    %381 = "top.Weight"() : () -> tensor<1024x1024xf32> loc(#loc381)
    %382 = "top.MatMul"(%379, %381, %380) {do_relu = false, dq_type = "NONE", hdim_is_batch = false, is_lora = false, keep_dims = true, left_transpose = false, output_transpose = false, q_group_size = 0 : i64, relu_limit = -1.000000e+00 : f64, right_transpose = false} : (tensor<2304x1024xf32>, tensor<1024x1024xf32>, tensor<1x1024xf32>) -> tensor<2304x1024xf32> loc(#loc382)
    %383 = "top.Add"(%360, %382) {do_relu = false, is_scalar = false, relu_limit = -1.000000e+00 : f64} : (tensor<2304x1024xf32>, tensor<2304x1024xf32>) -> tensor<2304x1024xf32> loc(#loc383)
    %384 = "top.Weight"() : () -> tensor<1x1024xf32> loc(#loc384)
    %385 = "top.Weight"() : () -> tensor<1x1024xf32> loc(#loc385)
    %386 = "top.LayerNorm"(%383, %384, %385) {axis = 1 : si32, eps = 9.9999999999999995E-7 : f64, normalized_shape = [1024]} : (tensor<2304x1024xf32>, tensor<1x1024xf32>, tensor<1x1024xf32>) -> tensor<2304x1024xf32> loc(#loc386)
    %387 = "top.Weight"() : () -> tensor<1x4096xf32> loc(#loc387)
    %388 = "top.Weight"() : () -> tensor<1024x4096xf32> loc(#loc388)
    %389 = "top.MatMul"(%386, %388, %387) {do_relu = false, dq_type = "NONE", hdim_is_batch = false, is_lora = false, keep_dims = true, left_transpose = false, output_transpose = false, q_group_size = 0 : i64, relu_limit = -1.000000e+00 : f64, right_transpose = false} : (tensor<2304x1024xf32>, tensor<1024x4096xf32>, tensor<1x4096xf32>) -> tensor<2304x4096xf32> loc(#loc389)
    %390 = "top.GELU"(%389) {approx_mode = "tanh", round_mode = "HalfAwayFromZero"} : (tensor<2304x4096xf32>) -> tensor<2304x4096xf32> loc(#loc390)
    %391 = "top.Weight"() : () -> tensor<1x1024xf32> loc(#loc391)
    %392 = "top.Weight"() : () -> tensor<4096x1024xf32> loc(#loc392)
    %393 = "top.MatMul"(%390, %392, %391) {do_relu = false, dq_type = "NONE", hdim_is_batch = false, is_lora = false, keep_dims = true, left_transpose = false, output_transpose = false, q_group_size = 0 : i64, relu_limit = -1.000000e+00 : f64, right_transpose = false} : (tensor<2304x4096xf32>, tensor<4096x1024xf32>, tensor<1x1024xf32>) -> tensor<2304x1024xf32> loc(#loc393)
    %394 = "top.Add"(%383, %393) {do_relu = false, is_scalar = false, relu_limit = -1.000000e+00 : f64} : (tensor<2304x1024xf32>, tensor<2304x1024xf32>) -> tensor<2304x1024xf32> loc(#loc394)
    %395 = "top.Weight"() : () -> tensor<1x1024xf32> loc(#loc395)
    %396 = "top.Weight"() : () -> tensor<1x1024xf32> loc(#loc396)
    %397 = "top.LayerNorm"(%394, %395, %396) {axis = 1 : si32, eps = 9.9999999999999995E-7 : f64, normalized_shape = [1024]} : (tensor<2304x1024xf32>, tensor<1x1024xf32>, tensor<1x1024xf32>) -> tensor<2304x1024xf32> loc(#loc397)
    %398 = "top.Weight"() : () -> tensor<1x1024xf32> loc(#loc398)
    %399 = "top.Weight"() : () -> tensor<1024x1024xf32> loc(#loc399)
    %400 = "top.MatMul"(%397, %399, %398) {do_relu = false, dq_type = "NONE", hdim_is_batch = false, is_lora = false, keep_dims = true, left_transpose = false, output_transpose = false, q_group_size = 0 : i64, relu_limit = -1.000000e+00 : f64, right_transpose = false} : (tensor<2304x1024xf32>, tensor<1024x1024xf32>, tensor<1x1024xf32>) -> tensor<2304x1024xf32> loc(#loc400)
    %401 = "top.Weight"() : () -> tensor<1x1024xf32> loc(#loc401)
    %402 = "top.Weight"() : () -> tensor<1024x1024xf32> loc(#loc402)
    %403 = "top.MatMul"(%397, %402, %401) {do_relu = false, dq_type = "NONE", hdim_is_batch = false, is_lora = false, keep_dims = true, left_transpose = false, output_transpose = false, q_group_size = 0 : i64, relu_limit = -1.000000e+00 : f64, right_transpose = false} : (tensor<2304x1024xf32>, tensor<1024x1024xf32>, tensor<1x1024xf32>) -> tensor<2304x1024xf32> loc(#loc403)
    %404 = "top.Weight"() : () -> tensor<1x1024xf32> loc(#loc404)
    %405 = "top.Weight"() : () -> tensor<1024x1024xf32> loc(#loc405)
    %406 = "top.MatMul"(%397, %405, %404) {do_relu = false, dq_type = "NONE", hdim_is_batch = false, is_lora = false, keep_dims = true, left_transpose = false, output_transpose = false, q_group_size = 0 : i64, relu_limit = -1.000000e+00 : f64, right_transpose = false} : (tensor<2304x1024xf32>, tensor<1024x1024xf32>, tensor<1x1024xf32>) -> tensor<2304x1024xf32> loc(#loc406)
    %407 = "top.Reshape"(%400) {flatten_start_dim = -1 : i64, shape = [1, -1, 16, 64]} : (tensor<2304x1024xf32>) -> tensor<1x2304x16x64xf32> loc(#loc407)
    %408 = "top.Reshape"(%403) {flatten_start_dim = -1 : i64, shape = [1, -1, 16, 64]} : (tensor<2304x1024xf32>) -> tensor<1x2304x16x64xf32> loc(#loc408)
    %409 = "top.Reshape"(%406) {flatten_start_dim = -1 : i64, shape = [1, -1, 16, 64]} : (tensor<2304x1024xf32>) -> tensor<1x2304x16x64xf32> loc(#loc409)
    %410 = "top.Rope"(%407, %20, %16) {add_round_mode = "HalfAwayFromZero", add_saturation = true, add_shift = 0 : si32, force_f32 = true, is_permute_optimize = false, mul1_round_mode = "HalfAwayFromZero", mul1_saturation = true, mul1_shift = 0 : si32, mul2_round_mode = "HalfAwayFromZero", mul2_saturation = true, mul2_shift = 0 : si32, rope_mode = "contiguous_halves"} : (tensor<1x2304x16x64xf32>, tensor<1x2304x1x64xf32>, tensor<1x2304x1x64xf32>) -> tensor<1x2304x16x64xf32> loc(#loc410)
    %411 = "top.Rope"(%408, %20, %16) {add_round_mode = "HalfAwayFromZero", add_saturation = true, add_shift = 0 : si32, force_f32 = true, is_permute_optimize = false, mul1_round_mode = "HalfAwayFromZero", mul1_saturation = true, mul1_shift = 0 : si32, mul2_round_mode = "HalfAwayFromZero", mul2_saturation = true, mul2_shift = 0 : si32, rope_mode = "contiguous_halves"} : (tensor<1x2304x16x64xf32>, tensor<1x2304x1x64xf32>, tensor<1x2304x1x64xf32>) -> tensor<1x2304x16x64xf32> loc(#loc411)
    %412 = "top.FAttention"(%410, %411, %409, %0, %0) {batch = 1 : i64, dim = 64 : i64, keep_dims = true, kv_head = 16 : i64, mk = 2304 : i64, mq = 2304 : i64, q_head = 16 : i64, scale = 1.250000e-01 : f64} : (tensor<1x2304x16x64xf32>, tensor<1x2304x16x64xf32>, tensor<1x2304x16x64xf32>, none, none) -> tensor<1x2304x16x64xf32> loc(#loc412)
    %413 = "top.Reshape"(%412) {flatten_start_dim = -1 : i64, shape = [-1, 1024]} : (tensor<1x2304x16x64xf32>) -> tensor<2304x1024xf32> loc(#loc413)
    %414 = "top.Weight"() : () -> tensor<1x1024xf32> loc(#loc414)
    %415 = "top.Weight"() : () -> tensor<1024x1024xf32> loc(#loc415)
    %416 = "top.MatMul"(%413, %415, %414) {do_relu = false, dq_type = "NONE", hdim_is_batch = false, is_lora = false, keep_dims = true, left_transpose = false, output_transpose = false, q_group_size = 0 : i64, relu_limit = -1.000000e+00 : f64, right_transpose = false} : (tensor<2304x1024xf32>, tensor<1024x1024xf32>, tensor<1x1024xf32>) -> tensor<2304x1024xf32> loc(#loc416)
    %417 = "top.Add"(%394, %416) {do_relu = false, is_scalar = false, relu_limit = -1.000000e+00 : f64} : (tensor<2304x1024xf32>, tensor<2304x1024xf32>) -> tensor<2304x1024xf32> loc(#loc417)
    %418 = "top.Weight"() : () -> tensor<1x1024xf32> loc(#loc418)
    %419 = "top.Weight"() : () -> tensor<1x1024xf32> loc(#loc419)
    %420 = "top.LayerNorm"(%417, %418, %419) {axis = 1 : si32, eps = 9.9999999999999995E-7 : f64, normalized_shape = [1024]} : (tensor<2304x1024xf32>, tensor<1x1024xf32>, tensor<1x1024xf32>) -> tensor<2304x1024xf32> loc(#loc420)
    %421 = "top.Weight"() : () -> tensor<1x4096xf32> loc(#loc421)
    %422 = "top.Weight"() : () -> tensor<1024x4096xf32> loc(#loc422)
    %423 = "top.MatMul"(%420, %422, %421) {do_relu = false, dq_type = "NONE", hdim_is_batch = false, is_lora = false, keep_dims = true, left_transpose = false, output_transpose = false, q_group_size = 0 : i64, relu_limit = -1.000000e+00 : f64, right_transpose = false} : (tensor<2304x1024xf32>, tensor<1024x4096xf32>, tensor<1x4096xf32>) -> tensor<2304x4096xf32> loc(#loc423)
    %424 = "top.GELU"(%423) {approx_mode = "tanh", round_mode = "HalfAwayFromZero"} : (tensor<2304x4096xf32>) -> tensor<2304x4096xf32> loc(#loc424)
    %425 = "top.Weight"() : () -> tensor<1x1024xf32> loc(#loc425)
    %426 = "top.Weight"() : () -> tensor<4096x1024xf32> loc(#loc426)
    %427 = "top.MatMul"(%424, %426, %425) {do_relu = false, dq_type = "NONE", hdim_is_batch = false, is_lora = false, keep_dims = true, left_transpose = false, output_transpose = false, q_group_size = 0 : i64, relu_limit = -1.000000e+00 : f64, right_transpose = false} : (tensor<2304x4096xf32>, tensor<4096x1024xf32>, tensor<1x1024xf32>) -> tensor<2304x1024xf32> loc(#loc427)
    %428 = "top.Add"(%417, %427) {do_relu = false, is_scalar = false, relu_limit = -1.000000e+00 : f64} : (tensor<2304x1024xf32>, tensor<2304x1024xf32>) -> tensor<2304x1024xf32> loc(#loc428)
    %429 = "top.Weight"() : () -> tensor<1x1024xf32> loc(#loc429)
    %430 = "top.Weight"() : () -> tensor<1x1024xf32> loc(#loc430)
    %431 = "top.LayerNorm"(%428, %429, %430) {axis = 1 : si32, eps = 9.9999999999999995E-7 : f64, normalized_shape = [1024]} : (tensor<2304x1024xf32>, tensor<1x1024xf32>, tensor<1x1024xf32>) -> tensor<2304x1024xf32> loc(#loc431)
    %432 = "top.Weight"() : () -> tensor<1x1024xf32> loc(#loc432)
    %433 = "top.Weight"() : () -> tensor<1024x1024xf32> loc(#loc433)
    %434 = "top.MatMul"(%431, %433, %432) {do_relu = false, dq_type = "NONE", hdim_is_batch = false, is_lora = false, keep_dims = true, left_transpose = false, output_transpose = false, q_group_size = 0 : i64, relu_limit = -1.000000e+00 : f64, right_transpose = false} : (tensor<2304x1024xf32>, tensor<1024x1024xf32>, tensor<1x1024xf32>) -> tensor<2304x1024xf32> loc(#loc434)
    %435 = "top.Weight"() : () -> tensor<1x1024xf32> loc(#loc435)
    %436 = "top.Weight"() : () -> tensor<1024x1024xf32> loc(#loc436)
    %437 = "top.MatMul"(%431, %436, %435) {do_relu = false, dq_type = "NONE", hdim_is_batch = false, is_lora = false, keep_dims = true, left_transpose = false, output_transpose = false, q_group_size = 0 : i64, relu_limit = -1.000000e+00 : f64, right_transpose = false} : (tensor<2304x1024xf32>, tensor<1024x1024xf32>, tensor<1x1024xf32>) -> tensor<2304x1024xf32> loc(#loc437)
    %438 = "top.Weight"() : () -> tensor<1x1024xf32> loc(#loc438)
    %439 = "top.Weight"() : () -> tensor<1024x1024xf32> loc(#loc439)
    %440 = "top.MatMul"(%431, %439, %438) {do_relu = false, dq_type = "NONE", hdim_is_batch = false, is_lora = false, keep_dims = true, left_transpose = false, output_transpose = false, q_group_size = 0 : i64, relu_limit = -1.000000e+00 : f64, right_transpose = false} : (tensor<2304x1024xf32>, tensor<1024x1024xf32>, tensor<1x1024xf32>) -> tensor<2304x1024xf32> loc(#loc440)
    %441 = "top.Reshape"(%434) {flatten_start_dim = -1 : i64, shape = [1, -1, 16, 64]} : (tensor<2304x1024xf32>) -> tensor<1x2304x16x64xf32> loc(#loc441)
    %442 = "top.Reshape"(%437) {flatten_start_dim = -1 : i64, shape = [1, -1, 16, 64]} : (tensor<2304x1024xf32>) -> tensor<1x2304x16x64xf32> loc(#loc442)
    %443 = "top.Reshape"(%440) {flatten_start_dim = -1 : i64, shape = [1, -1, 16, 64]} : (tensor<2304x1024xf32>) -> tensor<1x2304x16x64xf32> loc(#loc443)
    %444 = "top.Rope"(%441, %20, %16) {add_round_mode = "HalfAwayFromZero", add_saturation = true, add_shift = 0 : si32, force_f32 = true, is_permute_optimize = false, mul1_round_mode = "HalfAwayFromZero", mul1_saturation = true, mul1_shift = 0 : si32, mul2_round_mode = "HalfAwayFromZero", mul2_saturation = true, mul2_shift = 0 : si32, rope_mode = "contiguous_halves"} : (tensor<1x2304x16x64xf32>, tensor<1x2304x1x64xf32>, tensor<1x2304x1x64xf32>) -> tensor<1x2304x16x64xf32> loc(#loc444)
    %445 = "top.Rope"(%442, %20, %16) {add_round_mode = "HalfAwayFromZero", add_saturation = true, add_shift = 0 : si32, force_f32 = true, is_permute_optimize = false, mul1_round_mode = "HalfAwayFromZero", mul1_saturation = true, mul1_shift = 0 : si32, mul2_round_mode = "HalfAwayFromZero", mul2_saturation = true, mul2_shift = 0 : si32, rope_mode = "contiguous_halves"} : (tensor<1x2304x16x64xf32>, tensor<1x2304x1x64xf32>, tensor<1x2304x1x64xf32>) -> tensor<1x2304x16x64xf32> loc(#loc445)
    %446 = "top.FAttention"(%444, %445, %443, %0, %0) {batch = 1 : i64, dim = 64 : i64, keep_dims = true, kv_head = 16 : i64, mk = 2304 : i64, mq = 2304 : i64, q_head = 16 : i64, scale = 1.250000e-01 : f64} : (tensor<1x2304x16x64xf32>, tensor<1x2304x16x64xf32>, tensor<1x2304x16x64xf32>, none, none) -> tensor<1x2304x16x64xf32> loc(#loc446)
    %447 = "top.Reshape"(%446) {flatten_start_dim = -1 : i64, shape = [-1, 1024]} : (tensor<1x2304x16x64xf32>) -> tensor<2304x1024xf32> loc(#loc447)
    %448 = "top.Weight"() : () -> tensor<1x1024xf32> loc(#loc448)
    %449 = "top.Weight"() : () -> tensor<1024x1024xf32> loc(#loc449)
    %450 = "top.MatMul"(%447, %449, %448) {do_relu = false, dq_type = "NONE", hdim_is_batch = false, is_lora = false, keep_dims = true, left_transpose = false, output_transpose = false, q_group_size = 0 : i64, relu_limit = -1.000000e+00 : f64, right_transpose = false} : (tensor<2304x1024xf32>, tensor<1024x1024xf32>, tensor<1x1024xf32>) -> tensor<2304x1024xf32> loc(#loc450)
    %451 = "top.Add"(%428, %450) {do_relu = false, is_scalar = false, relu_limit = -1.000000e+00 : f64} : (tensor<2304x1024xf32>, tensor<2304x1024xf32>) -> tensor<2304x1024xf32> loc(#loc451)
    %452 = "top.Weight"() : () -> tensor<1x1024xf32> loc(#loc452)
    %453 = "top.Weight"() : () -> tensor<1x1024xf32> loc(#loc453)
    %454 = "top.LayerNorm"(%451, %452, %453) {axis = 1 : si32, eps = 9.9999999999999995E-7 : f64, normalized_shape = [1024]} : (tensor<2304x1024xf32>, tensor<1x1024xf32>, tensor<1x1024xf32>) -> tensor<2304x1024xf32> loc(#loc454)
    %455 = "top.Weight"() : () -> tensor<1x4096xf32> loc(#loc455)
    %456 = "top.Weight"() : () -> tensor<1024x4096xf32> loc(#loc456)
    %457 = "top.MatMul"(%454, %456, %455) {do_relu = false, dq_type = "NONE", hdim_is_batch = false, is_lora = false, keep_dims = true, left_transpose = false, output_transpose = false, q_group_size = 0 : i64, relu_limit = -1.000000e+00 : f64, right_transpose = false} : (tensor<2304x1024xf32>, tensor<1024x4096xf32>, tensor<1x4096xf32>) -> tensor<2304x4096xf32> loc(#loc457)
    %458 = "top.GELU"(%457) {approx_mode = "tanh", round_mode = "HalfAwayFromZero"} : (tensor<2304x4096xf32>) -> tensor<2304x4096xf32> loc(#loc458)
    %459 = "top.Weight"() : () -> tensor<1x1024xf32> loc(#loc459)
    %460 = "top.Weight"() : () -> tensor<4096x1024xf32> loc(#loc460)
    %461 = "top.MatMul"(%458, %460, %459) {do_relu = false, dq_type = "NONE", hdim_is_batch = false, is_lora = false, keep_dims = true, left_transpose = false, output_transpose = false, q_group_size = 0 : i64, relu_limit = -1.000000e+00 : f64, right_transpose = false} : (tensor<2304x4096xf32>, tensor<4096x1024xf32>, tensor<1x1024xf32>) -> tensor<2304x1024xf32> loc(#loc461)
    %462 = "top.Add"(%451, %461) {do_relu = false, is_scalar = false, relu_limit = -1.000000e+00 : f64} : (tensor<2304x1024xf32>, tensor<2304x1024xf32>) -> tensor<2304x1024xf32> loc(#loc462)
    %463 = "top.Weight"() : () -> tensor<1x1024xf32> loc(#loc463)
    %464 = "top.Weight"() : () -> tensor<1x1024xf32> loc(#loc464)
    %465 = "top.LayerNorm"(%462, %463, %464) {axis = 1 : si32, eps = 9.9999999999999995E-7 : f64, normalized_shape = [1024]} : (tensor<2304x1024xf32>, tensor<1x1024xf32>, tensor<1x1024xf32>) -> tensor<2304x1024xf32> loc(#loc465)
    %466 = "top.Weight"() : () -> tensor<1x1024xf32> loc(#loc466)
    %467 = "top.Weight"() : () -> tensor<1024x1024xf32> loc(#loc467)
    %468 = "top.MatMul"(%465, %467, %466) {do_relu = false, dq_type = "NONE", hdim_is_batch = false, is_lora = false, keep_dims = true, left_transpose = false, output_transpose = false, q_group_size = 0 : i64, relu_limit = -1.000000e+00 : f64, right_transpose = false} : (tensor<2304x1024xf32>, tensor<1024x1024xf32>, tensor<1x1024xf32>) -> tensor<2304x1024xf32> loc(#loc468)
    %469 = "top.Weight"() : () -> tensor<1x1024xf32> loc(#loc469)
    %470 = "top.Weight"() : () -> tensor<1024x1024xf32> loc(#loc470)
    %471 = "top.MatMul"(%465, %470, %469) {do_relu = false, dq_type = "NONE", hdim_is_batch = false, is_lora = false, keep_dims = true, left_transpose = false, output_transpose = false, q_group_size = 0 : i64, relu_limit = -1.000000e+00 : f64, right_transpose = false} : (tensor<2304x1024xf32>, tensor<1024x1024xf32>, tensor<1x1024xf32>) -> tensor<2304x1024xf32> loc(#loc471)
    %472 = "top.Weight"() : () -> tensor<1x1024xf32> loc(#loc472)
    %473 = "top.Weight"() : () -> tensor<1024x1024xf32> loc(#loc473)
    %474 = "top.MatMul"(%465, %473, %472) {do_relu = false, dq_type = "NONE", hdim_is_batch = false, is_lora = false, keep_dims = true, left_transpose = false, output_transpose = false, q_group_size = 0 : i64, relu_limit = -1.000000e+00 : f64, right_transpose = false} : (tensor<2304x1024xf32>, tensor<1024x1024xf32>, tensor<1x1024xf32>) -> tensor<2304x1024xf32> loc(#loc474)
    %475 = "top.Reshape"(%468) {flatten_start_dim = -1 : i64, shape = [1, -1, 16, 64]} : (tensor<2304x1024xf32>) -> tensor<1x2304x16x64xf32> loc(#loc475)
    %476 = "top.Reshape"(%471) {flatten_start_dim = -1 : i64, shape = [1, -1, 16, 64]} : (tensor<2304x1024xf32>) -> tensor<1x2304x16x64xf32> loc(#loc476)
    %477 = "top.Reshape"(%474) {flatten_start_dim = -1 : i64, shape = [1, -1, 16, 64]} : (tensor<2304x1024xf32>) -> tensor<1x2304x16x64xf32> loc(#loc477)
    %478 = "top.Rope"(%475, %20, %16) {add_round_mode = "HalfAwayFromZero", add_saturation = true, add_shift = 0 : si32, force_f32 = true, is_permute_optimize = false, mul1_round_mode = "HalfAwayFromZero", mul1_saturation = true, mul1_shift = 0 : si32, mul2_round_mode = "HalfAwayFromZero", mul2_saturation = true, mul2_shift = 0 : si32, rope_mode = "contiguous_halves"} : (tensor<1x2304x16x64xf32>, tensor<1x2304x1x64xf32>, tensor<1x2304x1x64xf32>) -> tensor<1x2304x16x64xf32> loc(#loc478)
    %479 = "top.Rope"(%476, %20, %16) {add_round_mode = "HalfAwayFromZero", add_saturation = true, add_shift = 0 : si32, force_f32 = true, is_permute_optimize = false, mul1_round_mode = "HalfAwayFromZero", mul1_saturation = true, mul1_shift = 0 : si32, mul2_round_mode = "HalfAwayFromZero", mul2_saturation = true, mul2_shift = 0 : si32, rope_mode = "contiguous_halves"} : (tensor<1x2304x16x64xf32>, tensor<1x2304x1x64xf32>, tensor<1x2304x1x64xf32>) -> tensor<1x2304x16x64xf32> loc(#loc479)
    %480 = "top.FAttention"(%478, %479, %477, %0, %0) {batch = 1 : i64, dim = 64 : i64, keep_dims = true, kv_head = 16 : i64, mk = 2304 : i64, mq = 2304 : i64, q_head = 16 : i64, scale = 1.250000e-01 : f64} : (tensor<1x2304x16x64xf32>, tensor<1x2304x16x64xf32>, tensor<1x2304x16x64xf32>, none, none) -> tensor<1x2304x16x64xf32> loc(#loc480)
    %481 = "top.Reshape"(%480) {flatten_start_dim = -1 : i64, shape = [-1, 1024]} : (tensor<1x2304x16x64xf32>) -> tensor<2304x1024xf32> loc(#loc481)
    %482 = "top.Weight"() : () -> tensor<1x1024xf32> loc(#loc482)
    %483 = "top.Weight"() : () -> tensor<1024x1024xf32> loc(#loc483)
    %484 = "top.MatMul"(%481, %483, %482) {do_relu = false, dq_type = "NONE", hdim_is_batch = false, is_lora = false, keep_dims = true, left_transpose = false, output_transpose = false, q_group_size = 0 : i64, relu_limit = -1.000000e+00 : f64, right_transpose = false} : (tensor<2304x1024xf32>, tensor<1024x1024xf32>, tensor<1x1024xf32>) -> tensor<2304x1024xf32> loc(#loc484)
    %485 = "top.Add"(%462, %484) {do_relu = false, is_scalar = false, relu_limit = -1.000000e+00 : f64} : (tensor<2304x1024xf32>, tensor<2304x1024xf32>) -> tensor<2304x1024xf32> loc(#loc485)
    %486 = "top.Weight"() : () -> tensor<1x1024xf32> loc(#loc486)
    %487 = "top.Weight"() : () -> tensor<1x1024xf32> loc(#loc487)
    %488 = "top.LayerNorm"(%485, %486, %487) {axis = 1 : si32, eps = 9.9999999999999995E-7 : f64, normalized_shape = [1024]} : (tensor<2304x1024xf32>, tensor<1x1024xf32>, tensor<1x1024xf32>) -> tensor<2304x1024xf32> loc(#loc488)
    %489 = "top.Weight"() : () -> tensor<1x4096xf32> loc(#loc489)
    %490 = "top.Weight"() : () -> tensor<1024x4096xf32> loc(#loc490)
    %491 = "top.MatMul"(%488, %490, %489) {do_relu = false, dq_type = "NONE", hdim_is_batch = false, is_lora = false, keep_dims = true, left_transpose = false, output_transpose = false, q_group_size = 0 : i64, relu_limit = -1.000000e+00 : f64, right_transpose = false} : (tensor<2304x1024xf32>, tensor<1024x4096xf32>, tensor<1x4096xf32>) -> tensor<2304x4096xf32> loc(#loc491)
    %492 = "top.GELU"(%491) {approx_mode = "tanh", round_mode = "HalfAwayFromZero"} : (tensor<2304x4096xf32>) -> tensor<2304x4096xf32> loc(#loc492)
    %493 = "top.Weight"() : () -> tensor<1x1024xf32> loc(#loc493)
    %494 = "top.Weight"() : () -> tensor<4096x1024xf32> loc(#loc494)
    %495 = "top.MatMul"(%492, %494, %493) {do_relu = false, dq_type = "NONE", hdim_is_batch = false, is_lora = false, keep_dims = true, left_transpose = false, output_transpose = false, q_group_size = 0 : i64, relu_limit = -1.000000e+00 : f64, right_transpose = false} : (tensor<2304x4096xf32>, tensor<4096x1024xf32>, tensor<1x1024xf32>) -> tensor<2304x1024xf32> loc(#loc495)
    %496 = "top.Add"(%485, %495) {do_relu = false, is_scalar = false, relu_limit = -1.000000e+00 : f64} : (tensor<2304x1024xf32>, tensor<2304x1024xf32>) -> tensor<2304x1024xf32> loc(#loc496)
    %497 = "top.Weight"() : () -> tensor<1x1024xf32> loc(#loc497)
    %498 = "top.Weight"() : () -> tensor<1x1024xf32> loc(#loc498)
    %499 = "top.LayerNorm"(%496, %497, %498) {axis = 1 : si32, eps = 9.9999999999999995E-7 : f64, normalized_shape = [1024]} : (tensor<2304x1024xf32>, tensor<1x1024xf32>, tensor<1x1024xf32>) -> tensor<2304x1024xf32> loc(#loc499)
    %500 = "top.Weight"() : () -> tensor<1x1024xf32> loc(#loc500)
    %501 = "top.Weight"() : () -> tensor<1024x1024xf32> loc(#loc501)
    %502 = "top.MatMul"(%499, %501, %500) {do_relu = false, dq_type = "NONE", hdim_is_batch = false, is_lora = false, keep_dims = true, left_transpose = false, output_transpose = false, q_group_size = 0 : i64, relu_limit = -1.000000e+00 : f64, right_transpose = false} : (tensor<2304x1024xf32>, tensor<1024x1024xf32>, tensor<1x1024xf32>) -> tensor<2304x1024xf32> loc(#loc502)
    %503 = "top.Weight"() : () -> tensor<1x1024xf32> loc(#loc503)
    %504 = "top.Weight"() : () -> tensor<1024x1024xf32> loc(#loc504)
    %505 = "top.MatMul"(%499, %504, %503) {do_relu = false, dq_type = "NONE", hdim_is_batch = false, is_lora = false, keep_dims = true, left_transpose = false, output_transpose = false, q_group_size = 0 : i64, relu_limit = -1.000000e+00 : f64, right_transpose = false} : (tensor<2304x1024xf32>, tensor<1024x1024xf32>, tensor<1x1024xf32>) -> tensor<2304x1024xf32> loc(#loc505)
    %506 = "top.Weight"() : () -> tensor<1x1024xf32> loc(#loc506)
    %507 = "top.Weight"() : () -> tensor<1024x1024xf32> loc(#loc507)
    %508 = "top.MatMul"(%499, %507, %506) {do_relu = false, dq_type = "NONE", hdim_is_batch = false, is_lora = false, keep_dims = true, left_transpose = false, output_transpose = false, q_group_size = 0 : i64, relu_limit = -1.000000e+00 : f64, right_transpose = false} : (tensor<2304x1024xf32>, tensor<1024x1024xf32>, tensor<1x1024xf32>) -> tensor<2304x1024xf32> loc(#loc508)
    %509 = "top.Reshape"(%502) {flatten_start_dim = -1 : i64, shape = [1, -1, 16, 64]} : (tensor<2304x1024xf32>) -> tensor<1x2304x16x64xf32> loc(#loc509)
    %510 = "top.Reshape"(%505) {flatten_start_dim = -1 : i64, shape = [1, -1, 16, 64]} : (tensor<2304x1024xf32>) -> tensor<1x2304x16x64xf32> loc(#loc510)
    %511 = "top.Reshape"(%508) {flatten_start_dim = -1 : i64, shape = [1, -1, 16, 64]} : (tensor<2304x1024xf32>) -> tensor<1x2304x16x64xf32> loc(#loc511)
    %512 = "top.Rope"(%509, %20, %16) {add_round_mode = "HalfAwayFromZero", add_saturation = true, add_shift = 0 : si32, force_f32 = true, is_permute_optimize = false, mul1_round_mode = "HalfAwayFromZero", mul1_saturation = true, mul1_shift = 0 : si32, mul2_round_mode = "HalfAwayFromZero", mul2_saturation = true, mul2_shift = 0 : si32, rope_mode = "contiguous_halves"} : (tensor<1x2304x16x64xf32>, tensor<1x2304x1x64xf32>, tensor<1x2304x1x64xf32>) -> tensor<1x2304x16x64xf32> loc(#loc512)
    %513 = "top.Rope"(%510, %20, %16) {add_round_mode = "HalfAwayFromZero", add_saturation = true, add_shift = 0 : si32, force_f32 = true, is_permute_optimize = false, mul1_round_mode = "HalfAwayFromZero", mul1_saturation = true, mul1_shift = 0 : si32, mul2_round_mode = "HalfAwayFromZero", mul2_saturation = true, mul2_shift = 0 : si32, rope_mode = "contiguous_halves"} : (tensor<1x2304x16x64xf32>, tensor<1x2304x1x64xf32>, tensor<1x2304x1x64xf32>) -> tensor<1x2304x16x64xf32> loc(#loc513)
    %514 = "top.FAttention"(%512, %513, %511, %0, %0) {batch = 1 : i64, dim = 64 : i64, keep_dims = true, kv_head = 16 : i64, mk = 2304 : i64, mq = 2304 : i64, q_head = 16 : i64, scale = 1.250000e-01 : f64} : (tensor<1x2304x16x64xf32>, tensor<1x2304x16x64xf32>, tensor<1x2304x16x64xf32>, none, none) -> tensor<1x2304x16x64xf32> loc(#loc514)
    %515 = "top.Reshape"(%514) {flatten_start_dim = -1 : i64, shape = [-1, 1024]} : (tensor<1x2304x16x64xf32>) -> tensor<2304x1024xf32> loc(#loc515)
    %516 = "top.Weight"() : () -> tensor<1x1024xf32> loc(#loc516)
    %517 = "top.Weight"() : () -> tensor<1024x1024xf32> loc(#loc517)
    %518 = "top.MatMul"(%515, %517, %516) {do_relu = false, dq_type = "NONE", hdim_is_batch = false, is_lora = false, keep_dims = true, left_transpose = false, output_transpose = false, q_group_size = 0 : i64, relu_limit = -1.000000e+00 : f64, right_transpose = false} : (tensor<2304x1024xf32>, tensor<1024x1024xf32>, tensor<1x1024xf32>) -> tensor<2304x1024xf32> loc(#loc518)
    %519 = "top.Add"(%496, %518) {do_relu = false, is_scalar = false, relu_limit = -1.000000e+00 : f64} : (tensor<2304x1024xf32>, tensor<2304x1024xf32>) -> tensor<2304x1024xf32> loc(#loc519)
    %520 = "top.Weight"() : () -> tensor<1x1024xf32> loc(#loc520)
    %521 = "top.Weight"() : () -> tensor<1x1024xf32> loc(#loc521)
    %522 = "top.LayerNorm"(%519, %520, %521) {axis = 1 : si32, eps = 9.9999999999999995E-7 : f64, normalized_shape = [1024]} : (tensor<2304x1024xf32>, tensor<1x1024xf32>, tensor<1x1024xf32>) -> tensor<2304x1024xf32> loc(#loc522)
    %523 = "top.Weight"() : () -> tensor<1x4096xf32> loc(#loc523)
    %524 = "top.Weight"() : () -> tensor<1024x4096xf32> loc(#loc524)
    %525 = "top.MatMul"(%522, %524, %523) {do_relu = false, dq_type = "NONE", hdim_is_batch = false, is_lora = false, keep_dims = true, left_transpose = false, output_transpose = false, q_group_size = 0 : i64, relu_limit = -1.000000e+00 : f64, right_transpose = false} : (tensor<2304x1024xf32>, tensor<1024x4096xf32>, tensor<1x4096xf32>) -> tensor<2304x4096xf32> loc(#loc525)
    %526 = "top.GELU"(%525) {approx_mode = "tanh", round_mode = "HalfAwayFromZero"} : (tensor<2304x4096xf32>) -> tensor<2304x4096xf32> loc(#loc526)
    %527 = "top.Weight"() : () -> tensor<1x1024xf32> loc(#loc527)
    %528 = "top.Weight"() : () -> tensor<4096x1024xf32> loc(#loc528)
    %529 = "top.MatMul"(%526, %528, %527) {do_relu = false, dq_type = "NONE", hdim_is_batch = false, is_lora = false, keep_dims = true, left_transpose = false, output_transpose = false, q_group_size = 0 : i64, relu_limit = -1.000000e+00 : f64, right_transpose = false} : (tensor<2304x4096xf32>, tensor<4096x1024xf32>, tensor<1x1024xf32>) -> tensor<2304x1024xf32> loc(#loc529)
    %530 = "top.Add"(%519, %529) {do_relu = false, is_scalar = false, relu_limit = -1.000000e+00 : f64} : (tensor<2304x1024xf32>, tensor<2304x1024xf32>) -> tensor<2304x1024xf32> loc(#loc530)
    %531 = "top.Weight"() : () -> tensor<1x1024xf32> loc(#loc531)
    %532 = "top.Weight"() : () -> tensor<1x1024xf32> loc(#loc532)
    %533 = "top.LayerNorm"(%530, %531, %532) {axis = 1 : si32, eps = 9.9999999999999995E-7 : f64, normalized_shape = [1024]} : (tensor<2304x1024xf32>, tensor<1x1024xf32>, tensor<1x1024xf32>) -> tensor<2304x1024xf32> loc(#loc533)
    %534 = "top.Weight"() : () -> tensor<1x1024xf32> loc(#loc534)
    %535 = "top.Weight"() : () -> tensor<1024x1024xf32> loc(#loc535)
    %536 = "top.MatMul"(%533, %535, %534) {do_relu = false, dq_type = "NONE", hdim_is_batch = false, is_lora = false, keep_dims = true, left_transpose = false, output_transpose = false, q_group_size = 0 : i64, relu_limit = -1.000000e+00 : f64, right_transpose = false} : (tensor<2304x1024xf32>, tensor<1024x1024xf32>, tensor<1x1024xf32>) -> tensor<2304x1024xf32> loc(#loc536)
    %537 = "top.Weight"() : () -> tensor<1x1024xf32> loc(#loc537)
    %538 = "top.Weight"() : () -> tensor<1024x1024xf32> loc(#loc538)
    %539 = "top.MatMul"(%533, %538, %537) {do_relu = false, dq_type = "NONE", hdim_is_batch = false, is_lora = false, keep_dims = true, left_transpose = false, output_transpose = false, q_group_size = 0 : i64, relu_limit = -1.000000e+00 : f64, right_transpose = false} : (tensor<2304x1024xf32>, tensor<1024x1024xf32>, tensor<1x1024xf32>) -> tensor<2304x1024xf32> loc(#loc539)
    %540 = "top.Weight"() : () -> tensor<1x1024xf32> loc(#loc540)
    %541 = "top.Weight"() : () -> tensor<1024x1024xf32> loc(#loc541)
    %542 = "top.MatMul"(%533, %541, %540) {do_relu = false, dq_type = "NONE", hdim_is_batch = false, is_lora = false, keep_dims = true, left_transpose = false, output_transpose = false, q_group_size = 0 : i64, relu_limit = -1.000000e+00 : f64, right_transpose = false} : (tensor<2304x1024xf32>, tensor<1024x1024xf32>, tensor<1x1024xf32>) -> tensor<2304x1024xf32> loc(#loc542)
    %543 = "top.Reshape"(%536) {flatten_start_dim = -1 : i64, shape = [1, -1, 16, 64]} : (tensor<2304x1024xf32>) -> tensor<1x2304x16x64xf32> loc(#loc543)
    %544 = "top.Reshape"(%539) {flatten_start_dim = -1 : i64, shape = [1, -1, 16, 64]} : (tensor<2304x1024xf32>) -> tensor<1x2304x16x64xf32> loc(#loc544)
    %545 = "top.Reshape"(%542) {flatten_start_dim = -1 : i64, shape = [1, -1, 16, 64]} : (tensor<2304x1024xf32>) -> tensor<1x2304x16x64xf32> loc(#loc545)
    %546 = "top.Rope"(%543, %20, %16) {add_round_mode = "HalfAwayFromZero", add_saturation = true, add_shift = 0 : si32, force_f32 = true, is_permute_optimize = false, mul1_round_mode = "HalfAwayFromZero", mul1_saturation = true, mul1_shift = 0 : si32, mul2_round_mode = "HalfAwayFromZero", mul2_saturation = true, mul2_shift = 0 : si32, rope_mode = "contiguous_halves"} : (tensor<1x2304x16x64xf32>, tensor<1x2304x1x64xf32>, tensor<1x2304x1x64xf32>) -> tensor<1x2304x16x64xf32> loc(#loc546)
    %547 = "top.Rope"(%544, %20, %16) {add_round_mode = "HalfAwayFromZero", add_saturation = true, add_shift = 0 : si32, force_f32 = true, is_permute_optimize = false, mul1_round_mode = "HalfAwayFromZero", mul1_saturation = true, mul1_shift = 0 : si32, mul2_round_mode = "HalfAwayFromZero", mul2_saturation = true, mul2_shift = 0 : si32, rope_mode = "contiguous_halves"} : (tensor<1x2304x16x64xf32>, tensor<1x2304x1x64xf32>, tensor<1x2304x1x64xf32>) -> tensor<1x2304x16x64xf32> loc(#loc547)
    %548 = "top.FAttention"(%546, %547, %545, %0, %0) {batch = 1 : i64, dim = 64 : i64, keep_dims = true, kv_head = 16 : i64, mk = 2304 : i64, mq = 2304 : i64, q_head = 16 : i64, scale = 1.250000e-01 : f64} : (tensor<1x2304x16x64xf32>, tensor<1x2304x16x64xf32>, tensor<1x2304x16x64xf32>, none, none) -> tensor<1x2304x16x64xf32> loc(#loc548)
    %549 = "top.Reshape"(%548) {flatten_start_dim = -1 : i64, shape = [-1, 1024]} : (tensor<1x2304x16x64xf32>) -> tensor<2304x1024xf32> loc(#loc549)
    %550 = "top.Weight"() : () -> tensor<1x1024xf32> loc(#loc550)
    %551 = "top.Weight"() : () -> tensor<1024x1024xf32> loc(#loc551)
    %552 = "top.MatMul"(%549, %551, %550) {do_relu = false, dq_type = "NONE", hdim_is_batch = false, is_lora = false, keep_dims = true, left_transpose = false, output_transpose = false, q_group_size = 0 : i64, relu_limit = -1.000000e+00 : f64, right_transpose = false} : (tensor<2304x1024xf32>, tensor<1024x1024xf32>, tensor<1x1024xf32>) -> tensor<2304x1024xf32> loc(#loc552)
    %553 = "top.Add"(%530, %552) {do_relu = false, is_scalar = false, relu_limit = -1.000000e+00 : f64} : (tensor<2304x1024xf32>, tensor<2304x1024xf32>) -> tensor<2304x1024xf32> loc(#loc553)
    %554 = "top.Weight"() : () -> tensor<1x1024xf32> loc(#loc554)
    %555 = "top.Weight"() : () -> tensor<1x1024xf32> loc(#loc555)
    %556 = "top.LayerNorm"(%553, %554, %555) {axis = 1 : si32, eps = 9.9999999999999995E-7 : f64, normalized_shape = [1024]} : (tensor<2304x1024xf32>, tensor<1x1024xf32>, tensor<1x1024xf32>) -> tensor<2304x1024xf32> loc(#loc556)
    %557 = "top.Weight"() : () -> tensor<1x4096xf32> loc(#loc557)
    %558 = "top.Weight"() : () -> tensor<1024x4096xf32> loc(#loc558)
    %559 = "top.MatMul"(%556, %558, %557) {do_relu = false, dq_type = "NONE", hdim_is_batch = false, is_lora = false, keep_dims = true, left_transpose = false, output_transpose = false, q_group_size = 0 : i64, relu_limit = -1.000000e+00 : f64, right_transpose = false} : (tensor<2304x1024xf32>, tensor<1024x4096xf32>, tensor<1x4096xf32>) -> tensor<2304x4096xf32> loc(#loc559)
    %560 = "top.GELU"(%559) {approx_mode = "tanh", round_mode = "HalfAwayFromZero"} : (tensor<2304x4096xf32>) -> tensor<2304x4096xf32> loc(#loc560)
    %561 = "top.Weight"() : () -> tensor<1x1024xf32> loc(#loc561)
    %562 = "top.Weight"() : () -> tensor<4096x1024xf32> loc(#loc562)
    %563 = "top.MatMul"(%560, %562, %561) {do_relu = false, dq_type = "NONE", hdim_is_batch = false, is_lora = false, keep_dims = true, left_transpose = false, output_transpose = false, q_group_size = 0 : i64, relu_limit = -1.000000e+00 : f64, right_transpose = false} : (tensor<2304x4096xf32>, tensor<4096x1024xf32>, tensor<1x1024xf32>) -> tensor<2304x1024xf32> loc(#loc563)
    %564 = "top.Add"(%553, %563) {do_relu = false, is_scalar = false, relu_limit = -1.000000e+00 : f64} : (tensor<2304x1024xf32>, tensor<2304x1024xf32>) -> tensor<2304x1024xf32> loc(#loc564)
    %565 = "top.Weight"() : () -> tensor<1x1024xf32> loc(#loc565)
    %566 = "top.Weight"() : () -> tensor<1x1024xf32> loc(#loc566)
    %567 = "top.LayerNorm"(%564, %565, %566) {axis = 1 : si32, eps = 9.9999999999999995E-7 : f64, normalized_shape = [1024]} : (tensor<2304x1024xf32>, tensor<1x1024xf32>, tensor<1x1024xf32>) -> tensor<2304x1024xf32> loc(#loc567)
    %568 = "top.Weight"() : () -> tensor<1x1024xf32> loc(#loc568)
    %569 = "top.Weight"() : () -> tensor<1024x1024xf32> loc(#loc569)
    %570 = "top.MatMul"(%567, %569, %568) {do_relu = false, dq_type = "NONE", hdim_is_batch = false, is_lora = false, keep_dims = true, left_transpose = false, output_transpose = false, q_group_size = 0 : i64, relu_limit = -1.000000e+00 : f64, right_transpose = false} : (tensor<2304x1024xf32>, tensor<1024x1024xf32>, tensor<1x1024xf32>) -> tensor<2304x1024xf32> loc(#loc570)
    %571 = "top.Weight"() : () -> tensor<1x1024xf32> loc(#loc571)
    %572 = "top.Weight"() : () -> tensor<1024x1024xf32> loc(#loc572)
    %573 = "top.MatMul"(%567, %572, %571) {do_relu = false, dq_type = "NONE", hdim_is_batch = false, is_lora = false, keep_dims = true, left_transpose = false, output_transpose = false, q_group_size = 0 : i64, relu_limit = -1.000000e+00 : f64, right_transpose = false} : (tensor<2304x1024xf32>, tensor<1024x1024xf32>, tensor<1x1024xf32>) -> tensor<2304x1024xf32> loc(#loc573)
    %574 = "top.Weight"() : () -> tensor<1x1024xf32> loc(#loc574)
    %575 = "top.Weight"() : () -> tensor<1024x1024xf32> loc(#loc575)
    %576 = "top.MatMul"(%567, %575, %574) {do_relu = false, dq_type = "NONE", hdim_is_batch = false, is_lora = false, keep_dims = true, left_transpose = false, output_transpose = false, q_group_size = 0 : i64, relu_limit = -1.000000e+00 : f64, right_transpose = false} : (tensor<2304x1024xf32>, tensor<1024x1024xf32>, tensor<1x1024xf32>) -> tensor<2304x1024xf32> loc(#loc576)
    %577 = "top.Reshape"(%570) {flatten_start_dim = -1 : i64, shape = [1, -1, 16, 64]} : (tensor<2304x1024xf32>) -> tensor<1x2304x16x64xf32> loc(#loc577)
    %578 = "top.Reshape"(%573) {flatten_start_dim = -1 : i64, shape = [1, -1, 16, 64]} : (tensor<2304x1024xf32>) -> tensor<1x2304x16x64xf32> loc(#loc578)
    %579 = "top.Reshape"(%576) {flatten_start_dim = -1 : i64, shape = [1, -1, 16, 64]} : (tensor<2304x1024xf32>) -> tensor<1x2304x16x64xf32> loc(#loc579)
    %580 = "top.Rope"(%577, %20, %16) {add_round_mode = "HalfAwayFromZero", add_saturation = true, add_shift = 0 : si32, force_f32 = true, is_permute_optimize = false, mul1_round_mode = "HalfAwayFromZero", mul1_saturation = true, mul1_shift = 0 : si32, mul2_round_mode = "HalfAwayFromZero", mul2_saturation = true, mul2_shift = 0 : si32, rope_mode = "contiguous_halves"} : (tensor<1x2304x16x64xf32>, tensor<1x2304x1x64xf32>, tensor<1x2304x1x64xf32>) -> tensor<1x2304x16x64xf32> loc(#loc580)
    %581 = "top.Rope"(%578, %20, %16) {add_round_mode = "HalfAwayFromZero", add_saturation = true, add_shift = 0 : si32, force_f32 = true, is_permute_optimize = false, mul1_round_mode = "HalfAwayFromZero", mul1_saturation = true, mul1_shift = 0 : si32, mul2_round_mode = "HalfAwayFromZero", mul2_saturation = true, mul2_shift = 0 : si32, rope_mode = "contiguous_halves"} : (tensor<1x2304x16x64xf32>, tensor<1x2304x1x64xf32>, tensor<1x2304x1x64xf32>) -> tensor<1x2304x16x64xf32> loc(#loc581)
    %582 = "top.FAttention"(%580, %581, %579, %0, %0) {batch = 1 : i64, dim = 64 : i64, keep_dims = true, kv_head = 16 : i64, mk = 2304 : i64, mq = 2304 : i64, q_head = 16 : i64, scale = 1.250000e-01 : f64} : (tensor<1x2304x16x64xf32>, tensor<1x2304x16x64xf32>, tensor<1x2304x16x64xf32>, none, none) -> tensor<1x2304x16x64xf32> loc(#loc582)
    %583 = "top.Reshape"(%582) {flatten_start_dim = -1 : i64, shape = [-1, 1024]} : (tensor<1x2304x16x64xf32>) -> tensor<2304x1024xf32> loc(#loc583)
    %584 = "top.Weight"() : () -> tensor<1x1024xf32> loc(#loc584)
    %585 = "top.Weight"() : () -> tensor<1024x1024xf32> loc(#loc585)
    %586 = "top.MatMul"(%583, %585, %584) {do_relu = false, dq_type = "NONE", hdim_is_batch = false, is_lora = false, keep_dims = true, left_transpose = false, output_transpose = false, q_group_size = 0 : i64, relu_limit = -1.000000e+00 : f64, right_transpose = false} : (tensor<2304x1024xf32>, tensor<1024x1024xf32>, tensor<1x1024xf32>) -> tensor<2304x1024xf32> loc(#loc586)
    %587 = "top.Add"(%564, %586) {do_relu = false, is_scalar = false, relu_limit = -1.000000e+00 : f64} : (tensor<2304x1024xf32>, tensor<2304x1024xf32>) -> tensor<2304x1024xf32> loc(#loc587)
    %588 = "top.Weight"() : () -> tensor<1x1024xf32> loc(#loc588)
    %589 = "top.Weight"() : () -> tensor<1x1024xf32> loc(#loc589)
    %590 = "top.LayerNorm"(%587, %588, %589) {axis = 1 : si32, eps = 9.9999999999999995E-7 : f64, normalized_shape = [1024]} : (tensor<2304x1024xf32>, tensor<1x1024xf32>, tensor<1x1024xf32>) -> tensor<2304x1024xf32> loc(#loc590)
    %591 = "top.Weight"() : () -> tensor<1x4096xf32> loc(#loc591)
    %592 = "top.Weight"() : () -> tensor<1024x4096xf32> loc(#loc592)
    %593 = "top.MatMul"(%590, %592, %591) {do_relu = false, dq_type = "NONE", hdim_is_batch = false, is_lora = false, keep_dims = true, left_transpose = false, output_transpose = false, q_group_size = 0 : i64, relu_limit = -1.000000e+00 : f64, right_transpose = false} : (tensor<2304x1024xf32>, tensor<1024x4096xf32>, tensor<1x4096xf32>) -> tensor<2304x4096xf32> loc(#loc593)
    %594 = "top.GELU"(%593) {approx_mode = "tanh", round_mode = "HalfAwayFromZero"} : (tensor<2304x4096xf32>) -> tensor<2304x4096xf32> loc(#loc594)
    %595 = "top.Weight"() : () -> tensor<1x1024xf32> loc(#loc595)
    %596 = "top.Weight"() : () -> tensor<4096x1024xf32> loc(#loc596)
    %597 = "top.MatMul"(%594, %596, %595) {do_relu = false, dq_type = "NONE", hdim_is_batch = false, is_lora = false, keep_dims = true, left_transpose = false, output_transpose = false, q_group_size = 0 : i64, relu_limit = -1.000000e+00 : f64, right_transpose = false} : (tensor<2304x4096xf32>, tensor<4096x1024xf32>, tensor<1x1024xf32>) -> tensor<2304x1024xf32> loc(#loc597)
    %598 = "top.Add"(%587, %597) {do_relu = false, is_scalar = false, relu_limit = -1.000000e+00 : f64} : (tensor<2304x1024xf32>, tensor<2304x1024xf32>) -> tensor<2304x1024xf32> loc(#loc598)
    %599 = "top.Weight"() : () -> tensor<1x1024xf32> loc(#loc599)
    %600 = "top.Weight"() : () -> tensor<1x1024xf32> loc(#loc600)
    %601 = "top.LayerNorm"(%598, %599, %600) {axis = 1 : si32, eps = 9.9999999999999995E-7 : f64, normalized_shape = [1024]} : (tensor<2304x1024xf32>, tensor<1x1024xf32>, tensor<1x1024xf32>) -> tensor<2304x1024xf32> loc(#loc601)
    %602 = "top.Weight"() : () -> tensor<1x1024xf32> loc(#loc602)
    %603 = "top.Weight"() : () -> tensor<1024x1024xf32> loc(#loc603)
    %604 = "top.MatMul"(%601, %603, %602) {do_relu = false, dq_type = "NONE", hdim_is_batch = false, is_lora = false, keep_dims = true, left_transpose = false, output_transpose = false, q_group_size = 0 : i64, relu_limit = -1.000000e+00 : f64, right_transpose = false} : (tensor<2304x1024xf32>, tensor<1024x1024xf32>, tensor<1x1024xf32>) -> tensor<2304x1024xf32> loc(#loc604)
    %605 = "top.Weight"() : () -> tensor<1x1024xf32> loc(#loc605)
    %606 = "top.Weight"() : () -> tensor<1024x1024xf32> loc(#loc606)
    %607 = "top.MatMul"(%601, %606, %605) {do_relu = false, dq_type = "NONE", hdim_is_batch = false, is_lora = false, keep_dims = true, left_transpose = false, output_transpose = false, q_group_size = 0 : i64, relu_limit = -1.000000e+00 : f64, right_transpose = false} : (tensor<2304x1024xf32>, tensor<1024x1024xf32>, tensor<1x1024xf32>) -> tensor<2304x1024xf32> loc(#loc607)
    %608 = "top.Weight"() : () -> tensor<1x1024xf32> loc(#loc608)
    %609 = "top.Weight"() : () -> tensor<1024x1024xf32> loc(#loc609)
    %610 = "top.MatMul"(%601, %609, %608) {do_relu = false, dq_type = "NONE", hdim_is_batch = false, is_lora = false, keep_dims = true, left_transpose = false, output_transpose = false, q_group_size = 0 : i64, relu_limit = -1.000000e+00 : f64, right_transpose = false} : (tensor<2304x1024xf32>, tensor<1024x1024xf32>, tensor<1x1024xf32>) -> tensor<2304x1024xf32> loc(#loc610)
    %611 = "top.Reshape"(%604) {flatten_start_dim = -1 : i64, shape = [1, -1, 16, 64]} : (tensor<2304x1024xf32>) -> tensor<1x2304x16x64xf32> loc(#loc611)
    %612 = "top.Reshape"(%607) {flatten_start_dim = -1 : i64, shape = [1, -1, 16, 64]} : (tensor<2304x1024xf32>) -> tensor<1x2304x16x64xf32> loc(#loc612)
    %613 = "top.Reshape"(%610) {flatten_start_dim = -1 : i64, shape = [1, -1, 16, 64]} : (tensor<2304x1024xf32>) -> tensor<1x2304x16x64xf32> loc(#loc613)
    %614 = "top.Rope"(%611, %20, %16) {add_round_mode = "HalfAwayFromZero", add_saturation = true, add_shift = 0 : si32, force_f32 = true, is_permute_optimize = false, mul1_round_mode = "HalfAwayFromZero", mul1_saturation = true, mul1_shift = 0 : si32, mul2_round_mode = "HalfAwayFromZero", mul2_saturation = true, mul2_shift = 0 : si32, rope_mode = "contiguous_halves"} : (tensor<1x2304x16x64xf32>, tensor<1x2304x1x64xf32>, tensor<1x2304x1x64xf32>) -> tensor<1x2304x16x64xf32> loc(#loc614)
    %615 = "top.Rope"(%612, %20, %16) {add_round_mode = "HalfAwayFromZero", add_saturation = true, add_shift = 0 : si32, force_f32 = true, is_permute_optimize = false, mul1_round_mode = "HalfAwayFromZero", mul1_saturation = true, mul1_shift = 0 : si32, mul2_round_mode = "HalfAwayFromZero", mul2_saturation = true, mul2_shift = 0 : si32, rope_mode = "contiguous_halves"} : (tensor<1x2304x16x64xf32>, tensor<1x2304x1x64xf32>, tensor<1x2304x1x64xf32>) -> tensor<1x2304x16x64xf32> loc(#loc615)
    %616 = "top.FAttention"(%614, %615, %613, %0, %0) {batch = 1 : i64, dim = 64 : i64, keep_dims = true, kv_head = 16 : i64, mk = 2304 : i64, mq = 2304 : i64, q_head = 16 : i64, scale = 1.250000e-01 : f64} : (tensor<1x2304x16x64xf32>, tensor<1x2304x16x64xf32>, tensor<1x2304x16x64xf32>, none, none) -> tensor<1x2304x16x64xf32> loc(#loc616)
    %617 = "top.Reshape"(%616) {flatten_start_dim = -1 : i64, shape = [-1, 1024]} : (tensor<1x2304x16x64xf32>) -> tensor<2304x1024xf32> loc(#loc617)
    %618 = "top.Weight"() : () -> tensor<1x1024xf32> loc(#loc618)
    %619 = "top.Weight"() : () -> tensor<1024x1024xf32> loc(#loc619)
    %620 = "top.MatMul"(%617, %619, %618) {do_relu = false, dq_type = "NONE", hdim_is_batch = false, is_lora = false, keep_dims = true, left_transpose = false, output_transpose = false, q_group_size = 0 : i64, relu_limit = -1.000000e+00 : f64, right_transpose = false} : (tensor<2304x1024xf32>, tensor<1024x1024xf32>, tensor<1x1024xf32>) -> tensor<2304x1024xf32> loc(#loc620)
    %621 = "top.Add"(%598, %620) {do_relu = false, is_scalar = false, relu_limit = -1.000000e+00 : f64} : (tensor<2304x1024xf32>, tensor<2304x1024xf32>) -> tensor<2304x1024xf32> loc(#loc621)
    %622 = "top.Weight"() : () -> tensor<1x1024xf32> loc(#loc622)
    %623 = "top.Weight"() : () -> tensor<1x1024xf32> loc(#loc623)
    %624 = "top.LayerNorm"(%621, %622, %623) {axis = 1 : si32, eps = 9.9999999999999995E-7 : f64, normalized_shape = [1024]} : (tensor<2304x1024xf32>, tensor<1x1024xf32>, tensor<1x1024xf32>) -> tensor<2304x1024xf32> loc(#loc624)
    %625 = "top.Weight"() : () -> tensor<1x4096xf32> loc(#loc625)
    %626 = "top.Weight"() : () -> tensor<1024x4096xf32> loc(#loc626)
    %627 = "top.MatMul"(%624, %626, %625) {do_relu = false, dq_type = "NONE", hdim_is_batch = false, is_lora = false, keep_dims = true, left_transpose = false, output_transpose = false, q_group_size = 0 : i64, relu_limit = -1.000000e+00 : f64, right_transpose = false} : (tensor<2304x1024xf32>, tensor<1024x4096xf32>, tensor<1x4096xf32>) -> tensor<2304x4096xf32> loc(#loc627)
    %628 = "top.GELU"(%627) {approx_mode = "tanh", round_mode = "HalfAwayFromZero"} : (tensor<2304x4096xf32>) -> tensor<2304x4096xf32> loc(#loc628)
    %629 = "top.Weight"() : () -> tensor<1x1024xf32> loc(#loc629)
    %630 = "top.Weight"() : () -> tensor<4096x1024xf32> loc(#loc630)
    %631 = "top.MatMul"(%628, %630, %629) {do_relu = false, dq_type = "NONE", hdim_is_batch = false, is_lora = false, keep_dims = true, left_transpose = false, output_transpose = false, q_group_size = 0 : i64, relu_limit = -1.000000e+00 : f64, right_transpose = false} : (tensor<2304x4096xf32>, tensor<4096x1024xf32>, tensor<1x1024xf32>) -> tensor<2304x1024xf32> loc(#loc631)
    %632 = "top.Add"(%621, %631) {do_relu = false, is_scalar = false, relu_limit = -1.000000e+00 : f64} : (tensor<2304x1024xf32>, tensor<2304x1024xf32>) -> tensor<2304x1024xf32> loc(#loc632)
    %633 = "top.Weight"() : () -> tensor<1x1024xf32> loc(#loc633)
    %634 = "top.Weight"() : () -> tensor<1x1024xf32> loc(#loc634)
    %635 = "top.LayerNorm"(%632, %633, %634) {axis = 1 : si32, eps = 9.9999999999999995E-7 : f64, normalized_shape = [1024]} : (tensor<2304x1024xf32>, tensor<1x1024xf32>, tensor<1x1024xf32>) -> tensor<2304x1024xf32> loc(#loc635)
    %636 = "top.Weight"() : () -> tensor<1x1024xf32> loc(#loc636)
    %637 = "top.Weight"() : () -> tensor<1024x1024xf32> loc(#loc637)
    %638 = "top.MatMul"(%635, %637, %636) {do_relu = false, dq_type = "NONE", hdim_is_batch = false, is_lora = false, keep_dims = true, left_transpose = false, output_transpose = false, q_group_size = 0 : i64, relu_limit = -1.000000e+00 : f64, right_transpose = false} : (tensor<2304x1024xf32>, tensor<1024x1024xf32>, tensor<1x1024xf32>) -> tensor<2304x1024xf32> loc(#loc638)
    %639 = "top.Weight"() : () -> tensor<1x1024xf32> loc(#loc639)
    %640 = "top.Weight"() : () -> tensor<1024x1024xf32> loc(#loc640)
    %641 = "top.MatMul"(%635, %640, %639) {do_relu = false, dq_type = "NONE", hdim_is_batch = false, is_lora = false, keep_dims = true, left_transpose = false, output_transpose = false, q_group_size = 0 : i64, relu_limit = -1.000000e+00 : f64, right_transpose = false} : (tensor<2304x1024xf32>, tensor<1024x1024xf32>, tensor<1x1024xf32>) -> tensor<2304x1024xf32> loc(#loc641)
    %642 = "top.Weight"() : () -> tensor<1x1024xf32> loc(#loc642)
    %643 = "top.Weight"() : () -> tensor<1024x1024xf32> loc(#loc643)
    %644 = "top.MatMul"(%635, %643, %642) {do_relu = false, dq_type = "NONE", hdim_is_batch = false, is_lora = false, keep_dims = true, left_transpose = false, output_transpose = false, q_group_size = 0 : i64, relu_limit = -1.000000e+00 : f64, right_transpose = false} : (tensor<2304x1024xf32>, tensor<1024x1024xf32>, tensor<1x1024xf32>) -> tensor<2304x1024xf32> loc(#loc644)
    %645 = "top.Reshape"(%638) {flatten_start_dim = -1 : i64, shape = [1, -1, 16, 64]} : (tensor<2304x1024xf32>) -> tensor<1x2304x16x64xf32> loc(#loc645)
    %646 = "top.Reshape"(%641) {flatten_start_dim = -1 : i64, shape = [1, -1, 16, 64]} : (tensor<2304x1024xf32>) -> tensor<1x2304x16x64xf32> loc(#loc646)
    %647 = "top.Reshape"(%644) {flatten_start_dim = -1 : i64, shape = [1, -1, 16, 64]} : (tensor<2304x1024xf32>) -> tensor<1x2304x16x64xf32> loc(#loc647)
    %648 = "top.Rope"(%645, %20, %16) {add_round_mode = "HalfAwayFromZero", add_saturation = true, add_shift = 0 : si32, force_f32 = true, is_permute_optimize = false, mul1_round_mode = "HalfAwayFromZero", mul1_saturation = true, mul1_shift = 0 : si32, mul2_round_mode = "HalfAwayFromZero", mul2_saturation = true, mul2_shift = 0 : si32, rope_mode = "contiguous_halves"} : (tensor<1x2304x16x64xf32>, tensor<1x2304x1x64xf32>, tensor<1x2304x1x64xf32>) -> tensor<1x2304x16x64xf32> loc(#loc648)
    %649 = "top.Rope"(%646, %20, %16) {add_round_mode = "HalfAwayFromZero", add_saturation = true, add_shift = 0 : si32, force_f32 = true, is_permute_optimize = false, mul1_round_mode = "HalfAwayFromZero", mul1_saturation = true, mul1_shift = 0 : si32, mul2_round_mode = "HalfAwayFromZero", mul2_saturation = true, mul2_shift = 0 : si32, rope_mode = "contiguous_halves"} : (tensor<1x2304x16x64xf32>, tensor<1x2304x1x64xf32>, tensor<1x2304x1x64xf32>) -> tensor<1x2304x16x64xf32> loc(#loc649)
    %650 = "top.FAttention"(%648, %649, %647, %0, %0) {batch = 1 : i64, dim = 64 : i64, keep_dims = true, kv_head = 16 : i64, mk = 2304 : i64, mq = 2304 : i64, q_head = 16 : i64, scale = 1.250000e-01 : f64} : (tensor<1x2304x16x64xf32>, tensor<1x2304x16x64xf32>, tensor<1x2304x16x64xf32>, none, none) -> tensor<1x2304x16x64xf32> loc(#loc650)
    %651 = "top.Reshape"(%650) {flatten_start_dim = -1 : i64, shape = [-1, 1024]} : (tensor<1x2304x16x64xf32>) -> tensor<2304x1024xf32> loc(#loc651)
    %652 = "top.Weight"() : () -> tensor<1x1024xf32> loc(#loc652)
    %653 = "top.Weight"() : () -> tensor<1024x1024xf32> loc(#loc653)
    %654 = "top.MatMul"(%651, %653, %652) {do_relu = false, dq_type = "NONE", hdim_is_batch = false, is_lora = false, keep_dims = true, left_transpose = false, output_transpose = false, q_group_size = 0 : i64, relu_limit = -1.000000e+00 : f64, right_transpose = false} : (tensor<2304x1024xf32>, tensor<1024x1024xf32>, tensor<1x1024xf32>) -> tensor<2304x1024xf32> loc(#loc654)
    %655 = "top.Add"(%632, %654) {do_relu = false, is_scalar = false, relu_limit = -1.000000e+00 : f64} : (tensor<2304x1024xf32>, tensor<2304x1024xf32>) -> tensor<2304x1024xf32> loc(#loc655)
    %656 = "top.Weight"() : () -> tensor<1x1024xf32> loc(#loc656)
    %657 = "top.Weight"() : () -> tensor<1x1024xf32> loc(#loc657)
    %658 = "top.LayerNorm"(%655, %656, %657) {axis = 1 : si32, eps = 9.9999999999999995E-7 : f64, normalized_shape = [1024]} : (tensor<2304x1024xf32>, tensor<1x1024xf32>, tensor<1x1024xf32>) -> tensor<2304x1024xf32> loc(#loc658)
    %659 = "top.Weight"() : () -> tensor<1x4096xf32> loc(#loc659)
    %660 = "top.Weight"() : () -> tensor<1024x4096xf32> loc(#loc660)
    %661 = "top.MatMul"(%658, %660, %659) {do_relu = false, dq_type = "NONE", hdim_is_batch = false, is_lora = false, keep_dims = true, left_transpose = false, output_transpose = false, q_group_size = 0 : i64, relu_limit = -1.000000e+00 : f64, right_transpose = false} : (tensor<2304x1024xf32>, tensor<1024x4096xf32>, tensor<1x4096xf32>) -> tensor<2304x4096xf32> loc(#loc661)
    %662 = "top.GELU"(%661) {approx_mode = "tanh", round_mode = "HalfAwayFromZero"} : (tensor<2304x4096xf32>) -> tensor<2304x4096xf32> loc(#loc662)
    %663 = "top.Weight"() : () -> tensor<1x1024xf32> loc(#loc663)
    %664 = "top.Weight"() : () -> tensor<4096x1024xf32> loc(#loc664)
    %665 = "top.MatMul"(%662, %664, %663) {do_relu = false, dq_type = "NONE", hdim_is_batch = false, is_lora = false, keep_dims = true, left_transpose = false, output_transpose = false, q_group_size = 0 : i64, relu_limit = -1.000000e+00 : f64, right_transpose = false} : (tensor<2304x4096xf32>, tensor<4096x1024xf32>, tensor<1x1024xf32>) -> tensor<2304x1024xf32> loc(#loc665)
    %666 = "top.Add"(%655, %665) {do_relu = false, is_scalar = false, relu_limit = -1.000000e+00 : f64} : (tensor<2304x1024xf32>, tensor<2304x1024xf32>) -> tensor<2304x1024xf32> loc(#loc666)
    %667 = "top.Weight"() : () -> tensor<1x1024xf32> loc(#loc667)
    %668 = "top.Weight"() : () -> tensor<1x1024xf32> loc(#loc668)
    %669 = "top.LayerNorm"(%666, %667, %668) {axis = 1 : si32, eps = 9.9999999999999995E-7 : f64, normalized_shape = [1024]} : (tensor<2304x1024xf32>, tensor<1x1024xf32>, tensor<1x1024xf32>) -> tensor<2304x1024xf32> loc(#loc669)
    %670 = "top.Weight"() : () -> tensor<1x1024xf32> loc(#loc670)
    %671 = "top.Weight"() : () -> tensor<1024x1024xf32> loc(#loc671)
    %672 = "top.MatMul"(%669, %671, %670) {do_relu = false, dq_type = "NONE", hdim_is_batch = false, is_lora = false, keep_dims = true, left_transpose = false, output_transpose = false, q_group_size = 0 : i64, relu_limit = -1.000000e+00 : f64, right_transpose = false} : (tensor<2304x1024xf32>, tensor<1024x1024xf32>, tensor<1x1024xf32>) -> tensor<2304x1024xf32> loc(#loc672)
    %673 = "top.Weight"() : () -> tensor<1x1024xf32> loc(#loc673)
    %674 = "top.Weight"() : () -> tensor<1024x1024xf32> loc(#loc674)
    %675 = "top.MatMul"(%669, %674, %673) {do_relu = false, dq_type = "NONE", hdim_is_batch = false, is_lora = false, keep_dims = true, left_transpose = false, output_transpose = false, q_group_size = 0 : i64, relu_limit = -1.000000e+00 : f64, right_transpose = false} : (tensor<2304x1024xf32>, tensor<1024x1024xf32>, tensor<1x1024xf32>) -> tensor<2304x1024xf32> loc(#loc675)
    %676 = "top.Weight"() : () -> tensor<1x1024xf32> loc(#loc676)
    %677 = "top.Weight"() : () -> tensor<1024x1024xf32> loc(#loc677)
    %678 = "top.MatMul"(%669, %677, %676) {do_relu = false, dq_type = "NONE", hdim_is_batch = false, is_lora = false, keep_dims = true, left_transpose = false, output_transpose = false, q_group_size = 0 : i64, relu_limit = -1.000000e+00 : f64, right_transpose = false} : (tensor<2304x1024xf32>, tensor<1024x1024xf32>, tensor<1x1024xf32>) -> tensor<2304x1024xf32> loc(#loc678)
    %679 = "top.Reshape"(%672) {flatten_start_dim = -1 : i64, shape = [1, -1, 16, 64]} : (tensor<2304x1024xf32>) -> tensor<1x2304x16x64xf32> loc(#loc679)
    %680 = "top.Reshape"(%675) {flatten_start_dim = -1 : i64, shape = [1, -1, 16, 64]} : (tensor<2304x1024xf32>) -> tensor<1x2304x16x64xf32> loc(#loc680)
    %681 = "top.Reshape"(%678) {flatten_start_dim = -1 : i64, shape = [1, -1, 16, 64]} : (tensor<2304x1024xf32>) -> tensor<1x2304x16x64xf32> loc(#loc681)
    %682 = "top.Rope"(%679, %20, %16) {add_round_mode = "HalfAwayFromZero", add_saturation = true, add_shift = 0 : si32, force_f32 = true, is_permute_optimize = false, mul1_round_mode = "HalfAwayFromZero", mul1_saturation = true, mul1_shift = 0 : si32, mul2_round_mode = "HalfAwayFromZero", mul2_saturation = true, mul2_shift = 0 : si32, rope_mode = "contiguous_halves"} : (tensor<1x2304x16x64xf32>, tensor<1x2304x1x64xf32>, tensor<1x2304x1x64xf32>) -> tensor<1x2304x16x64xf32> loc(#loc682)
    %683 = "top.Rope"(%680, %20, %16) {add_round_mode = "HalfAwayFromZero", add_saturation = true, add_shift = 0 : si32, force_f32 = true, is_permute_optimize = false, mul1_round_mode = "HalfAwayFromZero", mul1_saturation = true, mul1_shift = 0 : si32, mul2_round_mode = "HalfAwayFromZero", mul2_saturation = true, mul2_shift = 0 : si32, rope_mode = "contiguous_halves"} : (tensor<1x2304x16x64xf32>, tensor<1x2304x1x64xf32>, tensor<1x2304x1x64xf32>) -> tensor<1x2304x16x64xf32> loc(#loc683)
    %684 = "top.FAttention"(%682, %683, %681, %0, %0) {batch = 1 : i64, dim = 64 : i64, keep_dims = true, kv_head = 16 : i64, mk = 2304 : i64, mq = 2304 : i64, q_head = 16 : i64, scale = 1.250000e-01 : f64} : (tensor<1x2304x16x64xf32>, tensor<1x2304x16x64xf32>, tensor<1x2304x16x64xf32>, none, none) -> tensor<1x2304x16x64xf32> loc(#loc684)
    %685 = "top.Reshape"(%684) {flatten_start_dim = -1 : i64, shape = [-1, 1024]} : (tensor<1x2304x16x64xf32>) -> tensor<2304x1024xf32> loc(#loc685)
    %686 = "top.Weight"() : () -> tensor<1x1024xf32> loc(#loc686)
    %687 = "top.Weight"() : () -> tensor<1024x1024xf32> loc(#loc687)
    %688 = "top.MatMul"(%685, %687, %686) {do_relu = false, dq_type = "NONE", hdim_is_batch = false, is_lora = false, keep_dims = true, left_transpose = false, output_transpose = false, q_group_size = 0 : i64, relu_limit = -1.000000e+00 : f64, right_transpose = false} : (tensor<2304x1024xf32>, tensor<1024x1024xf32>, tensor<1x1024xf32>) -> tensor<2304x1024xf32> loc(#loc688)
    %689 = "top.Add"(%666, %688) {do_relu = false, is_scalar = false, relu_limit = -1.000000e+00 : f64} : (tensor<2304x1024xf32>, tensor<2304x1024xf32>) -> tensor<2304x1024xf32> loc(#loc689)
    %690 = "top.Weight"() : () -> tensor<1x1024xf32> loc(#loc690)
    %691 = "top.Weight"() : () -> tensor<1x1024xf32> loc(#loc691)
    %692 = "top.LayerNorm"(%689, %690, %691) {axis = 1 : si32, eps = 9.9999999999999995E-7 : f64, normalized_shape = [1024]} : (tensor<2304x1024xf32>, tensor<1x1024xf32>, tensor<1x1024xf32>) -> tensor<2304x1024xf32> loc(#loc692)
    %693 = "top.Weight"() : () -> tensor<1x4096xf32> loc(#loc693)
    %694 = "top.Weight"() : () -> tensor<1024x4096xf32> loc(#loc694)
    %695 = "top.MatMul"(%692, %694, %693) {do_relu = false, dq_type = "NONE", hdim_is_batch = false, is_lora = false, keep_dims = true, left_transpose = false, output_transpose = false, q_group_size = 0 : i64, relu_limit = -1.000000e+00 : f64, right_transpose = false} : (tensor<2304x1024xf32>, tensor<1024x4096xf32>, tensor<1x4096xf32>) -> tensor<2304x4096xf32> loc(#loc695)
    %696 = "top.GELU"(%695) {approx_mode = "tanh", round_mode = "HalfAwayFromZero"} : (tensor<2304x4096xf32>) -> tensor<2304x4096xf32> loc(#loc696)
    %697 = "top.Weight"() : () -> tensor<1x1024xf32> loc(#loc697)
    %698 = "top.Weight"() : () -> tensor<4096x1024xf32> loc(#loc698)
    %699 = "top.MatMul"(%696, %698, %697) {do_relu = false, dq_type = "NONE", hdim_is_batch = false, is_lora = false, keep_dims = true, left_transpose = false, output_transpose = false, q_group_size = 0 : i64, relu_limit = -1.000000e+00 : f64, right_transpose = false} : (tensor<2304x4096xf32>, tensor<4096x1024xf32>, tensor<1x1024xf32>) -> tensor<2304x1024xf32> loc(#loc699)
    %700 = "top.Add"(%689, %699) {do_relu = false, is_scalar = false, relu_limit = -1.000000e+00 : f64} : (tensor<2304x1024xf32>, tensor<2304x1024xf32>) -> tensor<2304x1024xf32> loc(#loc700)
    %701 = "top.Weight"() : () -> tensor<1x1024xf32> loc(#loc701)
    %702 = "top.Weight"() : () -> tensor<1x1024xf32> loc(#loc702)
    %703 = "top.LayerNorm"(%700, %701, %702) {axis = 1 : si32, eps = 9.9999999999999995E-7 : f64, normalized_shape = [1024]} : (tensor<2304x1024xf32>, tensor<1x1024xf32>, tensor<1x1024xf32>) -> tensor<2304x1024xf32> loc(#loc703)
    %704 = "top.Weight"() : () -> tensor<1x1024xf32> loc(#loc704)
    %705 = "top.Weight"() : () -> tensor<1024x1024xf32> loc(#loc705)
    %706 = "top.MatMul"(%703, %705, %704) {do_relu = false, dq_type = "NONE", hdim_is_batch = false, is_lora = false, keep_dims = true, left_transpose = false, output_transpose = false, q_group_size = 0 : i64, relu_limit = -1.000000e+00 : f64, right_transpose = false} : (tensor<2304x1024xf32>, tensor<1024x1024xf32>, tensor<1x1024xf32>) -> tensor<2304x1024xf32> loc(#loc706)
    %707 = "top.Weight"() : () -> tensor<1x1024xf32> loc(#loc707)
    %708 = "top.Weight"() : () -> tensor<1024x1024xf32> loc(#loc708)
    %709 = "top.MatMul"(%703, %708, %707) {do_relu = false, dq_type = "NONE", hdim_is_batch = false, is_lora = false, keep_dims = true, left_transpose = false, output_transpose = false, q_group_size = 0 : i64, relu_limit = -1.000000e+00 : f64, right_transpose = false} : (tensor<2304x1024xf32>, tensor<1024x1024xf32>, tensor<1x1024xf32>) -> tensor<2304x1024xf32> loc(#loc709)
    %710 = "top.Weight"() : () -> tensor<1x1024xf32> loc(#loc710)
    %711 = "top.Weight"() : () -> tensor<1024x1024xf32> loc(#loc711)
    %712 = "top.MatMul"(%703, %711, %710) {do_relu = false, dq_type = "NONE", hdim_is_batch = false, is_lora = false, keep_dims = true, left_transpose = false, output_transpose = false, q_group_size = 0 : i64, relu_limit = -1.000000e+00 : f64, right_transpose = false} : (tensor<2304x1024xf32>, tensor<1024x1024xf32>, tensor<1x1024xf32>) -> tensor<2304x1024xf32> loc(#loc712)
    %713 = "top.Reshape"(%706) {flatten_start_dim = -1 : i64, shape = [1, -1, 16, 64]} : (tensor<2304x1024xf32>) -> tensor<1x2304x16x64xf32> loc(#loc713)
    %714 = "top.Reshape"(%709) {flatten_start_dim = -1 : i64, shape = [1, -1, 16, 64]} : (tensor<2304x1024xf32>) -> tensor<1x2304x16x64xf32> loc(#loc714)
    %715 = "top.Reshape"(%712) {flatten_start_dim = -1 : i64, shape = [1, -1, 16, 64]} : (tensor<2304x1024xf32>) -> tensor<1x2304x16x64xf32> loc(#loc715)
    %716 = "top.Rope"(%713, %20, %16) {add_round_mode = "HalfAwayFromZero", add_saturation = true, add_shift = 0 : si32, force_f32 = true, is_permute_optimize = false, mul1_round_mode = "HalfAwayFromZero", mul1_saturation = true, mul1_shift = 0 : si32, mul2_round_mode = "HalfAwayFromZero", mul2_saturation = true, mul2_shift = 0 : si32, rope_mode = "contiguous_halves"} : (tensor<1x2304x16x64xf32>, tensor<1x2304x1x64xf32>, tensor<1x2304x1x64xf32>) -> tensor<1x2304x16x64xf32> loc(#loc716)
    %717 = "top.Rope"(%714, %20, %16) {add_round_mode = "HalfAwayFromZero", add_saturation = true, add_shift = 0 : si32, force_f32 = true, is_permute_optimize = false, mul1_round_mode = "HalfAwayFromZero", mul1_saturation = true, mul1_shift = 0 : si32, mul2_round_mode = "HalfAwayFromZero", mul2_saturation = true, mul2_shift = 0 : si32, rope_mode = "contiguous_halves"} : (tensor<1x2304x16x64xf32>, tensor<1x2304x1x64xf32>, tensor<1x2304x1x64xf32>) -> tensor<1x2304x16x64xf32> loc(#loc717)
    %718 = "top.FAttention"(%716, %717, %715, %0, %0) {batch = 1 : i64, dim = 64 : i64, keep_dims = true, kv_head = 16 : i64, mk = 2304 : i64, mq = 2304 : i64, q_head = 16 : i64, scale = 1.250000e-01 : f64} : (tensor<1x2304x16x64xf32>, tensor<1x2304x16x64xf32>, tensor<1x2304x16x64xf32>, none, none) -> tensor<1x2304x16x64xf32> loc(#loc718)
    %719 = "top.Reshape"(%718) {flatten_start_dim = -1 : i64, shape = [-1, 1024]} : (tensor<1x2304x16x64xf32>) -> tensor<2304x1024xf32> loc(#loc719)
    %720 = "top.Weight"() : () -> tensor<1x1024xf32> loc(#loc720)
    %721 = "top.Weight"() : () -> tensor<1024x1024xf32> loc(#loc721)
    %722 = "top.MatMul"(%719, %721, %720) {do_relu = false, dq_type = "NONE", hdim_is_batch = false, is_lora = false, keep_dims = true, left_transpose = false, output_transpose = false, q_group_size = 0 : i64, relu_limit = -1.000000e+00 : f64, right_transpose = false} : (tensor<2304x1024xf32>, tensor<1024x1024xf32>, tensor<1x1024xf32>) -> tensor<2304x1024xf32> loc(#loc722)
    %723 = "top.Add"(%700, %722) {do_relu = false, is_scalar = false, relu_limit = -1.000000e+00 : f64} : (tensor<2304x1024xf32>, tensor<2304x1024xf32>) -> tensor<2304x1024xf32> loc(#loc723)
    %724 = "top.Weight"() : () -> tensor<1x1024xf32> loc(#loc724)
    %725 = "top.Weight"() : () -> tensor<1x1024xf32> loc(#loc725)
    %726 = "top.LayerNorm"(%723, %724, %725) {axis = 1 : si32, eps = 9.9999999999999995E-7 : f64, normalized_shape = [1024]} : (tensor<2304x1024xf32>, tensor<1x1024xf32>, tensor<1x1024xf32>) -> tensor<2304x1024xf32> loc(#loc726)
    %727 = "top.Weight"() : () -> tensor<1x4096xf32> loc(#loc727)
    %728 = "top.Weight"() : () -> tensor<1024x4096xf32> loc(#loc728)
    %729 = "top.MatMul"(%726, %728, %727) {do_relu = false, dq_type = "NONE", hdim_is_batch = false, is_lora = false, keep_dims = true, left_transpose = false, output_transpose = false, q_group_size = 0 : i64, relu_limit = -1.000000e+00 : f64, right_transpose = false} : (tensor<2304x1024xf32>, tensor<1024x4096xf32>, tensor<1x4096xf32>) -> tensor<2304x4096xf32> loc(#loc729)
    %730 = "top.GELU"(%729) {approx_mode = "tanh", round_mode = "HalfAwayFromZero"} : (tensor<2304x4096xf32>) -> tensor<2304x4096xf32> loc(#loc730)
    %731 = "top.Weight"() : () -> tensor<1x1024xf32> loc(#loc731)
    %732 = "top.Weight"() : () -> tensor<4096x1024xf32> loc(#loc732)
    %733 = "top.MatMul"(%730, %732, %731) {do_relu = false, dq_type = "NONE", hdim_is_batch = false, is_lora = false, keep_dims = true, left_transpose = false, output_transpose = false, q_group_size = 0 : i64, relu_limit = -1.000000e+00 : f64, right_transpose = false} : (tensor<2304x4096xf32>, tensor<4096x1024xf32>, tensor<1x1024xf32>) -> tensor<2304x1024xf32> loc(#loc733)
    %734 = "top.Add"(%723, %733) {do_relu = false, is_scalar = false, relu_limit = -1.000000e+00 : f64} : (tensor<2304x1024xf32>, tensor<2304x1024xf32>) -> tensor<2304x1024xf32> loc(#loc734)
    %735 = "top.Weight"() : () -> tensor<1x1024xf32> loc(#loc735)
    %736 = "top.Weight"() : () -> tensor<1x1024xf32> loc(#loc736)
    %737 = "top.LayerNorm"(%734, %735, %736) {axis = 1 : si32, eps = 9.9999999999999995E-7 : f64, normalized_shape = [1024]} : (tensor<2304x1024xf32>, tensor<1x1024xf32>, tensor<1x1024xf32>) -> tensor<2304x1024xf32> loc(#loc737)
    %738 = "top.Weight"() : () -> tensor<1x1024xf32> loc(#loc738)
    %739 = "top.Weight"() : () -> tensor<1024x1024xf32> loc(#loc739)
    %740 = "top.MatMul"(%737, %739, %738) {do_relu = false, dq_type = "NONE", hdim_is_batch = false, is_lora = false, keep_dims = true, left_transpose = false, output_transpose = false, q_group_size = 0 : i64, relu_limit = -1.000000e+00 : f64, right_transpose = false} : (tensor<2304x1024xf32>, tensor<1024x1024xf32>, tensor<1x1024xf32>) -> tensor<2304x1024xf32> loc(#loc740)
    %741 = "top.Weight"() : () -> tensor<1x1024xf32> loc(#loc741)
    %742 = "top.Weight"() : () -> tensor<1024x1024xf32> loc(#loc742)
    %743 = "top.MatMul"(%737, %742, %741) {do_relu = false, dq_type = "NONE", hdim_is_batch = false, is_lora = false, keep_dims = true, left_transpose = false, output_transpose = false, q_group_size = 0 : i64, relu_limit = -1.000000e+00 : f64, right_transpose = false} : (tensor<2304x1024xf32>, tensor<1024x1024xf32>, tensor<1x1024xf32>) -> tensor<2304x1024xf32> loc(#loc743)
    %744 = "top.Weight"() : () -> tensor<1x1024xf32> loc(#loc744)
    %745 = "top.Weight"() : () -> tensor<1024x1024xf32> loc(#loc745)
    %746 = "top.MatMul"(%737, %745, %744) {do_relu = false, dq_type = "NONE", hdim_is_batch = false, is_lora = false, keep_dims = true, left_transpose = false, output_transpose = false, q_group_size = 0 : i64, relu_limit = -1.000000e+00 : f64, right_transpose = false} : (tensor<2304x1024xf32>, tensor<1024x1024xf32>, tensor<1x1024xf32>) -> tensor<2304x1024xf32> loc(#loc746)
    %747 = "top.Reshape"(%740) {flatten_start_dim = -1 : i64, shape = [1, -1, 16, 64]} : (tensor<2304x1024xf32>) -> tensor<1x2304x16x64xf32> loc(#loc747)
    %748 = "top.Reshape"(%743) {flatten_start_dim = -1 : i64, shape = [1, -1, 16, 64]} : (tensor<2304x1024xf32>) -> tensor<1x2304x16x64xf32> loc(#loc748)
    %749 = "top.Reshape"(%746) {flatten_start_dim = -1 : i64, shape = [1, -1, 16, 64]} : (tensor<2304x1024xf32>) -> tensor<1x2304x16x64xf32> loc(#loc749)
    %750 = "top.Rope"(%747, %20, %16) {add_round_mode = "HalfAwayFromZero", add_saturation = true, add_shift = 0 : si32, force_f32 = true, is_permute_optimize = false, mul1_round_mode = "HalfAwayFromZero", mul1_saturation = true, mul1_shift = 0 : si32, mul2_round_mode = "HalfAwayFromZero", mul2_saturation = true, mul2_shift = 0 : si32, rope_mode = "contiguous_halves"} : (tensor<1x2304x16x64xf32>, tensor<1x2304x1x64xf32>, tensor<1x2304x1x64xf32>) -> tensor<1x2304x16x64xf32> loc(#loc750)
    %751 = "top.Rope"(%748, %20, %16) {add_round_mode = "HalfAwayFromZero", add_saturation = true, add_shift = 0 : si32, force_f32 = true, is_permute_optimize = false, mul1_round_mode = "HalfAwayFromZero", mul1_saturation = true, mul1_shift = 0 : si32, mul2_round_mode = "HalfAwayFromZero", mul2_saturation = true, mul2_shift = 0 : si32, rope_mode = "contiguous_halves"} : (tensor<1x2304x16x64xf32>, tensor<1x2304x1x64xf32>, tensor<1x2304x1x64xf32>) -> tensor<1x2304x16x64xf32> loc(#loc751)
    %752 = "top.FAttention"(%750, %751, %749, %0, %0) {batch = 1 : i64, dim = 64 : i64, keep_dims = true, kv_head = 16 : i64, mk = 2304 : i64, mq = 2304 : i64, q_head = 16 : i64, scale = 1.250000e-01 : f64} : (tensor<1x2304x16x64xf32>, tensor<1x2304x16x64xf32>, tensor<1x2304x16x64xf32>, none, none) -> tensor<1x2304x16x64xf32> loc(#loc752)
    %753 = "top.Reshape"(%752) {flatten_start_dim = -1 : i64, shape = [-1, 1024]} : (tensor<1x2304x16x64xf32>) -> tensor<2304x1024xf32> loc(#loc753)
    %754 = "top.Weight"() : () -> tensor<1x1024xf32> loc(#loc754)
    %755 = "top.Weight"() : () -> tensor<1024x1024xf32> loc(#loc755)
    %756 = "top.MatMul"(%753, %755, %754) {do_relu = false, dq_type = "NONE", hdim_is_batch = false, is_lora = false, keep_dims = true, left_transpose = false, output_transpose = false, q_group_size = 0 : i64, relu_limit = -1.000000e+00 : f64, right_transpose = false} : (tensor<2304x1024xf32>, tensor<1024x1024xf32>, tensor<1x1024xf32>) -> tensor<2304x1024xf32> loc(#loc756)
    %757 = "top.Add"(%734, %756) {do_relu = false, is_scalar = false, relu_limit = -1.000000e+00 : f64} : (tensor<2304x1024xf32>, tensor<2304x1024xf32>) -> tensor<2304x1024xf32> loc(#loc757)
    %758 = "top.Weight"() : () -> tensor<1x1024xf32> loc(#loc758)
    %759 = "top.Weight"() : () -> tensor<1x1024xf32> loc(#loc759)
    %760 = "top.LayerNorm"(%757, %758, %759) {axis = 1 : si32, eps = 9.9999999999999995E-7 : f64, normalized_shape = [1024]} : (tensor<2304x1024xf32>, tensor<1x1024xf32>, tensor<1x1024xf32>) -> tensor<2304x1024xf32> loc(#loc760)
    %761 = "top.Weight"() : () -> tensor<1x4096xf32> loc(#loc761)
    %762 = "top.Weight"() : () -> tensor<1024x4096xf32> loc(#loc762)
    %763 = "top.MatMul"(%760, %762, %761) {do_relu = false, dq_type = "NONE", hdim_is_batch = false, is_lora = false, keep_dims = true, left_transpose = false, output_transpose = false, q_group_size = 0 : i64, relu_limit = -1.000000e+00 : f64, right_transpose = false} : (tensor<2304x1024xf32>, tensor<1024x4096xf32>, tensor<1x4096xf32>) -> tensor<2304x4096xf32> loc(#loc763)
    %764 = "top.GELU"(%763) {approx_mode = "tanh", round_mode = "HalfAwayFromZero"} : (tensor<2304x4096xf32>) -> tensor<2304x4096xf32> loc(#loc764)
    %765 = "top.Weight"() : () -> tensor<1x1024xf32> loc(#loc765)
    %766 = "top.Weight"() : () -> tensor<4096x1024xf32> loc(#loc766)
    %767 = "top.MatMul"(%764, %766, %765) {do_relu = false, dq_type = "NONE", hdim_is_batch = false, is_lora = false, keep_dims = true, left_transpose = false, output_transpose = false, q_group_size = 0 : i64, relu_limit = -1.000000e+00 : f64, right_transpose = false} : (tensor<2304x4096xf32>, tensor<4096x1024xf32>, tensor<1x1024xf32>) -> tensor<2304x1024xf32> loc(#loc767)
    %768 = "top.Add"(%757, %767) {do_relu = false, is_scalar = false, relu_limit = -1.000000e+00 : f64} : (tensor<2304x1024xf32>, tensor<2304x1024xf32>) -> tensor<2304x1024xf32> loc(#loc768)
    %769 = "top.Weight"() : () -> tensor<1x1024xf32> loc(#loc769)
    %770 = "top.Weight"() : () -> tensor<1x1024xf32> loc(#loc770)
    %771 = "top.LayerNorm"(%768, %769, %770) {axis = 1 : si32, eps = 9.9999999999999995E-7 : f64, normalized_shape = [1024]} : (tensor<2304x1024xf32>, tensor<1x1024xf32>, tensor<1x1024xf32>) -> tensor<2304x1024xf32> loc(#loc771)
    %772 = "top.Weight"() : () -> tensor<1x1024xf32> loc(#loc772)
    %773 = "top.Weight"() : () -> tensor<1024x1024xf32> loc(#loc773)
    %774 = "top.MatMul"(%771, %773, %772) {do_relu = false, dq_type = "NONE", hdim_is_batch = false, is_lora = false, keep_dims = true, left_transpose = false, output_transpose = false, q_group_size = 0 : i64, relu_limit = -1.000000e+00 : f64, right_transpose = false} : (tensor<2304x1024xf32>, tensor<1024x1024xf32>, tensor<1x1024xf32>) -> tensor<2304x1024xf32> loc(#loc774)
    %775 = "top.Weight"() : () -> tensor<1x1024xf32> loc(#loc775)
    %776 = "top.Weight"() : () -> tensor<1024x1024xf32> loc(#loc776)
    %777 = "top.MatMul"(%771, %776, %775) {do_relu = false, dq_type = "NONE", hdim_is_batch = false, is_lora = false, keep_dims = true, left_transpose = false, output_transpose = false, q_group_size = 0 : i64, relu_limit = -1.000000e+00 : f64, right_transpose = false} : (tensor<2304x1024xf32>, tensor<1024x1024xf32>, tensor<1x1024xf32>) -> tensor<2304x1024xf32> loc(#loc777)
    %778 = "top.Weight"() : () -> tensor<1x1024xf32> loc(#loc778)
    %779 = "top.Weight"() : () -> tensor<1024x1024xf32> loc(#loc779)
    %780 = "top.MatMul"(%771, %779, %778) {do_relu = false, dq_type = "NONE", hdim_is_batch = false, is_lora = false, keep_dims = true, left_transpose = false, output_transpose = false, q_group_size = 0 : i64, relu_limit = -1.000000e+00 : f64, right_transpose = false} : (tensor<2304x1024xf32>, tensor<1024x1024xf32>, tensor<1x1024xf32>) -> tensor<2304x1024xf32> loc(#loc780)
    %781 = "top.Reshape"(%774) {flatten_start_dim = -1 : i64, shape = [1, -1, 16, 64]} : (tensor<2304x1024xf32>) -> tensor<1x2304x16x64xf32> loc(#loc781)
    %782 = "top.Reshape"(%777) {flatten_start_dim = -1 : i64, shape = [1, -1, 16, 64]} : (tensor<2304x1024xf32>) -> tensor<1x2304x16x64xf32> loc(#loc782)
    %783 = "top.Reshape"(%780) {flatten_start_dim = -1 : i64, shape = [1, -1, 16, 64]} : (tensor<2304x1024xf32>) -> tensor<1x2304x16x64xf32> loc(#loc783)
    %784 = "top.Rope"(%781, %20, %16) {add_round_mode = "HalfAwayFromZero", add_saturation = true, add_shift = 0 : si32, force_f32 = true, is_permute_optimize = false, mul1_round_mode = "HalfAwayFromZero", mul1_saturation = true, mul1_shift = 0 : si32, mul2_round_mode = "HalfAwayFromZero", mul2_saturation = true, mul2_shift = 0 : si32, rope_mode = "contiguous_halves"} : (tensor<1x2304x16x64xf32>, tensor<1x2304x1x64xf32>, tensor<1x2304x1x64xf32>) -> tensor<1x2304x16x64xf32> loc(#loc784)
    %785 = "top.Rope"(%782, %20, %16) {add_round_mode = "HalfAwayFromZero", add_saturation = true, add_shift = 0 : si32, force_f32 = true, is_permute_optimize = false, mul1_round_mode = "HalfAwayFromZero", mul1_saturation = true, mul1_shift = 0 : si32, mul2_round_mode = "HalfAwayFromZero", mul2_saturation = true, mul2_shift = 0 : si32, rope_mode = "contiguous_halves"} : (tensor<1x2304x16x64xf32>, tensor<1x2304x1x64xf32>, tensor<1x2304x1x64xf32>) -> tensor<1x2304x16x64xf32> loc(#loc785)
    %786 = "top.FAttention"(%784, %785, %783, %0, %0) {batch = 1 : i64, dim = 64 : i64, keep_dims = true, kv_head = 16 : i64, mk = 2304 : i64, mq = 2304 : i64, q_head = 16 : i64, scale = 1.250000e-01 : f64} : (tensor<1x2304x16x64xf32>, tensor<1x2304x16x64xf32>, tensor<1x2304x16x64xf32>, none, none) -> tensor<1x2304x16x64xf32> loc(#loc786)
    %787 = "top.Reshape"(%786) {flatten_start_dim = -1 : i64, shape = [-1, 1024]} : (tensor<1x2304x16x64xf32>) -> tensor<2304x1024xf32> loc(#loc787)
    %788 = "top.Weight"() : () -> tensor<1x1024xf32> loc(#loc788)
    %789 = "top.Weight"() : () -> tensor<1024x1024xf32> loc(#loc789)
    %790 = "top.MatMul"(%787, %789, %788) {do_relu = false, dq_type = "NONE", hdim_is_batch = false, is_lora = false, keep_dims = true, left_transpose = false, output_transpose = false, q_group_size = 0 : i64, relu_limit = -1.000000e+00 : f64, right_transpose = false} : (tensor<2304x1024xf32>, tensor<1024x1024xf32>, tensor<1x1024xf32>) -> tensor<2304x1024xf32> loc(#loc790)
    %791 = "top.Add"(%768, %790) {do_relu = false, is_scalar = false, relu_limit = -1.000000e+00 : f64} : (tensor<2304x1024xf32>, tensor<2304x1024xf32>) -> tensor<2304x1024xf32> loc(#loc791)
    %792 = "top.Weight"() : () -> tensor<1x1024xf32> loc(#loc792)
    %793 = "top.Weight"() : () -> tensor<1x1024xf32> loc(#loc793)
    %794 = "top.LayerNorm"(%791, %792, %793) {axis = 1 : si32, eps = 9.9999999999999995E-7 : f64, normalized_shape = [1024]} : (tensor<2304x1024xf32>, tensor<1x1024xf32>, tensor<1x1024xf32>) -> tensor<2304x1024xf32> loc(#loc794)
    %795 = "top.Weight"() : () -> tensor<1x4096xf32> loc(#loc795)
    %796 = "top.Weight"() : () -> tensor<1024x4096xf32> loc(#loc796)
    %797 = "top.MatMul"(%794, %796, %795) {do_relu = false, dq_type = "NONE", hdim_is_batch = false, is_lora = false, keep_dims = true, left_transpose = false, output_transpose = false, q_group_size = 0 : i64, relu_limit = -1.000000e+00 : f64, right_transpose = false} : (tensor<2304x1024xf32>, tensor<1024x4096xf32>, tensor<1x4096xf32>) -> tensor<2304x4096xf32> loc(#loc797)
    %798 = "top.GELU"(%797) {approx_mode = "tanh", round_mode = "HalfAwayFromZero"} : (tensor<2304x4096xf32>) -> tensor<2304x4096xf32> loc(#loc798)
    %799 = "top.Weight"() : () -> tensor<1x1024xf32> loc(#loc799)
    %800 = "top.Weight"() : () -> tensor<4096x1024xf32> loc(#loc800)
    %801 = "top.MatMul"(%798, %800, %799) {do_relu = false, dq_type = "NONE", hdim_is_batch = false, is_lora = false, keep_dims = true, left_transpose = false, output_transpose = false, q_group_size = 0 : i64, relu_limit = -1.000000e+00 : f64, right_transpose = false} : (tensor<2304x4096xf32>, tensor<4096x1024xf32>, tensor<1x1024xf32>) -> tensor<2304x1024xf32> loc(#loc801)
    %802 = "top.Add"(%791, %801) {do_relu = false, is_scalar = false, relu_limit = -1.000000e+00 : f64} : (tensor<2304x1024xf32>, tensor<2304x1024xf32>) -> tensor<2304x1024xf32> loc(#loc802)
    %803 = "top.Weight"() : () -> tensor<1x1024xf32> loc(#loc803)
    %804 = "top.Weight"() : () -> tensor<1x1024xf32> loc(#loc804)
    %805 = "top.LayerNorm"(%802, %803, %804) {axis = 1 : si32, eps = 9.9999999999999995E-7 : f64, normalized_shape = [1024]} : (tensor<2304x1024xf32>, tensor<1x1024xf32>, tensor<1x1024xf32>) -> tensor<2304x1024xf32> loc(#loc805)
    %806 = "top.Weight"() : () -> tensor<1x1024xf32> loc(#loc806)
    %807 = "top.Weight"() : () -> tensor<1024x1024xf32> loc(#loc807)
    %808 = "top.MatMul"(%805, %807, %806) {do_relu = false, dq_type = "NONE", hdim_is_batch = false, is_lora = false, keep_dims = true, left_transpose = false, output_transpose = false, q_group_size = 0 : i64, relu_limit = -1.000000e+00 : f64, right_transpose = false} : (tensor<2304x1024xf32>, tensor<1024x1024xf32>, tensor<1x1024xf32>) -> tensor<2304x1024xf32> loc(#loc808)
    %809 = "top.Weight"() : () -> tensor<1x1024xf32> loc(#loc809)
    %810 = "top.Weight"() : () -> tensor<1024x1024xf32> loc(#loc810)
    %811 = "top.MatMul"(%805, %810, %809) {do_relu = false, dq_type = "NONE", hdim_is_batch = false, is_lora = false, keep_dims = true, left_transpose = false, output_transpose = false, q_group_size = 0 : i64, relu_limit = -1.000000e+00 : f64, right_transpose = false} : (tensor<2304x1024xf32>, tensor<1024x1024xf32>, tensor<1x1024xf32>) -> tensor<2304x1024xf32> loc(#loc811)
    %812 = "top.Weight"() : () -> tensor<1x1024xf32> loc(#loc812)
    %813 = "top.Weight"() : () -> tensor<1024x1024xf32> loc(#loc813)
    %814 = "top.MatMul"(%805, %813, %812) {do_relu = false, dq_type = "NONE", hdim_is_batch = false, is_lora = false, keep_dims = true, left_transpose = false, output_transpose = false, q_group_size = 0 : i64, relu_limit = -1.000000e+00 : f64, right_transpose = false} : (tensor<2304x1024xf32>, tensor<1024x1024xf32>, tensor<1x1024xf32>) -> tensor<2304x1024xf32> loc(#loc814)
    %815 = "top.Reshape"(%808) {flatten_start_dim = -1 : i64, shape = [1, -1, 16, 64]} : (tensor<2304x1024xf32>) -> tensor<1x2304x16x64xf32> loc(#loc815)
    %816 = "top.Reshape"(%811) {flatten_start_dim = -1 : i64, shape = [1, -1, 16, 64]} : (tensor<2304x1024xf32>) -> tensor<1x2304x16x64xf32> loc(#loc816)
    %817 = "top.Reshape"(%814) {flatten_start_dim = -1 : i64, shape = [1, -1, 16, 64]} : (tensor<2304x1024xf32>) -> tensor<1x2304x16x64xf32> loc(#loc817)
    %818 = "top.Rope"(%815, %20, %16) {add_round_mode = "HalfAwayFromZero", add_saturation = true, add_shift = 0 : si32, force_f32 = true, is_permute_optimize = false, mul1_round_mode = "HalfAwayFromZero", mul1_saturation = true, mul1_shift = 0 : si32, mul2_round_mode = "HalfAwayFromZero", mul2_saturation = true, mul2_shift = 0 : si32, rope_mode = "contiguous_halves"} : (tensor<1x2304x16x64xf32>, tensor<1x2304x1x64xf32>, tensor<1x2304x1x64xf32>) -> tensor<1x2304x16x64xf32> loc(#loc818)
    %819 = "top.Rope"(%816, %20, %16) {add_round_mode = "HalfAwayFromZero", add_saturation = true, add_shift = 0 : si32, force_f32 = true, is_permute_optimize = false, mul1_round_mode = "HalfAwayFromZero", mul1_saturation = true, mul1_shift = 0 : si32, mul2_round_mode = "HalfAwayFromZero", mul2_saturation = true, mul2_shift = 0 : si32, rope_mode = "contiguous_halves"} : (tensor<1x2304x16x64xf32>, tensor<1x2304x1x64xf32>, tensor<1x2304x1x64xf32>) -> tensor<1x2304x16x64xf32> loc(#loc819)
    %820 = "top.FAttention"(%818, %819, %817, %0, %0) {batch = 1 : i64, dim = 64 : i64, keep_dims = true, kv_head = 16 : i64, mk = 2304 : i64, mq = 2304 : i64, q_head = 16 : i64, scale = 1.250000e-01 : f64} : (tensor<1x2304x16x64xf32>, tensor<1x2304x16x64xf32>, tensor<1x2304x16x64xf32>, none, none) -> tensor<1x2304x16x64xf32> loc(#loc820)
    %821 = "top.Reshape"(%820) {flatten_start_dim = -1 : i64, shape = [-1, 1024]} : (tensor<1x2304x16x64xf32>) -> tensor<2304x1024xf32> loc(#loc821)
    %822 = "top.Weight"() : () -> tensor<1x1024xf32> loc(#loc822)
    %823 = "top.Weight"() : () -> tensor<1024x1024xf32> loc(#loc823)
    %824 = "top.MatMul"(%821, %823, %822) {do_relu = false, dq_type = "NONE", hdim_is_batch = false, is_lora = false, keep_dims = true, left_transpose = false, output_transpose = false, q_group_size = 0 : i64, relu_limit = -1.000000e+00 : f64, right_transpose = false} : (tensor<2304x1024xf32>, tensor<1024x1024xf32>, tensor<1x1024xf32>) -> tensor<2304x1024xf32> loc(#loc824)
    %825 = "top.Add"(%802, %824) {do_relu = false, is_scalar = false, relu_limit = -1.000000e+00 : f64} : (tensor<2304x1024xf32>, tensor<2304x1024xf32>) -> tensor<2304x1024xf32> loc(#loc825)
    %826 = "top.Weight"() : () -> tensor<1x1024xf32> loc(#loc826)
    %827 = "top.Weight"() : () -> tensor<1x1024xf32> loc(#loc827)
    %828 = "top.LayerNorm"(%825, %826, %827) {axis = 1 : si32, eps = 9.9999999999999995E-7 : f64, normalized_shape = [1024]} : (tensor<2304x1024xf32>, tensor<1x1024xf32>, tensor<1x1024xf32>) -> tensor<2304x1024xf32> loc(#loc828)
    %829 = "top.Weight"() : () -> tensor<1x4096xf32> loc(#loc829)
    %830 = "top.Weight"() : () -> tensor<1024x4096xf32> loc(#loc830)
    %831 = "top.MatMul"(%828, %830, %829) {do_relu = false, dq_type = "NONE", hdim_is_batch = false, is_lora = false, keep_dims = true, left_transpose = false, output_transpose = false, q_group_size = 0 : i64, relu_limit = -1.000000e+00 : f64, right_transpose = false} : (tensor<2304x1024xf32>, tensor<1024x4096xf32>, tensor<1x4096xf32>) -> tensor<2304x4096xf32> loc(#loc831)
    %832 = "top.GELU"(%831) {approx_mode = "tanh", round_mode = "HalfAwayFromZero"} : (tensor<2304x4096xf32>) -> tensor<2304x4096xf32> loc(#loc832)
    %833 = "top.Weight"() : () -> tensor<1x1024xf32> loc(#loc833)
    %834 = "top.Weight"() : () -> tensor<4096x1024xf32> loc(#loc834)
    %835 = "top.MatMul"(%832, %834, %833) {do_relu = false, dq_type = "NONE", hdim_is_batch = false, is_lora = false, keep_dims = true, left_transpose = false, output_transpose = false, q_group_size = 0 : i64, relu_limit = -1.000000e+00 : f64, right_transpose = false} : (tensor<2304x4096xf32>, tensor<4096x1024xf32>, tensor<1x1024xf32>) -> tensor<2304x1024xf32> loc(#loc835)
    %836 = "top.Add"(%825, %835) {do_relu = false, is_scalar = false, relu_limit = -1.000000e+00 : f64} : (tensor<2304x1024xf32>, tensor<2304x1024xf32>) -> tensor<2304x1024xf32> loc(#loc836)
    %837 = "top.Weight"() : () -> tensor<1x1024xf32> loc(#loc837)
    %838 = "top.Weight"() : () -> tensor<1x1024xf32> loc(#loc838)
    %839 = "top.LayerNorm"(%836, %837, %838) {axis = 1 : si32, eps = 9.9999999999999995E-7 : f64, normalized_shape = [1024]} : (tensor<2304x1024xf32>, tensor<1x1024xf32>, tensor<1x1024xf32>) -> tensor<2304x1024xf32> loc(#loc839)
    %840 = "top.Reshape"(%839) {flatten_start_dim = -1 : i64, shape = [-1, 4096]} : (tensor<2304x1024xf32>) -> tensor<576x4096xf32> loc(#loc840)
    %841 = "top.Weight"() : () -> tensor<1x4096xf32> loc(#loc841)
    %842 = "top.Weight"() : () -> tensor<4096x4096xf32> loc(#loc842)
    %843 = "top.MatMul"(%840, %842, %841) {do_relu = false, dq_type = "NONE", hdim_is_batch = false, is_lora = false, keep_dims = true, left_transpose = false, output_transpose = false, q_group_size = 0 : i64, relu_limit = -1.000000e+00 : f64, right_transpose = false} : (tensor<576x4096xf32>, tensor<4096x4096xf32>, tensor<1x4096xf32>) -> tensor<576x4096xf32> loc(#loc843)
    %844 = "top.GELU"(%843) {approx_mode = "normal", round_mode = "HalfAwayFromZero"} : (tensor<576x4096xf32>) -> tensor<576x4096xf32> loc(#loc844)
    %845 = "top.Weight"() : () -> tensor<1x2048xf32> loc(#loc845)
    %846 = "top.Weight"() : () -> tensor<4096x2048xf32> loc(#loc846)
    %847 = "top.MatMul"(%844, %846, %845) {do_relu = false, dq_type = "NONE", hdim_is_batch = false, is_lora = false, keep_dims = true, left_transpose = false, output_transpose = false, q_group_size = 0 : i64, relu_limit = -1.000000e+00 : f64, right_transpose = false} : (tensor<576x4096xf32>, tensor<4096x2048xf32>, tensor<1x2048xf32>) -> tensor<576x2048xf32> loc(#loc847)
    return %847 : tensor<576x2048xf32> loc(#loc)
  } loc(#loc)
} loc(#loc)
#loc1 = loc("input_states")
#loc2 = loc("position_ids")
#loc3 = loc("pos_idx")
#loc4 = loc("pos_weight")
#loc5 = loc("model.visual.patch_embed.proj.weight")
#loc6 = loc("model.visual.patch_embed.proj.bias")
#loc7 = loc("model.visual.patch_embed.proj")
#loc8 = loc("model.visual.pos_embed.weight")
#loc9 = loc("model.visual.pos_embed")
#loc10 = loc("model.visual.pos_embed.mul")
#loc11 = loc("model.visual.pos_embed.sum")
#loc12 = loc("model.visual.pos_embed.add")
#loc13 = loc("model.visual.rotary.cos.weight")
#loc14 = loc("model.visual.rotary.cos")
#loc15 = loc("model.visual.rotary.cos.reshape")
#loc16 = loc("model.visual.rotary.cos.tile")
#loc17 = loc("model.visual.rotary.sin.weight")
#loc18 = loc("model.visual.rotary.sin")
#loc19 = loc("model.visual.rotary.sin.reshape")
#loc20 = loc("model.visual.rotary.sin.tile")
#loc21 = loc("model.visual.blocks.0.norm1.weight")
#loc22 = loc("model.visual.blocks.0.norm1.bias")
#loc23 = loc("model.visual.blocks.0.norm1")
#loc24 = loc("model.visual.blocks.0.attn.q.bias")
#loc25 = loc("model.visual.blocks.0.attn.q.weight")
#loc26 = loc("model.visual.blocks.0.attn.q")
#loc27 = loc("model.visual.blocks.0.attn.k.bias")
#loc28 = loc("model.visual.blocks.0.attn.k.weight")
#loc29 = loc("model.visual.blocks.0.attn.k")
#loc30 = loc("model.visual.blocks.0.attn.v.bias")
#loc31 = loc("model.visual.blocks.0.attn.v.weight")
#loc32 = loc("model.visual.blocks.0.attn.v")
#loc33 = loc("model.visual.blocks.0.attn.q.reshape")
#loc34 = loc("model.visual.blocks.0.attn.k.reshape")
#loc35 = loc("model.visual.blocks.0.attn.v.reshape")
#loc36 = loc("model.visual.blocks.0.attn.q.rotary")
#loc37 = loc("model.visual.blocks.0.attn.k.rotary")
#loc38 = loc("model.visual.blocks.0.fattention")
#loc39 = loc("model.visual.blocks.0.fattention.reshape")
#loc40 = loc("model.visual.blocks.0.attn.proj.bias")
#loc41 = loc("model.visual.blocks.0.attn.proj.weight")
#loc42 = loc("model.visual.blocks.0.attn.proj")
#loc43 = loc("model.visual.blocks.0.attn.proj.add")
#loc44 = loc("model.visual.blocks.0.norm2.weight")
#loc45 = loc("model.visual.blocks.0.norm2.bias")
#loc46 = loc("model.visual.blocks.0.norm2")
#loc47 = loc("model.visual.blocks.0.mlp.linear_fc1.bias")
#loc48 = loc("model.visual.blocks.0.mlp.linear_fc1.weight")
#loc49 = loc("model.visual.blocks.0.mlp.linear_fc1")
#loc50 = loc("model.visual.blocks.0.mlp.linear_fc1.gelu")
#loc51 = loc("model.visual.blocks.0.mlp.linear_fc2.bias")
#loc52 = loc("model.visual.blocks.0.mlp.linear_fc2.weight")
#loc53 = loc("model.visual.blocks.0.mlp.linear_fc2")
#loc54 = loc("model.visual.blocks.0.mlp.linear_fc2.add")
#loc55 = loc("model.visual.blocks.1.norm1.weight")
#loc56 = loc("model.visual.blocks.1.norm1.bias")
#loc57 = loc("model.visual.blocks.1.norm1")
#loc58 = loc("model.visual.blocks.1.attn.q.bias")
#loc59 = loc("model.visual.blocks.1.attn.q.weight")
#loc60 = loc("model.visual.blocks.1.attn.q")
#loc61 = loc("model.visual.blocks.1.attn.k.bias")
#loc62 = loc("model.visual.blocks.1.attn.k.weight")
#loc63 = loc("model.visual.blocks.1.attn.k")
#loc64 = loc("model.visual.blocks.1.attn.v.bias")
#loc65 = loc("model.visual.blocks.1.attn.v.weight")
#loc66 = loc("model.visual.blocks.1.attn.v")
#loc67 = loc("model.visual.blocks.1.attn.q.reshape")
#loc68 = loc("model.visual.blocks.1.attn.k.reshape")
#loc69 = loc("model.visual.blocks.1.attn.v.reshape")
#loc70 = loc("model.visual.blocks.1.attn.q.rotary")
#loc71 = loc("model.visual.blocks.1.attn.k.rotary")
#loc72 = loc("model.visual.blocks.1.fattention")
#loc73 = loc("model.visual.blocks.1.fattention.reshape")
#loc74 = loc("model.visual.blocks.1.attn.proj.bias")
#loc75 = loc("model.visual.blocks.1.attn.proj.weight")
#loc76 = loc("model.visual.blocks.1.attn.proj")
#loc77 = loc("model.visual.blocks.1.attn.proj.add")
#loc78 = loc("model.visual.blocks.1.norm2.weight")
#loc79 = loc("model.visual.blocks.1.norm2.bias")
#loc80 = loc("model.visual.blocks.1.norm2")
#loc81 = loc("model.visual.blocks.1.mlp.linear_fc1.bias")
#loc82 = loc("model.visual.blocks.1.mlp.linear_fc1.weight")
#loc83 = loc("model.visual.blocks.1.mlp.linear_fc1")
#loc84 = loc("model.visual.blocks.1.mlp.linear_fc1.gelu")
#loc85 = loc("model.visual.blocks.1.mlp.linear_fc2.bias")
#loc86 = loc("model.visual.blocks.1.mlp.linear_fc2.weight")
#loc87 = loc("model.visual.blocks.1.mlp.linear_fc2")
#loc88 = loc("model.visual.blocks.1.mlp.linear_fc2.add")
#loc89 = loc("model.visual.blocks.2.norm1.weight")
#loc90 = loc("model.visual.blocks.2.norm1.bias")
#loc91 = loc("model.visual.blocks.2.norm1")
#loc92 = loc("model.visual.blocks.2.attn.q.bias")
#loc93 = loc("model.visual.blocks.2.attn.q.weight")
#loc94 = loc("model.visual.blocks.2.attn.q")
#loc95 = loc("model.visual.blocks.2.attn.k.bias")
#loc96 = loc("model.visual.blocks.2.attn.k.weight")
#loc97 = loc("model.visual.blocks.2.attn.k")
#loc98 = loc("model.visual.blocks.2.attn.v.bias")
#loc99 = loc("model.visual.blocks.2.attn.v.weight")
#loc100 = loc("model.visual.blocks.2.attn.v")
#loc101 = loc("model.visual.blocks.2.attn.q.reshape")
#loc102 = loc("model.visual.blocks.2.attn.k.reshape")
#loc103 = loc("model.visual.blocks.2.attn.v.reshape")
#loc104 = loc("model.visual.blocks.2.attn.q.rotary")
#loc105 = loc("model.visual.blocks.2.attn.k.rotary")
#loc106 = loc("model.visual.blocks.2.fattention")
#loc107 = loc("model.visual.blocks.2.fattention.reshape")
#loc108 = loc("model.visual.blocks.2.attn.proj.bias")
#loc109 = loc("model.visual.blocks.2.attn.proj.weight")
#loc110 = loc("model.visual.blocks.2.attn.proj")
#loc111 = loc("model.visual.blocks.2.attn.proj.add")
#loc112 = loc("model.visual.blocks.2.norm2.weight")
#loc113 = loc("model.visual.blocks.2.norm2.bias")
#loc114 = loc("model.visual.blocks.2.norm2")
#loc115 = loc("model.visual.blocks.2.mlp.linear_fc1.bias")
#loc116 = loc("model.visual.blocks.2.mlp.linear_fc1.weight")
#loc117 = loc("model.visual.blocks.2.mlp.linear_fc1")
#loc118 = loc("model.visual.blocks.2.mlp.linear_fc1.gelu")
#loc119 = loc("model.visual.blocks.2.mlp.linear_fc2.bias")
#loc120 = loc("model.visual.blocks.2.mlp.linear_fc2.weight")
#loc121 = loc("model.visual.blocks.2.mlp.linear_fc2")
#loc122 = loc("model.visual.blocks.2.mlp.linear_fc2.add")
#loc123 = loc("model.visual.blocks.3.norm1.weight")
#loc124 = loc("model.visual.blocks.3.norm1.bias")
#loc125 = loc("model.visual.blocks.3.norm1")
#loc126 = loc("model.visual.blocks.3.attn.q.bias")
#loc127 = loc("model.visual.blocks.3.attn.q.weight")
#loc128 = loc("model.visual.blocks.3.attn.q")
#loc129 = loc("model.visual.blocks.3.attn.k.bias")
#loc130 = loc("model.visual.blocks.3.attn.k.weight")
#loc131 = loc("model.visual.blocks.3.attn.k")
#loc132 = loc("model.visual.blocks.3.attn.v.bias")
#loc133 = loc("model.visual.blocks.3.attn.v.weight")
#loc134 = loc("model.visual.blocks.3.attn.v")
#loc135 = loc("model.visual.blocks.3.attn.q.reshape")
#loc136 = loc("model.visual.blocks.3.attn.k.reshape")
#loc137 = loc("model.visual.blocks.3.attn.v.reshape")
#loc138 = loc("model.visual.blocks.3.attn.q.rotary")
#loc139 = loc("model.visual.blocks.3.attn.k.rotary")
#loc140 = loc("model.visual.blocks.3.fattention")
#loc141 = loc("model.visual.blocks.3.fattention.reshape")
#loc142 = loc("model.visual.blocks.3.attn.proj.bias")
#loc143 = loc("model.visual.blocks.3.attn.proj.weight")
#loc144 = loc("model.visual.blocks.3.attn.proj")
#loc145 = loc("model.visual.blocks.3.attn.proj.add")
#loc146 = loc("model.visual.blocks.3.norm2.weight")
#loc147 = loc("model.visual.blocks.3.norm2.bias")
#loc148 = loc("model.visual.blocks.3.norm2")
#loc149 = loc("model.visual.blocks.3.mlp.linear_fc1.bias")
#loc150 = loc("model.visual.blocks.3.mlp.linear_fc1.weight")
#loc151 = loc("model.visual.blocks.3.mlp.linear_fc1")
#loc152 = loc("model.visual.blocks.3.mlp.linear_fc1.gelu")
#loc153 = loc("model.visual.blocks.3.mlp.linear_fc2.bias")
#loc154 = loc("model.visual.blocks.3.mlp.linear_fc2.weight")
#loc155 = loc("model.visual.blocks.3.mlp.linear_fc2")
#loc156 = loc("model.visual.blocks.3.mlp.linear_fc2.add")
#loc157 = loc("model.visual.blocks.4.norm1.weight")
#loc158 = loc("model.visual.blocks.4.norm1.bias")
#loc159 = loc("model.visual.blocks.4.norm1")
#loc160 = loc("model.visual.blocks.4.attn.q.bias")
#loc161 = loc("model.visual.blocks.4.attn.q.weight")
#loc162 = loc("model.visual.blocks.4.attn.q")
#loc163 = loc("model.visual.blocks.4.attn.k.bias")
#loc164 = loc("model.visual.blocks.4.attn.k.weight")
#loc165 = loc("model.visual.blocks.4.attn.k")
#loc166 = loc("model.visual.blocks.4.attn.v.bias")
#loc167 = loc("model.visual.blocks.4.attn.v.weight")
#loc168 = loc("model.visual.blocks.4.attn.v")
#loc169 = loc("model.visual.blocks.4.attn.q.reshape")
#loc170 = loc("model.visual.blocks.4.attn.k.reshape")
#loc171 = loc("model.visual.blocks.4.attn.v.reshape")
#loc172 = loc("model.visual.blocks.4.attn.q.rotary")
#loc173 = loc("model.visual.blocks.4.attn.k.rotary")
#loc174 = loc("model.visual.blocks.4.fattention")
#loc175 = loc("model.visual.blocks.4.fattention.reshape")
#loc176 = loc("model.visual.blocks.4.attn.proj.bias")
#loc177 = loc("model.visual.blocks.4.attn.proj.weight")
#loc178 = loc("model.visual.blocks.4.attn.proj")
#loc179 = loc("model.visual.blocks.4.attn.proj.add")
#loc180 = loc("model.visual.blocks.4.norm2.weight")
#loc181 = loc("model.visual.blocks.4.norm2.bias")
#loc182 = loc("model.visual.blocks.4.norm2")
#loc183 = loc("model.visual.blocks.4.mlp.linear_fc1.bias")
#loc184 = loc("model.visual.blocks.4.mlp.linear_fc1.weight")
#loc185 = loc("model.visual.blocks.4.mlp.linear_fc1")
#loc186 = loc("model.visual.blocks.4.mlp.linear_fc1.gelu")
#loc187 = loc("model.visual.blocks.4.mlp.linear_fc2.bias")
#loc188 = loc("model.visual.blocks.4.mlp.linear_fc2.weight")
#loc189 = loc("model.visual.blocks.4.mlp.linear_fc2")
#loc190 = loc("model.visual.blocks.4.mlp.linear_fc2.add")
#loc191 = loc("model.visual.blocks.5.norm1.weight")
#loc192 = loc("model.visual.blocks.5.norm1.bias")
#loc193 = loc("model.visual.blocks.5.norm1")
#loc194 = loc("model.visual.blocks.5.attn.q.bias")
#loc195 = loc("model.visual.blocks.5.attn.q.weight")
#loc196 = loc("model.visual.blocks.5.attn.q")
#loc197 = loc("model.visual.blocks.5.attn.k.bias")
#loc198 = loc("model.visual.blocks.5.attn.k.weight")
#loc199 = loc("model.visual.blocks.5.attn.k")
#loc200 = loc("model.visual.blocks.5.attn.v.bias")
#loc201 = loc("model.visual.blocks.5.attn.v.weight")
#loc202 = loc("model.visual.blocks.5.attn.v")
#loc203 = loc("model.visual.blocks.5.attn.q.reshape")
#loc204 = loc("model.visual.blocks.5.attn.k.reshape")
#loc205 = loc("model.visual.blocks.5.attn.v.reshape")
#loc206 = loc("model.visual.blocks.5.attn.q.rotary")
#loc207 = loc("model.visual.blocks.5.attn.k.rotary")
#loc208 = loc("model.visual.blocks.5.fattention")
#loc209 = loc("model.visual.blocks.5.fattention.reshape")
#loc210 = loc("model.visual.blocks.5.attn.proj.bias")
#loc211 = loc("model.visual.blocks.5.attn.proj.weight")
#loc212 = loc("model.visual.blocks.5.attn.proj")
#loc213 = loc("model.visual.blocks.5.attn.proj.add")
#loc214 = loc("model.visual.blocks.5.norm2.weight")
#loc215 = loc("model.visual.blocks.5.norm2.bias")
#loc216 = loc("model.visual.blocks.5.norm2")
#loc217 = loc("model.visual.blocks.5.mlp.linear_fc1.bias")
#loc218 = loc("model.visual.blocks.5.mlp.linear_fc1.weight")
#loc219 = loc("model.visual.blocks.5.mlp.linear_fc1")
#loc220 = loc("model.visual.blocks.5.mlp.linear_fc1.gelu")
#loc221 = loc("model.visual.blocks.5.mlp.linear_fc2.bias")
#loc222 = loc("model.visual.blocks.5.mlp.linear_fc2.weight")
#loc223 = loc("model.visual.blocks.5.mlp.linear_fc2")
#loc224 = loc("model.visual.blocks.5.mlp.linear_fc2.add")
#loc225 = loc("model.visual.blocks.6.norm1.weight")
#loc226 = loc("model.visual.blocks.6.norm1.bias")
#loc227 = loc("model.visual.blocks.6.norm1")
#loc228 = loc("model.visual.blocks.6.attn.q.bias")
#loc229 = loc("model.visual.blocks.6.attn.q.weight")
#loc230 = loc("model.visual.blocks.6.attn.q")
#loc231 = loc("model.visual.blocks.6.attn.k.bias")
#loc232 = loc("model.visual.blocks.6.attn.k.weight")
#loc233 = loc("model.visual.blocks.6.attn.k")
#loc234 = loc("model.visual.blocks.6.attn.v.bias")
#loc235 = loc("model.visual.blocks.6.attn.v.weight")
#loc236 = loc("model.visual.blocks.6.attn.v")
#loc237 = loc("model.visual.blocks.6.attn.q.reshape")
#loc238 = loc("model.visual.blocks.6.attn.k.reshape")
#loc239 = loc("model.visual.blocks.6.attn.v.reshape")
#loc240 = loc("model.visual.blocks.6.attn.q.rotary")
#loc241 = loc("model.visual.blocks.6.attn.k.rotary")
#loc242 = loc("model.visual.blocks.6.fattention")
#loc243 = loc("model.visual.blocks.6.fattention.reshape")
#loc244 = loc("model.visual.blocks.6.attn.proj.bias")
#loc245 = loc("model.visual.blocks.6.attn.proj.weight")
#loc246 = loc("model.visual.blocks.6.attn.proj")
#loc247 = loc("model.visual.blocks.6.attn.proj.add")
#loc248 = loc("model.visual.blocks.6.norm2.weight")
#loc249 = loc("model.visual.blocks.6.norm2.bias")
#loc250 = loc("model.visual.blocks.6.norm2")
#loc251 = loc("model.visual.blocks.6.mlp.linear_fc1.bias")
#loc252 = loc("model.visual.blocks.6.mlp.linear_fc1.weight")
#loc253 = loc("model.visual.blocks.6.mlp.linear_fc1")
#loc254 = loc("model.visual.blocks.6.mlp.linear_fc1.gelu")
#loc255 = loc("model.visual.blocks.6.mlp.linear_fc2.bias")
#loc256 = loc("model.visual.blocks.6.mlp.linear_fc2.weight")
#loc257 = loc("model.visual.blocks.6.mlp.linear_fc2")
#loc258 = loc("model.visual.blocks.6.mlp.linear_fc2.add")
#loc259 = loc("model.visual.blocks.7.norm1.weight")
#loc260 = loc("model.visual.blocks.7.norm1.bias")
#loc261 = loc("model.visual.blocks.7.norm1")
#loc262 = loc("model.visual.blocks.7.attn.q.bias")
#loc263 = loc("model.visual.blocks.7.attn.q.weight")
#loc264 = loc("model.visual.blocks.7.attn.q")
#loc265 = loc("model.visual.blocks.7.attn.k.bias")
#loc266 = loc("model.visual.blocks.7.attn.k.weight")
#loc267 = loc("model.visual.blocks.7.attn.k")
#loc268 = loc("model.visual.blocks.7.attn.v.bias")
#loc269 = loc("model.visual.blocks.7.attn.v.weight")
#loc270 = loc("model.visual.blocks.7.attn.v")
#loc271 = loc("model.visual.blocks.7.attn.q.reshape")
#loc272 = loc("model.visual.blocks.7.attn.k.reshape")
#loc273 = loc("model.visual.blocks.7.attn.v.reshape")
#loc274 = loc("model.visual.blocks.7.attn.q.rotary")
#loc275 = loc("model.visual.blocks.7.attn.k.rotary")
#loc276 = loc("model.visual.blocks.7.fattention")
#loc277 = loc("model.visual.blocks.7.fattention.reshape")
#loc278 = loc("model.visual.blocks.7.attn.proj.bias")
#loc279 = loc("model.visual.blocks.7.attn.proj.weight")
#loc280 = loc("model.visual.blocks.7.attn.proj")
#loc281 = loc("model.visual.blocks.7.attn.proj.add")
#loc282 = loc("model.visual.blocks.7.norm2.weight")
#loc283 = loc("model.visual.blocks.7.norm2.bias")
#loc284 = loc("model.visual.blocks.7.norm2")
#loc285 = loc("model.visual.blocks.7.mlp.linear_fc1.bias")
#loc286 = loc("model.visual.blocks.7.mlp.linear_fc1.weight")
#loc287 = loc("model.visual.blocks.7.mlp.linear_fc1")
#loc288 = loc("model.visual.blocks.7.mlp.linear_fc1.gelu")
#loc289 = loc("model.visual.blocks.7.mlp.linear_fc2.bias")
#loc290 = loc("model.visual.blocks.7.mlp.linear_fc2.weight")
#loc291 = loc("model.visual.blocks.7.mlp.linear_fc2")
#loc292 = loc("model.visual.blocks.7.mlp.linear_fc2.add")
#loc293 = loc("model.visual.blocks.8.norm1.weight")
#loc294 = loc("model.visual.blocks.8.norm1.bias")
#loc295 = loc("model.visual.blocks.8.norm1")
#loc296 = loc("model.visual.blocks.8.attn.q.bias")
#loc297 = loc("model.visual.blocks.8.attn.q.weight")
#loc298 = loc("model.visual.blocks.8.attn.q")
#loc299 = loc("model.visual.blocks.8.attn.k.bias")
#loc300 = loc("model.visual.blocks.8.attn.k.weight")
#loc301 = loc("model.visual.blocks.8.attn.k")
#loc302 = loc("model.visual.blocks.8.attn.v.bias")
#loc303 = loc("model.visual.blocks.8.attn.v.weight")
#loc304 = loc("model.visual.blocks.8.attn.v")
#loc305 = loc("model.visual.blocks.8.attn.q.reshape")
#loc306 = loc("model.visual.blocks.8.attn.k.reshape")
#loc307 = loc("model.visual.blocks.8.attn.v.reshape")
#loc308 = loc("model.visual.blocks.8.attn.q.rotary")
#loc309 = loc("model.visual.blocks.8.attn.k.rotary")
#loc310 = loc("model.visual.blocks.8.fattention")
#loc311 = loc("model.visual.blocks.8.fattention.reshape")
#loc312 = loc("model.visual.blocks.8.attn.proj.bias")
#loc313 = loc("model.visual.blocks.8.attn.proj.weight")
#loc314 = loc("model.visual.blocks.8.attn.proj")
#loc315 = loc("model.visual.blocks.8.attn.proj.add")
#loc316 = loc("model.visual.blocks.8.norm2.weight")
#loc317 = loc("model.visual.blocks.8.norm2.bias")
#loc318 = loc("model.visual.blocks.8.norm2")
#loc319 = loc("model.visual.blocks.8.mlp.linear_fc1.bias")
#loc320 = loc("model.visual.blocks.8.mlp.linear_fc1.weight")
#loc321 = loc("model.visual.blocks.8.mlp.linear_fc1")
#loc322 = loc("model.visual.blocks.8.mlp.linear_fc1.gelu")
#loc323 = loc("model.visual.blocks.8.mlp.linear_fc2.bias")
#loc324 = loc("model.visual.blocks.8.mlp.linear_fc2.weight")
#loc325 = loc("model.visual.blocks.8.mlp.linear_fc2")
#loc326 = loc("model.visual.blocks.8.mlp.linear_fc2.add")
#loc327 = loc("model.visual.blocks.9.norm1.weight")
#loc328 = loc("model.visual.blocks.9.norm1.bias")
#loc329 = loc("model.visual.blocks.9.norm1")
#loc330 = loc("model.visual.blocks.9.attn.q.bias")
#loc331 = loc("model.visual.blocks.9.attn.q.weight")
#loc332 = loc("model.visual.blocks.9.attn.q")
#loc333 = loc("model.visual.blocks.9.attn.k.bias")
#loc334 = loc("model.visual.blocks.9.attn.k.weight")
#loc335 = loc("model.visual.blocks.9.attn.k")
#loc336 = loc("model.visual.blocks.9.attn.v.bias")
#loc337 = loc("model.visual.blocks.9.attn.v.weight")
#loc338 = loc("model.visual.blocks.9.attn.v")
#loc339 = loc("model.visual.blocks.9.attn.q.reshape")
#loc340 = loc("model.visual.blocks.9.attn.k.reshape")
#loc341 = loc("model.visual.blocks.9.attn.v.reshape")
#loc342 = loc("model.visual.blocks.9.attn.q.rotary")
#loc343 = loc("model.visual.blocks.9.attn.k.rotary")
#loc344 = loc("model.visual.blocks.9.fattention")
#loc345 = loc("model.visual.blocks.9.fattention.reshape")
#loc346 = loc("model.visual.blocks.9.attn.proj.bias")
#loc347 = loc("model.visual.blocks.9.attn.proj.weight")
#loc348 = loc("model.visual.blocks.9.attn.proj")
#loc349 = loc("model.visual.blocks.9.attn.proj.add")
#loc350 = loc("model.visual.blocks.9.norm2.weight")
#loc351 = loc("model.visual.blocks.9.norm2.bias")
#loc352 = loc("model.visual.blocks.9.norm2")
#loc353 = loc("model.visual.blocks.9.mlp.linear_fc1.bias")
#loc354 = loc("model.visual.blocks.9.mlp.linear_fc1.weight")
#loc355 = loc("model.visual.blocks.9.mlp.linear_fc1")
#loc356 = loc("model.visual.blocks.9.mlp.linear_fc1.gelu")
#loc357 = loc("model.visual.blocks.9.mlp.linear_fc2.bias")
#loc358 = loc("model.visual.blocks.9.mlp.linear_fc2.weight")
#loc359 = loc("model.visual.blocks.9.mlp.linear_fc2")
#loc360 = loc("model.visual.blocks.9.mlp.linear_fc2.add")
#loc361 = loc("model.visual.blocks.10.norm1.weight")
#loc362 = loc("model.visual.blocks.10.norm1.bias")
#loc363 = loc("model.visual.blocks.10.norm1")
#loc364 = loc("model.visual.blocks.10.attn.q.bias")
#loc365 = loc("model.visual.blocks.10.attn.q.weight")
#loc366 = loc("model.visual.blocks.10.attn.q")
#loc367 = loc("model.visual.blocks.10.attn.k.bias")
#loc368 = loc("model.visual.blocks.10.attn.k.weight")
#loc369 = loc("model.visual.blocks.10.attn.k")
#loc370 = loc("model.visual.blocks.10.attn.v.bias")
#loc371 = loc("model.visual.blocks.10.attn.v.weight")
#loc372 = loc("model.visual.blocks.10.attn.v")
#loc373 = loc("model.visual.blocks.10.attn.q.reshape")
#loc374 = loc("model.visual.blocks.10.attn.k.reshape")
#loc375 = loc("model.visual.blocks.10.attn.v.reshape")
#loc376 = loc("model.visual.blocks.10.attn.q.rotary")
#loc377 = loc("model.visual.blocks.10.attn.k.rotary")
#loc378 = loc("model.visual.blocks.10.fattention")
#loc379 = loc("model.visual.blocks.10.fattention.reshape")
#loc380 = loc("model.visual.blocks.10.attn.proj.bias")
#loc381 = loc("model.visual.blocks.10.attn.proj.weight")
#loc382 = loc("model.visual.blocks.10.attn.proj")
#loc383 = loc("model.visual.blocks.10.attn.proj.add")
#loc384 = loc("model.visual.blocks.10.norm2.weight")
#loc385 = loc("model.visual.blocks.10.norm2.bias")
#loc386 = loc("model.visual.blocks.10.norm2")
#loc387 = loc("model.visual.blocks.10.mlp.linear_fc1.bias")
#loc388 = loc("model.visual.blocks.10.mlp.linear_fc1.weight")
#loc389 = loc("model.visual.blocks.10.mlp.linear_fc1")
#loc390 = loc("model.visual.blocks.10.mlp.linear_fc1.gelu")
#loc391 = loc("model.visual.blocks.10.mlp.linear_fc2.bias")
#loc392 = loc("model.visual.blocks.10.mlp.linear_fc2.weight")
#loc393 = loc("model.visual.blocks.10.mlp.linear_fc2")
#loc394 = loc("model.visual.blocks.10.mlp.linear_fc2.add")
#loc395 = loc("model.visual.blocks.11.norm1.weight")
#loc396 = loc("model.visual.blocks.11.norm1.bias")
#loc397 = loc("model.visual.blocks.11.norm1")
#loc398 = loc("model.visual.blocks.11.attn.q.bias")
#loc399 = loc("model.visual.blocks.11.attn.q.weight")
#loc400 = loc("model.visual.blocks.11.attn.q")
#loc401 = loc("model.visual.blocks.11.attn.k.bias")
#loc402 = loc("model.visual.blocks.11.attn.k.weight")
#loc403 = loc("model.visual.blocks.11.attn.k")
#loc404 = loc("model.visual.blocks.11.attn.v.bias")
#loc405 = loc("model.visual.blocks.11.attn.v.weight")
#loc406 = loc("model.visual.blocks.11.attn.v")
#loc407 = loc("model.visual.blocks.11.attn.q.reshape")
#loc408 = loc("model.visual.blocks.11.attn.k.reshape")
#loc409 = loc("model.visual.blocks.11.attn.v.reshape")
#loc410 = loc("model.visual.blocks.11.attn.q.rotary")
#loc411 = loc("model.visual.blocks.11.attn.k.rotary")
#loc412 = loc("model.visual.blocks.11.fattention")
#loc413 = loc("model.visual.blocks.11.fattention.reshape")
#loc414 = loc("model.visual.blocks.11.attn.proj.bias")
#loc415 = loc("model.visual.blocks.11.attn.proj.weight")
#loc416 = loc("model.visual.blocks.11.attn.proj")
#loc417 = loc("model.visual.blocks.11.attn.proj.add")
#loc418 = loc("model.visual.blocks.11.norm2.weight")
#loc419 = loc("model.visual.blocks.11.norm2.bias")
#loc420 = loc("model.visual.blocks.11.norm2")
#loc421 = loc("model.visual.blocks.11.mlp.linear_fc1.bias")
#loc422 = loc("model.visual.blocks.11.mlp.linear_fc1.weight")
#loc423 = loc("model.visual.blocks.11.mlp.linear_fc1")
#loc424 = loc("model.visual.blocks.11.mlp.linear_fc1.gelu")
#loc425 = loc("model.visual.blocks.11.mlp.linear_fc2.bias")
#loc426 = loc("model.visual.blocks.11.mlp.linear_fc2.weight")
#loc427 = loc("model.visual.blocks.11.mlp.linear_fc2")
#loc428 = loc("model.visual.blocks.11.mlp.linear_fc2.add")
#loc429 = loc("model.visual.blocks.12.norm1.weight")
#loc430 = loc("model.visual.blocks.12.norm1.bias")
#loc431 = loc("model.visual.blocks.12.norm1")
#loc432 = loc("model.visual.blocks.12.attn.q.bias")
#loc433 = loc("model.visual.blocks.12.attn.q.weight")
#loc434 = loc("model.visual.blocks.12.attn.q")
#loc435 = loc("model.visual.blocks.12.attn.k.bias")
#loc436 = loc("model.visual.blocks.12.attn.k.weight")
#loc437 = loc("model.visual.blocks.12.attn.k")
#loc438 = loc("model.visual.blocks.12.attn.v.bias")
#loc439 = loc("model.visual.blocks.12.attn.v.weight")
#loc440 = loc("model.visual.blocks.12.attn.v")
#loc441 = loc("model.visual.blocks.12.attn.q.reshape")
#loc442 = loc("model.visual.blocks.12.attn.k.reshape")
#loc443 = loc("model.visual.blocks.12.attn.v.reshape")
#loc444 = loc("model.visual.blocks.12.attn.q.rotary")
#loc445 = loc("model.visual.blocks.12.attn.k.rotary")
#loc446 = loc("model.visual.blocks.12.fattention")
#loc447 = loc("model.visual.blocks.12.fattention.reshape")
#loc448 = loc("model.visual.blocks.12.attn.proj.bias")
#loc449 = loc("model.visual.blocks.12.attn.proj.weight")
#loc450 = loc("model.visual.blocks.12.attn.proj")
#loc451 = loc("model.visual.blocks.12.attn.proj.add")
#loc452 = loc("model.visual.blocks.12.norm2.weight")
#loc453 = loc("model.visual.blocks.12.norm2.bias")
#loc454 = loc("model.visual.blocks.12.norm2")
#loc455 = loc("model.visual.blocks.12.mlp.linear_fc1.bias")
#loc456 = loc("model.visual.blocks.12.mlp.linear_fc1.weight")
#loc457 = loc("model.visual.blocks.12.mlp.linear_fc1")
#loc458 = loc("model.visual.blocks.12.mlp.linear_fc1.gelu")
#loc459 = loc("model.visual.blocks.12.mlp.linear_fc2.bias")
#loc460 = loc("model.visual.blocks.12.mlp.linear_fc2.weight")
#loc461 = loc("model.visual.blocks.12.mlp.linear_fc2")
#loc462 = loc("model.visual.blocks.12.mlp.linear_fc2.add")
#loc463 = loc("model.visual.blocks.13.norm1.weight")
#loc464 = loc("model.visual.blocks.13.norm1.bias")
#loc465 = loc("model.visual.blocks.13.norm1")
#loc466 = loc("model.visual.blocks.13.attn.q.bias")
#loc467 = loc("model.visual.blocks.13.attn.q.weight")
#loc468 = loc("model.visual.blocks.13.attn.q")
#loc469 = loc("model.visual.blocks.13.attn.k.bias")
#loc470 = loc("model.visual.blocks.13.attn.k.weight")
#loc471 = loc("model.visual.blocks.13.attn.k")
#loc472 = loc("model.visual.blocks.13.attn.v.bias")
#loc473 = loc("model.visual.blocks.13.attn.v.weight")
#loc474 = loc("model.visual.blocks.13.attn.v")
#loc475 = loc("model.visual.blocks.13.attn.q.reshape")
#loc476 = loc("model.visual.blocks.13.attn.k.reshape")
#loc477 = loc("model.visual.blocks.13.attn.v.reshape")
#loc478 = loc("model.visual.blocks.13.attn.q.rotary")
#loc479 = loc("model.visual.blocks.13.attn.k.rotary")
#loc480 = loc("model.visual.blocks.13.fattention")
#loc481 = loc("model.visual.blocks.13.fattention.reshape")
#loc482 = loc("model.visual.blocks.13.attn.proj.bias")
#loc483 = loc("model.visual.blocks.13.attn.proj.weight")
#loc484 = loc("model.visual.blocks.13.attn.proj")
#loc485 = loc("model.visual.blocks.13.attn.proj.add")
#loc486 = loc("model.visual.blocks.13.norm2.weight")
#loc487 = loc("model.visual.blocks.13.norm2.bias")
#loc488 = loc("model.visual.blocks.13.norm2")
#loc489 = loc("model.visual.blocks.13.mlp.linear_fc1.bias")
#loc490 = loc("model.visual.blocks.13.mlp.linear_fc1.weight")
#loc491 = loc("model.visual.blocks.13.mlp.linear_fc1")
#loc492 = loc("model.visual.blocks.13.mlp.linear_fc1.gelu")
#loc493 = loc("model.visual.blocks.13.mlp.linear_fc2.bias")
#loc494 = loc("model.visual.blocks.13.mlp.linear_fc2.weight")
#loc495 = loc("model.visual.blocks.13.mlp.linear_fc2")
#loc496 = loc("model.visual.blocks.13.mlp.linear_fc2.add")
#loc497 = loc("model.visual.blocks.14.norm1.weight")
#loc498 = loc("model.visual.blocks.14.norm1.bias")
#loc499 = loc("model.visual.blocks.14.norm1")
#loc500 = loc("model.visual.blocks.14.attn.q.bias")
#loc501 = loc("model.visual.blocks.14.attn.q.weight")
#loc502 = loc("model.visual.blocks.14.attn.q")
#loc503 = loc("model.visual.blocks.14.attn.k.bias")
#loc504 = loc("model.visual.blocks.14.attn.k.weight")
#loc505 = loc("model.visual.blocks.14.attn.k")
#loc506 = loc("model.visual.blocks.14.attn.v.bias")
#loc507 = loc("model.visual.blocks.14.attn.v.weight")
#loc508 = loc("model.visual.blocks.14.attn.v")
#loc509 = loc("model.visual.blocks.14.attn.q.reshape")
#loc510 = loc("model.visual.blocks.14.attn.k.reshape")
#loc511 = loc("model.visual.blocks.14.attn.v.reshape")
#loc512 = loc("model.visual.blocks.14.attn.q.rotary")
#loc513 = loc("model.visual.blocks.14.attn.k.rotary")
#loc514 = loc("model.visual.blocks.14.fattention")
#loc515 = loc("model.visual.blocks.14.fattention.reshape")
#loc516 = loc("model.visual.blocks.14.attn.proj.bias")
#loc517 = loc("model.visual.blocks.14.attn.proj.weight")
#loc518 = loc("model.visual.blocks.14.attn.proj")
#loc519 = loc("model.visual.blocks.14.attn.proj.add")
#loc520 = loc("model.visual.blocks.14.norm2.weight")
#loc521 = loc("model.visual.blocks.14.norm2.bias")
#loc522 = loc("model.visual.blocks.14.norm2")
#loc523 = loc("model.visual.blocks.14.mlp.linear_fc1.bias")
#loc524 = loc("model.visual.blocks.14.mlp.linear_fc1.weight")
#loc525 = loc("model.visual.blocks.14.mlp.linear_fc1")
#loc526 = loc("model.visual.blocks.14.mlp.linear_fc1.gelu")
#loc527 = loc("model.visual.blocks.14.mlp.linear_fc2.bias")
#loc528 = loc("model.visual.blocks.14.mlp.linear_fc2.weight")
#loc529 = loc("model.visual.blocks.14.mlp.linear_fc2")
#loc530 = loc("model.visual.blocks.14.mlp.linear_fc2.add")
#loc531 = loc("model.visual.blocks.15.norm1.weight")
#loc532 = loc("model.visual.blocks.15.norm1.bias")
#loc533 = loc("model.visual.blocks.15.norm1")
#loc534 = loc("model.visual.blocks.15.attn.q.bias")
#loc535 = loc("model.visual.blocks.15.attn.q.weight")
#loc536 = loc("model.visual.blocks.15.attn.q")
#loc537 = loc("model.visual.blocks.15.attn.k.bias")
#loc538 = loc("model.visual.blocks.15.attn.k.weight")
#loc539 = loc("model.visual.blocks.15.attn.k")
#loc540 = loc("model.visual.blocks.15.attn.v.bias")
#loc541 = loc("model.visual.blocks.15.attn.v.weight")
#loc542 = loc("model.visual.blocks.15.attn.v")
#loc543 = loc("model.visual.blocks.15.attn.q.reshape")
#loc544 = loc("model.visual.blocks.15.attn.k.reshape")
#loc545 = loc("model.visual.blocks.15.attn.v.reshape")
#loc546 = loc("model.visual.blocks.15.attn.q.rotary")
#loc547 = loc("model.visual.blocks.15.attn.k.rotary")
#loc548 = loc("model.visual.blocks.15.fattention")
#loc549 = loc("model.visual.blocks.15.fattention.reshape")
#loc550 = loc("model.visual.blocks.15.attn.proj.bias")
#loc551 = loc("model.visual.blocks.15.attn.proj.weight")
#loc552 = loc("model.visual.blocks.15.attn.proj")
#loc553 = loc("model.visual.blocks.15.attn.proj.add")
#loc554 = loc("model.visual.blocks.15.norm2.weight")
#loc555 = loc("model.visual.blocks.15.norm2.bias")
#loc556 = loc("model.visual.blocks.15.norm2")
#loc557 = loc("model.visual.blocks.15.mlp.linear_fc1.bias")
#loc558 = loc("model.visual.blocks.15.mlp.linear_fc1.weight")
#loc559 = loc("model.visual.blocks.15.mlp.linear_fc1")
#loc560 = loc("model.visual.blocks.15.mlp.linear_fc1.gelu")
#loc561 = loc("model.visual.blocks.15.mlp.linear_fc2.bias")
#loc562 = loc("model.visual.blocks.15.mlp.linear_fc2.weight")
#loc563 = loc("model.visual.blocks.15.mlp.linear_fc2")
#loc564 = loc("model.visual.blocks.15.mlp.linear_fc2.add")
#loc565 = loc("model.visual.blocks.16.norm1.weight")
#loc566 = loc("model.visual.blocks.16.norm1.bias")
#loc567 = loc("model.visual.blocks.16.norm1")
#loc568 = loc("model.visual.blocks.16.attn.q.bias")
#loc569 = loc("model.visual.blocks.16.attn.q.weight")
#loc570 = loc("model.visual.blocks.16.attn.q")
#loc571 = loc("model.visual.blocks.16.attn.k.bias")
#loc572 = loc("model.visual.blocks.16.attn.k.weight")
#loc573 = loc("model.visual.blocks.16.attn.k")
#loc574 = loc("model.visual.blocks.16.attn.v.bias")
#loc575 = loc("model.visual.blocks.16.attn.v.weight")
#loc576 = loc("model.visual.blocks.16.attn.v")
#loc577 = loc("model.visual.blocks.16.attn.q.reshape")
#loc578 = loc("model.visual.blocks.16.attn.k.reshape")
#loc579 = loc("model.visual.blocks.16.attn.v.reshape")
#loc580 = loc("model.visual.blocks.16.attn.q.rotary")
#loc581 = loc("model.visual.blocks.16.attn.k.rotary")
#loc582 = loc("model.visual.blocks.16.fattention")
#loc583 = loc("model.visual.blocks.16.fattention.reshape")
#loc584 = loc("model.visual.blocks.16.attn.proj.bias")
#loc585 = loc("model.visual.blocks.16.attn.proj.weight")
#loc586 = loc("model.visual.blocks.16.attn.proj")
#loc587 = loc("model.visual.blocks.16.attn.proj.add")
#loc588 = loc("model.visual.blocks.16.norm2.weight")
#loc589 = loc("model.visual.blocks.16.norm2.bias")
#loc590 = loc("model.visual.blocks.16.norm2")
#loc591 = loc("model.visual.blocks.16.mlp.linear_fc1.bias")
#loc592 = loc("model.visual.blocks.16.mlp.linear_fc1.weight")
#loc593 = loc("model.visual.blocks.16.mlp.linear_fc1")
#loc594 = loc("model.visual.blocks.16.mlp.linear_fc1.gelu")
#loc595 = loc("model.visual.blocks.16.mlp.linear_fc2.bias")
#loc596 = loc("model.visual.blocks.16.mlp.linear_fc2.weight")
#loc597 = loc("model.visual.blocks.16.mlp.linear_fc2")
#loc598 = loc("model.visual.blocks.16.mlp.linear_fc2.add")
#loc599 = loc("model.visual.blocks.17.norm1.weight")
#loc600 = loc("model.visual.blocks.17.norm1.bias")
#loc601 = loc("model.visual.blocks.17.norm1")
#loc602 = loc("model.visual.blocks.17.attn.q.bias")
#loc603 = loc("model.visual.blocks.17.attn.q.weight")
#loc604 = loc("model.visual.blocks.17.attn.q")
#loc605 = loc("model.visual.blocks.17.attn.k.bias")
#loc606 = loc("model.visual.blocks.17.attn.k.weight")
#loc607 = loc("model.visual.blocks.17.attn.k")
#loc608 = loc("model.visual.blocks.17.attn.v.bias")
#loc609 = loc("model.visual.blocks.17.attn.v.weight")
#loc610 = loc("model.visual.blocks.17.attn.v")
#loc611 = loc("model.visual.blocks.17.attn.q.reshape")
#loc612 = loc("model.visual.blocks.17.attn.k.reshape")
#loc613 = loc("model.visual.blocks.17.attn.v.reshape")
#loc614 = loc("model.visual.blocks.17.attn.q.rotary")
#loc615 = loc("model.visual.blocks.17.attn.k.rotary")
#loc616 = loc("model.visual.blocks.17.fattention")
#loc617 = loc("model.visual.blocks.17.fattention.reshape")
#loc618 = loc("model.visual.blocks.17.attn.proj.bias")
#loc619 = loc("model.visual.blocks.17.attn.proj.weight")
#loc620 = loc("model.visual.blocks.17.attn.proj")
#loc621 = loc("model.visual.blocks.17.attn.proj.add")
#loc622 = loc("model.visual.blocks.17.norm2.weight")
#loc623 = loc("model.visual.blocks.17.norm2.bias")
#loc624 = loc("model.visual.blocks.17.norm2")
#loc625 = loc("model.visual.blocks.17.mlp.linear_fc1.bias")
#loc626 = loc("model.visual.blocks.17.mlp.linear_fc1.weight")
#loc627 = loc("model.visual.blocks.17.mlp.linear_fc1")
#loc628 = loc("model.visual.blocks.17.mlp.linear_fc1.gelu")
#loc629 = loc("model.visual.blocks.17.mlp.linear_fc2.bias")
#loc630 = loc("model.visual.blocks.17.mlp.linear_fc2.weight")
#loc631 = loc("model.visual.blocks.17.mlp.linear_fc2")
#loc632 = loc("model.visual.blocks.17.mlp.linear_fc2.add")
#loc633 = loc("model.visual.blocks.18.norm1.weight")
#loc634 = loc("model.visual.blocks.18.norm1.bias")
#loc635 = loc("model.visual.blocks.18.norm1")
#loc636 = loc("model.visual.blocks.18.attn.q.bias")
#loc637 = loc("model.visual.blocks.18.attn.q.weight")
#loc638 = loc("model.visual.blocks.18.attn.q")
#loc639 = loc("model.visual.blocks.18.attn.k.bias")
#loc640 = loc("model.visual.blocks.18.attn.k.weight")
#loc641 = loc("model.visual.blocks.18.attn.k")
#loc642 = loc("model.visual.blocks.18.attn.v.bias")
#loc643 = loc("model.visual.blocks.18.attn.v.weight")
#loc644 = loc("model.visual.blocks.18.attn.v")
#loc645 = loc("model.visual.blocks.18.attn.q.reshape")
#loc646 = loc("model.visual.blocks.18.attn.k.reshape")
#loc647 = loc("model.visual.blocks.18.attn.v.reshape")
#loc648 = loc("model.visual.blocks.18.attn.q.rotary")
#loc649 = loc("model.visual.blocks.18.attn.k.rotary")
#loc650 = loc("model.visual.blocks.18.fattention")
#loc651 = loc("model.visual.blocks.18.fattention.reshape")
#loc652 = loc("model.visual.blocks.18.attn.proj.bias")
#loc653 = loc("model.visual.blocks.18.attn.proj.weight")
#loc654 = loc("model.visual.blocks.18.attn.proj")
#loc655 = loc("model.visual.blocks.18.attn.proj.add")
#loc656 = loc("model.visual.blocks.18.norm2.weight")
#loc657 = loc("model.visual.blocks.18.norm2.bias")
#loc658 = loc("model.visual.blocks.18.norm2")
#loc659 = loc("model.visual.blocks.18.mlp.linear_fc1.bias")
#loc660 = loc("model.visual.blocks.18.mlp.linear_fc1.weight")
#loc661 = loc("model.visual.blocks.18.mlp.linear_fc1")
#loc662 = loc("model.visual.blocks.18.mlp.linear_fc1.gelu")
#loc663 = loc("model.visual.blocks.18.mlp.linear_fc2.bias")
#loc664 = loc("model.visual.blocks.18.mlp.linear_fc2.weight")
#loc665 = loc("model.visual.blocks.18.mlp.linear_fc2")
#loc666 = loc("model.visual.blocks.18.mlp.linear_fc2.add")
#loc667 = loc("model.visual.blocks.19.norm1.weight")
#loc668 = loc("model.visual.blocks.19.norm1.bias")
#loc669 = loc("model.visual.blocks.19.norm1")
#loc670 = loc("model.visual.blocks.19.attn.q.bias")
#loc671 = loc("model.visual.blocks.19.attn.q.weight")
#loc672 = loc("model.visual.blocks.19.attn.q")
#loc673 = loc("model.visual.blocks.19.attn.k.bias")
#loc674 = loc("model.visual.blocks.19.attn.k.weight")
#loc675 = loc("model.visual.blocks.19.attn.k")
#loc676 = loc("model.visual.blocks.19.attn.v.bias")
#loc677 = loc("model.visual.blocks.19.attn.v.weight")
#loc678 = loc("model.visual.blocks.19.attn.v")
#loc679 = loc("model.visual.blocks.19.attn.q.reshape")
#loc680 = loc("model.visual.blocks.19.attn.k.reshape")
#loc681 = loc("model.visual.blocks.19.attn.v.reshape")
#loc682 = loc("model.visual.blocks.19.attn.q.rotary")
#loc683 = loc("model.visual.blocks.19.attn.k.rotary")
#loc684 = loc("model.visual.blocks.19.fattention")
#loc685 = loc("model.visual.blocks.19.fattention.reshape")
#loc686 = loc("model.visual.blocks.19.attn.proj.bias")
#loc687 = loc("model.visual.blocks.19.attn.proj.weight")
#loc688 = loc("model.visual.blocks.19.attn.proj")
#loc689 = loc("model.visual.blocks.19.attn.proj.add")
#loc690 = loc("model.visual.blocks.19.norm2.weight")
#loc691 = loc("model.visual.blocks.19.norm2.bias")
#loc692 = loc("model.visual.blocks.19.norm2")
#loc693 = loc("model.visual.blocks.19.mlp.linear_fc1.bias")
#loc694 = loc("model.visual.blocks.19.mlp.linear_fc1.weight")
#loc695 = loc("model.visual.blocks.19.mlp.linear_fc1")
#loc696 = loc("model.visual.blocks.19.mlp.linear_fc1.gelu")
#loc697 = loc("model.visual.blocks.19.mlp.linear_fc2.bias")
#loc698 = loc("model.visual.blocks.19.mlp.linear_fc2.weight")
#loc699 = loc("model.visual.blocks.19.mlp.linear_fc2")
#loc700 = loc("model.visual.blocks.19.mlp.linear_fc2.add")
#loc701 = loc("model.visual.blocks.20.norm1.weight")
#loc702 = loc("model.visual.blocks.20.norm1.bias")
#loc703 = loc("model.visual.blocks.20.norm1")
#loc704 = loc("model.visual.blocks.20.attn.q.bias")
#loc705 = loc("model.visual.blocks.20.attn.q.weight")
#loc706 = loc("model.visual.blocks.20.attn.q")
#loc707 = loc("model.visual.blocks.20.attn.k.bias")
#loc708 = loc("model.visual.blocks.20.attn.k.weight")
#loc709 = loc("model.visual.blocks.20.attn.k")
#loc710 = loc("model.visual.blocks.20.attn.v.bias")
#loc711 = loc("model.visual.blocks.20.attn.v.weight")
#loc712 = loc("model.visual.blocks.20.attn.v")
#loc713 = loc("model.visual.blocks.20.attn.q.reshape")
#loc714 = loc("model.visual.blocks.20.attn.k.reshape")
#loc715 = loc("model.visual.blocks.20.attn.v.reshape")
#loc716 = loc("model.visual.blocks.20.attn.q.rotary")
#loc717 = loc("model.visual.blocks.20.attn.k.rotary")
#loc718 = loc("model.visual.blocks.20.fattention")
#loc719 = loc("model.visual.blocks.20.fattention.reshape")
#loc720 = loc("model.visual.blocks.20.attn.proj.bias")
#loc721 = loc("model.visual.blocks.20.attn.proj.weight")
#loc722 = loc("model.visual.blocks.20.attn.proj")
#loc723 = loc("model.visual.blocks.20.attn.proj.add")
#loc724 = loc("model.visual.blocks.20.norm2.weight")
#loc725 = loc("model.visual.blocks.20.norm2.bias")
#loc726 = loc("model.visual.blocks.20.norm2")
#loc727 = loc("model.visual.blocks.20.mlp.linear_fc1.bias")
#loc728 = loc("model.visual.blocks.20.mlp.linear_fc1.weight")
#loc729 = loc("model.visual.blocks.20.mlp.linear_fc1")
#loc730 = loc("model.visual.blocks.20.mlp.linear_fc1.gelu")
#loc731 = loc("model.visual.blocks.20.mlp.linear_fc2.bias")
#loc732 = loc("model.visual.blocks.20.mlp.linear_fc2.weight")
#loc733 = loc("model.visual.blocks.20.mlp.linear_fc2")
#loc734 = loc("model.visual.blocks.20.mlp.linear_fc2.add")
#loc735 = loc("model.visual.blocks.21.norm1.weight")
#loc736 = loc("model.visual.blocks.21.norm1.bias")
#loc737 = loc("model.visual.blocks.21.norm1")
#loc738 = loc("model.visual.blocks.21.attn.q.bias")
#loc739 = loc("model.visual.blocks.21.attn.q.weight")
#loc740 = loc("model.visual.blocks.21.attn.q")
#loc741 = loc("model.visual.blocks.21.attn.k.bias")
#loc742 = loc("model.visual.blocks.21.attn.k.weight")
#loc743 = loc("model.visual.blocks.21.attn.k")
#loc744 = loc("model.visual.blocks.21.attn.v.bias")
#loc745 = loc("model.visual.blocks.21.attn.v.weight")
#loc746 = loc("model.visual.blocks.21.attn.v")
#loc747 = loc("model.visual.blocks.21.attn.q.reshape")
#loc748 = loc("model.visual.blocks.21.attn.k.reshape")
#loc749 = loc("model.visual.blocks.21.attn.v.reshape")
#loc750 = loc("model.visual.blocks.21.attn.q.rotary")
#loc751 = loc("model.visual.blocks.21.attn.k.rotary")
#loc752 = loc("model.visual.blocks.21.fattention")
#loc753 = loc("model.visual.blocks.21.fattention.reshape")
#loc754 = loc("model.visual.blocks.21.attn.proj.bias")
#loc755 = loc("model.visual.blocks.21.attn.proj.weight")
#loc756 = loc("model.visual.blocks.21.attn.proj")
#loc757 = loc("model.visual.blocks.21.attn.proj.add")
#loc758 = loc("model.visual.blocks.21.norm2.weight")
#loc759 = loc("model.visual.blocks.21.norm2.bias")
#loc760 = loc("model.visual.blocks.21.norm2")
#loc761 = loc("model.visual.blocks.21.mlp.linear_fc1.bias")
#loc762 = loc("model.visual.blocks.21.mlp.linear_fc1.weight")
#loc763 = loc("model.visual.blocks.21.mlp.linear_fc1")
#loc764 = loc("model.visual.blocks.21.mlp.linear_fc1.gelu")
#loc765 = loc("model.visual.blocks.21.mlp.linear_fc2.bias")
#loc766 = loc("model.visual.blocks.21.mlp.linear_fc2.weight")
#loc767 = loc("model.visual.blocks.21.mlp.linear_fc2")
#loc768 = loc("model.visual.blocks.21.mlp.linear_fc2.add")
#loc769 = loc("model.visual.blocks.22.norm1.weight")
#loc770 = loc("model.visual.blocks.22.norm1.bias")
#loc771 = loc("model.visual.blocks.22.norm1")
#loc772 = loc("model.visual.blocks.22.attn.q.bias")
#loc773 = loc("model.visual.blocks.22.attn.q.weight")
#loc774 = loc("model.visual.blocks.22.attn.q")
#loc775 = loc("model.visual.blocks.22.attn.k.bias")
#loc776 = loc("model.visual.blocks.22.attn.k.weight")
#loc777 = loc("model.visual.blocks.22.attn.k")
#loc778 = loc("model.visual.blocks.22.attn.v.bias")
#loc779 = loc("model.visual.blocks.22.attn.v.weight")
#loc780 = loc("model.visual.blocks.22.attn.v")
#loc781 = loc("model.visual.blocks.22.attn.q.reshape")
#loc782 = loc("model.visual.blocks.22.attn.k.reshape")
#loc783 = loc("model.visual.blocks.22.attn.v.reshape")
#loc784 = loc("model.visual.blocks.22.attn.q.rotary")
#loc785 = loc("model.visual.blocks.22.attn.k.rotary")
#loc786 = loc("model.visual.blocks.22.fattention")
#loc787 = loc("model.visual.blocks.22.fattention.reshape")
#loc788 = loc("model.visual.blocks.22.attn.proj.bias")
#loc789 = loc("model.visual.blocks.22.attn.proj.weight")
#loc790 = loc("model.visual.blocks.22.attn.proj")
#loc791 = loc("model.visual.blocks.22.attn.proj.add")
#loc792 = loc("model.visual.blocks.22.norm2.weight")
#loc793 = loc("model.visual.blocks.22.norm2.bias")
#loc794 = loc("model.visual.blocks.22.norm2")
#loc795 = loc("model.visual.blocks.22.mlp.linear_fc1.bias")
#loc796 = loc("model.visual.blocks.22.mlp.linear_fc1.weight")
#loc797 = loc("model.visual.blocks.22.mlp.linear_fc1")
#loc798 = loc("model.visual.blocks.22.mlp.linear_fc1.gelu")
#loc799 = loc("model.visual.blocks.22.mlp.linear_fc2.bias")
#loc800 = loc("model.visual.blocks.22.mlp.linear_fc2.weight")
#loc801 = loc("model.visual.blocks.22.mlp.linear_fc2")
#loc802 = loc("model.visual.blocks.22.mlp.linear_fc2.add")
#loc803 = loc("model.visual.blocks.23.norm1.weight")
#loc804 = loc("model.visual.blocks.23.norm1.bias")
#loc805 = loc("model.visual.blocks.23.norm1")
#loc806 = loc("model.visual.blocks.23.attn.q.bias")
#loc807 = loc("model.visual.blocks.23.attn.q.weight")
#loc808 = loc("model.visual.blocks.23.attn.q")
#loc809 = loc("model.visual.blocks.23.attn.k.bias")
#loc810 = loc("model.visual.blocks.23.attn.k.weight")
#loc811 = loc("model.visual.blocks.23.attn.k")
#loc812 = loc("model.visual.blocks.23.attn.v.bias")
#loc813 = loc("model.visual.blocks.23.attn.v.weight")
#loc814 = loc("model.visual.blocks.23.attn.v")
#loc815 = loc("model.visual.blocks.23.attn.q.reshape")
#loc816 = loc("model.visual.blocks.23.attn.k.reshape")
#loc817 = loc("model.visual.blocks.23.attn.v.reshape")
#loc818 = loc("model.visual.blocks.23.attn.q.rotary")
#loc819 = loc("model.visual.blocks.23.attn.k.rotary")
#loc820 = loc("model.visual.blocks.23.fattention")
#loc821 = loc("model.visual.blocks.23.fattention.reshape")
#loc822 = loc("model.visual.blocks.23.attn.proj.bias")
#loc823 = loc("model.visual.blocks.23.attn.proj.weight")
#loc824 = loc("model.visual.blocks.23.attn.proj")
#loc825 = loc("model.visual.blocks.23.attn.proj.add")
#loc826 = loc("model.visual.blocks.23.norm2.weight")
#loc827 = loc("model.visual.blocks.23.norm2.bias")
#loc828 = loc("model.visual.blocks.23.norm2")
#loc829 = loc("model.visual.blocks.23.mlp.linear_fc1.bias")
#loc830 = loc("model.visual.blocks.23.mlp.linear_fc1.weight")
#loc831 = loc("model.visual.blocks.23.mlp.linear_fc1")
#loc832 = loc("model.visual.blocks.23.mlp.linear_fc1.gelu")
#loc833 = loc("model.visual.blocks.23.mlp.linear_fc2.bias")
#loc834 = loc("model.visual.blocks.23.mlp.linear_fc2.weight")
#loc835 = loc("model.visual.blocks.23.mlp.linear_fc2")
#loc836 = loc("model.visual.blocks.23.mlp.linear_fc2.add")
#loc837 = loc("model.visual.merger.norm.weight")
#loc838 = loc("model.visual.merger.norm.bias")
#loc839 = loc("model.visual.merger.norm")
#loc840 = loc("model.visual.merger.linear_fc1.preshape")
#loc841 = loc("model.visual.merger.linear_fc1.bias")
#loc842 = loc("model.visual.merger.linear_fc1.weight")
#loc843 = loc("model.visual.merger.linear_fc1")
#loc844 = loc("model.visual.merger.linear_fc1.gelu")
#loc845 = loc("model.visual.merger.linear_fc2.bias")
#loc846 = loc("model.visual.merger.linear_fc2.weight")
#loc847 = loc("model.visual.merger.linear_fc2")
