#loc = loc(unknown)
#loc1 = loc("input_states")
#loc2 = loc("position_ids")
#loc3 = loc("pos_idx")
#loc4 = loc("pos_weight")
module @vit attributes {module.FLOPs = 1953274134528 : i64, module.addr_mode = "basic", module.asymmetric = false, module.chip = "bm1684x", module.cores = 1 : i64, module.devices = 1 : i64, module.high_precision = true, module.inputs = ["input_states", "position_ids", "pos_idx", "pos_weight"], module.mode = "BF16", module.outputs = ["model.visual.merger.linear_fc2"], module.platform = "LLM_QUANTIZED", module.q_group_size = 0 : i64, module.q_symmetric = false, module.state = "TPU_ADDRESSED", module.top_run_mode = "STATIC", module.weight_file = "vit_tpu_addressed_bm1684x_bf16_weight.npz"} {
  module @vit attributes {module.coeff_addr = 4294967296 : i64, module.coeff_size = 663429120 : i64, module.device_id = 0 : i64, module.dynamic_coeff_offset = 0 : i64, module.neuron_addr = 4958396416 : i64, module.neuron_size = 95645696 : i64, module.step = 0 : i64} {
    func.func @main(%arg0: tensor<2304x1536xf32> loc(unknown), %arg1: tensor<2304x2xsi32> loc(unknown), %arg2: tensor<2304x4xsi32> loc(unknown), %arg3: tensor<2304x4x1xf32> loc(unknown)) -> tensor<576x2048xbf16, 4958396416 : i64> {
      %0 = "top.Input"(%arg0) {do_preprocess = false} : (tensor<2304x1536xf32>) -> tensor<2304x1536xf32, 5033893888 : i64> loc(#loc1)
      %1 = "top.Input"(%arg1) {do_preprocess = false} : (tensor<2304x2xsi32>) -> tensor<2304x2xsi32, 5054021632 : i64> loc(#loc2)
      %2 = "top.Input"(%arg2) {do_preprocess = false} : (tensor<2304x4xsi32>) -> tensor<2304x4xsi32, 5053984768 : i64> loc(#loc3)
      %3 = "top.Input"(%arg3) {do_preprocess = false} : (tensor<2304x4x1xf32>) -> tensor<2304x4x1xf32, 5053947904 : i64> loc(#loc4)
      %4 = call @subfunc_0(%0, %1, %2, %3) : (tensor<2304x1536xf32, 5033893888 : i64>, tensor<2304x2xsi32, 5054021632 : i64>, tensor<2304x4xsi32, 5053984768 : i64>, tensor<2304x4x1xf32, 5053947904 : i64>) -> tensor<576x2048xbf16, 4958396416 : i64> loc(#loc)
      return %4 : tensor<576x2048xbf16, 4958396416 : i64> loc(#loc)
    } loc(#loc)
    func.func @subfunc_0(%arg0: tensor<2304x1536xf32, 5033893888 : i64> loc("input_states"), %arg1: tensor<2304x2xsi32, 5054021632 : i64> loc("position_ids"), %arg2: tensor<2304x4xsi32, 5053984768 : i64> loc("pos_idx"), %arg3: tensor<2304x4x1xf32, 5053947904 : i64> loc("pos_weight")) -> tensor<576x2048xbf16, 4958396416 : i64> attributes {id = 0 : i64, mode = #tpu<run_mode TPU_DYNAMIC>, next_index = array<i32: -1>} {
      %0 = "top.None"() : () -> none loc(#loc)
      %1 = "top.Weight"() {path = "tpu.MatMul.bias"} : () -> tensor<1x1024xbf16, 4294967296 : i64> loc(#loc5)
      %2 = "top.Weight"() {path = "tpu.MatMul.weight"} : () -> tensor<1024x1024xbf16, 4294971392 : i64> loc(#loc6)
      %3 = "top.Weight"() {path = "tpu.MatMul.bias"} : () -> tensor<1x1024xbf16, 4297068544 : i64> loc(#loc7)
      %4 = "top.Weight"() {path = "tpu.MatMul.weight"} : () -> tensor<1024x1024xbf16, 4297072640 : i64> loc(#loc8)
      %5 = "top.Weight"() {path = "tpu.MatMul.bias"} : () -> tensor<1x1024xbf16, 4299169792 : i64> loc(#loc9)
      %6 = "top.Weight"() {path = "tpu.MatMul.weight"} : () -> tensor<1024x1024xbf16, 4299173888 : i64> loc(#loc10)
      %7 = "top.Weight"() {path = "tpu.MatMul.bias"} : () -> tensor<1x1024xbf16, 4301271040 : i64> loc(#loc11)
      %8 = "top.Weight"() {path = "tpu.MatMul.weight"} : () -> tensor<1024x1024xbf16, 4301275136 : i64> loc(#loc12)
      %9 = "top.Weight"() {path = "tpu.MatMul.bias"} : () -> tensor<1x4096xbf16, 4303372288 : i64> loc(#loc13)
      %10 = "top.Weight"() {path = "tpu.MatMul.weight"} : () -> tensor<1024x4096xbf16, 4303380480 : i64> loc(#loc14)
      %11 = "top.Weight"() {path = "tpu.MatMul.bias"} : () -> tensor<1x1024xbf16, 4311769088 : i64> loc(#loc15)
      %12 = "top.Weight"() {path = "tpu.MatMul.weight"} : () -> tensor<4096x1024xbf16, 4311773184 : i64> loc(#loc16)
      %13 = "top.Weight"() {path = "tpu.LayerNorm.bias"} : () -> tensor<1x1024xbf16, 4320161792 : i64> loc(#loc17)
      %14 = "top.Weight"() {path = "tpu.LayerNorm.weight"} : () -> tensor<1x1024xbf16, 4320165888 : i64> loc(#loc18)
      %15 = "top.Weight"() {path = "tpu.LayerNorm.bias"} : () -> tensor<1x1024xbf16, 4320169984 : i64> loc(#loc19)
      %16 = "top.Weight"() {path = "tpu.LayerNorm.weight"} : () -> tensor<1x1024xbf16, 4320174080 : i64> loc(#loc20)
      %17 = "top.Weight"() {path = "tpu.MatMul.bias"} : () -> tensor<1x1024xbf16, 4320178176 : i64> loc(#loc21)
      %18 = "top.Weight"() {path = "tpu.MatMul.weight"} : () -> tensor<1024x1024xbf16, 4320182272 : i64> loc(#loc22)
      %19 = "top.Weight"() {path = "tpu.MatMul.bias"} : () -> tensor<1x1024xbf16, 4322279424 : i64> loc(#loc23)
      %20 = "top.Weight"() {path = "tpu.MatMul.weight"} : () -> tensor<1024x1024xbf16, 4322283520 : i64> loc(#loc24)
      %21 = "top.Weight"() {path = "tpu.MatMul.bias"} : () -> tensor<1x1024xbf16, 4324380672 : i64> loc(#loc25)
      %22 = "top.Weight"() {path = "tpu.MatMul.weight"} : () -> tensor<1024x1024xbf16, 4324384768 : i64> loc(#loc26)
      %23 = "top.Weight"() {path = "tpu.MatMul.bias"} : () -> tensor<1x1024xbf16, 4326481920 : i64> loc(#loc27)
      %24 = "top.Weight"() {path = "tpu.MatMul.weight"} : () -> tensor<1024x1024xbf16, 4326486016 : i64> loc(#loc28)
      %25 = "top.Weight"() {path = "tpu.MatMul.bias"} : () -> tensor<1x4096xbf16, 4328583168 : i64> loc(#loc29)
      %26 = "top.Weight"() {path = "tpu.MatMul.weight"} : () -> tensor<1024x4096xbf16, 4328591360 : i64> loc(#loc30)
      %27 = "top.Weight"() {path = "tpu.MatMul.bias"} : () -> tensor<1x1024xbf16, 4336979968 : i64> loc(#loc31)
      %28 = "top.Weight"() {path = "tpu.MatMul.weight"} : () -> tensor<4096x1024xbf16, 4336984064 : i64> loc(#loc32)
      %29 = "top.Weight"() {path = "tpu.LayerNorm.bias"} : () -> tensor<1x1024xbf16, 4345372672 : i64> loc(#loc33)
      %30 = "top.Weight"() {path = "tpu.LayerNorm.weight"} : () -> tensor<1x1024xbf16, 4345376768 : i64> loc(#loc34)
      %31 = "top.Weight"() {path = "tpu.LayerNorm.bias"} : () -> tensor<1x1024xbf16, 4345380864 : i64> loc(#loc35)
      %32 = "top.Weight"() {path = "tpu.LayerNorm.weight"} : () -> tensor<1x1024xbf16, 4345384960 : i64> loc(#loc36)
      %33 = "top.Weight"() {path = "tpu.MatMul.bias"} : () -> tensor<1x1024xbf16, 4345389056 : i64> loc(#loc37)
      %34 = "top.Weight"() {path = "tpu.MatMul.weight"} : () -> tensor<1024x1024xbf16, 4345393152 : i64> loc(#loc38)
      %35 = "top.Weight"() {path = "tpu.MatMul.bias"} : () -> tensor<1x1024xbf16, 4347490304 : i64> loc(#loc39)
      %36 = "top.Weight"() {path = "tpu.MatMul.weight"} : () -> tensor<1024x1024xbf16, 4347494400 : i64> loc(#loc40)
      %37 = "top.Weight"() {path = "tpu.MatMul.bias"} : () -> tensor<1x1024xbf16, 4349591552 : i64> loc(#loc41)
      %38 = "top.Weight"() {path = "tpu.MatMul.weight"} : () -> tensor<1024x1024xbf16, 4349595648 : i64> loc(#loc42)
      %39 = "top.Weight"() {path = "tpu.MatMul.bias"} : () -> tensor<1x1024xbf16, 4351692800 : i64> loc(#loc43)
      %40 = "top.Weight"() {path = "tpu.MatMul.weight"} : () -> tensor<1024x1024xbf16, 4351696896 : i64> loc(#loc44)
      %41 = "top.Weight"() {path = "tpu.MatMul.bias"} : () -> tensor<1x4096xbf16, 4353794048 : i64> loc(#loc45)
      %42 = "top.Weight"() {path = "tpu.MatMul.weight"} : () -> tensor<1024x4096xbf16, 4353802240 : i64> loc(#loc46)
      %43 = "top.Weight"() {path = "tpu.MatMul.bias"} : () -> tensor<1x1024xbf16, 4362190848 : i64> loc(#loc47)
      %44 = "top.Weight"() {path = "tpu.MatMul.weight"} : () -> tensor<4096x1024xbf16, 4362194944 : i64> loc(#loc48)
      %45 = "top.Weight"() {path = "tpu.LayerNorm.bias"} : () -> tensor<1x1024xbf16, 4370583552 : i64> loc(#loc49)
      %46 = "top.Weight"() {path = "tpu.LayerNorm.weight"} : () -> tensor<1x1024xbf16, 4370587648 : i64> loc(#loc50)
      %47 = "top.Weight"() {path = "tpu.LayerNorm.bias"} : () -> tensor<1x1024xbf16, 4370591744 : i64> loc(#loc51)
      %48 = "top.Weight"() {path = "tpu.LayerNorm.weight"} : () -> tensor<1x1024xbf16, 4370595840 : i64> loc(#loc52)
      %49 = "top.Weight"() {path = "tpu.MatMul.bias"} : () -> tensor<1x1024xbf16, 4370599936 : i64> loc(#loc53)
      %50 = "top.Weight"() {path = "tpu.MatMul.weight"} : () -> tensor<1024x1024xbf16, 4370604032 : i64> loc(#loc54)
      %51 = "top.Weight"() {path = "tpu.MatMul.bias"} : () -> tensor<1x1024xbf16, 4372701184 : i64> loc(#loc55)
      %52 = "top.Weight"() {path = "tpu.MatMul.weight"} : () -> tensor<1024x1024xbf16, 4372705280 : i64> loc(#loc56)
      %53 = "top.Weight"() {path = "tpu.MatMul.bias"} : () -> tensor<1x1024xbf16, 4374802432 : i64> loc(#loc57)
      %54 = "top.Weight"() {path = "tpu.MatMul.weight"} : () -> tensor<1024x1024xbf16, 4374806528 : i64> loc(#loc58)
      %55 = "top.Weight"() {path = "tpu.MatMul.bias"} : () -> tensor<1x1024xbf16, 4376903680 : i64> loc(#loc59)
      %56 = "top.Weight"() {path = "tpu.MatMul.weight"} : () -> tensor<1024x1024xbf16, 4376907776 : i64> loc(#loc60)
      %57 = "top.Weight"() {path = "tpu.MatMul.bias"} : () -> tensor<1x4096xbf16, 4379004928 : i64> loc(#loc61)
      %58 = "top.Weight"() {path = "tpu.MatMul.weight"} : () -> tensor<1024x4096xbf16, 4379013120 : i64> loc(#loc62)
      %59 = "top.Weight"() {path = "tpu.MatMul.bias"} : () -> tensor<1x1024xbf16, 4387401728 : i64> loc(#loc63)
      %60 = "top.Weight"() {path = "tpu.MatMul.weight"} : () -> tensor<4096x1024xbf16, 4387405824 : i64> loc(#loc64)
      %61 = "top.Weight"() {path = "tpu.LayerNorm.bias"} : () -> tensor<1x1024xbf16, 4395794432 : i64> loc(#loc65)
      %62 = "top.Weight"() {path = "tpu.LayerNorm.weight"} : () -> tensor<1x1024xbf16, 4395798528 : i64> loc(#loc66)
      %63 = "top.Weight"() {path = "tpu.LayerNorm.bias"} : () -> tensor<1x1024xbf16, 4395802624 : i64> loc(#loc67)
      %64 = "top.Weight"() {path = "tpu.LayerNorm.weight"} : () -> tensor<1x1024xbf16, 4395806720 : i64> loc(#loc68)
      %65 = "top.Weight"() {path = "tpu.MatMul.bias"} : () -> tensor<1x1024xbf16, 4395810816 : i64> loc(#loc69)
      %66 = "top.Weight"() {path = "tpu.MatMul.weight"} : () -> tensor<1024x1024xbf16, 4395814912 : i64> loc(#loc70)
      %67 = "top.Weight"() {path = "tpu.MatMul.bias"} : () -> tensor<1x1024xbf16, 4397912064 : i64> loc(#loc71)
      %68 = "top.Weight"() {path = "tpu.MatMul.weight"} : () -> tensor<1024x1024xbf16, 4397916160 : i64> loc(#loc72)
      %69 = "top.Weight"() {path = "tpu.MatMul.bias"} : () -> tensor<1x1024xbf16, 4400013312 : i64> loc(#loc73)
      %70 = "top.Weight"() {path = "tpu.MatMul.weight"} : () -> tensor<1024x1024xbf16, 4400017408 : i64> loc(#loc74)
      %71 = "top.Weight"() {path = "tpu.MatMul.bias"} : () -> tensor<1x1024xbf16, 4402114560 : i64> loc(#loc75)
      %72 = "top.Weight"() {path = "tpu.MatMul.weight"} : () -> tensor<1024x1024xbf16, 4402118656 : i64> loc(#loc76)
      %73 = "top.Weight"() {path = "tpu.MatMul.bias"} : () -> tensor<1x4096xbf16, 4404215808 : i64> loc(#loc77)
      %74 = "top.Weight"() {path = "tpu.MatMul.weight"} : () -> tensor<1024x4096xbf16, 4404224000 : i64> loc(#loc78)
      %75 = "top.Weight"() {path = "tpu.MatMul.bias"} : () -> tensor<1x1024xbf16, 4412612608 : i64> loc(#loc79)
      %76 = "top.Weight"() {path = "tpu.MatMul.weight"} : () -> tensor<4096x1024xbf16, 4412616704 : i64> loc(#loc80)
      %77 = "top.Weight"() {path = "tpu.LayerNorm.bias"} : () -> tensor<1x1024xbf16, 4421005312 : i64> loc(#loc81)
      %78 = "top.Weight"() {path = "tpu.LayerNorm.weight"} : () -> tensor<1x1024xbf16, 4421009408 : i64> loc(#loc82)
      %79 = "top.Weight"() {path = "tpu.LayerNorm.bias"} : () -> tensor<1x1024xbf16, 4421013504 : i64> loc(#loc83)
      %80 = "top.Weight"() {path = "tpu.LayerNorm.weight"} : () -> tensor<1x1024xbf16, 4421017600 : i64> loc(#loc84)
      %81 = "top.Weight"() {path = "tpu.MatMul.bias"} : () -> tensor<1x1024xbf16, 4421021696 : i64> loc(#loc85)
      %82 = "top.Weight"() {path = "tpu.MatMul.weight"} : () -> tensor<1024x1024xbf16, 4421025792 : i64> loc(#loc86)
      %83 = "top.Weight"() {path = "tpu.MatMul.bias"} : () -> tensor<1x1024xbf16, 4423122944 : i64> loc(#loc87)
      %84 = "top.Weight"() {path = "tpu.MatMul.weight"} : () -> tensor<1024x1024xbf16, 4423127040 : i64> loc(#loc88)
      %85 = "top.Weight"() {path = "tpu.MatMul.bias"} : () -> tensor<1x1024xbf16, 4425224192 : i64> loc(#loc89)
      %86 = "top.Weight"() {path = "tpu.MatMul.weight"} : () -> tensor<1024x1024xbf16, 4425228288 : i64> loc(#loc90)
      %87 = "top.Weight"() {path = "tpu.MatMul.bias"} : () -> tensor<1x1024xbf16, 4427325440 : i64> loc(#loc91)
      %88 = "top.Weight"() {path = "tpu.MatMul.weight"} : () -> tensor<1024x1024xbf16, 4427329536 : i64> loc(#loc92)
      %89 = "top.Weight"() {path = "tpu.MatMul.bias"} : () -> tensor<1x4096xbf16, 4429426688 : i64> loc(#loc93)
      %90 = "top.Weight"() {path = "tpu.MatMul.weight"} : () -> tensor<1024x4096xbf16, 4429434880 : i64> loc(#loc94)
      %91 = "top.Weight"() {path = "tpu.MatMul.bias"} : () -> tensor<1x1024xbf16, 4437823488 : i64> loc(#loc95)
      %92 = "top.Weight"() {path = "tpu.MatMul.weight"} : () -> tensor<4096x1024xbf16, 4437827584 : i64> loc(#loc96)
      %93 = "top.Weight"() {path = "tpu.LayerNorm.bias"} : () -> tensor<1x1024xbf16, 4446216192 : i64> loc(#loc97)
      %94 = "top.Weight"() {path = "tpu.LayerNorm.weight"} : () -> tensor<1x1024xbf16, 4446220288 : i64> loc(#loc98)
      %95 = "top.Weight"() {path = "tpu.LayerNorm.bias"} : () -> tensor<1x1024xbf16, 4446224384 : i64> loc(#loc99)
      %96 = "top.Weight"() {path = "tpu.LayerNorm.weight"} : () -> tensor<1x1024xbf16, 4446228480 : i64> loc(#loc100)
      %97 = "top.Weight"() {path = "tpu.MatMul.bias"} : () -> tensor<1x1024xbf16, 4446232576 : i64> loc(#loc101)
      %98 = "top.Weight"() {path = "tpu.MatMul.weight"} : () -> tensor<1024x1024xbf16, 4446236672 : i64> loc(#loc102)
      %99 = "top.Weight"() {path = "tpu.MatMul.bias"} : () -> tensor<1x1024xbf16, 4448333824 : i64> loc(#loc103)
      %100 = "top.Weight"() {path = "tpu.MatMul.weight"} : () -> tensor<1024x1024xbf16, 4448337920 : i64> loc(#loc104)
      %101 = "top.Weight"() {path = "tpu.MatMul.bias"} : () -> tensor<1x1024xbf16, 4450435072 : i64> loc(#loc105)
      %102 = "top.Weight"() {path = "tpu.MatMul.weight"} : () -> tensor<1024x1024xbf16, 4450439168 : i64> loc(#loc106)
      %103 = "top.Weight"() {path = "tpu.MatMul.bias"} : () -> tensor<1x1024xbf16, 4452536320 : i64> loc(#loc107)
      %104 = "top.Weight"() {path = "tpu.MatMul.weight"} : () -> tensor<1024x1024xbf16, 4452540416 : i64> loc(#loc108)
      %105 = "top.Weight"() {path = "tpu.MatMul.bias"} : () -> tensor<1x4096xbf16, 4454637568 : i64> loc(#loc109)
      %106 = "top.Weight"() {path = "tpu.MatMul.weight"} : () -> tensor<1024x4096xbf16, 4454645760 : i64> loc(#loc110)
      %107 = "top.Weight"() {path = "tpu.MatMul.bias"} : () -> tensor<1x1024xbf16, 4463034368 : i64> loc(#loc111)
      %108 = "top.Weight"() {path = "tpu.MatMul.weight"} : () -> tensor<4096x1024xbf16, 4463038464 : i64> loc(#loc112)
      %109 = "top.Weight"() {path = "tpu.LayerNorm.bias"} : () -> tensor<1x1024xbf16, 4471427072 : i64> loc(#loc113)
      %110 = "top.Weight"() {path = "tpu.LayerNorm.weight"} : () -> tensor<1x1024xbf16, 4471431168 : i64> loc(#loc114)
      %111 = "top.Weight"() {path = "tpu.LayerNorm.bias"} : () -> tensor<1x1024xbf16, 4471435264 : i64> loc(#loc115)
      %112 = "top.Weight"() {path = "tpu.LayerNorm.weight"} : () -> tensor<1x1024xbf16, 4471439360 : i64> loc(#loc116)
      %113 = "top.Weight"() {path = "tpu.MatMul.bias"} : () -> tensor<1x1024xbf16, 4471443456 : i64> loc(#loc117)
      %114 = "top.Weight"() {path = "tpu.MatMul.weight"} : () -> tensor<1024x1024xbf16, 4471447552 : i64> loc(#loc118)
      %115 = "top.Weight"() {path = "tpu.MatMul.bias"} : () -> tensor<1x1024xbf16, 4473544704 : i64> loc(#loc119)
      %116 = "top.Weight"() {path = "tpu.MatMul.weight"} : () -> tensor<1024x1024xbf16, 4473548800 : i64> loc(#loc120)
      %117 = "top.Weight"() {path = "tpu.MatMul.bias"} : () -> tensor<1x1024xbf16, 4475645952 : i64> loc(#loc121)
      %118 = "top.Weight"() {path = "tpu.MatMul.weight"} : () -> tensor<1024x1024xbf16, 4475650048 : i64> loc(#loc122)
      %119 = "top.Weight"() {path = "tpu.MatMul.bias"} : () -> tensor<1x1024xbf16, 4477747200 : i64> loc(#loc123)
      %120 = "top.Weight"() {path = "tpu.MatMul.weight"} : () -> tensor<1024x1024xbf16, 4477751296 : i64> loc(#loc124)
      %121 = "top.Weight"() {path = "tpu.MatMul.bias"} : () -> tensor<1x4096xbf16, 4479848448 : i64> loc(#loc125)
      %122 = "top.Weight"() {path = "tpu.MatMul.weight"} : () -> tensor<1024x4096xbf16, 4479856640 : i64> loc(#loc126)
      %123 = "top.Weight"() {path = "tpu.MatMul.bias"} : () -> tensor<1x1024xbf16, 4488245248 : i64> loc(#loc127)
      %124 = "top.Weight"() {path = "tpu.MatMul.weight"} : () -> tensor<4096x1024xbf16, 4488249344 : i64> loc(#loc128)
      %125 = "top.Weight"() {path = "tpu.LayerNorm.bias"} : () -> tensor<1x1024xbf16, 4496637952 : i64> loc(#loc129)
      %126 = "top.Weight"() {path = "tpu.LayerNorm.weight"} : () -> tensor<1x1024xbf16, 4496642048 : i64> loc(#loc130)
      %127 = "top.Weight"() {path = "tpu.LayerNorm.bias"} : () -> tensor<1x1024xbf16, 4496646144 : i64> loc(#loc131)
      %128 = "top.Weight"() {path = "tpu.LayerNorm.weight"} : () -> tensor<1x1024xbf16, 4496650240 : i64> loc(#loc132)
      %129 = "top.Weight"() {path = "tpu.MatMul.bias"} : () -> tensor<1x1024xbf16, 4496654336 : i64> loc(#loc133)
      %130 = "top.Weight"() {path = "tpu.MatMul.weight"} : () -> tensor<1024x1024xbf16, 4496658432 : i64> loc(#loc134)
      %131 = "top.Weight"() {path = "tpu.MatMul.bias"} : () -> tensor<1x1024xbf16, 4498755584 : i64> loc(#loc135)
      %132 = "top.Weight"() {path = "tpu.MatMul.weight"} : () -> tensor<1024x1024xbf16, 4498759680 : i64> loc(#loc136)
      %133 = "top.Weight"() {path = "tpu.MatMul.bias"} : () -> tensor<1x1024xbf16, 4500856832 : i64> loc(#loc137)
      %134 = "top.Weight"() {path = "tpu.MatMul.weight"} : () -> tensor<1024x1024xbf16, 4500860928 : i64> loc(#loc138)
      %135 = "top.Weight"() {path = "tpu.MatMul.bias"} : () -> tensor<1x1024xbf16, 4502958080 : i64> loc(#loc139)
      %136 = "top.Weight"() {path = "tpu.MatMul.weight"} : () -> tensor<1024x1024xbf16, 4502962176 : i64> loc(#loc140)
      %137 = "top.Weight"() {path = "tpu.MatMul.bias"} : () -> tensor<1x4096xbf16, 4505059328 : i64> loc(#loc141)
      %138 = "top.Weight"() {path = "tpu.MatMul.weight"} : () -> tensor<1024x4096xbf16, 4505067520 : i64> loc(#loc142)
      %139 = "top.Weight"() {path = "tpu.MatMul.bias"} : () -> tensor<1x1024xbf16, 4513456128 : i64> loc(#loc143)
      %140 = "top.Weight"() {path = "tpu.MatMul.weight"} : () -> tensor<4096x1024xbf16, 4513460224 : i64> loc(#loc144)
      %141 = "top.Weight"() {path = "tpu.LayerNorm.bias"} : () -> tensor<1x1024xbf16, 4521848832 : i64> loc(#loc145)
      %142 = "top.Weight"() {path = "tpu.LayerNorm.weight"} : () -> tensor<1x1024xbf16, 4521852928 : i64> loc(#loc146)
      %143 = "top.Weight"() {path = "tpu.LayerNorm.bias"} : () -> tensor<1x1024xbf16, 4521857024 : i64> loc(#loc147)
      %144 = "top.Weight"() {path = "tpu.LayerNorm.weight"} : () -> tensor<1x1024xbf16, 4521861120 : i64> loc(#loc148)
      %145 = "top.Weight"() {path = "tpu.MatMul.bias"} : () -> tensor<1x1024xbf16, 4521865216 : i64> loc(#loc149)
      %146 = "top.Weight"() {path = "tpu.MatMul.weight"} : () -> tensor<1024x1024xbf16, 4521869312 : i64> loc(#loc150)
      %147 = "top.Weight"() {path = "tpu.MatMul.bias"} : () -> tensor<1x1024xbf16, 4523966464 : i64> loc(#loc151)
      %148 = "top.Weight"() {path = "tpu.MatMul.weight"} : () -> tensor<1024x1024xbf16, 4523970560 : i64> loc(#loc152)
      %149 = "top.Weight"() {path = "tpu.MatMul.bias"} : () -> tensor<1x1024xbf16, 4526067712 : i64> loc(#loc153)
      %150 = "top.Weight"() {path = "tpu.MatMul.weight"} : () -> tensor<1024x1024xbf16, 4526071808 : i64> loc(#loc154)
      %151 = "top.Weight"() {path = "tpu.MatMul.bias"} : () -> tensor<1x1024xbf16, 4528168960 : i64> loc(#loc155)
      %152 = "top.Weight"() {path = "tpu.MatMul.weight"} : () -> tensor<1024x1024xbf16, 4528173056 : i64> loc(#loc156)
      %153 = "top.Weight"() {path = "tpu.MatMul.bias"} : () -> tensor<1x4096xbf16, 4530270208 : i64> loc(#loc157)
      %154 = "top.Weight"() {path = "tpu.MatMul.weight"} : () -> tensor<1024x4096xbf16, 4530278400 : i64> loc(#loc158)
      %155 = "top.Weight"() {path = "tpu.MatMul.bias"} : () -> tensor<1x1024xbf16, 4538667008 : i64> loc(#loc159)
      %156 = "top.Weight"() {path = "tpu.MatMul.weight"} : () -> tensor<4096x1024xbf16, 4538671104 : i64> loc(#loc160)
      %157 = "top.Weight"() {path = "tpu.LayerNorm.bias"} : () -> tensor<1x1024xbf16, 4547059712 : i64> loc(#loc161)
      %158 = "top.Weight"() {path = "tpu.LayerNorm.weight"} : () -> tensor<1x1024xbf16, 4547063808 : i64> loc(#loc162)
      %159 = "top.Weight"() {path = "tpu.LayerNorm.bias"} : () -> tensor<1x1024xbf16, 4547067904 : i64> loc(#loc163)
      %160 = "top.Weight"() {path = "tpu.LayerNorm.weight"} : () -> tensor<1x1024xbf16, 4547072000 : i64> loc(#loc164)
      %161 = "top.Weight"() {path = "tpu.MatMul.bias"} : () -> tensor<1x1024xbf16, 4547076096 : i64> loc(#loc165)
      %162 = "top.Weight"() {path = "tpu.MatMul.weight"} : () -> tensor<1024x1024xbf16, 4547080192 : i64> loc(#loc166)
      %163 = "top.Weight"() {path = "tpu.MatMul.bias"} : () -> tensor<1x1024xbf16, 4549177344 : i64> loc(#loc167)
      %164 = "top.Weight"() {path = "tpu.MatMul.weight"} : () -> tensor<1024x1024xbf16, 4549181440 : i64> loc(#loc168)
      %165 = "top.Weight"() {path = "tpu.MatMul.bias"} : () -> tensor<1x1024xbf16, 4551278592 : i64> loc(#loc169)
      %166 = "top.Weight"() {path = "tpu.MatMul.weight"} : () -> tensor<1024x1024xbf16, 4551282688 : i64> loc(#loc170)
      %167 = "top.Weight"() {path = "tpu.MatMul.bias"} : () -> tensor<1x1024xbf16, 4553379840 : i64> loc(#loc171)
      %168 = "top.Weight"() {path = "tpu.MatMul.weight"} : () -> tensor<1024x1024xbf16, 4553383936 : i64> loc(#loc172)
      %169 = "top.Weight"() {path = "tpu.MatMul.bias"} : () -> tensor<1x4096xbf16, 4555481088 : i64> loc(#loc173)
      %170 = "top.Weight"() {path = "tpu.MatMul.weight"} : () -> tensor<1024x4096xbf16, 4555489280 : i64> loc(#loc174)
      %171 = "top.Weight"() {path = "tpu.MatMul.bias"} : () -> tensor<1x1024xbf16, 4563877888 : i64> loc(#loc175)
      %172 = "top.Weight"() {path = "tpu.MatMul.weight"} : () -> tensor<4096x1024xbf16, 4563881984 : i64> loc(#loc176)
      %173 = "top.Weight"() {path = "tpu.LayerNorm.bias"} : () -> tensor<1x1024xbf16, 4572270592 : i64> loc(#loc177)
      %174 = "top.Weight"() {path = "tpu.LayerNorm.weight"} : () -> tensor<1x1024xbf16, 4572274688 : i64> loc(#loc178)
      %175 = "top.Weight"() {path = "tpu.LayerNorm.bias"} : () -> tensor<1x1024xbf16, 4572278784 : i64> loc(#loc179)
      %176 = "top.Weight"() {path = "tpu.LayerNorm.weight"} : () -> tensor<1x1024xbf16, 4572282880 : i64> loc(#loc180)
      %177 = "top.Weight"() {path = "tpu.MatMul.bias"} : () -> tensor<1x1024xbf16, 4572286976 : i64> loc(#loc181)
      %178 = "top.Weight"() {path = "tpu.MatMul.weight"} : () -> tensor<1024x1024xbf16, 4572291072 : i64> loc(#loc182)
      %179 = "top.Weight"() {path = "tpu.MatMul.bias"} : () -> tensor<1x1024xbf16, 4574388224 : i64> loc(#loc183)
      %180 = "top.Weight"() {path = "tpu.MatMul.weight"} : () -> tensor<1024x1024xbf16, 4574392320 : i64> loc(#loc184)
      %181 = "top.Weight"() {path = "tpu.MatMul.bias"} : () -> tensor<1x1024xbf16, 4576489472 : i64> loc(#loc185)
      %182 = "top.Weight"() {path = "tpu.MatMul.weight"} : () -> tensor<1024x1024xbf16, 4576493568 : i64> loc(#loc186)
      %183 = "top.Weight"() {path = "tpu.MatMul.bias"} : () -> tensor<1x1024xbf16, 4578590720 : i64> loc(#loc187)
      %184 = "top.Weight"() {path = "tpu.MatMul.weight"} : () -> tensor<1024x1024xbf16, 4578594816 : i64> loc(#loc188)
      %185 = "top.Weight"() {path = "tpu.MatMul.bias"} : () -> tensor<1x4096xbf16, 4580691968 : i64> loc(#loc189)
      %186 = "top.Weight"() {path = "tpu.MatMul.weight"} : () -> tensor<1024x4096xbf16, 4580700160 : i64> loc(#loc190)
      %187 = "top.Weight"() {path = "tpu.MatMul.bias"} : () -> tensor<1x1024xbf16, 4589088768 : i64> loc(#loc191)
      %188 = "top.Weight"() {path = "tpu.MatMul.weight"} : () -> tensor<4096x1024xbf16, 4589092864 : i64> loc(#loc192)
      %189 = "top.Weight"() {path = "tpu.LayerNorm.bias"} : () -> tensor<1x1024xbf16, 4597481472 : i64> loc(#loc193)
      %190 = "top.Weight"() {path = "tpu.LayerNorm.weight"} : () -> tensor<1x1024xbf16, 4597485568 : i64> loc(#loc194)
      %191 = "top.Weight"() {path = "tpu.LayerNorm.bias"} : () -> tensor<1x1024xbf16, 4597489664 : i64> loc(#loc195)
      %192 = "top.Weight"() {path = "tpu.LayerNorm.weight"} : () -> tensor<1x1024xbf16, 4597493760 : i64> loc(#loc196)
      %193 = "top.Weight"() {path = "tpu.MatMul.bias"} : () -> tensor<1x1024xbf16, 4597497856 : i64> loc(#loc197)
      %194 = "top.Weight"() {path = "tpu.MatMul.weight"} : () -> tensor<1024x1024xbf16, 4597501952 : i64> loc(#loc198)
      %195 = "top.Weight"() {path = "tpu.MatMul.bias"} : () -> tensor<1x1024xbf16, 4599599104 : i64> loc(#loc199)
      %196 = "top.Weight"() {path = "tpu.MatMul.weight"} : () -> tensor<1024x1024xbf16, 4599603200 : i64> loc(#loc200)
      %197 = "top.Weight"() {path = "tpu.MatMul.bias"} : () -> tensor<1x1024xbf16, 4601700352 : i64> loc(#loc201)
      %198 = "top.Weight"() {path = "tpu.MatMul.weight"} : () -> tensor<1024x1024xbf16, 4601704448 : i64> loc(#loc202)
      %199 = "top.Weight"() {path = "tpu.MatMul.bias"} : () -> tensor<1x1024xbf16, 4603801600 : i64> loc(#loc203)
      %200 = "top.Weight"() {path = "tpu.MatMul.weight"} : () -> tensor<1024x1024xbf16, 4603805696 : i64> loc(#loc204)
      %201 = "top.Weight"() {path = "tpu.MatMul.bias"} : () -> tensor<1x4096xbf16, 4605902848 : i64> loc(#loc205)
      %202 = "top.Weight"() {path = "tpu.MatMul.weight"} : () -> tensor<1024x4096xbf16, 4605911040 : i64> loc(#loc206)
      %203 = "top.Weight"() {path = "tpu.MatMul.bias"} : () -> tensor<1x1024xbf16, 4614299648 : i64> loc(#loc207)
      %204 = "top.Weight"() {path = "tpu.MatMul.weight"} : () -> tensor<4096x1024xbf16, 4614303744 : i64> loc(#loc208)
      %205 = "top.Weight"() {path = "tpu.LayerNorm.bias"} : () -> tensor<1x1024xbf16, 4622692352 : i64> loc(#loc209)
      %206 = "top.Weight"() {path = "tpu.LayerNorm.weight"} : () -> tensor<1x1024xbf16, 4622696448 : i64> loc(#loc210)
      %207 = "top.Weight"() {path = "tpu.LayerNorm.bias"} : () -> tensor<1x1024xbf16, 4622700544 : i64> loc(#loc211)
      %208 = "top.Weight"() {path = "tpu.LayerNorm.weight"} : () -> tensor<1x1024xbf16, 4622704640 : i64> loc(#loc212)
      %209 = "top.Weight"() {path = "tpu.MatMul.bias"} : () -> tensor<1x1024xbf16, 4622708736 : i64> loc(#loc213)
      %210 = "top.Weight"() {path = "tpu.MatMul.weight"} : () -> tensor<1024x1024xbf16, 4622712832 : i64> loc(#loc214)
      %211 = "top.Weight"() {path = "tpu.MatMul.bias"} : () -> tensor<1x1024xbf16, 4624809984 : i64> loc(#loc215)
      %212 = "top.Weight"() {path = "tpu.MatMul.weight"} : () -> tensor<1024x1024xbf16, 4624814080 : i64> loc(#loc216)
      %213 = "top.Weight"() {path = "tpu.MatMul.bias"} : () -> tensor<1x1024xbf16, 4626911232 : i64> loc(#loc217)
      %214 = "top.Weight"() {path = "tpu.MatMul.weight"} : () -> tensor<1024x1024xbf16, 4626915328 : i64> loc(#loc218)
      %215 = "top.Weight"() {path = "tpu.MatMul.bias"} : () -> tensor<1x1024xbf16, 4629012480 : i64> loc(#loc219)
      %216 = "top.Weight"() {path = "tpu.MatMul.weight"} : () -> tensor<1024x1024xbf16, 4629016576 : i64> loc(#loc220)
      %217 = "top.Weight"() {path = "tpu.MatMul.bias"} : () -> tensor<1x4096xbf16, 4631113728 : i64> loc(#loc221)
      %218 = "top.Weight"() {path = "tpu.MatMul.weight"} : () -> tensor<1024x4096xbf16, 4631121920 : i64> loc(#loc222)
      %219 = "top.Weight"() {path = "tpu.MatMul.bias"} : () -> tensor<1x1024xbf16, 4639510528 : i64> loc(#loc223)
      %220 = "top.Weight"() {path = "tpu.MatMul.weight"} : () -> tensor<4096x1024xbf16, 4639514624 : i64> loc(#loc224)
      %221 = "top.Weight"() {path = "tpu.LayerNorm.bias"} : () -> tensor<1x1024xbf16, 4647903232 : i64> loc(#loc225)
      %222 = "top.Weight"() {path = "tpu.LayerNorm.weight"} : () -> tensor<1x1024xbf16, 4647907328 : i64> loc(#loc226)
      %223 = "top.Weight"() {path = "tpu.LayerNorm.bias"} : () -> tensor<1x1024xbf16, 4647911424 : i64> loc(#loc227)
      %224 = "top.Weight"() {path = "tpu.LayerNorm.weight"} : () -> tensor<1x1024xbf16, 4647915520 : i64> loc(#loc228)
      %225 = "top.Weight"() {path = "tpu.MatMul.bias"} : () -> tensor<1x1024xbf16, 4647919616 : i64> loc(#loc229)
      %226 = "top.Weight"() {path = "tpu.MatMul.weight"} : () -> tensor<1024x1024xbf16, 4647923712 : i64> loc(#loc230)
      %227 = "top.Weight"() {path = "tpu.MatMul.bias"} : () -> tensor<1x1024xbf16, 4650020864 : i64> loc(#loc231)
      %228 = "top.Weight"() {path = "tpu.MatMul.weight"} : () -> tensor<1024x1024xbf16, 4650024960 : i64> loc(#loc232)
      %229 = "top.Weight"() {path = "tpu.MatMul.bias"} : () -> tensor<1x1024xbf16, 4652122112 : i64> loc(#loc233)
      %230 = "top.Weight"() {path = "tpu.MatMul.weight"} : () -> tensor<1024x1024xbf16, 4652126208 : i64> loc(#loc234)
      %231 = "top.Weight"() {path = "tpu.MatMul.bias"} : () -> tensor<1x1024xbf16, 4654223360 : i64> loc(#loc235)
      %232 = "top.Weight"() {path = "tpu.MatMul.weight"} : () -> tensor<1024x1024xbf16, 4654227456 : i64> loc(#loc236)
      %233 = "top.Weight"() {path = "tpu.MatMul.bias"} : () -> tensor<1x4096xbf16, 4656324608 : i64> loc(#loc237)
      %234 = "top.Weight"() {path = "tpu.MatMul.weight"} : () -> tensor<1024x4096xbf16, 4656332800 : i64> loc(#loc238)
      %235 = "top.Weight"() {path = "tpu.MatMul.bias"} : () -> tensor<1x1024xbf16, 4664721408 : i64> loc(#loc239)
      %236 = "top.Weight"() {path = "tpu.MatMul.weight"} : () -> tensor<4096x1024xbf16, 4664725504 : i64> loc(#loc240)
      %237 = "top.Weight"() {path = "tpu.LayerNorm.bias"} : () -> tensor<1x1024xbf16, 4673114112 : i64> loc(#loc241)
      %238 = "top.Weight"() {path = "tpu.LayerNorm.weight"} : () -> tensor<1x1024xbf16, 4673118208 : i64> loc(#loc242)
      %239 = "top.Weight"() {path = "tpu.LayerNorm.bias"} : () -> tensor<1x1024xbf16, 4673122304 : i64> loc(#loc243)
      %240 = "top.Weight"() {path = "tpu.LayerNorm.weight"} : () -> tensor<1x1024xbf16, 4673126400 : i64> loc(#loc244)
      %241 = "top.Weight"() {path = "tpu.MatMul.bias"} : () -> tensor<1x1024xbf16, 4673130496 : i64> loc(#loc245)
      %242 = "top.Weight"() {path = "tpu.MatMul.weight"} : () -> tensor<1024x1024xbf16, 4673134592 : i64> loc(#loc246)
      %243 = "top.Weight"() {path = "tpu.MatMul.bias"} : () -> tensor<1x1024xbf16, 4675231744 : i64> loc(#loc247)
      %244 = "top.Weight"() {path = "tpu.MatMul.weight"} : () -> tensor<1024x1024xbf16, 4675235840 : i64> loc(#loc248)
      %245 = "top.Weight"() {path = "tpu.MatMul.bias"} : () -> tensor<1x1024xbf16, 4677332992 : i64> loc(#loc249)
      %246 = "top.Weight"() {path = "tpu.MatMul.weight"} : () -> tensor<1024x1024xbf16, 4677337088 : i64> loc(#loc250)
      %247 = "top.Weight"() {path = "tpu.MatMul.bias"} : () -> tensor<1x1024xbf16, 4679434240 : i64> loc(#loc251)
      %248 = "top.Weight"() {path = "tpu.MatMul.weight"} : () -> tensor<1024x1024xbf16, 4679438336 : i64> loc(#loc252)
      %249 = "top.Weight"() {path = "tpu.MatMul.bias"} : () -> tensor<1x4096xbf16, 4681535488 : i64> loc(#loc253)
      %250 = "top.Weight"() {path = "tpu.MatMul.weight"} : () -> tensor<1024x4096xbf16, 4681543680 : i64> loc(#loc254)
      %251 = "top.Weight"() {path = "tpu.MatMul.bias"} : () -> tensor<1x1024xbf16, 4689932288 : i64> loc(#loc255)
      %252 = "top.Weight"() {path = "tpu.MatMul.weight"} : () -> tensor<4096x1024xbf16, 4689936384 : i64> loc(#loc256)
      %253 = "top.Weight"() {path = "tpu.LayerNorm.bias"} : () -> tensor<1x1024xbf16, 4698324992 : i64> loc(#loc257)
      %254 = "top.Weight"() {path = "tpu.LayerNorm.weight"} : () -> tensor<1x1024xbf16, 4698329088 : i64> loc(#loc258)
      %255 = "top.Weight"() {path = "tpu.LayerNorm.bias"} : () -> tensor<1x1024xbf16, 4698333184 : i64> loc(#loc259)
      %256 = "top.Weight"() {path = "tpu.LayerNorm.weight"} : () -> tensor<1x1024xbf16, 4698337280 : i64> loc(#loc260)
      %257 = "top.Weight"() {path = "tpu.MatMul.bias"} : () -> tensor<1x1024xbf16, 4698341376 : i64> loc(#loc261)
      %258 = "top.Weight"() {path = "tpu.MatMul.weight"} : () -> tensor<1024x1024xbf16, 4698345472 : i64> loc(#loc262)
      %259 = "top.Weight"() {path = "tpu.MatMul.bias"} : () -> tensor<1x1024xbf16, 4700442624 : i64> loc(#loc263)
      %260 = "top.Weight"() {path = "tpu.MatMul.weight"} : () -> tensor<1024x1024xbf16, 4700446720 : i64> loc(#loc264)
      %261 = "top.Weight"() {path = "tpu.MatMul.bias"} : () -> tensor<1x1024xbf16, 4702543872 : i64> loc(#loc265)
      %262 = "top.Weight"() {path = "tpu.MatMul.weight"} : () -> tensor<1024x1024xbf16, 4702547968 : i64> loc(#loc266)
      %263 = "top.Weight"() {path = "tpu.MatMul.bias"} : () -> tensor<1x1024xbf16, 4704645120 : i64> loc(#loc267)
      %264 = "top.Weight"() {path = "tpu.MatMul.weight"} : () -> tensor<1024x1024xbf16, 4704649216 : i64> loc(#loc268)
      %265 = "top.Weight"() {path = "tpu.MatMul.bias"} : () -> tensor<1x4096xbf16, 4706746368 : i64> loc(#loc269)
      %266 = "top.Weight"() {path = "tpu.MatMul.weight"} : () -> tensor<1024x4096xbf16, 4706754560 : i64> loc(#loc270)
      %267 = "top.Weight"() {path = "tpu.MatMul.bias"} : () -> tensor<1x1024xbf16, 4715143168 : i64> loc(#loc271)
      %268 = "top.Weight"() {path = "tpu.MatMul.weight"} : () -> tensor<4096x1024xbf16, 4715147264 : i64> loc(#loc272)
      %269 = "top.Weight"() {path = "tpu.LayerNorm.bias"} : () -> tensor<1x1024xbf16, 4723535872 : i64> loc(#loc273)
      %270 = "top.Weight"() {path = "tpu.LayerNorm.weight"} : () -> tensor<1x1024xbf16, 4723539968 : i64> loc(#loc274)
      %271 = "top.Weight"() {path = "tpu.LayerNorm.bias"} : () -> tensor<1x1024xbf16, 4723544064 : i64> loc(#loc275)
      %272 = "top.Weight"() {path = "tpu.LayerNorm.weight"} : () -> tensor<1x1024xbf16, 4723548160 : i64> loc(#loc276)
      %273 = "top.Weight"() {path = "tpu.MatMul.bias"} : () -> tensor<1x1024xbf16, 4723552256 : i64> loc(#loc277)
      %274 = "top.Weight"() {path = "tpu.MatMul.weight"} : () -> tensor<1024x1024xbf16, 4723556352 : i64> loc(#loc278)
      %275 = "top.Weight"() {path = "tpu.MatMul.bias"} : () -> tensor<1x1024xbf16, 4725653504 : i64> loc(#loc279)
      %276 = "top.Weight"() {path = "tpu.MatMul.weight"} : () -> tensor<1024x1024xbf16, 4725657600 : i64> loc(#loc280)
      %277 = "top.Weight"() {path = "tpu.MatMul.bias"} : () -> tensor<1x1024xbf16, 4727754752 : i64> loc(#loc281)
      %278 = "top.Weight"() {path = "tpu.MatMul.weight"} : () -> tensor<1024x1024xbf16, 4727758848 : i64> loc(#loc282)
      %279 = "top.Weight"() {path = "tpu.MatMul.bias"} : () -> tensor<1x1024xbf16, 4729856000 : i64> loc(#loc283)
      %280 = "top.Weight"() {path = "tpu.MatMul.weight"} : () -> tensor<1024x1024xbf16, 4729860096 : i64> loc(#loc284)
      %281 = "top.Weight"() {path = "tpu.MatMul.bias"} : () -> tensor<1x4096xbf16, 4731957248 : i64> loc(#loc285)
      %282 = "top.Weight"() {path = "tpu.MatMul.weight"} : () -> tensor<1024x4096xbf16, 4731965440 : i64> loc(#loc286)
      %283 = "top.Weight"() {path = "tpu.MatMul.bias"} : () -> tensor<1x1024xbf16, 4740354048 : i64> loc(#loc287)
      %284 = "top.Weight"() {path = "tpu.MatMul.weight"} : () -> tensor<4096x1024xbf16, 4740358144 : i64> loc(#loc288)
      %285 = "top.Weight"() {path = "tpu.LayerNorm.bias"} : () -> tensor<1x1024xbf16, 4748746752 : i64> loc(#loc289)
      %286 = "top.Weight"() {path = "tpu.LayerNorm.weight"} : () -> tensor<1x1024xbf16, 4748750848 : i64> loc(#loc290)
      %287 = "top.Weight"() {path = "tpu.LayerNorm.bias"} : () -> tensor<1x1024xbf16, 4748754944 : i64> loc(#loc291)
      %288 = "top.Weight"() {path = "tpu.LayerNorm.weight"} : () -> tensor<1x1024xbf16, 4748759040 : i64> loc(#loc292)
      %289 = "top.Weight"() {path = "tpu.MatMul.bias"} : () -> tensor<1x1024xbf16, 4748763136 : i64> loc(#loc293)
      %290 = "top.Weight"() {path = "tpu.MatMul.weight"} : () -> tensor<1024x1024xbf16, 4748767232 : i64> loc(#loc294)
      %291 = "top.Weight"() {path = "tpu.MatMul.bias"} : () -> tensor<1x1024xbf16, 4750864384 : i64> loc(#loc295)
      %292 = "top.Weight"() {path = "tpu.MatMul.weight"} : () -> tensor<1024x1024xbf16, 4750868480 : i64> loc(#loc296)
      %293 = "top.Weight"() {path = "tpu.MatMul.bias"} : () -> tensor<1x1024xbf16, 4752965632 : i64> loc(#loc297)
      %294 = "top.Weight"() {path = "tpu.MatMul.weight"} : () -> tensor<1024x1024xbf16, 4752969728 : i64> loc(#loc298)
      %295 = "top.Weight"() {path = "tpu.MatMul.bias"} : () -> tensor<1x1024xbf16, 4755066880 : i64> loc(#loc299)
      %296 = "top.Weight"() {path = "tpu.MatMul.weight"} : () -> tensor<1024x1024xbf16, 4755070976 : i64> loc(#loc300)
      %297 = "top.Weight"() {path = "tpu.MatMul.bias"} : () -> tensor<1x4096xbf16, 4757168128 : i64> loc(#loc301)
      %298 = "top.Weight"() {path = "tpu.MatMul.weight"} : () -> tensor<1024x4096xbf16, 4757176320 : i64> loc(#loc302)
      %299 = "top.Weight"() {path = "tpu.MatMul.bias"} : () -> tensor<1x1024xbf16, 4765564928 : i64> loc(#loc303)
      %300 = "top.Weight"() {path = "tpu.MatMul.weight"} : () -> tensor<4096x1024xbf16, 4765569024 : i64> loc(#loc304)
      %301 = "top.Weight"() {path = "tpu.LayerNorm.bias"} : () -> tensor<1x1024xbf16, 4773957632 : i64> loc(#loc305)
      %302 = "top.Weight"() {path = "tpu.LayerNorm.weight"} : () -> tensor<1x1024xbf16, 4773961728 : i64> loc(#loc306)
      %303 = "top.Weight"() {path = "tpu.LayerNorm.bias"} : () -> tensor<1x1024xbf16, 4773965824 : i64> loc(#loc307)
      %304 = "top.Weight"() {path = "tpu.LayerNorm.weight"} : () -> tensor<1x1024xbf16, 4773969920 : i64> loc(#loc308)
      %305 = "top.Weight"() {path = "tpu.MatMul.bias"} : () -> tensor<1x1024xbf16, 4773974016 : i64> loc(#loc309)
      %306 = "top.Weight"() {path = "tpu.MatMul.weight"} : () -> tensor<1024x1024xbf16, 4773978112 : i64> loc(#loc310)
      %307 = "top.Weight"() {path = "tpu.MatMul.bias"} : () -> tensor<1x1024xbf16, 4776075264 : i64> loc(#loc311)
      %308 = "top.Weight"() {path = "tpu.MatMul.weight"} : () -> tensor<1024x1024xbf16, 4776079360 : i64> loc(#loc312)
      %309 = "top.Weight"() {path = "tpu.MatMul.bias"} : () -> tensor<1x1024xbf16, 4778176512 : i64> loc(#loc313)
      %310 = "top.Weight"() {path = "tpu.MatMul.weight"} : () -> tensor<1024x1024xbf16, 4778180608 : i64> loc(#loc314)
      %311 = "top.Weight"() {path = "tpu.MatMul.bias"} : () -> tensor<1x1024xbf16, 4780277760 : i64> loc(#loc315)
      %312 = "top.Weight"() {path = "tpu.MatMul.weight"} : () -> tensor<1024x1024xbf16, 4780281856 : i64> loc(#loc316)
      %313 = "top.Weight"() {path = "tpu.MatMul.bias"} : () -> tensor<1x4096xbf16, 4782379008 : i64> loc(#loc317)
      %314 = "top.Weight"() {path = "tpu.MatMul.weight"} : () -> tensor<1024x4096xbf16, 4782387200 : i64> loc(#loc318)
      %315 = "top.Weight"() {path = "tpu.MatMul.bias"} : () -> tensor<1x1024xbf16, 4790775808 : i64> loc(#loc319)
      %316 = "top.Weight"() {path = "tpu.MatMul.weight"} : () -> tensor<4096x1024xbf16, 4790779904 : i64> loc(#loc320)
      %317 = "top.Weight"() {path = "tpu.LayerNorm.bias"} : () -> tensor<1x1024xbf16, 4799168512 : i64> loc(#loc321)
      %318 = "top.Weight"() {path = "tpu.LayerNorm.weight"} : () -> tensor<1x1024xbf16, 4799172608 : i64> loc(#loc322)
      %319 = "top.Weight"() {path = "tpu.LayerNorm.bias"} : () -> tensor<1x1024xbf16, 4799176704 : i64> loc(#loc323)
      %320 = "top.Weight"() {path = "tpu.LayerNorm.weight"} : () -> tensor<1x1024xbf16, 4799180800 : i64> loc(#loc324)
      %321 = "top.Weight"() {path = "tpu.MatMul.bias"} : () -> tensor<1x1024xbf16, 4799184896 : i64> loc(#loc325)
      %322 = "top.Weight"() {path = "tpu.MatMul.weight"} : () -> tensor<1024x1024xbf16, 4799188992 : i64> loc(#loc326)
      %323 = "top.Weight"() {path = "tpu.MatMul.bias"} : () -> tensor<1x1024xbf16, 4801286144 : i64> loc(#loc327)
      %324 = "top.Weight"() {path = "tpu.MatMul.weight"} : () -> tensor<1024x1024xbf16, 4801290240 : i64> loc(#loc328)
      %325 = "top.Weight"() {path = "tpu.MatMul.bias"} : () -> tensor<1x1024xbf16, 4803387392 : i64> loc(#loc329)
      %326 = "top.Weight"() {path = "tpu.MatMul.weight"} : () -> tensor<1024x1024xbf16, 4803391488 : i64> loc(#loc330)
      %327 = "top.Weight"() {path = "tpu.MatMul.bias"} : () -> tensor<1x1024xbf16, 4805488640 : i64> loc(#loc331)
      %328 = "top.Weight"() {path = "tpu.MatMul.weight"} : () -> tensor<1024x1024xbf16, 4805492736 : i64> loc(#loc332)
      %329 = "top.Weight"() {path = "tpu.MatMul.bias"} : () -> tensor<1x4096xbf16, 4807589888 : i64> loc(#loc333)
      %330 = "top.Weight"() {path = "tpu.MatMul.weight"} : () -> tensor<1024x4096xbf16, 4807598080 : i64> loc(#loc334)
      %331 = "top.Weight"() {path = "tpu.MatMul.bias"} : () -> tensor<1x1024xbf16, 4815986688 : i64> loc(#loc335)
      %332 = "top.Weight"() {path = "tpu.MatMul.weight"} : () -> tensor<4096x1024xbf16, 4815990784 : i64> loc(#loc336)
      %333 = "top.Weight"() {path = "tpu.LayerNorm.bias"} : () -> tensor<1x1024xbf16, 4824379392 : i64> loc(#loc337)
      %334 = "top.Weight"() {path = "tpu.LayerNorm.weight"} : () -> tensor<1x1024xbf16, 4824383488 : i64> loc(#loc338)
      %335 = "top.Weight"() {path = "tpu.LayerNorm.bias"} : () -> tensor<1x1024xbf16, 4824387584 : i64> loc(#loc339)
      %336 = "top.Weight"() {path = "tpu.LayerNorm.weight"} : () -> tensor<1x1024xbf16, 4824391680 : i64> loc(#loc340)
      %337 = "top.Weight"() {path = "tpu.MatMul.bias"} : () -> tensor<1x1024xbf16, 4824395776 : i64> loc(#loc341)
      %338 = "top.Weight"() {path = "tpu.MatMul.weight"} : () -> tensor<1024x1024xbf16, 4824399872 : i64> loc(#loc342)
      %339 = "top.Weight"() {path = "tpu.MatMul.bias"} : () -> tensor<1x1024xbf16, 4826497024 : i64> loc(#loc343)
      %340 = "top.Weight"() {path = "tpu.MatMul.weight"} : () -> tensor<1024x1024xbf16, 4826501120 : i64> loc(#loc344)
      %341 = "top.Weight"() {path = "tpu.MatMul.bias"} : () -> tensor<1x1024xbf16, 4828598272 : i64> loc(#loc345)
      %342 = "top.Weight"() {path = "tpu.MatMul.weight"} : () -> tensor<1024x1024xbf16, 4828602368 : i64> loc(#loc346)
      %343 = "top.Weight"() {path = "tpu.MatMul.bias"} : () -> tensor<1x1024xbf16, 4830699520 : i64> loc(#loc347)
      %344 = "top.Weight"() {path = "tpu.MatMul.weight"} : () -> tensor<1024x1024xbf16, 4830703616 : i64> loc(#loc348)
      %345 = "top.Weight"() {path = "tpu.MatMul.bias"} : () -> tensor<1x4096xbf16, 4832800768 : i64> loc(#loc349)
      %346 = "top.Weight"() {path = "tpu.MatMul.weight"} : () -> tensor<1024x4096xbf16, 4832808960 : i64> loc(#loc350)
      %347 = "top.Weight"() {path = "tpu.MatMul.bias"} : () -> tensor<1x1024xbf16, 4841197568 : i64> loc(#loc351)
      %348 = "top.Weight"() {path = "tpu.MatMul.weight"} : () -> tensor<4096x1024xbf16, 4841201664 : i64> loc(#loc352)
      %349 = "top.Weight"() {path = "tpu.LayerNorm.bias"} : () -> tensor<1x1024xbf16, 4849590272 : i64> loc(#loc353)
      %350 = "top.Weight"() {path = "tpu.LayerNorm.weight"} : () -> tensor<1x1024xbf16, 4849594368 : i64> loc(#loc354)
      %351 = "top.Weight"() {path = "tpu.LayerNorm.bias"} : () -> tensor<1x1024xbf16, 4849598464 : i64> loc(#loc355)
      %352 = "top.Weight"() {path = "tpu.LayerNorm.weight"} : () -> tensor<1x1024xbf16, 4849602560 : i64> loc(#loc356)
      %353 = "top.Weight"() {path = "tpu.MatMul.bias"} : () -> tensor<1x1024xbf16, 4849606656 : i64> loc(#loc357)
      %354 = "top.Weight"() {path = "tpu.MatMul.weight"} : () -> tensor<1024x1024xbf16, 4849610752 : i64> loc(#loc358)
      %355 = "top.Weight"() {path = "tpu.MatMul.bias"} : () -> tensor<1x1024xbf16, 4851707904 : i64> loc(#loc359)
      %356 = "top.Weight"() {path = "tpu.MatMul.weight"} : () -> tensor<1024x1024xbf16, 4851712000 : i64> loc(#loc360)
      %357 = "top.Weight"() {path = "tpu.MatMul.bias"} : () -> tensor<1x1024xbf16, 4853809152 : i64> loc(#loc361)
      %358 = "top.Weight"() {path = "tpu.MatMul.weight"} : () -> tensor<1024x1024xbf16, 4853813248 : i64> loc(#loc362)
      %359 = "top.Weight"() {path = "tpu.MatMul.bias"} : () -> tensor<1x1024xbf16, 4855910400 : i64> loc(#loc363)
      %360 = "top.Weight"() {path = "tpu.MatMul.weight"} : () -> tensor<1024x1024xbf16, 4855914496 : i64> loc(#loc364)
      %361 = "top.Weight"() {path = "tpu.MatMul.bias"} : () -> tensor<1x4096xbf16, 4858011648 : i64> loc(#loc365)
      %362 = "top.Weight"() {path = "tpu.MatMul.weight"} : () -> tensor<1024x4096xbf16, 4858019840 : i64> loc(#loc366)
      %363 = "top.Weight"() {path = "tpu.MatMul.bias"} : () -> tensor<1x1024xbf16, 4866408448 : i64> loc(#loc367)
      %364 = "top.Weight"() {path = "tpu.MatMul.weight"} : () -> tensor<4096x1024xbf16, 4866412544 : i64> loc(#loc368)
      %365 = "top.Weight"() {path = "tpu.LayerNorm.bias"} : () -> tensor<1x1024xbf16, 4874801152 : i64> loc(#loc369)
      %366 = "top.Weight"() {path = "tpu.LayerNorm.weight"} : () -> tensor<1x1024xbf16, 4874805248 : i64> loc(#loc370)
      %367 = "top.Weight"() {path = "tpu.LayerNorm.bias"} : () -> tensor<1x1024xbf16, 4874809344 : i64> loc(#loc371)
      %368 = "top.Weight"() {path = "tpu.LayerNorm.weight"} : () -> tensor<1x1024xbf16, 4874813440 : i64> loc(#loc372)
      %369 = "top.Weight"() {path = "tpu.MatMul.bias"} : () -> tensor<1x1024xbf16, 4874817536 : i64> loc(#loc373)
      %370 = "top.Weight"() {path = "tpu.MatMul.weight"} : () -> tensor<1024x1024xbf16, 4874821632 : i64> loc(#loc374)
      %371 = "top.Weight"() {path = "tpu.MatMul.bias"} : () -> tensor<1x1024xbf16, 4876918784 : i64> loc(#loc375)
      %372 = "top.Weight"() {path = "tpu.MatMul.weight"} : () -> tensor<1024x1024xbf16, 4876922880 : i64> loc(#loc376)
      %373 = "top.Weight"() {path = "tpu.MatMul.bias"} : () -> tensor<1x1024xbf16, 4879020032 : i64> loc(#loc377)
      %374 = "top.Weight"() {path = "tpu.MatMul.weight"} : () -> tensor<1024x1024xbf16, 4879024128 : i64> loc(#loc378)
      %375 = "top.Weight"() {path = "tpu.MatMul.bias"} : () -> tensor<1x1024xbf16, 4881121280 : i64> loc(#loc379)
      %376 = "top.Weight"() {path = "tpu.MatMul.weight"} : () -> tensor<1024x1024xbf16, 4881125376 : i64> loc(#loc380)
      %377 = "top.Weight"() {path = "tpu.MatMul.bias"} : () -> tensor<1x4096xbf16, 4883222528 : i64> loc(#loc381)
      %378 = "top.Weight"() {path = "tpu.MatMul.weight"} : () -> tensor<1024x4096xbf16, 4883230720 : i64> loc(#loc382)
      %379 = "top.Weight"() {path = "tpu.MatMul.bias"} : () -> tensor<1x1024xbf16, 4891619328 : i64> loc(#loc383)
      %380 = "top.Weight"() {path = "tpu.MatMul.weight"} : () -> tensor<4096x1024xbf16, 4891623424 : i64> loc(#loc384)
      %381 = "top.Weight"() {path = "tpu.LayerNorm.bias"} : () -> tensor<1x1024xbf16, 4900012032 : i64> loc(#loc385)
      %382 = "top.Weight"() {path = "tpu.LayerNorm.weight"} : () -> tensor<1x1024xbf16, 4900016128 : i64> loc(#loc386)
      %383 = "top.Weight"() {path = "tpu.LayerNorm.bias"} : () -> tensor<1x1024xbf16, 4900020224 : i64> loc(#loc387)
      %384 = "top.Weight"() {path = "tpu.LayerNorm.weight"} : () -> tensor<1x1024xbf16, 4900024320 : i64> loc(#loc388)
      %385 = "top.Weight"() {path = "tpu.MatMul.bias"} : () -> tensor<1x4096xbf16, 4900028416 : i64> loc(#loc389)
      %386 = "top.Weight"() {path = "tpu.MatMul.weight"} : () -> tensor<4096x4096xbf16, 4900036608 : i64> loc(#loc390)
      %387 = "top.Weight"() {path = "tpu.MatMul.bias"} : () -> tensor<1x2048xbf16, 4933591040 : i64> loc(#loc391)
      %388 = "top.Weight"() {path = "tpu.MatMul.weight"} : () -> tensor<4096x2048xbf16, 4933595136 : i64> loc(#loc392)
      %389 = "top.Weight"() {path = "tpu.LayerNorm.bias"} : () -> tensor<1x1024xbf16, 4950372352 : i64> loc(#loc393)
      %390 = "top.Weight"() {path = "tpu.LayerNorm.weight"} : () -> tensor<1x1024xbf16, 4950376448 : i64> loc(#loc394)
      %391 = "top.Weight"() {path = "tpu.MatMul.bias"} : () -> tensor<1x1024xbf16, 4950380544 : i64> loc(#loc395)
      %392 = "top.Weight"() {path = "tpu.MatMul.weight"} : () -> tensor<1536x1024xbf16, 4950384640 : i64> loc(#loc396)
      %393 = "top.Weight"() {path = "tpu.Gather.source"} : () -> tensor<2304x1024xbf16, 4953530368 : i64> loc(#loc397)
      %394 = "top.Weight"() {path = "tpu.Gather.source"} : () -> tensor<2304x16xbf16, 4958248960 : i64> loc(#loc398)
      %395 = "top.Weight"() {path = "tpu.Gather.source"} : () -> tensor<2304x16xbf16, 4958322688 : i64> loc(#loc399)
      %396 = "tpu.Cast"(%arg0) {round_mode = #tpu<round_mode HalfAwayFromZero>, with_scale = true} : (tensor<2304x1536xf32, 5033893888 : i64>) -> tensor<2304x1536xbf16, 4958396416 : i64> loc(#loc400)
      %397 = "tpu.Cast"(%arg3) {round_mode = #tpu<round_mode HalfAwayFromZero>, with_scale = true} : (tensor<2304x4x1xf32, 5053947904 : i64>) -> tensor<2304x4x1xbf16, 5048049664 : i64> loc(#loc401)
      %398 = "tpu.MatMul"(%396, %392, %391, %0, %0) {do_relu = false, dq_type = "NONE", fuse_rq = false, hdim_is_batch = false, input_zp = 0 : i64, is_lora = false, keep_dims = true, left_reuse = 0 : i64, left_transpose = false, multipliers = [1], output_transpose = false, q_group_size = 0 : i64, quant_mode = #tpu<rq_mode MultiplierShift>, relu_limit = -1.000000e+00 : f64, right_transpose = false, right_zp = 0 : i64, round_mode = #tpu<round_mode HalfAwayFromZero>, rshifts = [0]} : (tensor<2304x1536xbf16, 4958396416 : i64>, tensor<1536x1024xbf16, 4950384640 : i64>, tensor<1x1024xbf16, 4950380544 : i64>, none, none) -> tensor<2304x1024xbf16, 4996145152 : i64> loc(#loc402)
      %399 = "tpu.Gather"(%393, %arg2, %0) {axis = 0 : si32, if_neg_index = true, is_lora = false, is_scalar = false, keepdims = true} : (tensor<2304x1024xbf16, 4953530368 : i64>, tensor<2304x4xsi32, 5053984768 : i64>, none) -> tensor<2304x4x1024xbf16, 4977270784 : i64> loc(#loc403)
      %400 = "tpu.Mul"(%399, %397) {do_relu = false, is_scalar = false, multiplier = 1 : si32, quant_mode = #tpu<rq_mode MultiplierShift>, relu_limit = -1.000000e+00 : f64, rshift = 0 : si32} : (tensor<2304x4x1024xbf16, 4977270784 : i64>, tensor<2304x4x1xbf16, 5048049664 : i64>) -> tensor<2304x4x1024xbf16, 4958396416 : i64> loc(#loc404)
      %401 = "tpu.Reduce"(%400, %0, %0) {axes = [1], is_scalar = false, keepdims = false, mode = "ReduceSum"} : (tensor<2304x4x1024xbf16, 4958396416 : i64>, none, none) -> tensor<2304x1024xbf16, 4977270784 : i64> loc(#loc405)
      %402 = "tpu.Add"(%398, %401) {do_relu = false, is_scalar = false, relu_limit = -1.000000e+00 : f64} : (tensor<2304x1024xbf16, 4996145152 : i64>, tensor<2304x1024xbf16, 4977270784 : i64>) -> tensor<2304x1024xbf16, 4981989376 : i64> loc(#loc406)
      %403 = "tpu.Gather"(%394, %arg1, %0) {axis = 0 : si32, if_neg_index = true, is_lora = false, is_scalar = false, keepdims = true} : (tensor<2304x16xbf16, 4958248960 : i64>, tensor<2304x2xsi32, 5054021632 : i64>, none) -> tensor<2304x2x16xbf16, 4958396416 : i64> loc(#loc407)
      %404 = "tpu.Reshape"(%403) {flatten_start_dim = -1 : i64, shape = [1, -1, 1, 32]} : (tensor<2304x2x16xbf16, 4958396416 : i64>) -> tensor<1x2304x1x32xbf16, 4958396416 : i64> loc(#loc408)
      %405 = "tpu.Tile"(%404, %0) {tile = [1, 1, 1, 2]} : (tensor<1x2304x1x32xbf16, 4958396416 : i64>, none) -> tensor<1x2304x1x64xbf16, 5048049664 : i64> loc(#loc409)
      %406 = "tpu.Cast"(%405) {round_mode = #tpu<round_mode HalfAwayFromZero>, with_scale = true} : (tensor<1x2304x1x64xbf16, 5048049664 : i64>) -> tensor<1x2304x1x64xf32, 5053358080 : i64> loc(#loc410)
      %407 = "tpu.Gather"(%395, %arg1, %0) {axis = 0 : si32, if_neg_index = true, is_lora = false, is_scalar = false, keepdims = true} : (tensor<2304x16xbf16, 4958322688 : i64>, tensor<2304x2xsi32, 5054021632 : i64>, none) -> tensor<2304x2x16xbf16, 5048344576 : i64> loc(#loc411)
      %408 = "tpu.Reshape"(%407) {flatten_start_dim = -1 : i64, shape = [1, -1, 1, 32]} : (tensor<2304x2x16xbf16, 5048344576 : i64>) -> tensor<1x2304x1x32xbf16, 5048344576 : i64> loc(#loc412)
      %409 = "tpu.Tile"(%408, %0) {tile = [1, 1, 1, 2]} : (tensor<1x2304x1x32xbf16, 5048344576 : i64>, none) -> tensor<1x2304x1x64xbf16, 5048049664 : i64> loc(#loc413)
      %410 = "tpu.Cast"(%409) {round_mode = #tpu<round_mode HalfAwayFromZero>, with_scale = true} : (tensor<1x2304x1x64xbf16, 5048049664 : i64>) -> tensor<1x2304x1x64xf32, 5052768256 : i64> loc(#loc414)
      %411 = "tpu.LayerNorm"(%402, %14, %13, %0, %0) {axis = 1 : si32, eps = 9.9999999999999995E-7 : f64, normalized_shape = [1024]} : (tensor<2304x1024xbf16, 4981989376 : i64>, tensor<1x1024xbf16, 4320165888 : i64>, tensor<1x1024xbf16, 4320161792 : i64>, none, none) -> tensor<2304x1024xbf16, 4958396416 : i64> loc(#loc415)
      %412 = "tpu.MatMul"(%411, %8, %7, %0, %0) {do_relu = false, dq_type = "NONE", fuse_rq = false, hdim_is_batch = false, input_zp = 0 : i64, is_lora = false, keep_dims = true, left_reuse = 1 : i64, left_transpose = false, multipliers = [1], output_transpose = false, q_group_size = 0 : i64, quant_mode = #tpu<rq_mode MultiplierShift>, relu_limit = -1.000000e+00 : f64, right_transpose = false, right_zp = 0 : i64, round_mode = #tpu<round_mode HalfAwayFromZero>, rshifts = [0]} : (tensor<2304x1024xbf16, 4958396416 : i64>, tensor<1024x1024xbf16, 4301275136 : i64>, tensor<1x1024xbf16, 4301271040 : i64>, none, none) -> tensor<2304x1024xbf16, 4977270784 : i64> loc(#loc416)
      %413 = "tpu.MatMul"(%411, %2, %1, %0, %0) {do_relu = false, dq_type = "NONE", fuse_rq = false, hdim_is_batch = false, input_zp = 0 : i64, is_lora = false, keep_dims = true, left_reuse = 1 : i64, left_transpose = false, multipliers = [1], output_transpose = false, q_group_size = 0 : i64, quant_mode = #tpu<rq_mode MultiplierShift>, relu_limit = -1.000000e+00 : f64, right_transpose = false, right_zp = 0 : i64, round_mode = #tpu<round_mode HalfAwayFromZero>, rshifts = [0]} : (tensor<2304x1024xbf16, 4958396416 : i64>, tensor<1024x1024xbf16, 4294971392 : i64>, tensor<1x1024xbf16, 4294967296 : i64>, none, none) -> tensor<2304x1024xbf16, 4972552192 : i64> loc(#loc417)
      %414 = "tpu.MatMul"(%411, %6, %5, %0, %0) {do_relu = false, dq_type = "NONE", fuse_rq = false, hdim_is_batch = false, input_zp = 0 : i64, is_lora = false, keep_dims = true, left_reuse = 1 : i64, left_transpose = false, multipliers = [1], output_transpose = false, q_group_size = 0 : i64, quant_mode = #tpu<rq_mode MultiplierShift>, relu_limit = -1.000000e+00 : f64, right_transpose = false, right_zp = 0 : i64, round_mode = #tpu<round_mode HalfAwayFromZero>, rshifts = [0]} : (tensor<2304x1024xbf16, 4958396416 : i64>, tensor<1024x1024xbf16, 4299173888 : i64>, tensor<1x1024xbf16, 4299169792 : i64>, none, none) -> tensor<2304x1024xbf16, 4963115008 : i64> loc(#loc418)
      %415 = "tpu.Reshape"(%412) {flatten_start_dim = -1 : i64, shape = [1, -1, 16, 64]} : (tensor<2304x1024xbf16, 4977270784 : i64>) -> tensor<1x2304x16x64xbf16, 4977270784 : i64> loc(#loc419)
      %416 = "tpu.Reshape"(%413) {flatten_start_dim = -1 : i64, shape = [1, -1, 16, 64]} : (tensor<2304x1024xbf16, 4972552192 : i64>) -> tensor<1x2304x16x64xbf16, 4972552192 : i64> loc(#loc420)
      %417 = "tpu.Reshape"(%414) {flatten_start_dim = -1 : i64, shape = [1, -1, 16, 64]} : (tensor<2304x1024xbf16, 4963115008 : i64>) -> tensor<1x2304x16x64xbf16, 4963115008 : i64> loc(#loc421)
      %418:2 = "tpu.Group"(%417, %416, %410, %406) ({
        %874 = "tpu.Load"(%417) {do_bcast = false, ginfo = #tpu.lg<out_addr = 32768, out_size = 13824, buffer_addr = 0, buffer_size = 0, eu_align = true, can_merge = false, in_hslice_offset = [], n_idx = [0], n_slice = [1], c_idx = [0], c_slice = [2304], d_idx = [0], d_slice = [1], h_idx = [0, 3, 6, 9, 12, 14], h_slice = [3, 3, 3, 3, 2, 2], w_idx = [0], w_slice = [64], id = 0, stage = 0, slice_idx = 0, group_type = 4>, is_idx_weight = false, lmem_type = 1 : i64, support_compress = true, use_3ic_optimize = 0 : i64} : (tensor<1x2304x16x64xbf16, 4963115008 : i64>) -> tensor<1x2304x16x64xbf16> loc(#loc424)
        %875 = "tpu.Load"(%416) {do_bcast = false, ginfo = #tpu.lg<out_addr = 74240, out_size = 13824, buffer_addr = 0, buffer_size = 0, eu_align = true, can_merge = false, in_hslice_offset = [], n_idx = [0], n_slice = [1], c_idx = [0], c_slice = [2304], d_idx = [0], d_slice = [1], h_idx = [0, 3, 6, 9, 12, 14], h_slice = [3, 3, 3, 3, 2, 2], w_idx = [0], w_slice = [64], id = 1, stage = 1, slice_idx = 0, group_type = 4>, is_idx_weight = false, lmem_type = 1 : i64, support_compress = true, use_3ic_optimize = 0 : i64} : (tensor<1x2304x16x64xbf16, 4972552192 : i64>) -> tensor<1x2304x16x64xbf16> loc(#loc425)
        %876 = "tpu.Cast"(%874) {ginfo = #tpu.lg<out_addr = 0, out_size = 27648, buffer_addr = 0, buffer_size = 0, eu_align = true, can_merge = false, in_hslice_offset = [], n_idx = [0], n_slice = [1], c_idx = [0], c_slice = [2304], d_idx = [0], d_slice = [1], h_idx = [0, 3, 6, 9, 12, 14], h_slice = [3, 3, 3, 3, 2, 2], w_idx = [0], w_slice = [64], id = 2, stage = 1, slice_idx = 0, group_type = 4>, round_mode = #tpu<round_mode HalfAwayFromZero>, with_scale = true} : (tensor<1x2304x16x64xbf16>) -> tensor<1x2304x16x64xf32> loc(#loc426)
        %877 = "tpu.Load"(%410) {do_bcast = false, ginfo = #tpu.lg<out_addr = 196608, out_size = 27648, buffer_addr = 0, buffer_size = 0, eu_align = true, can_merge = false, in_hslice_offset = [], n_idx = [0], n_slice = [1], c_idx = [0], c_slice = [2304], d_idx = [0], d_slice = [1], h_idx = [0, 3, 6, 9, 12, 14], h_slice = [3, 3, 3, 3, 2, 2], w_idx = [0], w_slice = [64], id = 3, stage = 1, slice_idx = 0, group_type = 4>, is_idx_weight = false, lmem_type = 1 : i64, support_compress = true, use_3ic_optimize = 0 : i64} : (tensor<1x2304x1x64xf32, 5052768256 : i64>) -> tensor<1x2304x1x64xf32> loc(#loc427)
        %878 = "tpu.Load"(%406) {do_bcast = false, ginfo = #tpu.lg<out_addr = 229376, out_size = 27648, buffer_addr = 0, buffer_size = 0, eu_align = true, can_merge = false, in_hslice_offset = [], n_idx = [0], n_slice = [1], c_idx = [0], c_slice = [2304], d_idx = [0], d_slice = [1], h_idx = [0, 3, 6, 9, 12, 14], h_slice = [3, 3, 3, 3, 2, 2], w_idx = [0], w_slice = [64], id = 4, stage = 1, slice_idx = 0, group_type = 4>, is_idx_weight = false, lmem_type = 1 : i64, support_compress = true, use_3ic_optimize = 0 : i64} : (tensor<1x2304x1x64xf32, 5053358080 : i64>) -> tensor<1x2304x1x64xf32> loc(#loc428)
        %879 = "tpu.Cast"(%875) {ginfo = #tpu.lg<out_addr = 32768, out_size = 27648, buffer_addr = 0, buffer_size = 0, eu_align = true, can_merge = false, in_hslice_offset = [], n_idx = [0], n_slice = [1], c_idx = [0], c_slice = [2304], d_idx = [0], d_slice = [1], h_idx = [0, 3, 6, 9, 12, 14], h_slice = [3, 3, 3, 3, 2, 2], w_idx = [0], w_slice = [64], id = 5, stage = 1, slice_idx = 0, group_type = 4>, round_mode = #tpu<round_mode HalfAwayFromZero>, with_scale = true} : (tensor<1x2304x16x64xbf16>) -> tensor<1x2304x16x64xf32> loc(#loc429)
        %880 = "tpu.Rope"(%876, %877, %878) {add_round_mode = #tpu<round_mode HalfAwayFromZero>, add_saturation = true, add_shift = 0 : si32, force_f32 = true, ginfo = #tpu.lg<out_addr = 81920, out_size = 27648, buffer_addr = 114688, buffer_size = 55296, eu_align = true, can_merge = false, in_hslice_offset = [], n_idx = [0], n_slice = [1], c_idx = [0], c_slice = [2304], d_idx = [0], d_slice = [1], h_idx = [0, 3, 6, 9, 12, 14], h_slice = [3, 3, 3, 3, 2, 2], w_idx = [0], w_slice = [64], id = 6, stage = 1, slice_idx = 0, group_type = 4>, is_permute_optimize = false, mul1_round_mode = #tpu<round_mode HalfAwayFromZero>, mul1_saturation = true, mul1_shift = 0 : si32, mul2_round_mode = #tpu<round_mode HalfAwayFromZero>, mul2_saturation = true, mul2_shift = 0 : si32, rope_mode = #tpu<rope_mode contiguous_halves>} : (tensor<1x2304x16x64xf32>, tensor<1x2304x1x64xf32>, tensor<1x2304x1x64xf32>) -> tensor<1x2304x16x64xf32> loc(#loc430)
        %881 = "tpu.Cast"(%880) {ginfo = #tpu.lg<out_addr = 169984, out_size = 13824, buffer_addr = 0, buffer_size = 0, eu_align = true, can_merge = false, in_hslice_offset = [], n_idx = [0], n_slice = [1], c_idx = [0], c_slice = [2304], d_idx = [0], d_slice = [1], h_idx = [0, 3, 6, 9, 12, 14], h_slice = [3, 3, 3, 3, 2, 2], w_idx = [0], w_slice = [64], id = 7, stage = 1, slice_idx = 0, group_type = 4>, round_mode = #tpu<round_mode HalfAwayFromZero>, with_scale = true} : (tensor<1x2304x16x64xf32>) -> tensor<1x2304x16x64xbf16> loc(#loc422)
        %882 = "tpu.Store"(%881, %0) {ginfo = #tpu.lg<out_addr = 169984, out_size = 13824, buffer_addr = 0, buffer_size = 0, eu_align = true, can_merge = false, in_hslice_offset = [], n_idx = [0], n_slice = [1], c_idx = [0], c_slice = [2304], d_idx = [0], d_slice = [1], h_idx = [0, 3, 6, 9, 12, 14], h_slice = [3, 3, 3, 3, 2, 2], w_idx = [0], w_slice = [64], id = 8, stage = 1, slice_idx = 0, group_type = 4>, support_compress = true} : (tensor<1x2304x16x64xbf16>, none) -> tensor<1x2304x16x64xbf16, 4967833600 : i64> loc(#loc422)
        %883 = "tpu.Rope"(%879, %877, %878) {add_round_mode = #tpu<round_mode HalfAwayFromZero>, add_saturation = true, add_shift = 0 : si32, force_f32 = true, ginfo = #tpu.lg<out_addr = 0, out_size = 27648, buffer_addr = 65536, buffer_size = 55296, eu_align = true, can_merge = false, in_hslice_offset = [], n_idx = [0], n_slice = [1], c_idx = [0], c_slice = [2304], d_idx = [0], d_slice = [1], h_idx = [0, 3, 6, 9, 12, 14], h_slice = [3, 3, 3, 3, 2, 2], w_idx = [0], w_slice = [64], id = 9, stage = 1, slice_idx = 0, group_type = 4>, is_permute_optimize = false, mul1_round_mode = #tpu<round_mode HalfAwayFromZero>, mul1_saturation = true, mul1_shift = 0 : si32, mul2_round_mode = #tpu<round_mode HalfAwayFromZero>, mul2_saturation = true, mul2_shift = 0 : si32, rope_mode = #tpu<rope_mode contiguous_halves>} : (tensor<1x2304x16x64xf32>, tensor<1x2304x1x64xf32>, tensor<1x2304x1x64xf32>) -> tensor<1x2304x16x64xf32> loc(#loc431)
        %884 = "tpu.Cast"(%883) {ginfo = #tpu.lg<out_addr = 60416, out_size = 13824, buffer_addr = 0, buffer_size = 0, eu_align = true, can_merge = false, in_hslice_offset = [], n_idx = [0], n_slice = [1], c_idx = [0], c_slice = [2304], d_idx = [0], d_slice = [1], h_idx = [0, 3, 6, 9, 12, 14], h_slice = [3, 3, 3, 3, 2, 2], w_idx = [0], w_slice = [64], id = 10, stage = 1, slice_idx = 0, group_type = 4>, round_mode = #tpu<round_mode HalfAwayFromZero>, with_scale = true} : (tensor<1x2304x16x64xf32>) -> tensor<1x2304x16x64xbf16> loc(#loc423)
        %885 = "tpu.Store"(%884, %0) {ginfo = #tpu.lg<out_addr = 60416, out_size = 13824, buffer_addr = 0, buffer_size = 0, eu_align = true, can_merge = false, in_hslice_offset = [], n_idx = [0], n_slice = [1], c_idx = [0], c_slice = [2304], d_idx = [0], d_slice = [1], h_idx = [0, 3, 6, 9, 12, 14], h_slice = [3, 3, 3, 3, 2, 2], w_idx = [0], w_slice = [64], id = 11, stage = 2, slice_idx = 0, group_type = 4>, support_compress = true} : (tensor<1x2304x16x64xbf16>, none) -> tensor<1x2304x16x64xbf16, 4958396416 : i64> loc(#loc423)
        "tpu.Yield"(%882, %885) : (tensor<1x2304x16x64xbf16, 4967833600 : i64>, tensor<1x2304x16x64xbf16, 4958396416 : i64>) -> () loc(#loc1048)
      }) {core_slice_ncdhw = [], csecs = 1 : i64, dsecs = 1 : i64, flow = [-1, 2, 1, -2, 5, 3, 4, -3, 6, 7, 11, -4, 9, 8, -5, 10, 0], group_type = 4 : i64, hsecs = 6 : i64, nsecs = 1 : i64, other_down_overlap_op = [], other_up_overlap_op = [], run_core_id = [], self_down_overlap_op = [], self_up_overlap_op = [], support_compress = true, swpipl_stage_num = 3 : i64, wsecs = 1 : i64} : (tensor<1x2304x16x64xbf16, 4963115008 : i64>, tensor<1x2304x16x64xbf16, 4972552192 : i64>, tensor<1x2304x1x64xf32, 5052768256 : i64>, tensor<1x2304x1x64xf32, 5053358080 : i64>) -> (tensor<1x2304x16x64xbf16, 4967833600 : i64>, tensor<1x2304x16x64xbf16, 4958396416 : i64>) loc(#loc1048)
      %419 = "tpu.FAttention"(%418#0, %418#1, %415, %0, %0) {batch = 1 : i64, dim = 64 : i64, keep_dims = true, kv_head = 16 : i64, mk = 2304 : i64, mq = 2304 : i64, q_head = 16 : i64, scale = 1.250000e-01 : f64} : (tensor<1x2304x16x64xbf16, 4967833600 : i64>, tensor<1x2304x16x64xbf16, 4958396416 : i64>, tensor<1x2304x16x64xbf16, 4977270784 : i64>, none, none) -> tensor<1x2304x16x64xbf16, 4963115008 : i64> loc(#loc432)
      %420 = "tpu.Reshape"(%419) {flatten_start_dim = -1 : i64, shape = [-1, 1024]} : (tensor<1x2304x16x64xbf16, 4963115008 : i64>) -> tensor<2304x1024xbf16, 4963115008 : i64> loc(#loc433)
      %421 = "tpu.MatMul"(%420, %4, %3, %0, %0) {do_relu = false, dq_type = "NONE", fuse_rq = false, hdim_is_batch = false, input_zp = 0 : i64, is_lora = false, keep_dims = true, left_reuse = 0 : i64, left_transpose = false, multipliers = [1], output_transpose = false, q_group_size = 0 : i64, quant_mode = #tpu<rq_mode MultiplierShift>, relu_limit = -1.000000e+00 : f64, right_transpose = false, right_zp = 0 : i64, round_mode = #tpu<round_mode HalfAwayFromZero>, rshifts = [0]} : (tensor<2304x1024xbf16, 4963115008 : i64>, tensor<1024x1024xbf16, 4297072640 : i64>, tensor<1x1024xbf16, 4297068544 : i64>, none, none) -> tensor<2304x1024xbf16, 4958396416 : i64> loc(#loc434)
      %422 = "tpu.Add"(%402, %421) {do_relu = false, is_scalar = false, relu_limit = -1.000000e+00 : f64} : (tensor<2304x1024xbf16, 4981989376 : i64>, tensor<2304x1024xbf16, 4958396416 : i64>) -> tensor<2304x1024xbf16, 5048049664 : i64> loc(#loc435)
      %423 = "tpu.LayerNorm"(%422, %16, %15, %0, %0) {axis = 1 : si32, eps = 9.9999999999999995E-7 : f64, normalized_shape = [1024]} : (tensor<2304x1024xbf16, 5048049664 : i64>, tensor<1x1024xbf16, 4320174080 : i64>, tensor<1x1024xbf16, 4320169984 : i64>, none, none) -> tensor<2304x1024xbf16, 4977270784 : i64> loc(#loc436)
      %424 = "tpu.MatMul"(%423, %10, %9, %0, %0) {do_relu = false, dq_type = "NONE", fuse_rq = false, hdim_is_batch = false, input_zp = 0 : i64, is_lora = false, keep_dims = true, left_reuse = 0 : i64, left_transpose = false, multipliers = [1], output_transpose = false, q_group_size = 0 : i64, quant_mode = #tpu<rq_mode MultiplierShift>, relu_limit = -1.000000e+00 : f64, right_transpose = false, right_zp = 0 : i64, round_mode = #tpu<round_mode HalfAwayFromZero>, rshifts = [0]} : (tensor<2304x1024xbf16, 4977270784 : i64>, tensor<1024x4096xbf16, 4303380480 : i64>, tensor<1x4096xbf16, 4303372288 : i64>, none, none) -> tensor<2304x4096xbf16, 4958396416 : i64> loc(#loc437)
      %425 = "tpu.Cast"(%424) {round_mode = #tpu<round_mode HalfAwayFromZero>, with_scale = true} : (tensor<2304x4096xbf16, 4958396416 : i64>) -> tensor<2304x4096xf32, 4996145152 : i64> loc(#loc438)
      %426 = "tpu.Active"(%425) {mode = #tpu<active_mode TGELU>} : (tensor<2304x4096xf32, 4996145152 : i64>) -> tensor<2304x4096xf32, 4958396416 : i64> loc(#loc439)
      %427 = "tpu.Cast"(%426) {round_mode = #tpu<round_mode HalfAwayFromZero>, with_scale = true} : (tensor<2304x4096xf32, 4958396416 : i64>) -> tensor<2304x4096xbf16, 4996145152 : i64> loc(#loc440)
      %428 = "tpu.MatMul"(%427, %12, %11, %0, %0) {do_relu = false, dq_type = "NONE", fuse_rq = false, hdim_is_batch = false, input_zp = 0 : i64, is_lora = false, keep_dims = true, left_reuse = 0 : i64, left_transpose = false, multipliers = [1], output_transpose = false, q_group_size = 0 : i64, quant_mode = #tpu<rq_mode MultiplierShift>, relu_limit = -1.000000e+00 : f64, right_transpose = false, right_zp = 0 : i64, round_mode = #tpu<round_mode HalfAwayFromZero>, rshifts = [0]} : (tensor<2304x4096xbf16, 4996145152 : i64>, tensor<4096x1024xbf16, 4311773184 : i64>, tensor<1x1024xbf16, 4311769088 : i64>, none, none) -> tensor<2304x1024xbf16, 4986707968 : i64> loc(#loc441)
      %429 = "tpu.Add"(%422, %428) {do_relu = false, is_scalar = false, relu_limit = -1.000000e+00 : f64} : (tensor<2304x1024xbf16, 5048049664 : i64>, tensor<2304x1024xbf16, 4986707968 : i64>) -> tensor<2304x1024xbf16, 4981989376 : i64> loc(#loc442)
      %430 = "tpu.LayerNorm"(%429, %30, %29, %0, %0) {axis = 1 : si32, eps = 9.9999999999999995E-7 : f64, normalized_shape = [1024]} : (tensor<2304x1024xbf16, 4981989376 : i64>, tensor<1x1024xbf16, 4345376768 : i64>, tensor<1x1024xbf16, 4345372672 : i64>, none, none) -> tensor<2304x1024xbf16, 4958396416 : i64> loc(#loc443)
      %431 = "tpu.MatMul"(%430, %24, %23, %0, %0) {do_relu = false, dq_type = "NONE", fuse_rq = false, hdim_is_batch = false, input_zp = 0 : i64, is_lora = false, keep_dims = true, left_reuse = 1 : i64, left_transpose = false, multipliers = [1], output_transpose = false, q_group_size = 0 : i64, quant_mode = #tpu<rq_mode MultiplierShift>, relu_limit = -1.000000e+00 : f64, right_transpose = false, right_zp = 0 : i64, round_mode = #tpu<round_mode HalfAwayFromZero>, rshifts = [0]} : (tensor<2304x1024xbf16, 4958396416 : i64>, tensor<1024x1024xbf16, 4326486016 : i64>, tensor<1x1024xbf16, 4326481920 : i64>, none, none) -> tensor<2304x1024xbf16, 4977270784 : i64> loc(#loc444)
      %432 = "tpu.MatMul"(%430, %18, %17, %0, %0) {do_relu = false, dq_type = "NONE", fuse_rq = false, hdim_is_batch = false, input_zp = 0 : i64, is_lora = false, keep_dims = true, left_reuse = 1 : i64, left_transpose = false, multipliers = [1], output_transpose = false, q_group_size = 0 : i64, quant_mode = #tpu<rq_mode MultiplierShift>, relu_limit = -1.000000e+00 : f64, right_transpose = false, right_zp = 0 : i64, round_mode = #tpu<round_mode HalfAwayFromZero>, rshifts = [0]} : (tensor<2304x1024xbf16, 4958396416 : i64>, tensor<1024x1024xbf16, 4320182272 : i64>, tensor<1x1024xbf16, 4320178176 : i64>, none, none) -> tensor<2304x1024xbf16, 4972552192 : i64> loc(#loc445)
      %433 = "tpu.MatMul"(%430, %22, %21, %0, %0) {do_relu = false, dq_type = "NONE", fuse_rq = false, hdim_is_batch = false, input_zp = 0 : i64, is_lora = false, keep_dims = true, left_reuse = 1 : i64, left_transpose = false, multipliers = [1], output_transpose = false, q_group_size = 0 : i64, quant_mode = #tpu<rq_mode MultiplierShift>, relu_limit = -1.000000e+00 : f64, right_transpose = false, right_zp = 0 : i64, round_mode = #tpu<round_mode HalfAwayFromZero>, rshifts = [0]} : (tensor<2304x1024xbf16, 4958396416 : i64>, tensor<1024x1024xbf16, 4324384768 : i64>, tensor<1x1024xbf16, 4324380672 : i64>, none, none) -> tensor<2304x1024xbf16, 4963115008 : i64> loc(#loc446)
      %434 = "tpu.Reshape"(%431) {flatten_start_dim = -1 : i64, shape = [1, -1, 16, 64]} : (tensor<2304x1024xbf16, 4977270784 : i64>) -> tensor<1x2304x16x64xbf16, 4977270784 : i64> loc(#loc447)
      %435 = "tpu.Reshape"(%432) {flatten_start_dim = -1 : i64, shape = [1, -1, 16, 64]} : (tensor<2304x1024xbf16, 4972552192 : i64>) -> tensor<1x2304x16x64xbf16, 4972552192 : i64> loc(#loc448)
      %436 = "tpu.Reshape"(%433) {flatten_start_dim = -1 : i64, shape = [1, -1, 16, 64]} : (tensor<2304x1024xbf16, 4963115008 : i64>) -> tensor<1x2304x16x64xbf16, 4963115008 : i64> loc(#loc449)
      %437:2 = "tpu.Group"(%436, %435, %410, %406) ({
        %874 = "tpu.Load"(%436) {do_bcast = false, ginfo = #tpu.lg<out_addr = 32768, out_size = 13824, buffer_addr = 0, buffer_size = 0, eu_align = true, can_merge = false, in_hslice_offset = [], n_idx = [0], n_slice = [1], c_idx = [0], c_slice = [2304], d_idx = [0], d_slice = [1], h_idx = [0, 3, 6, 9, 12, 14], h_slice = [3, 3, 3, 3, 2, 2], w_idx = [0], w_slice = [64], id = 0, stage = 0, slice_idx = 0, group_type = 4>, is_idx_weight = false, lmem_type = 1 : i64, support_compress = true, use_3ic_optimize = 0 : i64} : (tensor<1x2304x16x64xbf16, 4963115008 : i64>) -> tensor<1x2304x16x64xbf16> loc(#loc452)
        %875 = "tpu.Load"(%435) {do_bcast = false, ginfo = #tpu.lg<out_addr = 74240, out_size = 13824, buffer_addr = 0, buffer_size = 0, eu_align = true, can_merge = false, in_hslice_offset = [], n_idx = [0], n_slice = [1], c_idx = [0], c_slice = [2304], d_idx = [0], d_slice = [1], h_idx = [0, 3, 6, 9, 12, 14], h_slice = [3, 3, 3, 3, 2, 2], w_idx = [0], w_slice = [64], id = 1, stage = 1, slice_idx = 0, group_type = 4>, is_idx_weight = false, lmem_type = 1 : i64, support_compress = true, use_3ic_optimize = 0 : i64} : (tensor<1x2304x16x64xbf16, 4972552192 : i64>) -> tensor<1x2304x16x64xbf16> loc(#loc453)
        %876 = "tpu.Cast"(%874) {ginfo = #tpu.lg<out_addr = 0, out_size = 27648, buffer_addr = 0, buffer_size = 0, eu_align = true, can_merge = false, in_hslice_offset = [], n_idx = [0], n_slice = [1], c_idx = [0], c_slice = [2304], d_idx = [0], d_slice = [1], h_idx = [0, 3, 6, 9, 12, 14], h_slice = [3, 3, 3, 3, 2, 2], w_idx = [0], w_slice = [64], id = 2, stage = 1, slice_idx = 0, group_type = 4>, round_mode = #tpu<round_mode HalfAwayFromZero>, with_scale = true} : (tensor<1x2304x16x64xbf16>) -> tensor<1x2304x16x64xf32> loc(#loc454)
        %877 = "tpu.Load"(%410) {do_bcast = false, ginfo = #tpu.lg<out_addr = 196608, out_size = 27648, buffer_addr = 0, buffer_size = 0, eu_align = true, can_merge = false, in_hslice_offset = [], n_idx = [0], n_slice = [1], c_idx = [0], c_slice = [2304], d_idx = [0], d_slice = [1], h_idx = [0, 3, 6, 9, 12, 14], h_slice = [3, 3, 3, 3, 2, 2], w_idx = [0], w_slice = [64], id = 3, stage = 1, slice_idx = 0, group_type = 4>, is_idx_weight = false, lmem_type = 1 : i64, support_compress = true, use_3ic_optimize = 0 : i64} : (tensor<1x2304x1x64xf32, 5052768256 : i64>) -> tensor<1x2304x1x64xf32> loc(#loc427)
        %878 = "tpu.Load"(%406) {do_bcast = false, ginfo = #tpu.lg<out_addr = 229376, out_size = 27648, buffer_addr = 0, buffer_size = 0, eu_align = true, can_merge = false, in_hslice_offset = [], n_idx = [0], n_slice = [1], c_idx = [0], c_slice = [2304], d_idx = [0], d_slice = [1], h_idx = [0, 3, 6, 9, 12, 14], h_slice = [3, 3, 3, 3, 2, 2], w_idx = [0], w_slice = [64], id = 4, stage = 1, slice_idx = 0, group_type = 4>, is_idx_weight = false, lmem_type = 1 : i64, support_compress = true, use_3ic_optimize = 0 : i64} : (tensor<1x2304x1x64xf32, 5053358080 : i64>) -> tensor<1x2304x1x64xf32> loc(#loc428)
        %879 = "tpu.Cast"(%875) {ginfo = #tpu.lg<out_addr = 32768, out_size = 27648, buffer_addr = 0, buffer_size = 0, eu_align = true, can_merge = false, in_hslice_offset = [], n_idx = [0], n_slice = [1], c_idx = [0], c_slice = [2304], d_idx = [0], d_slice = [1], h_idx = [0, 3, 6, 9, 12, 14], h_slice = [3, 3, 3, 3, 2, 2], w_idx = [0], w_slice = [64], id = 5, stage = 1, slice_idx = 0, group_type = 4>, round_mode = #tpu<round_mode HalfAwayFromZero>, with_scale = true} : (tensor<1x2304x16x64xbf16>) -> tensor<1x2304x16x64xf32> loc(#loc455)
        %880 = "tpu.Rope"(%876, %877, %878) {add_round_mode = #tpu<round_mode HalfAwayFromZero>, add_saturation = true, add_shift = 0 : si32, force_f32 = true, ginfo = #tpu.lg<out_addr = 81920, out_size = 27648, buffer_addr = 114688, buffer_size = 55296, eu_align = true, can_merge = false, in_hslice_offset = [], n_idx = [0], n_slice = [1], c_idx = [0], c_slice = [2304], d_idx = [0], d_slice = [1], h_idx = [0, 3, 6, 9, 12, 14], h_slice = [3, 3, 3, 3, 2, 2], w_idx = [0], w_slice = [64], id = 6, stage = 1, slice_idx = 0, group_type = 4>, is_permute_optimize = false, mul1_round_mode = #tpu<round_mode HalfAwayFromZero>, mul1_saturation = true, mul1_shift = 0 : si32, mul2_round_mode = #tpu<round_mode HalfAwayFromZero>, mul2_saturation = true, mul2_shift = 0 : si32, rope_mode = #tpu<rope_mode contiguous_halves>} : (tensor<1x2304x16x64xf32>, tensor<1x2304x1x64xf32>, tensor<1x2304x1x64xf32>) -> tensor<1x2304x16x64xf32> loc(#loc456)
        %881 = "tpu.Cast"(%880) {ginfo = #tpu.lg<out_addr = 169984, out_size = 13824, buffer_addr = 0, buffer_size = 0, eu_align = true, can_merge = false, in_hslice_offset = [], n_idx = [0], n_slice = [1], c_idx = [0], c_slice = [2304], d_idx = [0], d_slice = [1], h_idx = [0, 3, 6, 9, 12, 14], h_slice = [3, 3, 3, 3, 2, 2], w_idx = [0], w_slice = [64], id = 7, stage = 1, slice_idx = 0, group_type = 4>, round_mode = #tpu<round_mode HalfAwayFromZero>, with_scale = true} : (tensor<1x2304x16x64xf32>) -> tensor<1x2304x16x64xbf16> loc(#loc450)
        %882 = "tpu.Store"(%881, %0) {ginfo = #tpu.lg<out_addr = 169984, out_size = 13824, buffer_addr = 0, buffer_size = 0, eu_align = true, can_merge = false, in_hslice_offset = [], n_idx = [0], n_slice = [1], c_idx = [0], c_slice = [2304], d_idx = [0], d_slice = [1], h_idx = [0, 3, 6, 9, 12, 14], h_slice = [3, 3, 3, 3, 2, 2], w_idx = [0], w_slice = [64], id = 8, stage = 1, slice_idx = 0, group_type = 4>, support_compress = true} : (tensor<1x2304x16x64xbf16>, none) -> tensor<1x2304x16x64xbf16, 4967833600 : i64> loc(#loc450)
        %883 = "tpu.Rope"(%879, %877, %878) {add_round_mode = #tpu<round_mode HalfAwayFromZero>, add_saturation = true, add_shift = 0 : si32, force_f32 = true, ginfo = #tpu.lg<out_addr = 0, out_size = 27648, buffer_addr = 65536, buffer_size = 55296, eu_align = true, can_merge = false, in_hslice_offset = [], n_idx = [0], n_slice = [1], c_idx = [0], c_slice = [2304], d_idx = [0], d_slice = [1], h_idx = [0, 3, 6, 9, 12, 14], h_slice = [3, 3, 3, 3, 2, 2], w_idx = [0], w_slice = [64], id = 9, stage = 1, slice_idx = 0, group_type = 4>, is_permute_optimize = false, mul1_round_mode = #tpu<round_mode HalfAwayFromZero>, mul1_saturation = true, mul1_shift = 0 : si32, mul2_round_mode = #tpu<round_mode HalfAwayFromZero>, mul2_saturation = true, mul2_shift = 0 : si32, rope_mode = #tpu<rope_mode contiguous_halves>} : (tensor<1x2304x16x64xf32>, tensor<1x2304x1x64xf32>, tensor<1x2304x1x64xf32>) -> tensor<1x2304x16x64xf32> loc(#loc457)
        %884 = "tpu.Cast"(%883) {ginfo = #tpu.lg<out_addr = 60416, out_size = 13824, buffer_addr = 0, buffer_size = 0, eu_align = true, can_merge = false, in_hslice_offset = [], n_idx = [0], n_slice = [1], c_idx = [0], c_slice = [2304], d_idx = [0], d_slice = [1], h_idx = [0, 3, 6, 9, 12, 14], h_slice = [3, 3, 3, 3, 2, 2], w_idx = [0], w_slice = [64], id = 10, stage = 1, slice_idx = 0, group_type = 4>, round_mode = #tpu<round_mode HalfAwayFromZero>, with_scale = true} : (tensor<1x2304x16x64xf32>) -> tensor<1x2304x16x64xbf16> loc(#loc451)
        %885 = "tpu.Store"(%884, %0) {ginfo = #tpu.lg<out_addr = 60416, out_size = 13824, buffer_addr = 0, buffer_size = 0, eu_align = true, can_merge = false, in_hslice_offset = [], n_idx = [0], n_slice = [1], c_idx = [0], c_slice = [2304], d_idx = [0], d_slice = [1], h_idx = [0, 3, 6, 9, 12, 14], h_slice = [3, 3, 3, 3, 2, 2], w_idx = [0], w_slice = [64], id = 11, stage = 2, slice_idx = 0, group_type = 4>, support_compress = true} : (tensor<1x2304x16x64xbf16>, none) -> tensor<1x2304x16x64xbf16, 4958396416 : i64> loc(#loc451)
        "tpu.Yield"(%882, %885) : (tensor<1x2304x16x64xbf16, 4967833600 : i64>, tensor<1x2304x16x64xbf16, 4958396416 : i64>) -> () loc(#loc1049)
      }) {core_slice_ncdhw = [], csecs = 1 : i64, dsecs = 1 : i64, flow = [-1, 2, 1, -2, 5, 3, 4, -3, 6, 7, 11, -4, 9, 8, -5, 10, 0], group_type = 4 : i64, hsecs = 6 : i64, nsecs = 1 : i64, other_down_overlap_op = [], other_up_overlap_op = [], run_core_id = [], self_down_overlap_op = [], self_up_overlap_op = [], support_compress = true, swpipl_stage_num = 3 : i64, wsecs = 1 : i64} : (tensor<1x2304x16x64xbf16, 4963115008 : i64>, tensor<1x2304x16x64xbf16, 4972552192 : i64>, tensor<1x2304x1x64xf32, 5052768256 : i64>, tensor<1x2304x1x64xf32, 5053358080 : i64>) -> (tensor<1x2304x16x64xbf16, 4967833600 : i64>, tensor<1x2304x16x64xbf16, 4958396416 : i64>) loc(#loc1049)
      %438 = "tpu.FAttention"(%437#0, %437#1, %434, %0, %0) {batch = 1 : i64, dim = 64 : i64, keep_dims = true, kv_head = 16 : i64, mk = 2304 : i64, mq = 2304 : i64, q_head = 16 : i64, scale = 1.250000e-01 : f64} : (tensor<1x2304x16x64xbf16, 4967833600 : i64>, tensor<1x2304x16x64xbf16, 4958396416 : i64>, tensor<1x2304x16x64xbf16, 4977270784 : i64>, none, none) -> tensor<1x2304x16x64xbf16, 4963115008 : i64> loc(#loc458)
      %439 = "tpu.Reshape"(%438) {flatten_start_dim = -1 : i64, shape = [-1, 1024]} : (tensor<1x2304x16x64xbf16, 4963115008 : i64>) -> tensor<2304x1024xbf16, 4963115008 : i64> loc(#loc459)
      %440 = "tpu.MatMul"(%439, %20, %19, %0, %0) {do_relu = false, dq_type = "NONE", fuse_rq = false, hdim_is_batch = false, input_zp = 0 : i64, is_lora = false, keep_dims = true, left_reuse = 0 : i64, left_transpose = false, multipliers = [1], output_transpose = false, q_group_size = 0 : i64, quant_mode = #tpu<rq_mode MultiplierShift>, relu_limit = -1.000000e+00 : f64, right_transpose = false, right_zp = 0 : i64, round_mode = #tpu<round_mode HalfAwayFromZero>, rshifts = [0]} : (tensor<2304x1024xbf16, 4963115008 : i64>, tensor<1024x1024xbf16, 4322283520 : i64>, tensor<1x1024xbf16, 4322279424 : i64>, none, none) -> tensor<2304x1024xbf16, 4958396416 : i64> loc(#loc460)
      %441 = "tpu.Add"(%429, %440) {do_relu = false, is_scalar = false, relu_limit = -1.000000e+00 : f64} : (tensor<2304x1024xbf16, 4981989376 : i64>, tensor<2304x1024xbf16, 4958396416 : i64>) -> tensor<2304x1024xbf16, 5048049664 : i64> loc(#loc461)
      %442 = "tpu.LayerNorm"(%441, %32, %31, %0, %0) {axis = 1 : si32, eps = 9.9999999999999995E-7 : f64, normalized_shape = [1024]} : (tensor<2304x1024xbf16, 5048049664 : i64>, tensor<1x1024xbf16, 4345384960 : i64>, tensor<1x1024xbf16, 4345380864 : i64>, none, none) -> tensor<2304x1024xbf16, 4977270784 : i64> loc(#loc462)
      %443 = "tpu.MatMul"(%442, %26, %25, %0, %0) {do_relu = false, dq_type = "NONE", fuse_rq = false, hdim_is_batch = false, input_zp = 0 : i64, is_lora = false, keep_dims = true, left_reuse = 0 : i64, left_transpose = false, multipliers = [1], output_transpose = false, q_group_size = 0 : i64, quant_mode = #tpu<rq_mode MultiplierShift>, relu_limit = -1.000000e+00 : f64, right_transpose = false, right_zp = 0 : i64, round_mode = #tpu<round_mode HalfAwayFromZero>, rshifts = [0]} : (tensor<2304x1024xbf16, 4977270784 : i64>, tensor<1024x4096xbf16, 4328591360 : i64>, tensor<1x4096xbf16, 4328583168 : i64>, none, none) -> tensor<2304x4096xbf16, 4958396416 : i64> loc(#loc463)
      %444 = "tpu.Cast"(%443) {round_mode = #tpu<round_mode HalfAwayFromZero>, with_scale = true} : (tensor<2304x4096xbf16, 4958396416 : i64>) -> tensor<2304x4096xf32, 4996145152 : i64> loc(#loc464)
      %445 = "tpu.Active"(%444) {mode = #tpu<active_mode TGELU>} : (tensor<2304x4096xf32, 4996145152 : i64>) -> tensor<2304x4096xf32, 4958396416 : i64> loc(#loc465)
      %446 = "tpu.Cast"(%445) {round_mode = #tpu<round_mode HalfAwayFromZero>, with_scale = true} : (tensor<2304x4096xf32, 4958396416 : i64>) -> tensor<2304x4096xbf16, 4996145152 : i64> loc(#loc466)
      %447 = "tpu.MatMul"(%446, %28, %27, %0, %0) {do_relu = false, dq_type = "NONE", fuse_rq = false, hdim_is_batch = false, input_zp = 0 : i64, is_lora = false, keep_dims = true, left_reuse = 0 : i64, left_transpose = false, multipliers = [1], output_transpose = false, q_group_size = 0 : i64, quant_mode = #tpu<rq_mode MultiplierShift>, relu_limit = -1.000000e+00 : f64, right_transpose = false, right_zp = 0 : i64, round_mode = #tpu<round_mode HalfAwayFromZero>, rshifts = [0]} : (tensor<2304x4096xbf16, 4996145152 : i64>, tensor<4096x1024xbf16, 4336984064 : i64>, tensor<1x1024xbf16, 4336979968 : i64>, none, none) -> tensor<2304x1024xbf16, 4986707968 : i64> loc(#loc467)
      %448 = "tpu.Add"(%441, %447) {do_relu = false, is_scalar = false, relu_limit = -1.000000e+00 : f64} : (tensor<2304x1024xbf16, 5048049664 : i64>, tensor<2304x1024xbf16, 4986707968 : i64>) -> tensor<2304x1024xbf16, 4981989376 : i64> loc(#loc468)
      %449 = "tpu.LayerNorm"(%448, %206, %205, %0, %0) {axis = 1 : si32, eps = 9.9999999999999995E-7 : f64, normalized_shape = [1024]} : (tensor<2304x1024xbf16, 4981989376 : i64>, tensor<1x1024xbf16, 4622696448 : i64>, tensor<1x1024xbf16, 4622692352 : i64>, none, none) -> tensor<2304x1024xbf16, 4958396416 : i64> loc(#loc469)
      %450 = "tpu.MatMul"(%449, %200, %199, %0, %0) {do_relu = false, dq_type = "NONE", fuse_rq = false, hdim_is_batch = false, input_zp = 0 : i64, is_lora = false, keep_dims = true, left_reuse = 1 : i64, left_transpose = false, multipliers = [1], output_transpose = false, q_group_size = 0 : i64, quant_mode = #tpu<rq_mode MultiplierShift>, relu_limit = -1.000000e+00 : f64, right_transpose = false, right_zp = 0 : i64, round_mode = #tpu<round_mode HalfAwayFromZero>, rshifts = [0]} : (tensor<2304x1024xbf16, 4958396416 : i64>, tensor<1024x1024xbf16, 4603805696 : i64>, tensor<1x1024xbf16, 4603801600 : i64>, none, none) -> tensor<2304x1024xbf16, 4977270784 : i64> loc(#loc470)
      %451 = "tpu.MatMul"(%449, %194, %193, %0, %0) {do_relu = false, dq_type = "NONE", fuse_rq = false, hdim_is_batch = false, input_zp = 0 : i64, is_lora = false, keep_dims = true, left_reuse = 1 : i64, left_transpose = false, multipliers = [1], output_transpose = false, q_group_size = 0 : i64, quant_mode = #tpu<rq_mode MultiplierShift>, relu_limit = -1.000000e+00 : f64, right_transpose = false, right_zp = 0 : i64, round_mode = #tpu<round_mode HalfAwayFromZero>, rshifts = [0]} : (tensor<2304x1024xbf16, 4958396416 : i64>, tensor<1024x1024xbf16, 4597501952 : i64>, tensor<1x1024xbf16, 4597497856 : i64>, none, none) -> tensor<2304x1024xbf16, 4972552192 : i64> loc(#loc471)
      %452 = "tpu.MatMul"(%449, %198, %197, %0, %0) {do_relu = false, dq_type = "NONE", fuse_rq = false, hdim_is_batch = false, input_zp = 0 : i64, is_lora = false, keep_dims = true, left_reuse = 1 : i64, left_transpose = false, multipliers = [1], output_transpose = false, q_group_size = 0 : i64, quant_mode = #tpu<rq_mode MultiplierShift>, relu_limit = -1.000000e+00 : f64, right_transpose = false, right_zp = 0 : i64, round_mode = #tpu<round_mode HalfAwayFromZero>, rshifts = [0]} : (tensor<2304x1024xbf16, 4958396416 : i64>, tensor<1024x1024xbf16, 4601704448 : i64>, tensor<1x1024xbf16, 4601700352 : i64>, none, none) -> tensor<2304x1024xbf16, 4963115008 : i64> loc(#loc472)
      %453 = "tpu.Reshape"(%450) {flatten_start_dim = -1 : i64, shape = [1, -1, 16, 64]} : (tensor<2304x1024xbf16, 4977270784 : i64>) -> tensor<1x2304x16x64xbf16, 4977270784 : i64> loc(#loc473)
      %454 = "tpu.Reshape"(%451) {flatten_start_dim = -1 : i64, shape = [1, -1, 16, 64]} : (tensor<2304x1024xbf16, 4972552192 : i64>) -> tensor<1x2304x16x64xbf16, 4972552192 : i64> loc(#loc474)
      %455 = "tpu.Reshape"(%452) {flatten_start_dim = -1 : i64, shape = [1, -1, 16, 64]} : (tensor<2304x1024xbf16, 4963115008 : i64>) -> tensor<1x2304x16x64xbf16, 4963115008 : i64> loc(#loc475)
      %456:2 = "tpu.Group"(%455, %454, %410, %406) ({
        %874 = "tpu.Load"(%455) {do_bcast = false, ginfo = #tpu.lg<out_addr = 32768, out_size = 13824, buffer_addr = 0, buffer_size = 0, eu_align = true, can_merge = false, in_hslice_offset = [], n_idx = [0], n_slice = [1], c_idx = [0], c_slice = [2304], d_idx = [0], d_slice = [1], h_idx = [0, 3, 6, 9, 12, 14], h_slice = [3, 3, 3, 3, 2, 2], w_idx = [0], w_slice = [64], id = 0, stage = 0, slice_idx = 0, group_type = 4>, is_idx_weight = false, lmem_type = 1 : i64, support_compress = true, use_3ic_optimize = 0 : i64} : (tensor<1x2304x16x64xbf16, 4963115008 : i64>) -> tensor<1x2304x16x64xbf16> loc(#loc478)
        %875 = "tpu.Load"(%454) {do_bcast = false, ginfo = #tpu.lg<out_addr = 74240, out_size = 13824, buffer_addr = 0, buffer_size = 0, eu_align = true, can_merge = false, in_hslice_offset = [], n_idx = [0], n_slice = [1], c_idx = [0], c_slice = [2304], d_idx = [0], d_slice = [1], h_idx = [0, 3, 6, 9, 12, 14], h_slice = [3, 3, 3, 3, 2, 2], w_idx = [0], w_slice = [64], id = 1, stage = 1, slice_idx = 0, group_type = 4>, is_idx_weight = false, lmem_type = 1 : i64, support_compress = true, use_3ic_optimize = 0 : i64} : (tensor<1x2304x16x64xbf16, 4972552192 : i64>) -> tensor<1x2304x16x64xbf16> loc(#loc479)
        %876 = "tpu.Cast"(%874) {ginfo = #tpu.lg<out_addr = 0, out_size = 27648, buffer_addr = 0, buffer_size = 0, eu_align = true, can_merge = false, in_hslice_offset = [], n_idx = [0], n_slice = [1], c_idx = [0], c_slice = [2304], d_idx = [0], d_slice = [1], h_idx = [0, 3, 6, 9, 12, 14], h_slice = [3, 3, 3, 3, 2, 2], w_idx = [0], w_slice = [64], id = 2, stage = 1, slice_idx = 0, group_type = 4>, round_mode = #tpu<round_mode HalfAwayFromZero>, with_scale = true} : (tensor<1x2304x16x64xbf16>) -> tensor<1x2304x16x64xf32> loc(#loc480)
        %877 = "tpu.Load"(%410) {do_bcast = false, ginfo = #tpu.lg<out_addr = 196608, out_size = 27648, buffer_addr = 0, buffer_size = 0, eu_align = true, can_merge = false, in_hslice_offset = [], n_idx = [0], n_slice = [1], c_idx = [0], c_slice = [2304], d_idx = [0], d_slice = [1], h_idx = [0, 3, 6, 9, 12, 14], h_slice = [3, 3, 3, 3, 2, 2], w_idx = [0], w_slice = [64], id = 3, stage = 1, slice_idx = 0, group_type = 4>, is_idx_weight = false, lmem_type = 1 : i64, support_compress = true, use_3ic_optimize = 0 : i64} : (tensor<1x2304x1x64xf32, 5052768256 : i64>) -> tensor<1x2304x1x64xf32> loc(#loc427)
        %878 = "tpu.Load"(%406) {do_bcast = false, ginfo = #tpu.lg<out_addr = 229376, out_size = 27648, buffer_addr = 0, buffer_size = 0, eu_align = true, can_merge = false, in_hslice_offset = [], n_idx = [0], n_slice = [1], c_idx = [0], c_slice = [2304], d_idx = [0], d_slice = [1], h_idx = [0, 3, 6, 9, 12, 14], h_slice = [3, 3, 3, 3, 2, 2], w_idx = [0], w_slice = [64], id = 4, stage = 1, slice_idx = 0, group_type = 4>, is_idx_weight = false, lmem_type = 1 : i64, support_compress = true, use_3ic_optimize = 0 : i64} : (tensor<1x2304x1x64xf32, 5053358080 : i64>) -> tensor<1x2304x1x64xf32> loc(#loc428)
        %879 = "tpu.Cast"(%875) {ginfo = #tpu.lg<out_addr = 32768, out_size = 27648, buffer_addr = 0, buffer_size = 0, eu_align = true, can_merge = false, in_hslice_offset = [], n_idx = [0], n_slice = [1], c_idx = [0], c_slice = [2304], d_idx = [0], d_slice = [1], h_idx = [0, 3, 6, 9, 12, 14], h_slice = [3, 3, 3, 3, 2, 2], w_idx = [0], w_slice = [64], id = 5, stage = 1, slice_idx = 0, group_type = 4>, round_mode = #tpu<round_mode HalfAwayFromZero>, with_scale = true} : (tensor<1x2304x16x64xbf16>) -> tensor<1x2304x16x64xf32> loc(#loc481)
        %880 = "tpu.Rope"(%876, %877, %878) {add_round_mode = #tpu<round_mode HalfAwayFromZero>, add_saturation = true, add_shift = 0 : si32, force_f32 = true, ginfo = #tpu.lg<out_addr = 81920, out_size = 27648, buffer_addr = 114688, buffer_size = 55296, eu_align = true, can_merge = false, in_hslice_offset = [], n_idx = [0], n_slice = [1], c_idx = [0], c_slice = [2304], d_idx = [0], d_slice = [1], h_idx = [0, 3, 6, 9, 12, 14], h_slice = [3, 3, 3, 3, 2, 2], w_idx = [0], w_slice = [64], id = 6, stage = 1, slice_idx = 0, group_type = 4>, is_permute_optimize = false, mul1_round_mode = #tpu<round_mode HalfAwayFromZero>, mul1_saturation = true, mul1_shift = 0 : si32, mul2_round_mode = #tpu<round_mode HalfAwayFromZero>, mul2_saturation = true, mul2_shift = 0 : si32, rope_mode = #tpu<rope_mode contiguous_halves>} : (tensor<1x2304x16x64xf32>, tensor<1x2304x1x64xf32>, tensor<1x2304x1x64xf32>) -> tensor<1x2304x16x64xf32> loc(#loc482)
        %881 = "tpu.Cast"(%880) {ginfo = #tpu.lg<out_addr = 169984, out_size = 13824, buffer_addr = 0, buffer_size = 0, eu_align = true, can_merge = false, in_hslice_offset = [], n_idx = [0], n_slice = [1], c_idx = [0], c_slice = [2304], d_idx = [0], d_slice = [1], h_idx = [0, 3, 6, 9, 12, 14], h_slice = [3, 3, 3, 3, 2, 2], w_idx = [0], w_slice = [64], id = 7, stage = 1, slice_idx = 0, group_type = 4>, round_mode = #tpu<round_mode HalfAwayFromZero>, with_scale = true} : (tensor<1x2304x16x64xf32>) -> tensor<1x2304x16x64xbf16> loc(#loc476)
        %882 = "tpu.Store"(%881, %0) {ginfo = #tpu.lg<out_addr = 169984, out_size = 13824, buffer_addr = 0, buffer_size = 0, eu_align = true, can_merge = false, in_hslice_offset = [], n_idx = [0], n_slice = [1], c_idx = [0], c_slice = [2304], d_idx = [0], d_slice = [1], h_idx = [0, 3, 6, 9, 12, 14], h_slice = [3, 3, 3, 3, 2, 2], w_idx = [0], w_slice = [64], id = 8, stage = 1, slice_idx = 0, group_type = 4>, support_compress = true} : (tensor<1x2304x16x64xbf16>, none) -> tensor<1x2304x16x64xbf16, 4967833600 : i64> loc(#loc476)
        %883 = "tpu.Rope"(%879, %877, %878) {add_round_mode = #tpu<round_mode HalfAwayFromZero>, add_saturation = true, add_shift = 0 : si32, force_f32 = true, ginfo = #tpu.lg<out_addr = 0, out_size = 27648, buffer_addr = 65536, buffer_size = 55296, eu_align = true, can_merge = false, in_hslice_offset = [], n_idx = [0], n_slice = [1], c_idx = [0], c_slice = [2304], d_idx = [0], d_slice = [1], h_idx = [0, 3, 6, 9, 12, 14], h_slice = [3, 3, 3, 3, 2, 2], w_idx = [0], w_slice = [64], id = 9, stage = 1, slice_idx = 0, group_type = 4>, is_permute_optimize = false, mul1_round_mode = #tpu<round_mode HalfAwayFromZero>, mul1_saturation = true, mul1_shift = 0 : si32, mul2_round_mode = #tpu<round_mode HalfAwayFromZero>, mul2_saturation = true, mul2_shift = 0 : si32, rope_mode = #tpu<rope_mode contiguous_halves>} : (tensor<1x2304x16x64xf32>, tensor<1x2304x1x64xf32>, tensor<1x2304x1x64xf32>) -> tensor<1x2304x16x64xf32> loc(#loc483)
        %884 = "tpu.Cast"(%883) {ginfo = #tpu.lg<out_addr = 60416, out_size = 13824, buffer_addr = 0, buffer_size = 0, eu_align = true, can_merge = false, in_hslice_offset = [], n_idx = [0], n_slice = [1], c_idx = [0], c_slice = [2304], d_idx = [0], d_slice = [1], h_idx = [0, 3, 6, 9, 12, 14], h_slice = [3, 3, 3, 3, 2, 2], w_idx = [0], w_slice = [64], id = 10, stage = 1, slice_idx = 0, group_type = 4>, round_mode = #tpu<round_mode HalfAwayFromZero>, with_scale = true} : (tensor<1x2304x16x64xf32>) -> tensor<1x2304x16x64xbf16> loc(#loc477)
        %885 = "tpu.Store"(%884, %0) {ginfo = #tpu.lg<out_addr = 60416, out_size = 13824, buffer_addr = 0, buffer_size = 0, eu_align = true, can_merge = false, in_hslice_offset = [], n_idx = [0], n_slice = [1], c_idx = [0], c_slice = [2304], d_idx = [0], d_slice = [1], h_idx = [0, 3, 6, 9, 12, 14], h_slice = [3, 3, 3, 3, 2, 2], w_idx = [0], w_slice = [64], id = 11, stage = 2, slice_idx = 0, group_type = 4>, support_compress = true} : (tensor<1x2304x16x64xbf16>, none) -> tensor<1x2304x16x64xbf16, 4958396416 : i64> loc(#loc477)
        "tpu.Yield"(%882, %885) : (tensor<1x2304x16x64xbf16, 4967833600 : i64>, tensor<1x2304x16x64xbf16, 4958396416 : i64>) -> () loc(#loc1050)
      }) {core_slice_ncdhw = [], csecs = 1 : i64, dsecs = 1 : i64, flow = [-1, 2, 1, -2, 5, 3, 4, -3, 6, 7, 11, -4, 9, 8, -5, 10, 0], group_type = 4 : i64, hsecs = 6 : i64, nsecs = 1 : i64, other_down_overlap_op = [], other_up_overlap_op = [], run_core_id = [], self_down_overlap_op = [], self_up_overlap_op = [], support_compress = true, swpipl_stage_num = 3 : i64, wsecs = 1 : i64} : (tensor<1x2304x16x64xbf16, 4963115008 : i64>, tensor<1x2304x16x64xbf16, 4972552192 : i64>, tensor<1x2304x1x64xf32, 5052768256 : i64>, tensor<1x2304x1x64xf32, 5053358080 : i64>) -> (tensor<1x2304x16x64xbf16, 4967833600 : i64>, tensor<1x2304x16x64xbf16, 4958396416 : i64>) loc(#loc1050)
      %457 = "tpu.FAttention"(%456#0, %456#1, %453, %0, %0) {batch = 1 : i64, dim = 64 : i64, keep_dims = true, kv_head = 16 : i64, mk = 2304 : i64, mq = 2304 : i64, q_head = 16 : i64, scale = 1.250000e-01 : f64} : (tensor<1x2304x16x64xbf16, 4967833600 : i64>, tensor<1x2304x16x64xbf16, 4958396416 : i64>, tensor<1x2304x16x64xbf16, 4977270784 : i64>, none, none) -> tensor<1x2304x16x64xbf16, 4963115008 : i64> loc(#loc484)
      %458 = "tpu.Reshape"(%457) {flatten_start_dim = -1 : i64, shape = [-1, 1024]} : (tensor<1x2304x16x64xbf16, 4963115008 : i64>) -> tensor<2304x1024xbf16, 4963115008 : i64> loc(#loc485)
      %459 = "tpu.MatMul"(%458, %196, %195, %0, %0) {do_relu = false, dq_type = "NONE", fuse_rq = false, hdim_is_batch = false, input_zp = 0 : i64, is_lora = false, keep_dims = true, left_reuse = 0 : i64, left_transpose = false, multipliers = [1], output_transpose = false, q_group_size = 0 : i64, quant_mode = #tpu<rq_mode MultiplierShift>, relu_limit = -1.000000e+00 : f64, right_transpose = false, right_zp = 0 : i64, round_mode = #tpu<round_mode HalfAwayFromZero>, rshifts = [0]} : (tensor<2304x1024xbf16, 4963115008 : i64>, tensor<1024x1024xbf16, 4599603200 : i64>, tensor<1x1024xbf16, 4599599104 : i64>, none, none) -> tensor<2304x1024xbf16, 4958396416 : i64> loc(#loc486)
      %460 = "tpu.Add"(%448, %459) {do_relu = false, is_scalar = false, relu_limit = -1.000000e+00 : f64} : (tensor<2304x1024xbf16, 4981989376 : i64>, tensor<2304x1024xbf16, 4958396416 : i64>) -> tensor<2304x1024xbf16, 5048049664 : i64> loc(#loc487)
      %461 = "tpu.LayerNorm"(%460, %208, %207, %0, %0) {axis = 1 : si32, eps = 9.9999999999999995E-7 : f64, normalized_shape = [1024]} : (tensor<2304x1024xbf16, 5048049664 : i64>, tensor<1x1024xbf16, 4622704640 : i64>, tensor<1x1024xbf16, 4622700544 : i64>, none, none) -> tensor<2304x1024xbf16, 4977270784 : i64> loc(#loc488)
      %462 = "tpu.MatMul"(%461, %202, %201, %0, %0) {do_relu = false, dq_type = "NONE", fuse_rq = false, hdim_is_batch = false, input_zp = 0 : i64, is_lora = false, keep_dims = true, left_reuse = 0 : i64, left_transpose = false, multipliers = [1], output_transpose = false, q_group_size = 0 : i64, quant_mode = #tpu<rq_mode MultiplierShift>, relu_limit = -1.000000e+00 : f64, right_transpose = false, right_zp = 0 : i64, round_mode = #tpu<round_mode HalfAwayFromZero>, rshifts = [0]} : (tensor<2304x1024xbf16, 4977270784 : i64>, tensor<1024x4096xbf16, 4605911040 : i64>, tensor<1x4096xbf16, 4605902848 : i64>, none, none) -> tensor<2304x4096xbf16, 4958396416 : i64> loc(#loc489)
      %463 = "tpu.Cast"(%462) {round_mode = #tpu<round_mode HalfAwayFromZero>, with_scale = true} : (tensor<2304x4096xbf16, 4958396416 : i64>) -> tensor<2304x4096xf32, 4996145152 : i64> loc(#loc490)
      %464 = "tpu.Active"(%463) {mode = #tpu<active_mode TGELU>} : (tensor<2304x4096xf32, 4996145152 : i64>) -> tensor<2304x4096xf32, 4958396416 : i64> loc(#loc491)
      %465 = "tpu.Cast"(%464) {round_mode = #tpu<round_mode HalfAwayFromZero>, with_scale = true} : (tensor<2304x4096xf32, 4958396416 : i64>) -> tensor<2304x4096xbf16, 4996145152 : i64> loc(#loc492)
      %466 = "tpu.MatMul"(%465, %204, %203, %0, %0) {do_relu = false, dq_type = "NONE", fuse_rq = false, hdim_is_batch = false, input_zp = 0 : i64, is_lora = false, keep_dims = true, left_reuse = 0 : i64, left_transpose = false, multipliers = [1], output_transpose = false, q_group_size = 0 : i64, quant_mode = #tpu<rq_mode MultiplierShift>, relu_limit = -1.000000e+00 : f64, right_transpose = false, right_zp = 0 : i64, round_mode = #tpu<round_mode HalfAwayFromZero>, rshifts = [0]} : (tensor<2304x4096xbf16, 4996145152 : i64>, tensor<4096x1024xbf16, 4614303744 : i64>, tensor<1x1024xbf16, 4614299648 : i64>, none, none) -> tensor<2304x1024xbf16, 4986707968 : i64> loc(#loc493)
      %467 = "tpu.Add"(%460, %466) {do_relu = false, is_scalar = false, relu_limit = -1.000000e+00 : f64} : (tensor<2304x1024xbf16, 5048049664 : i64>, tensor<2304x1024xbf16, 4986707968 : i64>) -> tensor<2304x1024xbf16, 4981989376 : i64> loc(#loc494)
      %468 = "tpu.LayerNorm"(%467, %286, %285, %0, %0) {axis = 1 : si32, eps = 9.9999999999999995E-7 : f64, normalized_shape = [1024]} : (tensor<2304x1024xbf16, 4981989376 : i64>, tensor<1x1024xbf16, 4748750848 : i64>, tensor<1x1024xbf16, 4748746752 : i64>, none, none) -> tensor<2304x1024xbf16, 4958396416 : i64> loc(#loc495)
      %469 = "tpu.MatMul"(%468, %280, %279, %0, %0) {do_relu = false, dq_type = "NONE", fuse_rq = false, hdim_is_batch = false, input_zp = 0 : i64, is_lora = false, keep_dims = true, left_reuse = 1 : i64, left_transpose = false, multipliers = [1], output_transpose = false, q_group_size = 0 : i64, quant_mode = #tpu<rq_mode MultiplierShift>, relu_limit = -1.000000e+00 : f64, right_transpose = false, right_zp = 0 : i64, round_mode = #tpu<round_mode HalfAwayFromZero>, rshifts = [0]} : (tensor<2304x1024xbf16, 4958396416 : i64>, tensor<1024x1024xbf16, 4729860096 : i64>, tensor<1x1024xbf16, 4729856000 : i64>, none, none) -> tensor<2304x1024xbf16, 4977270784 : i64> loc(#loc496)
      %470 = "tpu.MatMul"(%468, %274, %273, %0, %0) {do_relu = false, dq_type = "NONE", fuse_rq = false, hdim_is_batch = false, input_zp = 0 : i64, is_lora = false, keep_dims = true, left_reuse = 1 : i64, left_transpose = false, multipliers = [1], output_transpose = false, q_group_size = 0 : i64, quant_mode = #tpu<rq_mode MultiplierShift>, relu_limit = -1.000000e+00 : f64, right_transpose = false, right_zp = 0 : i64, round_mode = #tpu<round_mode HalfAwayFromZero>, rshifts = [0]} : (tensor<2304x1024xbf16, 4958396416 : i64>, tensor<1024x1024xbf16, 4723556352 : i64>, tensor<1x1024xbf16, 4723552256 : i64>, none, none) -> tensor<2304x1024xbf16, 4972552192 : i64> loc(#loc497)
      %471 = "tpu.MatMul"(%468, %278, %277, %0, %0) {do_relu = false, dq_type = "NONE", fuse_rq = false, hdim_is_batch = false, input_zp = 0 : i64, is_lora = false, keep_dims = true, left_reuse = 1 : i64, left_transpose = false, multipliers = [1], output_transpose = false, q_group_size = 0 : i64, quant_mode = #tpu<rq_mode MultiplierShift>, relu_limit = -1.000000e+00 : f64, right_transpose = false, right_zp = 0 : i64, round_mode = #tpu<round_mode HalfAwayFromZero>, rshifts = [0]} : (tensor<2304x1024xbf16, 4958396416 : i64>, tensor<1024x1024xbf16, 4727758848 : i64>, tensor<1x1024xbf16, 4727754752 : i64>, none, none) -> tensor<2304x1024xbf16, 4963115008 : i64> loc(#loc498)
      %472 = "tpu.Reshape"(%469) {flatten_start_dim = -1 : i64, shape = [1, -1, 16, 64]} : (tensor<2304x1024xbf16, 4977270784 : i64>) -> tensor<1x2304x16x64xbf16, 4977270784 : i64> loc(#loc499)
      %473 = "tpu.Reshape"(%470) {flatten_start_dim = -1 : i64, shape = [1, -1, 16, 64]} : (tensor<2304x1024xbf16, 4972552192 : i64>) -> tensor<1x2304x16x64xbf16, 4972552192 : i64> loc(#loc500)
      %474 = "tpu.Reshape"(%471) {flatten_start_dim = -1 : i64, shape = [1, -1, 16, 64]} : (tensor<2304x1024xbf16, 4963115008 : i64>) -> tensor<1x2304x16x64xbf16, 4963115008 : i64> loc(#loc501)
      %475:2 = "tpu.Group"(%474, %473, %410, %406) ({
        %874 = "tpu.Load"(%474) {do_bcast = false, ginfo = #tpu.lg<out_addr = 32768, out_size = 13824, buffer_addr = 0, buffer_size = 0, eu_align = true, can_merge = false, in_hslice_offset = [], n_idx = [0], n_slice = [1], c_idx = [0], c_slice = [2304], d_idx = [0], d_slice = [1], h_idx = [0, 3, 6, 9, 12, 14], h_slice = [3, 3, 3, 3, 2, 2], w_idx = [0], w_slice = [64], id = 0, stage = 0, slice_idx = 0, group_type = 4>, is_idx_weight = false, lmem_type = 1 : i64, support_compress = true, use_3ic_optimize = 0 : i64} : (tensor<1x2304x16x64xbf16, 4963115008 : i64>) -> tensor<1x2304x16x64xbf16> loc(#loc504)
        %875 = "tpu.Load"(%473) {do_bcast = false, ginfo = #tpu.lg<out_addr = 74240, out_size = 13824, buffer_addr = 0, buffer_size = 0, eu_align = true, can_merge = false, in_hslice_offset = [], n_idx = [0], n_slice = [1], c_idx = [0], c_slice = [2304], d_idx = [0], d_slice = [1], h_idx = [0, 3, 6, 9, 12, 14], h_slice = [3, 3, 3, 3, 2, 2], w_idx = [0], w_slice = [64], id = 1, stage = 1, slice_idx = 0, group_type = 4>, is_idx_weight = false, lmem_type = 1 : i64, support_compress = true, use_3ic_optimize = 0 : i64} : (tensor<1x2304x16x64xbf16, 4972552192 : i64>) -> tensor<1x2304x16x64xbf16> loc(#loc505)
        %876 = "tpu.Cast"(%874) {ginfo = #tpu.lg<out_addr = 0, out_size = 27648, buffer_addr = 0, buffer_size = 0, eu_align = true, can_merge = false, in_hslice_offset = [], n_idx = [0], n_slice = [1], c_idx = [0], c_slice = [2304], d_idx = [0], d_slice = [1], h_idx = [0, 3, 6, 9, 12, 14], h_slice = [3, 3, 3, 3, 2, 2], w_idx = [0], w_slice = [64], id = 2, stage = 1, slice_idx = 0, group_type = 4>, round_mode = #tpu<round_mode HalfAwayFromZero>, with_scale = true} : (tensor<1x2304x16x64xbf16>) -> tensor<1x2304x16x64xf32> loc(#loc506)
        %877 = "tpu.Load"(%410) {do_bcast = false, ginfo = #tpu.lg<out_addr = 196608, out_size = 27648, buffer_addr = 0, buffer_size = 0, eu_align = true, can_merge = false, in_hslice_offset = [], n_idx = [0], n_slice = [1], c_idx = [0], c_slice = [2304], d_idx = [0], d_slice = [1], h_idx = [0, 3, 6, 9, 12, 14], h_slice = [3, 3, 3, 3, 2, 2], w_idx = [0], w_slice = [64], id = 3, stage = 1, slice_idx = 0, group_type = 4>, is_idx_weight = false, lmem_type = 1 : i64, support_compress = true, use_3ic_optimize = 0 : i64} : (tensor<1x2304x1x64xf32, 5052768256 : i64>) -> tensor<1x2304x1x64xf32> loc(#loc427)
        %878 = "tpu.Load"(%406) {do_bcast = false, ginfo = #tpu.lg<out_addr = 229376, out_size = 27648, buffer_addr = 0, buffer_size = 0, eu_align = true, can_merge = false, in_hslice_offset = [], n_idx = [0], n_slice = [1], c_idx = [0], c_slice = [2304], d_idx = [0], d_slice = [1], h_idx = [0, 3, 6, 9, 12, 14], h_slice = [3, 3, 3, 3, 2, 2], w_idx = [0], w_slice = [64], id = 4, stage = 1, slice_idx = 0, group_type = 4>, is_idx_weight = false, lmem_type = 1 : i64, support_compress = true, use_3ic_optimize = 0 : i64} : (tensor<1x2304x1x64xf32, 5053358080 : i64>) -> tensor<1x2304x1x64xf32> loc(#loc428)
        %879 = "tpu.Cast"(%875) {ginfo = #tpu.lg<out_addr = 32768, out_size = 27648, buffer_addr = 0, buffer_size = 0, eu_align = true, can_merge = false, in_hslice_offset = [], n_idx = [0], n_slice = [1], c_idx = [0], c_slice = [2304], d_idx = [0], d_slice = [1], h_idx = [0, 3, 6, 9, 12, 14], h_slice = [3, 3, 3, 3, 2, 2], w_idx = [0], w_slice = [64], id = 5, stage = 1, slice_idx = 0, group_type = 4>, round_mode = #tpu<round_mode HalfAwayFromZero>, with_scale = true} : (tensor<1x2304x16x64xbf16>) -> tensor<1x2304x16x64xf32> loc(#loc507)
        %880 = "tpu.Rope"(%876, %877, %878) {add_round_mode = #tpu<round_mode HalfAwayFromZero>, add_saturation = true, add_shift = 0 : si32, force_f32 = true, ginfo = #tpu.lg<out_addr = 81920, out_size = 27648, buffer_addr = 114688, buffer_size = 55296, eu_align = true, can_merge = false, in_hslice_offset = [], n_idx = [0], n_slice = [1], c_idx = [0], c_slice = [2304], d_idx = [0], d_slice = [1], h_idx = [0, 3, 6, 9, 12, 14], h_slice = [3, 3, 3, 3, 2, 2], w_idx = [0], w_slice = [64], id = 6, stage = 1, slice_idx = 0, group_type = 4>, is_permute_optimize = false, mul1_round_mode = #tpu<round_mode HalfAwayFromZero>, mul1_saturation = true, mul1_shift = 0 : si32, mul2_round_mode = #tpu<round_mode HalfAwayFromZero>, mul2_saturation = true, mul2_shift = 0 : si32, rope_mode = #tpu<rope_mode contiguous_halves>} : (tensor<1x2304x16x64xf32>, tensor<1x2304x1x64xf32>, tensor<1x2304x1x64xf32>) -> tensor<1x2304x16x64xf32> loc(#loc508)
        %881 = "tpu.Cast"(%880) {ginfo = #tpu.lg<out_addr = 169984, out_size = 13824, buffer_addr = 0, buffer_size = 0, eu_align = true, can_merge = false, in_hslice_offset = [], n_idx = [0], n_slice = [1], c_idx = [0], c_slice = [2304], d_idx = [0], d_slice = [1], h_idx = [0, 3, 6, 9, 12, 14], h_slice = [3, 3, 3, 3, 2, 2], w_idx = [0], w_slice = [64], id = 7, stage = 1, slice_idx = 0, group_type = 4>, round_mode = #tpu<round_mode HalfAwayFromZero>, with_scale = true} : (tensor<1x2304x16x64xf32>) -> tensor<1x2304x16x64xbf16> loc(#loc502)
        %882 = "tpu.Store"(%881, %0) {ginfo = #tpu.lg<out_addr = 169984, out_size = 13824, buffer_addr = 0, buffer_size = 0, eu_align = true, can_merge = false, in_hslice_offset = [], n_idx = [0], n_slice = [1], c_idx = [0], c_slice = [2304], d_idx = [0], d_slice = [1], h_idx = [0, 3, 6, 9, 12, 14], h_slice = [3, 3, 3, 3, 2, 2], w_idx = [0], w_slice = [64], id = 8, stage = 1, slice_idx = 0, group_type = 4>, support_compress = true} : (tensor<1x2304x16x64xbf16>, none) -> tensor<1x2304x16x64xbf16, 4967833600 : i64> loc(#loc502)
        %883 = "tpu.Rope"(%879, %877, %878) {add_round_mode = #tpu<round_mode HalfAwayFromZero>, add_saturation = true, add_shift = 0 : si32, force_f32 = true, ginfo = #tpu.lg<out_addr = 0, out_size = 27648, buffer_addr = 65536, buffer_size = 55296, eu_align = true, can_merge = false, in_hslice_offset = [], n_idx = [0], n_slice = [1], c_idx = [0], c_slice = [2304], d_idx = [0], d_slice = [1], h_idx = [0, 3, 6, 9, 12, 14], h_slice = [3, 3, 3, 3, 2, 2], w_idx = [0], w_slice = [64], id = 9, stage = 1, slice_idx = 0, group_type = 4>, is_permute_optimize = false, mul1_round_mode = #tpu<round_mode HalfAwayFromZero>, mul1_saturation = true, mul1_shift = 0 : si32, mul2_round_mode = #tpu<round_mode HalfAwayFromZero>, mul2_saturation = true, mul2_shift = 0 : si32, rope_mode = #tpu<rope_mode contiguous_halves>} : (tensor<1x2304x16x64xf32>, tensor<1x2304x1x64xf32>, tensor<1x2304x1x64xf32>) -> tensor<1x2304x16x64xf32> loc(#loc509)
        %884 = "tpu.Cast"(%883) {ginfo = #tpu.lg<out_addr = 60416, out_size = 13824, buffer_addr = 0, buffer_size = 0, eu_align = true, can_merge = false, in_hslice_offset = [], n_idx = [0], n_slice = [1], c_idx = [0], c_slice = [2304], d_idx = [0], d_slice = [1], h_idx = [0, 3, 6, 9, 12, 14], h_slice = [3, 3, 3, 3, 2, 2], w_idx = [0], w_slice = [64], id = 10, stage = 1, slice_idx = 0, group_type = 4>, round_mode = #tpu<round_mode HalfAwayFromZero>, with_scale = true} : (tensor<1x2304x16x64xf32>) -> tensor<1x2304x16x64xbf16> loc(#loc503)
        %885 = "tpu.Store"(%884, %0) {ginfo = #tpu.lg<out_addr = 60416, out_size = 13824, buffer_addr = 0, buffer_size = 0, eu_align = true, can_merge = false, in_hslice_offset = [], n_idx = [0], n_slice = [1], c_idx = [0], c_slice = [2304], d_idx = [0], d_slice = [1], h_idx = [0, 3, 6, 9, 12, 14], h_slice = [3, 3, 3, 3, 2, 2], w_idx = [0], w_slice = [64], id = 11, stage = 2, slice_idx = 0, group_type = 4>, support_compress = true} : (tensor<1x2304x16x64xbf16>, none) -> tensor<1x2304x16x64xbf16, 4958396416 : i64> loc(#loc503)
        "tpu.Yield"(%882, %885) : (tensor<1x2304x16x64xbf16, 4967833600 : i64>, tensor<1x2304x16x64xbf16, 4958396416 : i64>) -> () loc(#loc1051)
      }) {core_slice_ncdhw = [], csecs = 1 : i64, dsecs = 1 : i64, flow = [-1, 2, 1, -2, 5, 3, 4, -3, 6, 7, 11, -4, 9, 8, -5, 10, 0], group_type = 4 : i64, hsecs = 6 : i64, nsecs = 1 : i64, other_down_overlap_op = [], other_up_overlap_op = [], run_core_id = [], self_down_overlap_op = [], self_up_overlap_op = [], support_compress = true, swpipl_stage_num = 3 : i64, wsecs = 1 : i64} : (tensor<1x2304x16x64xbf16, 4963115008 : i64>, tensor<1x2304x16x64xbf16, 4972552192 : i64>, tensor<1x2304x1x64xf32, 5052768256 : i64>, tensor<1x2304x1x64xf32, 5053358080 : i64>) -> (tensor<1x2304x16x64xbf16, 4967833600 : i64>, tensor<1x2304x16x64xbf16, 4958396416 : i64>) loc(#loc1051)
      %476 = "tpu.FAttention"(%475#0, %475#1, %472, %0, %0) {batch = 1 : i64, dim = 64 : i64, keep_dims = true, kv_head = 16 : i64, mk = 2304 : i64, mq = 2304 : i64, q_head = 16 : i64, scale = 1.250000e-01 : f64} : (tensor<1x2304x16x64xbf16, 4967833600 : i64>, tensor<1x2304x16x64xbf16, 4958396416 : i64>, tensor<1x2304x16x64xbf16, 4977270784 : i64>, none, none) -> tensor<1x2304x16x64xbf16, 4963115008 : i64> loc(#loc510)
      %477 = "tpu.Reshape"(%476) {flatten_start_dim = -1 : i64, shape = [-1, 1024]} : (tensor<1x2304x16x64xbf16, 4963115008 : i64>) -> tensor<2304x1024xbf16, 4963115008 : i64> loc(#loc511)
      %478 = "tpu.MatMul"(%477, %276, %275, %0, %0) {do_relu = false, dq_type = "NONE", fuse_rq = false, hdim_is_batch = false, input_zp = 0 : i64, is_lora = false, keep_dims = true, left_reuse = 0 : i64, left_transpose = false, multipliers = [1], output_transpose = false, q_group_size = 0 : i64, quant_mode = #tpu<rq_mode MultiplierShift>, relu_limit = -1.000000e+00 : f64, right_transpose = false, right_zp = 0 : i64, round_mode = #tpu<round_mode HalfAwayFromZero>, rshifts = [0]} : (tensor<2304x1024xbf16, 4963115008 : i64>, tensor<1024x1024xbf16, 4725657600 : i64>, tensor<1x1024xbf16, 4725653504 : i64>, none, none) -> tensor<2304x1024xbf16, 4958396416 : i64> loc(#loc512)
      %479 = "tpu.Add"(%467, %478) {do_relu = false, is_scalar = false, relu_limit = -1.000000e+00 : f64} : (tensor<2304x1024xbf16, 4981989376 : i64>, tensor<2304x1024xbf16, 4958396416 : i64>) -> tensor<2304x1024xbf16, 5048049664 : i64> loc(#loc513)
      %480 = "tpu.LayerNorm"(%479, %288, %287, %0, %0) {axis = 1 : si32, eps = 9.9999999999999995E-7 : f64, normalized_shape = [1024]} : (tensor<2304x1024xbf16, 5048049664 : i64>, tensor<1x1024xbf16, 4748759040 : i64>, tensor<1x1024xbf16, 4748754944 : i64>, none, none) -> tensor<2304x1024xbf16, 4977270784 : i64> loc(#loc514)
      %481 = "tpu.MatMul"(%480, %282, %281, %0, %0) {do_relu = false, dq_type = "NONE", fuse_rq = false, hdim_is_batch = false, input_zp = 0 : i64, is_lora = false, keep_dims = true, left_reuse = 0 : i64, left_transpose = false, multipliers = [1], output_transpose = false, q_group_size = 0 : i64, quant_mode = #tpu<rq_mode MultiplierShift>, relu_limit = -1.000000e+00 : f64, right_transpose = false, right_zp = 0 : i64, round_mode = #tpu<round_mode HalfAwayFromZero>, rshifts = [0]} : (tensor<2304x1024xbf16, 4977270784 : i64>, tensor<1024x4096xbf16, 4731965440 : i64>, tensor<1x4096xbf16, 4731957248 : i64>, none, none) -> tensor<2304x4096xbf16, 4958396416 : i64> loc(#loc515)
      %482 = "tpu.Cast"(%481) {round_mode = #tpu<round_mode HalfAwayFromZero>, with_scale = true} : (tensor<2304x4096xbf16, 4958396416 : i64>) -> tensor<2304x4096xf32, 4996145152 : i64> loc(#loc516)
      %483 = "tpu.Active"(%482) {mode = #tpu<active_mode TGELU>} : (tensor<2304x4096xf32, 4996145152 : i64>) -> tensor<2304x4096xf32, 4958396416 : i64> loc(#loc517)
      %484 = "tpu.Cast"(%483) {round_mode = #tpu<round_mode HalfAwayFromZero>, with_scale = true} : (tensor<2304x4096xf32, 4958396416 : i64>) -> tensor<2304x4096xbf16, 4996145152 : i64> loc(#loc518)
      %485 = "tpu.MatMul"(%484, %284, %283, %0, %0) {do_relu = false, dq_type = "NONE", fuse_rq = false, hdim_is_batch = false, input_zp = 0 : i64, is_lora = false, keep_dims = true, left_reuse = 0 : i64, left_transpose = false, multipliers = [1], output_transpose = false, q_group_size = 0 : i64, quant_mode = #tpu<rq_mode MultiplierShift>, relu_limit = -1.000000e+00 : f64, right_transpose = false, right_zp = 0 : i64, round_mode = #tpu<round_mode HalfAwayFromZero>, rshifts = [0]} : (tensor<2304x4096xbf16, 4996145152 : i64>, tensor<4096x1024xbf16, 4740358144 : i64>, tensor<1x1024xbf16, 4740354048 : i64>, none, none) -> tensor<2304x1024xbf16, 4986707968 : i64> loc(#loc519)
      %486 = "tpu.Add"(%479, %485) {do_relu = false, is_scalar = false, relu_limit = -1.000000e+00 : f64} : (tensor<2304x1024xbf16, 5048049664 : i64>, tensor<2304x1024xbf16, 4986707968 : i64>) -> tensor<2304x1024xbf16, 4981989376 : i64> loc(#loc520)
      %487 = "tpu.LayerNorm"(%486, %302, %301, %0, %0) {axis = 1 : si32, eps = 9.9999999999999995E-7 : f64, normalized_shape = [1024]} : (tensor<2304x1024xbf16, 4981989376 : i64>, tensor<1x1024xbf16, 4773961728 : i64>, tensor<1x1024xbf16, 4773957632 : i64>, none, none) -> tensor<2304x1024xbf16, 4958396416 : i64> loc(#loc521)
      %488 = "tpu.MatMul"(%487, %296, %295, %0, %0) {do_relu = false, dq_type = "NONE", fuse_rq = false, hdim_is_batch = false, input_zp = 0 : i64, is_lora = false, keep_dims = true, left_reuse = 1 : i64, left_transpose = false, multipliers = [1], output_transpose = false, q_group_size = 0 : i64, quant_mode = #tpu<rq_mode MultiplierShift>, relu_limit = -1.000000e+00 : f64, right_transpose = false, right_zp = 0 : i64, round_mode = #tpu<round_mode HalfAwayFromZero>, rshifts = [0]} : (tensor<2304x1024xbf16, 4958396416 : i64>, tensor<1024x1024xbf16, 4755070976 : i64>, tensor<1x1024xbf16, 4755066880 : i64>, none, none) -> tensor<2304x1024xbf16, 4977270784 : i64> loc(#loc522)
      %489 = "tpu.MatMul"(%487, %290, %289, %0, %0) {do_relu = false, dq_type = "NONE", fuse_rq = false, hdim_is_batch = false, input_zp = 0 : i64, is_lora = false, keep_dims = true, left_reuse = 1 : i64, left_transpose = false, multipliers = [1], output_transpose = false, q_group_size = 0 : i64, quant_mode = #tpu<rq_mode MultiplierShift>, relu_limit = -1.000000e+00 : f64, right_transpose = false, right_zp = 0 : i64, round_mode = #tpu<round_mode HalfAwayFromZero>, rshifts = [0]} : (tensor<2304x1024xbf16, 4958396416 : i64>, tensor<1024x1024xbf16, 4748767232 : i64>, tensor<1x1024xbf16, 4748763136 : i64>, none, none) -> tensor<2304x1024xbf16, 4972552192 : i64> loc(#loc523)
      %490 = "tpu.MatMul"(%487, %294, %293, %0, %0) {do_relu = false, dq_type = "NONE", fuse_rq = false, hdim_is_batch = false, input_zp = 0 : i64, is_lora = false, keep_dims = true, left_reuse = 1 : i64, left_transpose = false, multipliers = [1], output_transpose = false, q_group_size = 0 : i64, quant_mode = #tpu<rq_mode MultiplierShift>, relu_limit = -1.000000e+00 : f64, right_transpose = false, right_zp = 0 : i64, round_mode = #tpu<round_mode HalfAwayFromZero>, rshifts = [0]} : (tensor<2304x1024xbf16, 4958396416 : i64>, tensor<1024x1024xbf16, 4752969728 : i64>, tensor<1x1024xbf16, 4752965632 : i64>, none, none) -> tensor<2304x1024xbf16, 4963115008 : i64> loc(#loc524)
      %491 = "tpu.Reshape"(%488) {flatten_start_dim = -1 : i64, shape = [1, -1, 16, 64]} : (tensor<2304x1024xbf16, 4977270784 : i64>) -> tensor<1x2304x16x64xbf16, 4977270784 : i64> loc(#loc525)
      %492 = "tpu.Reshape"(%489) {flatten_start_dim = -1 : i64, shape = [1, -1, 16, 64]} : (tensor<2304x1024xbf16, 4972552192 : i64>) -> tensor<1x2304x16x64xbf16, 4972552192 : i64> loc(#loc526)
      %493 = "tpu.Reshape"(%490) {flatten_start_dim = -1 : i64, shape = [1, -1, 16, 64]} : (tensor<2304x1024xbf16, 4963115008 : i64>) -> tensor<1x2304x16x64xbf16, 4963115008 : i64> loc(#loc527)
      %494:2 = "tpu.Group"(%493, %492, %410, %406) ({
        %874 = "tpu.Load"(%493) {do_bcast = false, ginfo = #tpu.lg<out_addr = 32768, out_size = 13824, buffer_addr = 0, buffer_size = 0, eu_align = true, can_merge = false, in_hslice_offset = [], n_idx = [0], n_slice = [1], c_idx = [0], c_slice = [2304], d_idx = [0], d_slice = [1], h_idx = [0, 3, 6, 9, 12, 14], h_slice = [3, 3, 3, 3, 2, 2], w_idx = [0], w_slice = [64], id = 0, stage = 0, slice_idx = 0, group_type = 4>, is_idx_weight = false, lmem_type = 1 : i64, support_compress = true, use_3ic_optimize = 0 : i64} : (tensor<1x2304x16x64xbf16, 4963115008 : i64>) -> tensor<1x2304x16x64xbf16> loc(#loc530)
        %875 = "tpu.Load"(%492) {do_bcast = false, ginfo = #tpu.lg<out_addr = 74240, out_size = 13824, buffer_addr = 0, buffer_size = 0, eu_align = true, can_merge = false, in_hslice_offset = [], n_idx = [0], n_slice = [1], c_idx = [0], c_slice = [2304], d_idx = [0], d_slice = [1], h_idx = [0, 3, 6, 9, 12, 14], h_slice = [3, 3, 3, 3, 2, 2], w_idx = [0], w_slice = [64], id = 1, stage = 1, slice_idx = 0, group_type = 4>, is_idx_weight = false, lmem_type = 1 : i64, support_compress = true, use_3ic_optimize = 0 : i64} : (tensor<1x2304x16x64xbf16, 4972552192 : i64>) -> tensor<1x2304x16x64xbf16> loc(#loc531)
        %876 = "tpu.Cast"(%874) {ginfo = #tpu.lg<out_addr = 0, out_size = 27648, buffer_addr = 0, buffer_size = 0, eu_align = true, can_merge = false, in_hslice_offset = [], n_idx = [0], n_slice = [1], c_idx = [0], c_slice = [2304], d_idx = [0], d_slice = [1], h_idx = [0, 3, 6, 9, 12, 14], h_slice = [3, 3, 3, 3, 2, 2], w_idx = [0], w_slice = [64], id = 2, stage = 1, slice_idx = 0, group_type = 4>, round_mode = #tpu<round_mode HalfAwayFromZero>, with_scale = true} : (tensor<1x2304x16x64xbf16>) -> tensor<1x2304x16x64xf32> loc(#loc532)
        %877 = "tpu.Load"(%410) {do_bcast = false, ginfo = #tpu.lg<out_addr = 196608, out_size = 27648, buffer_addr = 0, buffer_size = 0, eu_align = true, can_merge = false, in_hslice_offset = [], n_idx = [0], n_slice = [1], c_idx = [0], c_slice = [2304], d_idx = [0], d_slice = [1], h_idx = [0, 3, 6, 9, 12, 14], h_slice = [3, 3, 3, 3, 2, 2], w_idx = [0], w_slice = [64], id = 3, stage = 1, slice_idx = 0, group_type = 4>, is_idx_weight = false, lmem_type = 1 : i64, support_compress = true, use_3ic_optimize = 0 : i64} : (tensor<1x2304x1x64xf32, 5052768256 : i64>) -> tensor<1x2304x1x64xf32> loc(#loc427)
        %878 = "tpu.Load"(%406) {do_bcast = false, ginfo = #tpu.lg<out_addr = 229376, out_size = 27648, buffer_addr = 0, buffer_size = 0, eu_align = true, can_merge = false, in_hslice_offset = [], n_idx = [0], n_slice = [1], c_idx = [0], c_slice = [2304], d_idx = [0], d_slice = [1], h_idx = [0, 3, 6, 9, 12, 14], h_slice = [3, 3, 3, 3, 2, 2], w_idx = [0], w_slice = [64], id = 4, stage = 1, slice_idx = 0, group_type = 4>, is_idx_weight = false, lmem_type = 1 : i64, support_compress = true, use_3ic_optimize = 0 : i64} : (tensor<1x2304x1x64xf32, 5053358080 : i64>) -> tensor<1x2304x1x64xf32> loc(#loc428)
        %879 = "tpu.Cast"(%875) {ginfo = #tpu.lg<out_addr = 32768, out_size = 27648, buffer_addr = 0, buffer_size = 0, eu_align = true, can_merge = false, in_hslice_offset = [], n_idx = [0], n_slice = [1], c_idx = [0], c_slice = [2304], d_idx = [0], d_slice = [1], h_idx = [0, 3, 6, 9, 12, 14], h_slice = [3, 3, 3, 3, 2, 2], w_idx = [0], w_slice = [64], id = 5, stage = 1, slice_idx = 0, group_type = 4>, round_mode = #tpu<round_mode HalfAwayFromZero>, with_scale = true} : (tensor<1x2304x16x64xbf16>) -> tensor<1x2304x16x64xf32> loc(#loc533)
        %880 = "tpu.Rope"(%876, %877, %878) {add_round_mode = #tpu<round_mode HalfAwayFromZero>, add_saturation = true, add_shift = 0 : si32, force_f32 = true, ginfo = #tpu.lg<out_addr = 81920, out_size = 27648, buffer_addr = 114688, buffer_size = 55296, eu_align = true, can_merge = false, in_hslice_offset = [], n_idx = [0], n_slice = [1], c_idx = [0], c_slice = [2304], d_idx = [0], d_slice = [1], h_idx = [0, 3, 6, 9, 12, 14], h_slice = [3, 3, 3, 3, 2, 2], w_idx = [0], w_slice = [64], id = 6, stage = 1, slice_idx = 0, group_type = 4>, is_permute_optimize = false, mul1_round_mode = #tpu<round_mode HalfAwayFromZero>, mul1_saturation = true, mul1_shift = 0 : si32, mul2_round_mode = #tpu<round_mode HalfAwayFromZero>, mul2_saturation = true, mul2_shift = 0 : si32, rope_mode = #tpu<rope_mode contiguous_halves>} : (tensor<1x2304x16x64xf32>, tensor<1x2304x1x64xf32>, tensor<1x2304x1x64xf32>) -> tensor<1x2304x16x64xf32> loc(#loc534)
        %881 = "tpu.Cast"(%880) {ginfo = #tpu.lg<out_addr = 169984, out_size = 13824, buffer_addr = 0, buffer_size = 0, eu_align = true, can_merge = false, in_hslice_offset = [], n_idx = [0], n_slice = [1], c_idx = [0], c_slice = [2304], d_idx = [0], d_slice = [1], h_idx = [0, 3, 6, 9, 12, 14], h_slice = [3, 3, 3, 3, 2, 2], w_idx = [0], w_slice = [64], id = 7, stage = 1, slice_idx = 0, group_type = 4>, round_mode = #tpu<round_mode HalfAwayFromZero>, with_scale = true} : (tensor<1x2304x16x64xf32>) -> tensor<1x2304x16x64xbf16> loc(#loc528)
        %882 = "tpu.Store"(%881, %0) {ginfo = #tpu.lg<out_addr = 169984, out_size = 13824, buffer_addr = 0, buffer_size = 0, eu_align = true, can_merge = false, in_hslice_offset = [], n_idx = [0], n_slice = [1], c_idx = [0], c_slice = [2304], d_idx = [0], d_slice = [1], h_idx = [0, 3, 6, 9, 12, 14], h_slice = [3, 3, 3, 3, 2, 2], w_idx = [0], w_slice = [64], id = 8, stage = 1, slice_idx = 0, group_type = 4>, support_compress = true} : (tensor<1x2304x16x64xbf16>, none) -> tensor<1x2304x16x64xbf16, 4967833600 : i64> loc(#loc528)
        %883 = "tpu.Rope"(%879, %877, %878) {add_round_mode = #tpu<round_mode HalfAwayFromZero>, add_saturation = true, add_shift = 0 : si32, force_f32 = true, ginfo = #tpu.lg<out_addr = 0, out_size = 27648, buffer_addr = 65536, buffer_size = 55296, eu_align = true, can_merge = false, in_hslice_offset = [], n_idx = [0], n_slice = [1], c_idx = [0], c_slice = [2304], d_idx = [0], d_slice = [1], h_idx = [0, 3, 6, 9, 12, 14], h_slice = [3, 3, 3, 3, 2, 2], w_idx = [0], w_slice = [64], id = 9, stage = 1, slice_idx = 0, group_type = 4>, is_permute_optimize = false, mul1_round_mode = #tpu<round_mode HalfAwayFromZero>, mul1_saturation = true, mul1_shift = 0 : si32, mul2_round_mode = #tpu<round_mode HalfAwayFromZero>, mul2_saturation = true, mul2_shift = 0 : si32, rope_mode = #tpu<rope_mode contiguous_halves>} : (tensor<1x2304x16x64xf32>, tensor<1x2304x1x64xf32>, tensor<1x2304x1x64xf32>) -> tensor<1x2304x16x64xf32> loc(#loc535)
        %884 = "tpu.Cast"(%883) {ginfo = #tpu.lg<out_addr = 60416, out_size = 13824, buffer_addr = 0, buffer_size = 0, eu_align = true, can_merge = false, in_hslice_offset = [], n_idx = [0], n_slice = [1], c_idx = [0], c_slice = [2304], d_idx = [0], d_slice = [1], h_idx = [0, 3, 6, 9, 12, 14], h_slice = [3, 3, 3, 3, 2, 2], w_idx = [0], w_slice = [64], id = 10, stage = 1, slice_idx = 0, group_type = 4>, round_mode = #tpu<round_mode HalfAwayFromZero>, with_scale = true} : (tensor<1x2304x16x64xf32>) -> tensor<1x2304x16x64xbf16> loc(#loc529)
        %885 = "tpu.Store"(%884, %0) {ginfo = #tpu.lg<out_addr = 60416, out_size = 13824, buffer_addr = 0, buffer_size = 0, eu_align = true, can_merge = false, in_hslice_offset = [], n_idx = [0], n_slice = [1], c_idx = [0], c_slice = [2304], d_idx = [0], d_slice = [1], h_idx = [0, 3, 6, 9, 12, 14], h_slice = [3, 3, 3, 3, 2, 2], w_idx = [0], w_slice = [64], id = 11, stage = 2, slice_idx = 0, group_type = 4>, support_compress = true} : (tensor<1x2304x16x64xbf16>, none) -> tensor<1x2304x16x64xbf16, 4958396416 : i64> loc(#loc529)
        "tpu.Yield"(%882, %885) : (tensor<1x2304x16x64xbf16, 4967833600 : i64>, tensor<1x2304x16x64xbf16, 4958396416 : i64>) -> () loc(#loc1052)
      }) {core_slice_ncdhw = [], csecs = 1 : i64, dsecs = 1 : i64, flow = [-1, 2, 1, -2, 5, 3, 4, -3, 6, 7, 11, -4, 9, 8, -5, 10, 0], group_type = 4 : i64, hsecs = 6 : i64, nsecs = 1 : i64, other_down_overlap_op = [], other_up_overlap_op = [], run_core_id = [], self_down_overlap_op = [], self_up_overlap_op = [], support_compress = true, swpipl_stage_num = 3 : i64, wsecs = 1 : i64} : (tensor<1x2304x16x64xbf16, 4963115008 : i64>, tensor<1x2304x16x64xbf16, 4972552192 : i64>, tensor<1x2304x1x64xf32, 5052768256 : i64>, tensor<1x2304x1x64xf32, 5053358080 : i64>) -> (tensor<1x2304x16x64xbf16, 4967833600 : i64>, tensor<1x2304x16x64xbf16, 4958396416 : i64>) loc(#loc1052)
      %495 = "tpu.FAttention"(%494#0, %494#1, %491, %0, %0) {batch = 1 : i64, dim = 64 : i64, keep_dims = true, kv_head = 16 : i64, mk = 2304 : i64, mq = 2304 : i64, q_head = 16 : i64, scale = 1.250000e-01 : f64} : (tensor<1x2304x16x64xbf16, 4967833600 : i64>, tensor<1x2304x16x64xbf16, 4958396416 : i64>, tensor<1x2304x16x64xbf16, 4977270784 : i64>, none, none) -> tensor<1x2304x16x64xbf16, 4963115008 : i64> loc(#loc536)
      %496 = "tpu.Reshape"(%495) {flatten_start_dim = -1 : i64, shape = [-1, 1024]} : (tensor<1x2304x16x64xbf16, 4963115008 : i64>) -> tensor<2304x1024xbf16, 4963115008 : i64> loc(#loc537)
      %497 = "tpu.MatMul"(%496, %292, %291, %0, %0) {do_relu = false, dq_type = "NONE", fuse_rq = false, hdim_is_batch = false, input_zp = 0 : i64, is_lora = false, keep_dims = true, left_reuse = 0 : i64, left_transpose = false, multipliers = [1], output_transpose = false, q_group_size = 0 : i64, quant_mode = #tpu<rq_mode MultiplierShift>, relu_limit = -1.000000e+00 : f64, right_transpose = false, right_zp = 0 : i64, round_mode = #tpu<round_mode HalfAwayFromZero>, rshifts = [0]} : (tensor<2304x1024xbf16, 4963115008 : i64>, tensor<1024x1024xbf16, 4750868480 : i64>, tensor<1x1024xbf16, 4750864384 : i64>, none, none) -> tensor<2304x1024xbf16, 4958396416 : i64> loc(#loc538)
      %498 = "tpu.Add"(%486, %497) {do_relu = false, is_scalar = false, relu_limit = -1.000000e+00 : f64} : (tensor<2304x1024xbf16, 4981989376 : i64>, tensor<2304x1024xbf16, 4958396416 : i64>) -> tensor<2304x1024xbf16, 5048049664 : i64> loc(#loc539)
      %499 = "tpu.LayerNorm"(%498, %304, %303, %0, %0) {axis = 1 : si32, eps = 9.9999999999999995E-7 : f64, normalized_shape = [1024]} : (tensor<2304x1024xbf16, 5048049664 : i64>, tensor<1x1024xbf16, 4773969920 : i64>, tensor<1x1024xbf16, 4773965824 : i64>, none, none) -> tensor<2304x1024xbf16, 4977270784 : i64> loc(#loc540)
      %500 = "tpu.MatMul"(%499, %298, %297, %0, %0) {do_relu = false, dq_type = "NONE", fuse_rq = false, hdim_is_batch = false, input_zp = 0 : i64, is_lora = false, keep_dims = true, left_reuse = 0 : i64, left_transpose = false, multipliers = [1], output_transpose = false, q_group_size = 0 : i64, quant_mode = #tpu<rq_mode MultiplierShift>, relu_limit = -1.000000e+00 : f64, right_transpose = false, right_zp = 0 : i64, round_mode = #tpu<round_mode HalfAwayFromZero>, rshifts = [0]} : (tensor<2304x1024xbf16, 4977270784 : i64>, tensor<1024x4096xbf16, 4757176320 : i64>, tensor<1x4096xbf16, 4757168128 : i64>, none, none) -> tensor<2304x4096xbf16, 4958396416 : i64> loc(#loc541)
      %501 = "tpu.Cast"(%500) {round_mode = #tpu<round_mode HalfAwayFromZero>, with_scale = true} : (tensor<2304x4096xbf16, 4958396416 : i64>) -> tensor<2304x4096xf32, 4996145152 : i64> loc(#loc542)
      %502 = "tpu.Active"(%501) {mode = #tpu<active_mode TGELU>} : (tensor<2304x4096xf32, 4996145152 : i64>) -> tensor<2304x4096xf32, 4958396416 : i64> loc(#loc543)
      %503 = "tpu.Cast"(%502) {round_mode = #tpu<round_mode HalfAwayFromZero>, with_scale = true} : (tensor<2304x4096xf32, 4958396416 : i64>) -> tensor<2304x4096xbf16, 4996145152 : i64> loc(#loc544)
      %504 = "tpu.MatMul"(%503, %300, %299, %0, %0) {do_relu = false, dq_type = "NONE", fuse_rq = false, hdim_is_batch = false, input_zp = 0 : i64, is_lora = false, keep_dims = true, left_reuse = 0 : i64, left_transpose = false, multipliers = [1], output_transpose = false, q_group_size = 0 : i64, quant_mode = #tpu<rq_mode MultiplierShift>, relu_limit = -1.000000e+00 : f64, right_transpose = false, right_zp = 0 : i64, round_mode = #tpu<round_mode HalfAwayFromZero>, rshifts = [0]} : (tensor<2304x4096xbf16, 4996145152 : i64>, tensor<4096x1024xbf16, 4765569024 : i64>, tensor<1x1024xbf16, 4765564928 : i64>, none, none) -> tensor<2304x1024xbf16, 4986707968 : i64> loc(#loc545)
      %505 = "tpu.Add"(%498, %504) {do_relu = false, is_scalar = false, relu_limit = -1.000000e+00 : f64} : (tensor<2304x1024xbf16, 5048049664 : i64>, tensor<2304x1024xbf16, 4986707968 : i64>) -> tensor<2304x1024xbf16, 4981989376 : i64> loc(#loc546)
      %506 = "tpu.LayerNorm"(%505, %318, %317, %0, %0) {axis = 1 : si32, eps = 9.9999999999999995E-7 : f64, normalized_shape = [1024]} : (tensor<2304x1024xbf16, 4981989376 : i64>, tensor<1x1024xbf16, 4799172608 : i64>, tensor<1x1024xbf16, 4799168512 : i64>, none, none) -> tensor<2304x1024xbf16, 4958396416 : i64> loc(#loc547)
      %507 = "tpu.MatMul"(%506, %312, %311, %0, %0) {do_relu = false, dq_type = "NONE", fuse_rq = false, hdim_is_batch = false, input_zp = 0 : i64, is_lora = false, keep_dims = true, left_reuse = 1 : i64, left_transpose = false, multipliers = [1], output_transpose = false, q_group_size = 0 : i64, quant_mode = #tpu<rq_mode MultiplierShift>, relu_limit = -1.000000e+00 : f64, right_transpose = false, right_zp = 0 : i64, round_mode = #tpu<round_mode HalfAwayFromZero>, rshifts = [0]} : (tensor<2304x1024xbf16, 4958396416 : i64>, tensor<1024x1024xbf16, 4780281856 : i64>, tensor<1x1024xbf16, 4780277760 : i64>, none, none) -> tensor<2304x1024xbf16, 4977270784 : i64> loc(#loc548)
      %508 = "tpu.MatMul"(%506, %306, %305, %0, %0) {do_relu = false, dq_type = "NONE", fuse_rq = false, hdim_is_batch = false, input_zp = 0 : i64, is_lora = false, keep_dims = true, left_reuse = 1 : i64, left_transpose = false, multipliers = [1], output_transpose = false, q_group_size = 0 : i64, quant_mode = #tpu<rq_mode MultiplierShift>, relu_limit = -1.000000e+00 : f64, right_transpose = false, right_zp = 0 : i64, round_mode = #tpu<round_mode HalfAwayFromZero>, rshifts = [0]} : (tensor<2304x1024xbf16, 4958396416 : i64>, tensor<1024x1024xbf16, 4773978112 : i64>, tensor<1x1024xbf16, 4773974016 : i64>, none, none) -> tensor<2304x1024xbf16, 4972552192 : i64> loc(#loc549)
      %509 = "tpu.MatMul"(%506, %310, %309, %0, %0) {do_relu = false, dq_type = "NONE", fuse_rq = false, hdim_is_batch = false, input_zp = 0 : i64, is_lora = false, keep_dims = true, left_reuse = 1 : i64, left_transpose = false, multipliers = [1], output_transpose = false, q_group_size = 0 : i64, quant_mode = #tpu<rq_mode MultiplierShift>, relu_limit = -1.000000e+00 : f64, right_transpose = false, right_zp = 0 : i64, round_mode = #tpu<round_mode HalfAwayFromZero>, rshifts = [0]} : (tensor<2304x1024xbf16, 4958396416 : i64>, tensor<1024x1024xbf16, 4778180608 : i64>, tensor<1x1024xbf16, 4778176512 : i64>, none, none) -> tensor<2304x1024xbf16, 4963115008 : i64> loc(#loc550)
      %510 = "tpu.Reshape"(%507) {flatten_start_dim = -1 : i64, shape = [1, -1, 16, 64]} : (tensor<2304x1024xbf16, 4977270784 : i64>) -> tensor<1x2304x16x64xbf16, 4977270784 : i64> loc(#loc551)
      %511 = "tpu.Reshape"(%508) {flatten_start_dim = -1 : i64, shape = [1, -1, 16, 64]} : (tensor<2304x1024xbf16, 4972552192 : i64>) -> tensor<1x2304x16x64xbf16, 4972552192 : i64> loc(#loc552)
      %512 = "tpu.Reshape"(%509) {flatten_start_dim = -1 : i64, shape = [1, -1, 16, 64]} : (tensor<2304x1024xbf16, 4963115008 : i64>) -> tensor<1x2304x16x64xbf16, 4963115008 : i64> loc(#loc553)
      %513:2 = "tpu.Group"(%512, %511, %410, %406) ({
        %874 = "tpu.Load"(%512) {do_bcast = false, ginfo = #tpu.lg<out_addr = 32768, out_size = 13824, buffer_addr = 0, buffer_size = 0, eu_align = true, can_merge = false, in_hslice_offset = [], n_idx = [0], n_slice = [1], c_idx = [0], c_slice = [2304], d_idx = [0], d_slice = [1], h_idx = [0, 3, 6, 9, 12, 14], h_slice = [3, 3, 3, 3, 2, 2], w_idx = [0], w_slice = [64], id = 0, stage = 0, slice_idx = 0, group_type = 4>, is_idx_weight = false, lmem_type = 1 : i64, support_compress = true, use_3ic_optimize = 0 : i64} : (tensor<1x2304x16x64xbf16, 4963115008 : i64>) -> tensor<1x2304x16x64xbf16> loc(#loc556)
        %875 = "tpu.Load"(%511) {do_bcast = false, ginfo = #tpu.lg<out_addr = 74240, out_size = 13824, buffer_addr = 0, buffer_size = 0, eu_align = true, can_merge = false, in_hslice_offset = [], n_idx = [0], n_slice = [1], c_idx = [0], c_slice = [2304], d_idx = [0], d_slice = [1], h_idx = [0, 3, 6, 9, 12, 14], h_slice = [3, 3, 3, 3, 2, 2], w_idx = [0], w_slice = [64], id = 1, stage = 1, slice_idx = 0, group_type = 4>, is_idx_weight = false, lmem_type = 1 : i64, support_compress = true, use_3ic_optimize = 0 : i64} : (tensor<1x2304x16x64xbf16, 4972552192 : i64>) -> tensor<1x2304x16x64xbf16> loc(#loc557)
        %876 = "tpu.Cast"(%874) {ginfo = #tpu.lg<out_addr = 0, out_size = 27648, buffer_addr = 0, buffer_size = 0, eu_align = true, can_merge = false, in_hslice_offset = [], n_idx = [0], n_slice = [1], c_idx = [0], c_slice = [2304], d_idx = [0], d_slice = [1], h_idx = [0, 3, 6, 9, 12, 14], h_slice = [3, 3, 3, 3, 2, 2], w_idx = [0], w_slice = [64], id = 2, stage = 1, slice_idx = 0, group_type = 4>, round_mode = #tpu<round_mode HalfAwayFromZero>, with_scale = true} : (tensor<1x2304x16x64xbf16>) -> tensor<1x2304x16x64xf32> loc(#loc558)
        %877 = "tpu.Load"(%410) {do_bcast = false, ginfo = #tpu.lg<out_addr = 196608, out_size = 27648, buffer_addr = 0, buffer_size = 0, eu_align = true, can_merge = false, in_hslice_offset = [], n_idx = [0], n_slice = [1], c_idx = [0], c_slice = [2304], d_idx = [0], d_slice = [1], h_idx = [0, 3, 6, 9, 12, 14], h_slice = [3, 3, 3, 3, 2, 2], w_idx = [0], w_slice = [64], id = 3, stage = 1, slice_idx = 0, group_type = 4>, is_idx_weight = false, lmem_type = 1 : i64, support_compress = true, use_3ic_optimize = 0 : i64} : (tensor<1x2304x1x64xf32, 5052768256 : i64>) -> tensor<1x2304x1x64xf32> loc(#loc427)
        %878 = "tpu.Load"(%406) {do_bcast = false, ginfo = #tpu.lg<out_addr = 229376, out_size = 27648, buffer_addr = 0, buffer_size = 0, eu_align = true, can_merge = false, in_hslice_offset = [], n_idx = [0], n_slice = [1], c_idx = [0], c_slice = [2304], d_idx = [0], d_slice = [1], h_idx = [0, 3, 6, 9, 12, 14], h_slice = [3, 3, 3, 3, 2, 2], w_idx = [0], w_slice = [64], id = 4, stage = 1, slice_idx = 0, group_type = 4>, is_idx_weight = false, lmem_type = 1 : i64, support_compress = true, use_3ic_optimize = 0 : i64} : (tensor<1x2304x1x64xf32, 5053358080 : i64>) -> tensor<1x2304x1x64xf32> loc(#loc428)
        %879 = "tpu.Cast"(%875) {ginfo = #tpu.lg<out_addr = 32768, out_size = 27648, buffer_addr = 0, buffer_size = 0, eu_align = true, can_merge = false, in_hslice_offset = [], n_idx = [0], n_slice = [1], c_idx = [0], c_slice = [2304], d_idx = [0], d_slice = [1], h_idx = [0, 3, 6, 9, 12, 14], h_slice = [3, 3, 3, 3, 2, 2], w_idx = [0], w_slice = [64], id = 5, stage = 1, slice_idx = 0, group_type = 4>, round_mode = #tpu<round_mode HalfAwayFromZero>, with_scale = true} : (tensor<1x2304x16x64xbf16>) -> tensor<1x2304x16x64xf32> loc(#loc559)
        %880 = "tpu.Rope"(%876, %877, %878) {add_round_mode = #tpu<round_mode HalfAwayFromZero>, add_saturation = true, add_shift = 0 : si32, force_f32 = true, ginfo = #tpu.lg<out_addr = 81920, out_size = 27648, buffer_addr = 114688, buffer_size = 55296, eu_align = true, can_merge = false, in_hslice_offset = [], n_idx = [0], n_slice = [1], c_idx = [0], c_slice = [2304], d_idx = [0], d_slice = [1], h_idx = [0, 3, 6, 9, 12, 14], h_slice = [3, 3, 3, 3, 2, 2], w_idx = [0], w_slice = [64], id = 6, stage = 1, slice_idx = 0, group_type = 4>, is_permute_optimize = false, mul1_round_mode = #tpu<round_mode HalfAwayFromZero>, mul1_saturation = true, mul1_shift = 0 : si32, mul2_round_mode = #tpu<round_mode HalfAwayFromZero>, mul2_saturation = true, mul2_shift = 0 : si32, rope_mode = #tpu<rope_mode contiguous_halves>} : (tensor<1x2304x16x64xf32>, tensor<1x2304x1x64xf32>, tensor<1x2304x1x64xf32>) -> tensor<1x2304x16x64xf32> loc(#loc560)
        %881 = "tpu.Cast"(%880) {ginfo = #tpu.lg<out_addr = 169984, out_size = 13824, buffer_addr = 0, buffer_size = 0, eu_align = true, can_merge = false, in_hslice_offset = [], n_idx = [0], n_slice = [1], c_idx = [0], c_slice = [2304], d_idx = [0], d_slice = [1], h_idx = [0, 3, 6, 9, 12, 14], h_slice = [3, 3, 3, 3, 2, 2], w_idx = [0], w_slice = [64], id = 7, stage = 1, slice_idx = 0, group_type = 4>, round_mode = #tpu<round_mode HalfAwayFromZero>, with_scale = true} : (tensor<1x2304x16x64xf32>) -> tensor<1x2304x16x64xbf16> loc(#loc554)
        %882 = "tpu.Store"(%881, %0) {ginfo = #tpu.lg<out_addr = 169984, out_size = 13824, buffer_addr = 0, buffer_size = 0, eu_align = true, can_merge = false, in_hslice_offset = [], n_idx = [0], n_slice = [1], c_idx = [0], c_slice = [2304], d_idx = [0], d_slice = [1], h_idx = [0, 3, 6, 9, 12, 14], h_slice = [3, 3, 3, 3, 2, 2], w_idx = [0], w_slice = [64], id = 8, stage = 1, slice_idx = 0, group_type = 4>, support_compress = true} : (tensor<1x2304x16x64xbf16>, none) -> tensor<1x2304x16x64xbf16, 4967833600 : i64> loc(#loc554)
        %883 = "tpu.Rope"(%879, %877, %878) {add_round_mode = #tpu<round_mode HalfAwayFromZero>, add_saturation = true, add_shift = 0 : si32, force_f32 = true, ginfo = #tpu.lg<out_addr = 0, out_size = 27648, buffer_addr = 65536, buffer_size = 55296, eu_align = true, can_merge = false, in_hslice_offset = [], n_idx = [0], n_slice = [1], c_idx = [0], c_slice = [2304], d_idx = [0], d_slice = [1], h_idx = [0, 3, 6, 9, 12, 14], h_slice = [3, 3, 3, 3, 2, 2], w_idx = [0], w_slice = [64], id = 9, stage = 1, slice_idx = 0, group_type = 4>, is_permute_optimize = false, mul1_round_mode = #tpu<round_mode HalfAwayFromZero>, mul1_saturation = true, mul1_shift = 0 : si32, mul2_round_mode = #tpu<round_mode HalfAwayFromZero>, mul2_saturation = true, mul2_shift = 0 : si32, rope_mode = #tpu<rope_mode contiguous_halves>} : (tensor<1x2304x16x64xf32>, tensor<1x2304x1x64xf32>, tensor<1x2304x1x64xf32>) -> tensor<1x2304x16x64xf32> loc(#loc561)
        %884 = "tpu.Cast"(%883) {ginfo = #tpu.lg<out_addr = 60416, out_size = 13824, buffer_addr = 0, buffer_size = 0, eu_align = true, can_merge = false, in_hslice_offset = [], n_idx = [0], n_slice = [1], c_idx = [0], c_slice = [2304], d_idx = [0], d_slice = [1], h_idx = [0, 3, 6, 9, 12, 14], h_slice = [3, 3, 3, 3, 2, 2], w_idx = [0], w_slice = [64], id = 10, stage = 1, slice_idx = 0, group_type = 4>, round_mode = #tpu<round_mode HalfAwayFromZero>, with_scale = true} : (tensor<1x2304x16x64xf32>) -> tensor<1x2304x16x64xbf16> loc(#loc555)
        %885 = "tpu.Store"(%884, %0) {ginfo = #tpu.lg<out_addr = 60416, out_size = 13824, buffer_addr = 0, buffer_size = 0, eu_align = true, can_merge = false, in_hslice_offset = [], n_idx = [0], n_slice = [1], c_idx = [0], c_slice = [2304], d_idx = [0], d_slice = [1], h_idx = [0, 3, 6, 9, 12, 14], h_slice = [3, 3, 3, 3, 2, 2], w_idx = [0], w_slice = [64], id = 11, stage = 2, slice_idx = 0, group_type = 4>, support_compress = true} : (tensor<1x2304x16x64xbf16>, none) -> tensor<1x2304x16x64xbf16, 4958396416 : i64> loc(#loc555)
        "tpu.Yield"(%882, %885) : (tensor<1x2304x16x64xbf16, 4967833600 : i64>, tensor<1x2304x16x64xbf16, 4958396416 : i64>) -> () loc(#loc1053)
      }) {core_slice_ncdhw = [], csecs = 1 : i64, dsecs = 1 : i64, flow = [-1, 2, 1, -2, 5, 3, 4, -3, 6, 7, 11, -4, 9, 8, -5, 10, 0], group_type = 4 : i64, hsecs = 6 : i64, nsecs = 1 : i64, other_down_overlap_op = [], other_up_overlap_op = [], run_core_id = [], self_down_overlap_op = [], self_up_overlap_op = [], support_compress = true, swpipl_stage_num = 3 : i64, wsecs = 1 : i64} : (tensor<1x2304x16x64xbf16, 4963115008 : i64>, tensor<1x2304x16x64xbf16, 4972552192 : i64>, tensor<1x2304x1x64xf32, 5052768256 : i64>, tensor<1x2304x1x64xf32, 5053358080 : i64>) -> (tensor<1x2304x16x64xbf16, 4967833600 : i64>, tensor<1x2304x16x64xbf16, 4958396416 : i64>) loc(#loc1053)
      %514 = "tpu.FAttention"(%513#0, %513#1, %510, %0, %0) {batch = 1 : i64, dim = 64 : i64, keep_dims = true, kv_head = 16 : i64, mk = 2304 : i64, mq = 2304 : i64, q_head = 16 : i64, scale = 1.250000e-01 : f64} : (tensor<1x2304x16x64xbf16, 4967833600 : i64>, tensor<1x2304x16x64xbf16, 4958396416 : i64>, tensor<1x2304x16x64xbf16, 4977270784 : i64>, none, none) -> tensor<1x2304x16x64xbf16, 4963115008 : i64> loc(#loc562)
      %515 = "tpu.Reshape"(%514) {flatten_start_dim = -1 : i64, shape = [-1, 1024]} : (tensor<1x2304x16x64xbf16, 4963115008 : i64>) -> tensor<2304x1024xbf16, 4963115008 : i64> loc(#loc563)
      %516 = "tpu.MatMul"(%515, %308, %307, %0, %0) {do_relu = false, dq_type = "NONE", fuse_rq = false, hdim_is_batch = false, input_zp = 0 : i64, is_lora = false, keep_dims = true, left_reuse = 0 : i64, left_transpose = false, multipliers = [1], output_transpose = false, q_group_size = 0 : i64, quant_mode = #tpu<rq_mode MultiplierShift>, relu_limit = -1.000000e+00 : f64, right_transpose = false, right_zp = 0 : i64, round_mode = #tpu<round_mode HalfAwayFromZero>, rshifts = [0]} : (tensor<2304x1024xbf16, 4963115008 : i64>, tensor<1024x1024xbf16, 4776079360 : i64>, tensor<1x1024xbf16, 4776075264 : i64>, none, none) -> tensor<2304x1024xbf16, 4958396416 : i64> loc(#loc564)
      %517 = "tpu.Add"(%505, %516) {do_relu = false, is_scalar = false, relu_limit = -1.000000e+00 : f64} : (tensor<2304x1024xbf16, 4981989376 : i64>, tensor<2304x1024xbf16, 4958396416 : i64>) -> tensor<2304x1024xbf16, 5048049664 : i64> loc(#loc565)
      %518 = "tpu.LayerNorm"(%517, %320, %319, %0, %0) {axis = 1 : si32, eps = 9.9999999999999995E-7 : f64, normalized_shape = [1024]} : (tensor<2304x1024xbf16, 5048049664 : i64>, tensor<1x1024xbf16, 4799180800 : i64>, tensor<1x1024xbf16, 4799176704 : i64>, none, none) -> tensor<2304x1024xbf16, 4977270784 : i64> loc(#loc566)
      %519 = "tpu.MatMul"(%518, %314, %313, %0, %0) {do_relu = false, dq_type = "NONE", fuse_rq = false, hdim_is_batch = false, input_zp = 0 : i64, is_lora = false, keep_dims = true, left_reuse = 0 : i64, left_transpose = false, multipliers = [1], output_transpose = false, q_group_size = 0 : i64, quant_mode = #tpu<rq_mode MultiplierShift>, relu_limit = -1.000000e+00 : f64, right_transpose = false, right_zp = 0 : i64, round_mode = #tpu<round_mode HalfAwayFromZero>, rshifts = [0]} : (tensor<2304x1024xbf16, 4977270784 : i64>, tensor<1024x4096xbf16, 4782387200 : i64>, tensor<1x4096xbf16, 4782379008 : i64>, none, none) -> tensor<2304x4096xbf16, 4958396416 : i64> loc(#loc567)
      %520 = "tpu.Cast"(%519) {round_mode = #tpu<round_mode HalfAwayFromZero>, with_scale = true} : (tensor<2304x4096xbf16, 4958396416 : i64>) -> tensor<2304x4096xf32, 4996145152 : i64> loc(#loc568)
      %521 = "tpu.Active"(%520) {mode = #tpu<active_mode TGELU>} : (tensor<2304x4096xf32, 4996145152 : i64>) -> tensor<2304x4096xf32, 4958396416 : i64> loc(#loc569)
      %522 = "tpu.Cast"(%521) {round_mode = #tpu<round_mode HalfAwayFromZero>, with_scale = true} : (tensor<2304x4096xf32, 4958396416 : i64>) -> tensor<2304x4096xbf16, 4996145152 : i64> loc(#loc570)
      %523 = "tpu.MatMul"(%522, %316, %315, %0, %0) {do_relu = false, dq_type = "NONE", fuse_rq = false, hdim_is_batch = false, input_zp = 0 : i64, is_lora = false, keep_dims = true, left_reuse = 0 : i64, left_transpose = false, multipliers = [1], output_transpose = false, q_group_size = 0 : i64, quant_mode = #tpu<rq_mode MultiplierShift>, relu_limit = -1.000000e+00 : f64, right_transpose = false, right_zp = 0 : i64, round_mode = #tpu<round_mode HalfAwayFromZero>, rshifts = [0]} : (tensor<2304x4096xbf16, 4996145152 : i64>, tensor<4096x1024xbf16, 4790779904 : i64>, tensor<1x1024xbf16, 4790775808 : i64>, none, none) -> tensor<2304x1024xbf16, 4986707968 : i64> loc(#loc571)
      %524 = "tpu.Add"(%517, %523) {do_relu = false, is_scalar = false, relu_limit = -1.000000e+00 : f64} : (tensor<2304x1024xbf16, 5048049664 : i64>, tensor<2304x1024xbf16, 4986707968 : i64>) -> tensor<2304x1024xbf16, 4981989376 : i64> loc(#loc572)
      %525 = "tpu.LayerNorm"(%524, %334, %333, %0, %0) {axis = 1 : si32, eps = 9.9999999999999995E-7 : f64, normalized_shape = [1024]} : (tensor<2304x1024xbf16, 4981989376 : i64>, tensor<1x1024xbf16, 4824383488 : i64>, tensor<1x1024xbf16, 4824379392 : i64>, none, none) -> tensor<2304x1024xbf16, 4958396416 : i64> loc(#loc573)
      %526 = "tpu.MatMul"(%525, %328, %327, %0, %0) {do_relu = false, dq_type = "NONE", fuse_rq = false, hdim_is_batch = false, input_zp = 0 : i64, is_lora = false, keep_dims = true, left_reuse = 1 : i64, left_transpose = false, multipliers = [1], output_transpose = false, q_group_size = 0 : i64, quant_mode = #tpu<rq_mode MultiplierShift>, relu_limit = -1.000000e+00 : f64, right_transpose = false, right_zp = 0 : i64, round_mode = #tpu<round_mode HalfAwayFromZero>, rshifts = [0]} : (tensor<2304x1024xbf16, 4958396416 : i64>, tensor<1024x1024xbf16, 4805492736 : i64>, tensor<1x1024xbf16, 4805488640 : i64>, none, none) -> tensor<2304x1024xbf16, 4977270784 : i64> loc(#loc574)
      %527 = "tpu.MatMul"(%525, %322, %321, %0, %0) {do_relu = false, dq_type = "NONE", fuse_rq = false, hdim_is_batch = false, input_zp = 0 : i64, is_lora = false, keep_dims = true, left_reuse = 1 : i64, left_transpose = false, multipliers = [1], output_transpose = false, q_group_size = 0 : i64, quant_mode = #tpu<rq_mode MultiplierShift>, relu_limit = -1.000000e+00 : f64, right_transpose = false, right_zp = 0 : i64, round_mode = #tpu<round_mode HalfAwayFromZero>, rshifts = [0]} : (tensor<2304x1024xbf16, 4958396416 : i64>, tensor<1024x1024xbf16, 4799188992 : i64>, tensor<1x1024xbf16, 4799184896 : i64>, none, none) -> tensor<2304x1024xbf16, 4972552192 : i64> loc(#loc575)
      %528 = "tpu.MatMul"(%525, %326, %325, %0, %0) {do_relu = false, dq_type = "NONE", fuse_rq = false, hdim_is_batch = false, input_zp = 0 : i64, is_lora = false, keep_dims = true, left_reuse = 1 : i64, left_transpose = false, multipliers = [1], output_transpose = false, q_group_size = 0 : i64, quant_mode = #tpu<rq_mode MultiplierShift>, relu_limit = -1.000000e+00 : f64, right_transpose = false, right_zp = 0 : i64, round_mode = #tpu<round_mode HalfAwayFromZero>, rshifts = [0]} : (tensor<2304x1024xbf16, 4958396416 : i64>, tensor<1024x1024xbf16, 4803391488 : i64>, tensor<1x1024xbf16, 4803387392 : i64>, none, none) -> tensor<2304x1024xbf16, 4963115008 : i64> loc(#loc576)
      %529 = "tpu.Reshape"(%526) {flatten_start_dim = -1 : i64, shape = [1, -1, 16, 64]} : (tensor<2304x1024xbf16, 4977270784 : i64>) -> tensor<1x2304x16x64xbf16, 4977270784 : i64> loc(#loc577)
      %530 = "tpu.Reshape"(%527) {flatten_start_dim = -1 : i64, shape = [1, -1, 16, 64]} : (tensor<2304x1024xbf16, 4972552192 : i64>) -> tensor<1x2304x16x64xbf16, 4972552192 : i64> loc(#loc578)
      %531 = "tpu.Reshape"(%528) {flatten_start_dim = -1 : i64, shape = [1, -1, 16, 64]} : (tensor<2304x1024xbf16, 4963115008 : i64>) -> tensor<1x2304x16x64xbf16, 4963115008 : i64> loc(#loc579)
      %532:2 = "tpu.Group"(%531, %530, %410, %406) ({
        %874 = "tpu.Load"(%531) {do_bcast = false, ginfo = #tpu.lg<out_addr = 32768, out_size = 13824, buffer_addr = 0, buffer_size = 0, eu_align = true, can_merge = false, in_hslice_offset = [], n_idx = [0], n_slice = [1], c_idx = [0], c_slice = [2304], d_idx = [0], d_slice = [1], h_idx = [0, 3, 6, 9, 12, 14], h_slice = [3, 3, 3, 3, 2, 2], w_idx = [0], w_slice = [64], id = 0, stage = 0, slice_idx = 0, group_type = 4>, is_idx_weight = false, lmem_type = 1 : i64, support_compress = true, use_3ic_optimize = 0 : i64} : (tensor<1x2304x16x64xbf16, 4963115008 : i64>) -> tensor<1x2304x16x64xbf16> loc(#loc582)
        %875 = "tpu.Load"(%530) {do_bcast = false, ginfo = #tpu.lg<out_addr = 74240, out_size = 13824, buffer_addr = 0, buffer_size = 0, eu_align = true, can_merge = false, in_hslice_offset = [], n_idx = [0], n_slice = [1], c_idx = [0], c_slice = [2304], d_idx = [0], d_slice = [1], h_idx = [0, 3, 6, 9, 12, 14], h_slice = [3, 3, 3, 3, 2, 2], w_idx = [0], w_slice = [64], id = 1, stage = 1, slice_idx = 0, group_type = 4>, is_idx_weight = false, lmem_type = 1 : i64, support_compress = true, use_3ic_optimize = 0 : i64} : (tensor<1x2304x16x64xbf16, 4972552192 : i64>) -> tensor<1x2304x16x64xbf16> loc(#loc583)
        %876 = "tpu.Cast"(%874) {ginfo = #tpu.lg<out_addr = 0, out_size = 27648, buffer_addr = 0, buffer_size = 0, eu_align = true, can_merge = false, in_hslice_offset = [], n_idx = [0], n_slice = [1], c_idx = [0], c_slice = [2304], d_idx = [0], d_slice = [1], h_idx = [0, 3, 6, 9, 12, 14], h_slice = [3, 3, 3, 3, 2, 2], w_idx = [0], w_slice = [64], id = 2, stage = 1, slice_idx = 0, group_type = 4>, round_mode = #tpu<round_mode HalfAwayFromZero>, with_scale = true} : (tensor<1x2304x16x64xbf16>) -> tensor<1x2304x16x64xf32> loc(#loc584)
        %877 = "tpu.Load"(%410) {do_bcast = false, ginfo = #tpu.lg<out_addr = 196608, out_size = 27648, buffer_addr = 0, buffer_size = 0, eu_align = true, can_merge = false, in_hslice_offset = [], n_idx = [0], n_slice = [1], c_idx = [0], c_slice = [2304], d_idx = [0], d_slice = [1], h_idx = [0, 3, 6, 9, 12, 14], h_slice = [3, 3, 3, 3, 2, 2], w_idx = [0], w_slice = [64], id = 3, stage = 1, slice_idx = 0, group_type = 4>, is_idx_weight = false, lmem_type = 1 : i64, support_compress = true, use_3ic_optimize = 0 : i64} : (tensor<1x2304x1x64xf32, 505…
#loc257 = loc("model.visual.blocks.22.norm1.bias_bf16")
#loc258 = loc("model.visual.blocks.22.norm1.weight_bf16")
#loc259 = loc("model.visual.blocks.22.norm2.bias_bf16")
#loc260 = loc("model.visual.blocks.22.norm2.weight_bf16")
#loc261 = loc("model.visual.blocks.23.attn.k.bias_bf16")
#loc262 = loc("model.visual.blocks.23.attn.k.weight_bf16")
#loc263 = loc("model.visual.blocks.23.attn.proj.bias_bf16")
#loc264 = loc("model.visual.blocks.23.attn.proj.weight_bf16")
#loc265 = loc("model.visual.blocks.23.attn.q.bias_bf16")
#loc266 = loc("model.visual.blocks.23.attn.q.weight_bf16")
#loc267 = loc("model.visual.blocks.23.attn.v.bias_bf16")
#loc268 = loc("model.visual.blocks.23.attn.v.weight_bf16")
#loc269 = loc("model.visual.blocks.23.mlp.linear_fc1.bias_bf16")
#loc270 = loc("model.visual.blocks.23.mlp.linear_fc1.weight_bf16")
#loc271 = loc("model.visual.blocks.23.mlp.linear_fc2.bias_bf16")
#loc272 = loc("model.visual.blocks.23.mlp.linear_fc2.weight_bf16")
#loc273 = loc("model.visual.blocks.23.norm1.bias_bf16")
#loc274 = loc("model.visual.blocks.23.norm1.weight_bf16")
#loc275 = loc("model.visual.blocks.23.norm2.bias_bf16")
#loc276 = loc("model.visual.blocks.23.norm2.weight_bf16")
#loc277 = loc("model.visual.blocks.3.attn.k.bias_bf16")
#loc278 = loc("model.visual.blocks.3.attn.k.weight_bf16")
#loc279 = loc("model.visual.blocks.3.attn.proj.bias_bf16")
#loc280 = loc("model.visual.blocks.3.attn.proj.weight_bf16")
#loc281 = loc("model.visual.blocks.3.attn.q.bias_bf16")
#loc282 = loc("model.visual.blocks.3.attn.q.weight_bf16")
#loc283 = loc("model.visual.blocks.3.attn.v.bias_bf16")
#loc284 = loc("model.visual.blocks.3.attn.v.weight_bf16")
#loc285 = loc("model.visual.blocks.3.mlp.linear_fc1.bias_bf16")
#loc286 = loc("model.visual.blocks.3.mlp.linear_fc1.weight_bf16")
#loc287 = loc("model.visual.blocks.3.mlp.linear_fc2.bias_bf16")
#loc288 = loc("model.visual.blocks.3.mlp.linear_fc2.weight_bf16")
#loc289 = loc("model.visual.blocks.3.norm1.bias_bf16")
#loc290 = loc("model.visual.blocks.3.norm1.weight_bf16")
#loc291 = loc("model.visual.blocks.3.norm2.bias_bf16")
#loc292 = loc("model.visual.blocks.3.norm2.weight_bf16")
#loc293 = loc("model.visual.blocks.4.attn.k.bias_bf16")
#loc294 = loc("model.visual.blocks.4.attn.k.weight_bf16")
#loc295 = loc("model.visual.blocks.4.attn.proj.bias_bf16")
#loc296 = loc("model.visual.blocks.4.attn.proj.weight_bf16")
#loc297 = loc("model.visual.blocks.4.attn.q.bias_bf16")
#loc298 = loc("model.visual.blocks.4.attn.q.weight_bf16")
#loc299 = loc("model.visual.blocks.4.attn.v.bias_bf16")
#loc300 = loc("model.visual.blocks.4.attn.v.weight_bf16")
#loc301 = loc("model.visual.blocks.4.mlp.linear_fc1.bias_bf16")
#loc302 = loc("model.visual.blocks.4.mlp.linear_fc1.weight_bf16")
#loc303 = loc("model.visual.blocks.4.mlp.linear_fc2.bias_bf16")
#loc304 = loc("model.visual.blocks.4.mlp.linear_fc2.weight_bf16")
#loc305 = loc("model.visual.blocks.4.norm1.bias_bf16")
#loc306 = loc("model.visual.blocks.4.norm1.weight_bf16")
#loc307 = loc("model.visual.blocks.4.norm2.bias_bf16")
#loc308 = loc("model.visual.blocks.4.norm2.weight_bf16")
#loc309 = loc("model.visual.blocks.5.attn.k.bias_bf16")
#loc310 = loc("model.visual.blocks.5.attn.k.weight_bf16")
#loc311 = loc("model.visual.blocks.5.attn.proj.bias_bf16")
#loc312 = loc("model.visual.blocks.5.attn.proj.weight_bf16")
#loc313 = loc("model.visual.blocks.5.attn.q.bias_bf16")
#loc314 = loc("model.visual.blocks.5.attn.q.weight_bf16")
#loc315 = loc("model.visual.blocks.5.attn.v.bias_bf16")
#loc316 = loc("model.visual.blocks.5.attn.v.weight_bf16")
#loc317 = loc("model.visual.blocks.5.mlp.linear_fc1.bias_bf16")
#loc318 = loc("model.visual.blocks.5.mlp.linear_fc1.weight_bf16")
#loc319 = loc("model.visual.blocks.5.mlp.linear_fc2.bias_bf16")
#loc320 = loc("model.visual.blocks.5.mlp.linear_fc2.weight_bf16")
#loc321 = loc("model.visual.blocks.5.norm1.bias_bf16")
#loc322 = loc("model.visual.blocks.5.norm1.weight_bf16")
#loc323 = loc("model.visual.blocks.5.norm2.bias_bf16")
#loc324 = loc("model.visual.blocks.5.norm2.weight_bf16")
#loc325 = loc("model.visual.blocks.6.attn.k.bias_bf16")
#loc326 = loc("model.visual.blocks.6.attn.k.weight_bf16")
#loc327 = loc("model.visual.blocks.6.attn.proj.bias_bf16")
#loc328 = loc("model.visual.blocks.6.attn.proj.weight_bf16")
#loc329 = loc("model.visual.blocks.6.attn.q.bias_bf16")
#loc330 = loc("model.visual.blocks.6.attn.q.weight_bf16")
#loc331 = loc("model.visual.blocks.6.attn.v.bias_bf16")
#loc332 = loc("model.visual.blocks.6.attn.v.weight_bf16")
#loc333 = loc("model.visual.blocks.6.mlp.linear_fc1.bias_bf16")
#loc334 = loc("model.visual.blocks.6.mlp.linear_fc1.weight_bf16")
#loc335 = loc("model.visual.blocks.6.mlp.linear_fc2.bias_bf16")
#loc336 = loc("model.visual.blocks.6.mlp.linear_fc2.weight_bf16")
#loc337 = loc("model.visual.blocks.6.norm1.bias_bf16")
#loc338 = loc("model.visual.blocks.6.norm1.weight_bf16")
#loc339 = loc("model.visual.blocks.6.norm2.bias_bf16")
#loc340 = loc("model.visual.blocks.6.norm2.weight_bf16")
#loc341 = loc("model.visual.blocks.7.attn.k.bias_bf16")
#loc342 = loc("model.visual.blocks.7.attn.k.weight_bf16")
#loc343 = loc("model.visual.blocks.7.attn.proj.bias_bf16")
#loc344 = loc("model.visual.blocks.7.attn.proj.weight_bf16")
#loc345 = loc("model.visual.blocks.7.attn.q.bias_bf16")
#loc346 = loc("model.visual.blocks.7.attn.q.weight_bf16")
#loc347 = loc("model.visual.blocks.7.attn.v.bias_bf16")
#loc348 = loc("model.visual.blocks.7.attn.v.weight_bf16")
#loc349 = loc("model.visual.blocks.7.mlp.linear_fc1.bias_bf16")
#loc350 = loc("model.visual.blocks.7.mlp.linear_fc1.weight_bf16")
#loc351 = loc("model.visual.blocks.7.mlp.linear_fc2.bias_bf16")
#loc352 = loc("model.visual.blocks.7.mlp.linear_fc2.weight_bf16")
#loc353 = loc("model.visual.blocks.7.norm1.bias_bf16")
#loc354 = loc("model.visual.blocks.7.norm1.weight_bf16")
#loc355 = loc("model.visual.blocks.7.norm2.bias_bf16")
#loc356 = loc("model.visual.blocks.7.norm2.weight_bf16")
#loc357 = loc("model.visual.blocks.8.attn.k.bias_bf16")
#loc358 = loc("model.visual.blocks.8.attn.k.weight_bf16")
#loc359 = loc("model.visual.blocks.8.attn.proj.bias_bf16")
#loc360 = loc("model.visual.blocks.8.attn.proj.weight_bf16")
#loc361 = loc("model.visual.blocks.8.attn.q.bias_bf16")
#loc362 = loc("model.visual.blocks.8.attn.q.weight_bf16")
#loc363 = loc("model.visual.blocks.8.attn.v.bias_bf16")
#loc364 = loc("model.visual.blocks.8.attn.v.weight_bf16")
#loc365 = loc("model.visual.blocks.8.mlp.linear_fc1.bias_bf16")
#loc366 = loc("model.visual.blocks.8.mlp.linear_fc1.weight_bf16")
#loc367 = loc("model.visual.blocks.8.mlp.linear_fc2.bias_bf16")
#loc368 = loc("model.visual.blocks.8.mlp.linear_fc2.weight_bf16")
#loc369 = loc("model.visual.blocks.8.norm1.bias_bf16")
#loc370 = loc("model.visual.blocks.8.norm1.weight_bf16")
#loc371 = loc("model.visual.blocks.8.norm2.bias_bf16")
#loc372 = loc("model.visual.blocks.8.norm2.weight_bf16")
#loc373 = loc("model.visual.blocks.9.attn.k.bias_bf16")
#loc374 = loc("model.visual.blocks.9.attn.k.weight_bf16")
#loc375 = loc("model.visual.blocks.9.attn.proj.bias_bf16")
#loc376 = loc("model.visual.blocks.9.attn.proj.weight_bf16")
#loc377 = loc("model.visual.blocks.9.attn.q.bias_bf16")
#loc378 = loc("model.visual.blocks.9.attn.q.weight_bf16")
#loc379 = loc("model.visual.blocks.9.attn.v.bias_bf16")
#loc380 = loc("model.visual.blocks.9.attn.v.weight_bf16")
#loc381 = loc("model.visual.blocks.9.mlp.linear_fc1.bias_bf16")
#loc382 = loc("model.visual.blocks.9.mlp.linear_fc1.weight_bf16")
#loc383 = loc("model.visual.blocks.9.mlp.linear_fc2.bias_bf16")
#loc384 = loc("model.visual.blocks.9.mlp.linear_fc2.weight_bf16")
#loc385 = loc("model.visual.blocks.9.norm1.bias_bf16")
#loc386 = loc("model.visual.blocks.9.norm1.weight_bf16")
#loc387 = loc("model.visual.blocks.9.norm2.bias_bf16")
#loc388 = loc("model.visual.blocks.9.norm2.weight_bf16")
#loc389 = loc("model.visual.merger.linear_fc1.bias_bf16")
#loc390 = loc("model.visual.merger.linear_fc1.weight_bf16")
#loc391 = loc("model.visual.merger.linear_fc2.bias_bf16")
#loc392 = loc("model.visual.merger.linear_fc2.weight_bf16")
#loc393 = loc("model.visual.merger.norm.bias_bf16")
#loc394 = loc("model.visual.merger.norm.weight_bf16")
#loc395 = loc("model.visual.patch_embed.proj.bias_bf16")
#loc396 = loc("model.visual.patch_embed.proj.weight_bf16")
#loc397 = loc("model.visual.pos_embed.weight_bf16")
#loc398 = loc("model.visual.rotary.cos.weight_bf16")
#loc399 = loc("model.visual.rotary.sin.weight_bf16")
#loc400 = loc("input_statesmodel.visual.patch_embed.proj_bf16")
#loc401 = loc("pos_weightmodel.visual.pos_embed.mul_bf16")
#loc402 = loc("model.visual.patch_embed.proj")
#loc403 = loc("model.visual.pos_embed")
#loc404 = loc("model.visual.pos_embed.mul")
#loc405 = loc("model.visual.pos_embed.sum")
#loc406 = loc("model.visual.pos_embed.add")
#loc407 = loc("model.visual.rotary.cos")
#loc408 = loc("model.visual.rotary.cos.reshape")
#loc409 = loc("model.visual.rotary.cos.tile")
#loc410 = loc("model.visual.rotary.cos.tilemodel.visual.blocks.0.attn.q.rotary_f32")
#loc411 = loc("model.visual.rotary.sin")
#loc412 = loc("model.visual.rotary.sin.reshape")
#loc413 = loc("model.visual.rotary.sin.tile")
#loc414 = loc("model.visual.rotary.sin.tilemodel.visual.blocks.0.attn.q.rotary_f32")
#loc415 = loc("model.visual.blocks.0.norm1")
#loc416 = loc("model.visual.blocks.0.attn.v")
#loc417 = loc("model.visual.blocks.0.attn.k")
#loc418 = loc("model.visual.blocks.0.attn.q")
#loc419 = loc("model.visual.blocks.0.attn.v.reshape")
#loc420 = loc("model.visual.blocks.0.attn.k.reshape")
#loc421 = loc("model.visual.blocks.0.attn.q.reshape")
#loc422 = loc("model.visual.blocks.0.attn.q.rotarymodel.visual.blocks.0.fattention_bf16")
#loc423 = loc("model.visual.blocks.0.attn.k.rotarymodel.visual.blocks.0.fattention_bf16")
#loc424 = loc("load_model.visual.blocks.0.attn.q.reshape")
#loc425 = loc("load_model.visual.blocks.0.attn.k.reshape")
#loc426 = loc("model.visual.blocks.0.attn.q.reshapemodel.visual.blocks.0.attn.q.rotary_f32")
#loc427 = loc("load_model.visual.rotary.sin.tilemodel.visual.blocks.0.attn.q.rotary_f32")
#loc428 = loc("load_model.visual.rotary.cos.tilemodel.visual.blocks.0.attn.q.rotary_f32")
#loc429 = loc("model.visual.blocks.0.attn.k.reshapemodel.visual.blocks.0.attn.k.rotary_f32")
#loc430 = loc("model.visual.blocks.0.attn.q.rotary")
#loc431 = loc("model.visual.blocks.0.attn.k.rotary")
#loc432 = loc("model.visual.blocks.0.fattention")
#loc433 = loc("model.visual.blocks.0.fattention.reshape")
#loc434 = loc("model.visual.blocks.0.attn.proj")
#loc435 = loc("model.visual.blocks.0.attn.proj.add")
#loc436 = loc("model.visual.blocks.0.norm2")
#loc437 = loc("model.visual.blocks.0.mlp.linear_fc1")
#loc438 = loc("model.visual.blocks.0.mlp.linear_fc1model.visual.blocks.0.mlp.linear_fc1.gelu_f32")
#loc439 = loc("model.visual.blocks.0.mlp.linear_fc1.gelu")
#loc440 = loc("model.visual.blocks.0.mlp.linear_fc1.gelumodel.visual.blocks.0.mlp.linear_fc2_bf16")
#loc441 = loc("model.visual.blocks.0.mlp.linear_fc2")
#loc442 = loc("model.visual.blocks.0.mlp.linear_fc2.add")
#loc443 = loc("model.visual.blocks.1.norm1")
#loc444 = loc("model.visual.blocks.1.attn.v")
#loc445 = loc("model.visual.blocks.1.attn.k")
#loc446 = loc("model.visual.blocks.1.attn.q")
#loc447 = loc("model.visual.blocks.1.attn.v.reshape")
#loc448 = loc("model.visual.blocks.1.attn.k.reshape")
#loc449 = loc("model.visual.blocks.1.attn.q.reshape")
#loc450 = loc("model.visual.blocks.1.attn.q.rotarymodel.visual.blocks.1.fattention_bf16")
#loc451 = loc("model.visual.blocks.1.attn.k.rotarymodel.visual.blocks.1.fattention_bf16")
#loc452 = loc("load_model.visual.blocks.1.attn.q.reshape")
#loc453 = loc("load_model.visual.blocks.1.attn.k.reshape")
#loc454 = loc("model.visual.blocks.1.attn.q.reshapemodel.visual.blocks.1.attn.q.rotary_f32")
#loc455 = loc("model.visual.blocks.1.attn.k.reshapemodel.visual.blocks.1.attn.k.rotary_f32")
#loc456 = loc("model.visual.blocks.1.attn.q.rotary")
#loc457 = loc("model.visual.blocks.1.attn.k.rotary")
#loc458 = loc("model.visual.blocks.1.fattention")
#loc459 = loc("model.visual.blocks.1.fattention.reshape")
#loc460 = loc("model.visual.blocks.1.attn.proj")
#loc461 = loc("model.visual.blocks.1.attn.proj.add")
#loc462 = loc("model.visual.blocks.1.norm2")
#loc463 = loc("model.visual.blocks.1.mlp.linear_fc1")
#loc464 = loc("model.visual.blocks.1.mlp.linear_fc1model.visual.blocks.1.mlp.linear_fc1.gelu_f32")
#loc465 = loc("model.visual.blocks.1.mlp.linear_fc1.gelu")
#loc466 = loc("model.visual.blocks.1.mlp.linear_fc1.gelumodel.visual.blocks.1.mlp.linear_fc2_bf16")
#loc467 = loc("model.visual.blocks.1.mlp.linear_fc2")
#loc468 = loc("model.visual.blocks.1.mlp.linear_fc2.add")
#loc469 = loc("model.visual.blocks.2.norm1")
#loc470 = loc("model.visual.blocks.2.attn.v")
#loc471 = loc("model.visual.blocks.2.attn.k")
#loc472 = loc("model.visual.blocks.2.attn.q")
#loc473 = loc("model.visual.blocks.2.attn.v.reshape")
#loc474 = loc("model.visual.blocks.2.attn.k.reshape")
#loc475 = loc("model.visual.blocks.2.attn.q.reshape")
#loc476 = loc("model.visual.blocks.2.attn.q.rotarymodel.visual.blocks.2.fattention_bf16")
#loc477 = loc("model.visual.blocks.2.attn.k.rotarymodel.visual.blocks.2.fattention_bf16")
#loc478 = loc("load_model.visual.blocks.2.attn.q.reshape")
#loc479 = loc("load_model.visual.blocks.2.attn.k.reshape")
#loc480 = loc("model.visual.blocks.2.attn.q.reshapemodel.visual.blocks.2.attn.q.rotary_f32")
#loc481 = loc("model.visual.blocks.2.attn.k.reshapemodel.visual.blocks.2.attn.k.rotary_f32")
#loc482 = loc("model.visual.blocks.2.attn.q.rotary")
#loc483 = loc("model.visual.blocks.2.attn.k.rotary")
#loc484 = loc("model.visual.blocks.2.fattention")
#loc485 = loc("model.visual.blocks.2.fattention.reshape")
#loc486 = loc("model.visual.blocks.2.attn.proj")
#loc487 = loc("model.visual.blocks.2.attn.proj.add")
#loc488 = loc("model.visual.blocks.2.norm2")
#loc489 = loc("model.visual.blocks.2.mlp.linear_fc1")
#loc490 = loc("model.visual.blocks.2.mlp.linear_fc1model.visual.blocks.2.mlp.linear_fc1.gelu_f32")
#loc491 = loc("model.visual.blocks.2.mlp.linear_fc1.gelu")
#loc492 = loc("model.visual.blocks.2.mlp.linear_fc1.gelumodel.visual.blocks.2.mlp.linear_fc2_bf16")
#loc493 = loc("model.visual.blocks.2.mlp.linear_fc2")
#loc494 = loc("model.visual.blocks.2.mlp.linear_fc2.add")
#loc495 = loc("model.visual.blocks.3.norm1")
#loc496 = loc("model.visual.blocks.3.attn.v")
#loc497 = loc("model.visual.blocks.3.attn.k")
#loc498 = loc("model.visual.blocks.3.attn.q")
#loc499 = loc("model.visual.blocks.3.attn.v.reshape")
#loc500 = loc("model.visual.blocks.3.attn.k.reshape")
#loc501 = loc("model.visual.blocks.3.attn.q.reshape")
#loc502 = loc("model.visual.blocks.3.attn.q.rotarymodel.visual.blocks.3.fattention_bf16")
#loc503 = loc("model.visual.blocks.3.attn.k.rotarymodel.visual.blocks.3.fattention_bf16")
#loc504 = loc("load_model.visual.blocks.3.attn.q.reshape")
#loc505 = loc("load_model.visual.blocks.3.attn.k.reshape")
#loc506 = loc("model.visual.blocks.3.attn.q.reshapemodel.visual.blocks.3.attn.q.rotary_f32")
#loc507 = loc("model.visual.blocks.3.attn.k.reshapemodel.visual.blocks.3.attn.k.rotary_f32")
#loc508 = loc("model.visual.blocks.3.attn.q.rotary")
#loc509 = loc("model.visual.blocks.3.attn.k.rotary")
#loc510 = loc("model.visual.blocks.3.fattention")
#loc511 = loc("model.visual.blocks.3.fattention.reshape")
#loc512 = loc("model.visual.blocks.3.attn.proj")
#loc513 = loc("model.visual.blocks.3.attn.proj.add")
#loc514 = loc("model.visual.blocks.3.norm2")
#loc515 = loc("model.visual.blocks.3.mlp.linear_fc1")
#loc516 = loc("model.visual.blocks.3.mlp.linear_fc1model.visual.blocks.3.mlp.linear_fc1.gelu_f32")
#loc517 = loc("model.visual.blocks.3.mlp.linear_fc1.gelu")
#loc518 = loc("model.visual.blocks.3.mlp.linear_fc1.gelumodel.visual.blocks.3.mlp.linear_fc2_bf16")
#loc519 = loc("model.visual.blocks.3.mlp.linear_fc2")
#loc520 = loc("model.visual.blocks.3.mlp.linear_fc2.add")
#loc521 = loc("model.visual.blocks.4.norm1")
#loc522 = loc("model.visual.blocks.4.attn.v")
#loc523 = loc("model.visual.blocks.4.attn.k")
#loc524 = loc("model.visual.blocks.4.attn.q")
#loc525 = loc("model.visual.blocks.4.attn.v.reshape")
#loc526 = loc("model.visual.blocks.4.attn.k.reshape")
#loc527 = loc("model.visual.blocks.4.attn.q.reshape")
#loc528 = loc("model.visual.blocks.4.attn.q.rotarymodel.visual.blocks.4.fattention_bf16")
#loc529 = loc("model.visual.blocks.4.attn.k.rotarymodel.visual.blocks.4.fattention_bf16")
#loc530 = loc("load_model.visual.blocks.4.attn.q.reshape")
#loc531 = loc("load_model.visual.blocks.4.attn.k.reshape")
#loc532 = loc("model.visual.blocks.4.attn.q.reshapemodel.visual.blocks.4.attn.q.rotary_f32")
#loc533 = loc("model.visual.blocks.4.attn.k.reshapemodel.visual.blocks.4.attn.k.rotary_f32")
#loc534 = loc("model.visual.blocks.4.attn.q.rotary")
#loc535 = loc("model.visual.blocks.4.attn.k.rotary")
#loc536 = loc("model.visual.blocks.4.fattention")
#loc537 = loc("model.visual.blocks.4.fattention.reshape")
#loc538 = loc("model.visual.blocks.4.attn.proj")
#loc539 = loc("model.visual.blocks.4.attn.proj.add")
#loc540 = loc("model.visual.blocks.4.norm2")
#loc541 = loc("model.visual.blocks.4.mlp.linear_fc1")
#loc542 = loc("model.visual.blocks.4.mlp.linear_fc1model.visual.blocks.4.mlp.linear_fc1.gelu_f32")
#loc543 = loc("model.visual.blocks.4.mlp.linear_fc1.gelu")
#loc544 = loc("model.visual.blocks.4.mlp.linear_fc1.gelumodel.visual.blocks.4.mlp.linear_fc2_bf16")
#loc545 = loc("model.visual.blocks.4.mlp.linear_fc2")
#loc546 = loc("model.visual.blocks.4.mlp.linear_fc2.add")
#loc547 = loc("model.visual.blocks.5.norm1")
#loc548 = loc("model.visual.blocks.5.attn.v")
#loc549 = loc("model.visual.blocks.5.attn.k")
#loc550 = loc("model.visual.blocks.5.attn.q")
#loc551 = loc("model.visual.blocks.5.attn.v.reshape")
#loc552 = loc("model.visual.blocks.5.attn.k.reshape")
#loc553 = loc("model.visual.blocks.5.attn.q.reshape")
#loc554 = loc("model.visual.blocks.5.attn.q.rotarymodel.visual.blocks.5.fattention_bf16")
#loc555 = loc("model.visual.blocks.5.attn.k.rotarymodel.visual.blocks.5.fattention_bf16")
#loc556 = loc("load_model.visual.blocks.5.attn.q.reshape")
#loc557 = loc("load_model.visual.blocks.5.attn.k.reshape")
#loc558 = loc("model.visual.blocks.5.attn.q.reshapemodel.visual.blocks.5.attn.q.rotary_f32")
#loc559 = loc("model.visual.blocks.5.attn.k.reshapemodel.visual.blocks.5.attn.k.rotary_f32")
#loc560 = loc("model.visual.blocks.5.attn.q.rotary")
#loc561 = loc("model.visual.blocks.5.attn.k.rotary")
#loc562 = loc("model.visual.blocks.5.fattention")
#loc563 = loc("model.visual.blocks.5.fattention.reshape")
#loc564 = loc("model.visual.blocks.5.attn.proj")
#loc565 = loc("model.visual.blocks.5.attn.proj.add")
#loc566 = loc("model.visual.blocks.5.norm2")
#loc567 = loc("model.visual.blocks.5.mlp.linear_fc1")
#loc568 = loc("model.visual.blocks.5.mlp.linear_fc1model.visual.blocks.5.mlp.linear_fc1.gelu_f32")
#loc569 = loc("model.visual.blocks.5.mlp.linear_fc1.gelu")
#loc570 = loc("model.visual.blocks.5.mlp.linear_fc1.gelumodel.visual.blocks.5.mlp.linear_fc2_bf16")
#loc571 = loc("model.visual.blocks.5.mlp.linear_fc2")
#loc572 = loc("model.visual.blocks.5.mlp.linear_fc2.add")
#loc573 = loc("model.visual.blocks.6.norm1")
#loc574 = loc("model.visual.blocks.6.attn.v")
#loc575 = loc("model.visual.blocks.6.attn.k")
#loc576 = loc("model.visual.blocks.6.attn.q")
#loc577 = loc("model.visual.blocks.6.attn.v.reshape")
#loc578 = loc("model.visual.blocks.6.attn.k.reshape")
#loc579 = loc("model.visual.blocks.6.attn.q.reshape")
#loc580 = loc("model.visual.blocks.6.attn.q.rotarymodel.visual.blocks.6.fattention_bf16")
#loc581 = loc("model.visual.blocks.6.attn.k.rotarymodel.visual.blocks.6.fattention_bf16")
#loc582 = loc("load_model.visual.blocks.6.attn.q.reshape")
#loc583 = loc("load_model.visual.blocks.6.attn.k.reshape")
#loc584 = loc("model.visual.blocks.6.attn.q.reshapemodel.visual.blocks.6.attn.q.rotary_f32")
#loc585 = loc("model.visual.blocks.6.attn.k.reshapemodel.visual.blocks.6.attn.k.rotary_f32")
#loc586 = loc("model.visual.blocks.6.attn.q.rotary")
#loc587 = loc("model.visual.blocks.6.attn.k.rotary")
#loc588 = loc("model.visual.blocks.6.fattention")
#loc589 = loc("model.visual.blocks.6.fattention.reshape")
#loc590 = loc("model.visual.blocks.6.attn.proj")
#loc591 = loc("model.visual.blocks.6.attn.proj.add")
#loc592 = loc("model.visual.blocks.6.norm2")
#loc593 = loc("model.visual.blocks.6.mlp.linear_fc1")
#loc594 = loc("model.visual.blocks.6.mlp.linear_fc1model.visual.blocks.6.mlp.linear_fc1.gelu_f32")
#loc595 = loc("model.visual.blocks.6.mlp.linear_fc1.gelu")
#loc596 = loc("model.visual.blocks.6.mlp.linear_fc1.gelumodel.visual.blocks.6.mlp.linear_fc2_bf16")
#loc597 = loc("model.visual.blocks.6.mlp.linear_fc2")
#loc598 = loc("model.visual.blocks.6.mlp.linear_fc2.add")
#loc599 = loc("model.visual.blocks.7.norm1")
#loc600 = loc("model.visual.blocks.7.attn.v")
#loc601 = loc("model.visual.blocks.7.attn.k")
#loc602 = loc("model.visual.blocks.7.attn.q")
#loc603 = loc("model.visual.blocks.7.attn.v.reshape")
#loc604 = loc("model.visual.blocks.7.attn.k.reshape")
#loc605 = loc("model.visual.blocks.7.attn.q.reshape")
#loc606 = loc("model.visual.blocks.7.attn.q.rotarymodel.visual.blocks.7.fattention_bf16")
#loc607 = loc("model.visual.blocks.7.attn.k.rotarymodel.visual.blocks.7.fattention_bf16")
#loc608 = loc("load_model.visual.blocks.7.attn.q.reshape")
#loc609 = loc("load_model.visual.blocks.7.attn.k.reshape")
#loc610 = loc("model.visual.blocks.7.attn.q.reshapemodel.visual.blocks.7.attn.q.rotary_f32")
#loc611 = loc("model.visual.blocks.7.attn.k.reshapemodel.visual.blocks.7.attn.k.rotary_f32")
#loc612 = loc("model.visual.blocks.7.attn.q.rotary")
#loc613 = loc("model.visual.blocks.7.attn.k.rotary")
#loc614 = loc("model.visual.blocks.7.fattention")
#loc615 = loc("model.visual.blocks.7.fattention.reshape")
#loc616 = loc("model.visual.blocks.7.attn.proj")
#loc617 = loc("model.visual.blocks.7.attn.proj.add")
#loc618 = loc("model.visual.blocks.7.norm2")
#loc619 = loc("model.visual.blocks.7.mlp.linear_fc1")
#loc620 = loc("model.visual.blocks.7.mlp.linear_fc1model.visual.blocks.7.mlp.linear_fc1.gelu_f32")
#loc621 = loc("model.visual.blocks.7.mlp.linear_fc1.gelu")
#loc622 = loc("model.visual.blocks.7.mlp.linear_fc1.gelumodel.visual.blocks.7.mlp.linear_fc2_bf16")
#loc623 = loc("model.visual.blocks.7.mlp.linear_fc2")
#loc624 = loc("model.visual.blocks.7.mlp.linear_fc2.add")
#loc625 = loc("model.visual.blocks.8.norm1")
#loc626 = loc("model.visual.blocks.8.attn.v")
#loc627 = loc("model.visual.blocks.8.attn.k")
#loc628 = loc("model.visual.blocks.8.attn.q")
#loc629 = loc("model.visual.blocks.8.attn.v.reshape")
#loc630 = loc("model.visual.blocks.8.attn.k.reshape")
#loc631 = loc("model.visual.blocks.8.attn.q.reshape")
#loc632 = loc("model.visual.blocks.8.attn.q.rotarymodel.visual.blocks.8.fattention_bf16")
#loc633 = loc("model.visual.blocks.8.attn.k.rotarymodel.visual.blocks.8.fattention_bf16")
#loc634 = loc("load_model.visual.blocks.8.attn.q.reshape")
#loc635 = loc("load_model.visual.blocks.8.attn.k.reshape")
#loc636 = loc("model.visual.blocks.8.attn.q.reshapemodel.visual.blocks.8.attn.q.rotary_f32")
#loc637 = loc("model.visual.blocks.8.attn.k.reshapemodel.visual.blocks.8.attn.k.rotary_f32")
#loc638 = loc("model.visual.blocks.8.attn.q.rotary")
#loc639 = loc("model.visual.blocks.8.attn.k.rotary")
#loc640 = loc("model.visual.blocks.8.fattention")
#loc641 = loc("model.visual.blocks.8.fattention.reshape")
#loc642 = loc("model.visual.blocks.8.attn.proj")
#loc643 = loc("model.visual.blocks.8.attn.proj.add")
#loc644 = loc("model.visual.blocks.8.norm2")
#loc645 = loc("model.visual.blocks.8.mlp.linear_fc1")
#loc646 = loc("model.visual.blocks.8.mlp.linear_fc1model.visual.blocks.8.mlp.linear_fc1.gelu_f32")
#loc647 = loc("model.visual.blocks.8.mlp.linear_fc1.gelu")
#loc648 = loc("model.visual.blocks.8.mlp.linear_fc1.gelumodel.visual.blocks.8.mlp.linear_fc2_bf16")
#loc649 = loc("model.visual.blocks.8.mlp.linear_fc2")
#loc650 = loc("model.visual.blocks.8.mlp.linear_fc2.add")
#loc651 = loc("model.visual.blocks.9.norm1")
#loc652 = loc("model.visual.blocks.9.attn.v")
#loc653 = loc("model.visual.blocks.9.attn.k")
#loc654 = loc("model.visual.blocks.9.attn.q")
#loc655 = loc("model.visual.blocks.9.attn.v.reshape")
#loc656 = loc("model.visual.blocks.9.attn.k.reshape")
#loc657 = loc("model.visual.blocks.9.attn.q.reshape")
#loc658 = loc("model.visual.blocks.9.attn.q.rotarymodel.visual.blocks.9.fattention_bf16")
#loc659 = loc("model.visual.blocks.9.attn.k.rotarymodel.visual.blocks.9.fattention_bf16")
#loc660 = loc("load_model.visual.blocks.9.attn.q.reshape")
#loc661 = loc("load_model.visual.blocks.9.attn.k.reshape")
#loc662 = loc("model.visual.blocks.9.attn.q.reshapemodel.visual.blocks.9.attn.q.rotary_f32")
#loc663 = loc("model.visual.blocks.9.attn.k.reshapemodel.visual.blocks.9.attn.k.rotary_f32")
#loc664 = loc("model.visual.blocks.9.attn.q.rotary")
#loc665 = loc("model.visual.blocks.9.attn.k.rotary")
#loc666 = loc("model.visual.blocks.9.fattention")
#loc667 = loc("model.visual.blocks.9.fattention.reshape")
#loc668 = loc("model.visual.blocks.9.attn.proj")
#loc669 = loc("model.visual.blocks.9.attn.proj.add")
#loc670 = loc("model.visual.blocks.9.norm2")
#loc671 = loc("model.visual.blocks.9.mlp.linear_fc1")
#loc672 = loc("model.visual.blocks.9.mlp.linear_fc1model.visual.blocks.9.mlp.linear_fc1.gelu_f32")
#loc673 = loc("model.visual.blocks.9.mlp.linear_fc1.gelu")
#loc674 = loc("model.visual.blocks.9.mlp.linear_fc1.gelumodel.visual.blocks.9.mlp.linear_fc2_bf16")
#loc675 = loc("model.visual.blocks.9.mlp.linear_fc2")
#loc676 = loc("model.visual.blocks.9.mlp.linear_fc2.add")
#loc677 = loc("model.visual.blocks.10.norm1")
#loc678 = loc("model.visual.blocks.10.attn.v")
#loc679 = loc("model.visual.blocks.10.attn.k")
#loc680 = loc("model.visual.blocks.10.attn.q")
#loc681 = loc("model.visual.blocks.10.attn.v.reshape")
#loc682 = loc("model.visual.blocks.10.attn.k.reshape")
#loc683 = loc("model.visual.blocks.10.attn.q.reshape")
#loc684 = loc("model.visual.blocks.10.attn.q.rotarymodel.visual.blocks.10.fattention_bf16")
#loc685 = loc("model.visual.blocks.10.attn.k.rotarymodel.visual.blocks.10.fattention_bf16")
#loc686 = loc("load_model.visual.blocks.10.attn.q.reshape")
#loc687 = loc("load_model.visual.blocks.10.attn.k.reshape")
#loc688 = loc("model.visual.blocks.10.attn.q.reshapemodel.visual.blocks.10.attn.q.rotary_f32")
#loc689 = loc("model.visual.blocks.10.attn.k.reshapemodel.visual.blocks.10.attn.k.rotary_f32")
#loc690 = loc("model.visual.blocks.10.attn.q.rotary")
#loc691 = loc("model.visual.blocks.10.attn.k.rotary")
#loc692 = loc("model.visual.blocks.10.fattention")
#loc693 = loc("model.visual.blocks.10.fattention.reshape")
#loc694 = loc("model.visual.blocks.10.attn.proj")
#loc695 = loc("model.visual.blocks.10.attn.proj.add")
#loc696 = loc("model.visual.blocks.10.norm2")
#loc697 = loc("model.visual.blocks.10.mlp.linear_fc1")
#loc698 = loc("model.visual.blocks.10.mlp.linear_fc1model.visual.blocks.10.mlp.linear_fc1.gelu_f32")
#loc699 = loc("model.visual.blocks.10.mlp.linear_fc1.gelu")
#loc700 = loc("model.visual.blocks.10.mlp.linear_fc1.gelumodel.visual.blocks.10.mlp.linear_fc2_bf16")
#loc701 = loc("model.visual.blocks.10.mlp.linear_fc2")
#loc702 = loc("model.visual.blocks.10.mlp.linear_fc2.add")
#loc703 = loc("model.visual.blocks.11.norm1")
#loc704 = loc("model.visual.blocks.11.attn.v")
#loc705 = loc("model.visual.blocks.11.attn.k")
#loc706 = loc("model.visual.blocks.11.attn.q")
#loc707 = loc("model.visual.blocks.11.attn.v.reshape")
#loc708 = loc("model.visual.blocks.11.attn.k.reshape")
#loc709 = loc("model.visual.blocks.11.attn.q.reshape")
#loc710 = loc("model.visual.blocks.11.attn.q.rotarymodel.visual.blocks.11.fattention_bf16")
#loc711 = loc("model.visual.blocks.11.attn.k.rotarymodel.visual.blocks.11.fattention_bf16")
#loc712 = loc("load_model.visual.blocks.11.attn.q.reshape")
#loc713 = loc("load_model.visual.blocks.11.attn.k.reshape")
#loc714 = loc("model.visual.blocks.11.attn.q.reshapemodel.visual.blocks.11.attn.q.rotary_f32")
#loc715 = loc("model.visual.blocks.11.attn.k.reshapemodel.visual.blocks.11.attn.k.rotary_f32")
#loc716 = loc("model.visual.blocks.11.attn.q.rotary")
#loc717 = loc("model.visual.blocks.11.attn.k.rotary")
#loc718 = loc("model.visual.blocks.11.fattention")
#loc719 = loc("model.visual.blocks.11.fattention.reshape")
#loc720 = loc("model.visual.blocks.11.attn.proj")
#loc721 = loc("model.visual.blocks.11.attn.proj.add")
#loc722 = loc("model.visual.blocks.11.norm2")
#loc723 = loc("model.visual.blocks.11.mlp.linear_fc1")
#loc724 = loc("model.visual.blocks.11.mlp.linear_fc1model.visual.blocks.11.mlp.linear_fc1.gelu_f32")
#loc725 = loc("model.visual.blocks.11.mlp.linear_fc1.gelu")
#loc726 = loc("model.visual.blocks.11.mlp.linear_fc1.gelumodel.visual.blocks.11.mlp.linear_fc2_bf16")
#loc727 = loc("model.visual.blocks.11.mlp.linear_fc2")
#loc728 = loc("model.visual.blocks.11.mlp.linear_fc2.add")
#loc729 = loc("model.visual.blocks.12.norm1")
#loc730 = loc("model.visual.blocks.12.attn.v")
#loc731 = loc("model.visual.blocks.12.attn.k")
#loc732 = loc("model.visual.blocks.12.attn.q")
#loc733 = loc("model.visual.blocks.12.attn.v.reshape")
#loc734 = loc("model.visual.blocks.12.attn.k.reshape")
#loc735 = loc("model.visual.blocks.12.attn.q.reshape")
#loc736 = loc("model.visual.blocks.12.attn.q.rotarymodel.visual.blocks.12.fattention_bf16")
#loc737 = loc("model.visual.blocks.12.attn.k.rotarymodel.visual.blocks.12.fattention_bf16")
#loc738 = loc("load_model.visual.blocks.12.attn.q.reshape")
#loc739 = loc("load_model.visual.blocks.12.attn.k.reshape")
#loc740 = loc("model.visual.blocks.12.attn.q.reshapemodel.visual.blocks.12.attn.q.rotary_f32")
#loc741 = loc("model.visual.blocks.12.attn.k.reshapemodel.visual.blocks.12.attn.k.rotary_f32")
#loc742 = loc("model.visual.blocks.12.attn.q.rotary")
#loc743 = loc("model.visual.blocks.12.attn.k.rotary")
#loc744 = loc("model.visual.blocks.12.fattention")
#loc745 = loc("model.visual.blocks.12.fattention.reshape")
#loc746 = loc("model.visual.blocks.12.attn.proj")
#loc747 = loc("model.visual.blocks.12.attn.proj.add")
#loc748 = loc("model.visual.blocks.12.norm2")
#loc749 = loc("model.visual.blocks.12.mlp.linear_fc1")
#loc750 = loc("model.visual.blocks.12.mlp.linear_fc1model.visual.blocks.12.mlp.linear_fc1.gelu_f32")
#loc751 = loc("model.visual.blocks.12.mlp.linear_fc1.gelu")
#loc752 = loc("model.visual.blocks.12.mlp.linear_fc1.gelumodel.visual.blocks.12.mlp.linear_fc2_bf16")
#loc753 = loc("model.visual.blocks.12.mlp.linear_fc2")
#loc754 = loc("model.visual.blocks.12.mlp.linear_fc2.add")
#loc755 = loc("model.visual.blocks.13.norm1")
#loc756 = loc("model.visual.blocks.13.attn.v")
#loc757 = loc("model.visual.blocks.13.attn.k")
#loc758 = loc("model.visual.blocks.13.attn.q")
#loc759 = loc("model.visual.blocks.13.attn.v.reshape")
#loc760 = loc("model.visual.blocks.13.attn.k.reshape")
#loc761 = loc("model.visual.blocks.13.attn.q.reshape")
#loc762 = loc("model.visual.blocks.13.attn.q.rotarymodel.visual.blocks.13.fattention_bf16")
#loc763 = loc("model.visual.blocks.13.attn.k.rotarymodel.visual.blocks.13.fattention_bf16")
#loc764 = loc("load_model.visual.blocks.13.attn.q.reshape")
#loc765 = loc("load_model.visual.blocks.13.attn.k.reshape")
#loc766 = loc("model.visual.blocks.13.attn.q.reshapemodel.visual.blocks.13.attn.q.rotary_f32")
#loc767 = loc("model.visual.blocks.13.attn.k.reshapemodel.visual.blocks.13.attn.k.rotary_f32")
#loc768 = loc("model.visual.blocks.13.attn.q.rotary")
#loc769 = loc("model.visual.blocks.13.attn.k.rotary")
#loc770 = loc("model.visual.blocks.13.fattention")
#loc771 = loc("model.visual.blocks.13.fattention.reshape")
#loc772 = loc("model.visual.blocks.13.attn.proj")
#loc773 = loc("model.visual.blocks.13.attn.proj.add")
#loc774 = loc("model.visual.blocks.13.norm2")
#loc775 = loc("model.visual.blocks.13.mlp.linear_fc1")
#loc776 = loc("model.visual.blocks.13.mlp.linear_fc1model.visual.blocks.13.mlp.linear_fc1.gelu_f32")
#loc777 = loc("model.visual.blocks.13.mlp.linear_fc1.gelu")
#loc778 = loc("model.visual.blocks.13.mlp.linear_fc1.gelumodel.visual.blocks.13.mlp.linear_fc2_bf16")
#loc779 = loc("model.visual.blocks.13.mlp.linear_fc2")
#loc780 = loc("model.visual.blocks.13.mlp.linear_fc2.add")
#loc781 = loc("model.visual.blocks.14.norm1")
#loc782 = loc("model.visual.blocks.14.attn.v")
#loc783 = loc("model.visual.blocks.14.attn.k")
#loc784 = loc("model.visual.blocks.14.attn.q")
#loc785 = loc("model.visual.blocks.14.attn.v.reshape")
#loc786 = loc("model.visual.blocks.14.attn.k.reshape")
#loc787 = loc("model.visual.blocks.14.attn.q.reshape")
#loc788 = loc("model.visual.blocks.14.attn.q.rotarymodel.visual.blocks.14.fattention_bf16")
#loc789 = loc("model.visual.blocks.14.attn.k.rotarymodel.visual.blocks.14.fattention_bf16")
#loc790 = loc("load_model.visual.blocks.14.attn.q.reshape")
#loc791 = loc("load_model.visual.blocks.14.attn.k.reshape")
#loc792 = loc("model.visual.blocks.14.attn.q.reshapemodel.visual.blocks.14.attn.q.rotary_f32")
#loc793 = loc("model.visual.blocks.14.attn.k.reshapemodel.visual.blocks.14.attn.k.rotary_f32")
#loc794 = loc("model.visual.blocks.14.attn.q.rotary")
#loc795 = loc("model.visual.blocks.14.attn.k.rotary")
#loc796 = loc("model.visual.blocks.14.fattention")
#loc797 = loc("model.visual.blocks.14.fattention.reshape")
#loc798 = loc("model.visual.blocks.14.attn.proj")
#loc799 = loc("model.visual.blocks.14.attn.proj.add")
#loc800 = loc("model.visual.blocks.14.norm2")
#loc801 = loc("model.visual.blocks.14.mlp.linear_fc1")
#loc802 = loc("model.visual.blocks.14.mlp.linear_fc1model.visual.blocks.14.mlp.linear_fc1.gelu_f32")
#loc803 = loc("model.visual.blocks.14.mlp.linear_fc1.gelu")
#loc804 = loc("model.visual.blocks.14.mlp.linear_fc1.gelumodel.visual.blocks.14.mlp.linear_fc2_bf16")
#loc805 = loc("model.visual.blocks.14.mlp.linear_fc2")
#loc806 = loc("model.visual.blocks.14.mlp.linear_fc2.add")
#loc807 = loc("model.visual.blocks.15.norm1")
#loc808 = loc("model.visual.blocks.15.attn.v")
#loc809 = loc("model.visual.blocks.15.attn.k")
#loc810 = loc("model.visual.blocks.15.attn.q")
#loc811 = loc("model.visual.blocks.15.attn.v.reshape")
#loc812 = loc("model.visual.blocks.15.attn.k.reshape")
#loc813 = loc("model.visual.blocks.15.attn.q.reshape")
#loc814 = loc("model.visual.blocks.15.attn.q.rotarymodel.visual.blocks.15.fattention_bf16")
#loc815 = loc("model.visual.blocks.15.attn.k.rotarymodel.visual.blocks.15.fattention_bf16")
#loc816 = loc("load_model.visual.blocks.15.attn.q.reshape")
#loc817 = loc("load_model.visual.blocks.15.attn.k.reshape")
#loc818 = loc("model.visual.blocks.15.attn.q.reshapemodel.visual.blocks.15.attn.q.rotary_f32")
#loc819 = loc("model.visual.blocks.15.attn.k.reshapemodel.visual.blocks.15.attn.k.rotary_f32")
#loc820 = loc("model.visual.blocks.15.attn.q.rotary")
#loc821 = loc("model.visual.blocks.15.attn.k.rotary")
#loc822 = loc("model.visual.blocks.15.fattention")
#loc823 = loc("model.visual.blocks.15.fattention.reshape")
#loc824 = loc("model.visual.blocks.15.attn.proj")
#loc825 = loc("model.visual.blocks.15.attn.proj.add")
#loc826 = loc("model.visual.blocks.15.norm2")
#loc827 = loc("model.visual.blocks.15.mlp.linear_fc1")
#loc828 = loc("model.visual.blocks.15.mlp.linear_fc1model.visual.blocks.15.mlp.linear_fc1.gelu_f32")
#loc829 = loc("model.visual.blocks.15.mlp.linear_fc1.gelu")
#loc830 = loc("model.visual.blocks.15.mlp.linear_fc1.gelumodel.visual.blocks.15.mlp.linear_fc2_bf16")
#loc831 = loc("model.visual.blocks.15.mlp.linear_fc2")
#loc832 = loc("model.visual.blocks.15.mlp.linear_fc2.add")
#loc833 = loc("model.visual.blocks.16.norm1")
#loc834 = loc("model.visual.blocks.16.attn.v")
#loc835 = loc("model.visual.blocks.16.attn.k")
#loc836 = loc("model.visual.blocks.16.attn.q")
#loc837 = loc("model.visual.blocks.16.attn.v.reshape")
#loc838 = loc("model.visual.blocks.16.attn.k.reshape")
#loc839 = loc("model.visual.blocks.16.attn.q.reshape")
#loc840 = loc("model.visual.blocks.16.attn.q.rotarymodel.visual.blocks.16.fattention_bf16")
#loc841 = loc("model.visual.blocks.16.attn.k.rotarymodel.visual.blocks.16.fattention_bf16")
#loc842 = loc("load_model.visual.blocks.16.attn.q.reshape")
#loc843 = loc("load_model.visual.blocks.16.attn.k.reshape")
#loc844 = loc("model.visual.blocks.16.attn.q.reshapemodel.visual.blocks.16.attn.q.rotary_f32")
#loc845 = loc("model.visual.blocks.16.attn.k.reshapemodel.visual.blocks.16.attn.k.rotary_f32")
#loc846 = loc("model.visual.blocks.16.attn.q.rotary")
#loc847 = loc("model.visual.blocks.16.attn.k.rotary")
#loc848 = loc("model.visual.blocks.16.fattention")
#loc849 = loc("model.visual.blocks.16.fattention.reshape")
#loc850 = loc("model.visual.blocks.16.attn.proj")
#loc851 = loc("model.visual.blocks.16.attn.proj.add")
#loc852 = loc("model.visual.blocks.16.norm2")
#loc853 = loc("model.visual.blocks.16.mlp.linear_fc1")
#loc854 = loc("model.visual.blocks.16.mlp.linear_fc1model.visual.blocks.16.mlp.linear_fc1.gelu_f32")
#loc855 = loc("model.visual.blocks.16.mlp.linear_fc1.gelu")
#loc856 = loc("model.visual.blocks.16.mlp.linear_fc1.gelumodel.visual.blocks.16.mlp.linear_fc2_bf16")
#loc857 = loc("model.visual.blocks.16.mlp.linear_fc2")
#loc858 = loc("model.visual.blocks.16.mlp.linear_fc2.add")
#loc859 = loc("model.visual.blocks.17.norm1")
#loc860 = loc("model.visual.blocks.17.attn.v")
#loc861 = loc("model.visual.blocks.17.attn.k")
#loc862 = loc("model.visual.blocks.17.attn.q")
#loc863 = loc("model.visual.blocks.17.attn.v.reshape")
#loc864 = loc("model.visual.blocks.17.attn.k.reshape")
#loc865 = loc("model.visual.blocks.17.attn.q.reshape")
#loc866 = loc("model.visual.blocks.17.attn.q.rotarymodel.visual.blocks.17.fattention_bf16")
#loc867 = loc("model.visual.blocks.17.attn.k.rotarymodel.visual.blocks.17.fattention_bf16")
#loc868 = loc("load_model.visual.blocks.17.attn.q.reshape")
#loc869 = loc("load_model.visual.blocks.17.attn.k.reshape")
#loc870 = loc("model.visual.blocks.17.attn.q.reshapemodel.visual.blocks.17.attn.q.rotary_f32")
#loc871 = loc("model.visual.blocks.17.attn.k.reshapemodel.visual.blocks.17.attn.k.rotary_f32")
#loc872 = loc("model.visual.blocks.17.attn.q.rotary")
#loc873 = loc("model.visual.blocks.17.attn.k.rotary")
#loc874 = loc("model.visual.blocks.17.fattention")
#loc875 = loc("model.visual.blocks.17.fattention.reshape")
#loc876 = loc("model.visual.blocks.17.attn.proj")
#loc877 = loc("model.visual.blocks.17.attn.proj.add")
#loc878 = loc("model.visual.blocks.17.norm2")
#loc879 = loc("model.visual.blocks.17.mlp.linear_fc1")
#loc880 = loc("model.visual.blocks.17.mlp.linear_fc1model.visual.blocks.17.mlp.linear_fc1.gelu_f32")
#loc881 = loc("model.visual.blocks.17.mlp.linear_fc1.gelu")
#loc882 = loc("model.visual.blocks.17.mlp.linear_fc1.gelumodel.visual.blocks.17.mlp.linear_fc2_bf16")
#loc883 = loc("model.visual.blocks.17.mlp.linear_fc2")
#loc884 = loc("model.visual.blocks.17.mlp.linear_fc2.add")
#loc885 = loc("model.visual.blocks.18.norm1")
#loc886 = loc("model.visual.blocks.18.attn.v")
#loc887 = loc("model.visual.blocks.18.attn.k")
#loc888 = loc("model.visual.blocks.18.attn.q")
#loc889 = loc("model.visual.blocks.18.attn.v.reshape")
#loc890 = loc("model.visual.blocks.18.attn.k.reshape")
#loc891 = loc("model.visual.blocks.18.attn.q.reshape")
#loc892 = loc("model.visual.blocks.18.attn.q.rotarymodel.visual.blocks.18.fattention_bf16")
#loc893 = loc("model.visual.blocks.18.attn.k.rotarymodel.visual.blocks.18.fattention_bf16")
#loc894 = loc("load_model.visual.blocks.18.attn.q.reshape")
#loc895 = loc("load_model.visual.blocks.18.attn.k.reshape")
#loc896 = loc("model.visual.blocks.18.attn.q.reshapemodel.visual.blocks.18.attn.q.rotary_f32")
#loc897 = loc("model.visual.blocks.18.attn.k.reshapemodel.visual.blocks.18.attn.k.rotary_f32")
#loc898 = loc("model.visual.blocks.18.attn.q.rotary")
#loc899 = loc("model.visual.blocks.18.attn.k.rotary")
#loc900 = loc("model.visual.blocks.18.fattention")
#loc901 = loc("model.visual.blocks.18.fattention.reshape")
#loc902 = loc("model.visual.blocks.18.attn.proj")
#loc903 = loc("model.visual.blocks.18.attn.proj.add")
#loc904 = loc("model.visual.blocks.18.norm2")
#loc905 = loc("model.visual.blocks.18.mlp.linear_fc1")
#loc906 = loc("model.visual.blocks.18.mlp.linear_fc1model.visual.blocks.18.mlp.linear_fc1.gelu_f32")
#loc907 = loc("model.visual.blocks.18.mlp.linear_fc1.gelu")
#loc908 = loc("model.visual.blocks.18.mlp.linear_fc1.gelumodel.visual.blocks.18.mlp.linear_fc2_bf16")
#loc909 = loc("model.visual.blocks.18.mlp.linear_fc2")
#loc910 = loc("model.visual.blocks.18.mlp.linear_fc2.add")
#loc911 = loc("model.visual.blocks.19.norm1")
#loc912 = loc("model.visual.blocks.19.attn.v")
#loc913 = loc("model.visual.blocks.19.attn.k")
#loc914 = loc("model.visual.blocks.19.attn.q")
#loc915 = loc("model.visual.blocks.19.attn.v.reshape")
#loc916 = loc("model.visual.blocks.19.attn.k.reshape")
#loc917 = loc("model.visual.blocks.19.attn.q.reshape")
#loc918 = loc("model.visual.blocks.19.attn.q.rotarymodel.visual.blocks.19.fattention_bf16")
#loc919 = loc("model.visual.blocks.19.attn.k.rotarymodel.visual.blocks.19.fattention_bf16")
#loc920 = loc("load_model.visual.blocks.19.attn.q.reshape")
#loc921 = loc("load_model.visual.blocks.19.attn.k.reshape")
#loc922 = loc("model.visual.blocks.19.attn.q.reshapemodel.visual.blocks.19.attn.q.rotary_f32")
#loc923 = loc("model.visual.blocks.19.attn.k.reshapemodel.visual.blocks.19.attn.k.rotary_f32")
#loc924 = loc("model.visual.blocks.19.attn.q.rotary")
#loc925 = loc("model.visual.blocks.19.attn.k.rotary")
#loc926 = loc("model.visual.blocks.19.fattention")
#loc927 = loc("model.visual.blocks.19.fattention.reshape")
#loc928 = loc("model.visual.blocks.19.attn.proj")
#loc929 = loc("model.visual.blocks.19.attn.proj.add")
#loc930 = loc("model.visual.blocks.19.norm2")
#loc931 = loc("model.visual.blocks.19.mlp.linear_fc1")
#loc932 = loc("model.visual.blocks.19.mlp.linear_fc1model.visual.blocks.19.mlp.linear_fc1.gelu_f32")
#loc933 = loc("model.visual.blocks.19.mlp.linear_fc1.gelu")
#loc934 = loc("model.visual.blocks.19.mlp.linear_fc1.gelumodel.visual.blocks.19.mlp.linear_fc2_bf16")
#loc935 = loc("model.visual.blocks.19.mlp.linear_fc2")
#loc936 = loc("model.visual.blocks.19.mlp.linear_fc2.add")
#loc937 = loc("model.visual.blocks.20.norm1")
#loc938 = loc("model.visual.blocks.20.attn.v")
#loc939 = loc("model.visual.blocks.20.attn.k")
#loc940 = loc("model.visual.blocks.20.attn.q")
#loc941 = loc("model.visual.blocks.20.attn.v.reshape")
#loc942 = loc("model.visual.blocks.20.attn.k.reshape")
#loc943 = loc("model.visual.blocks.20.attn.q.reshape")
#loc944 = loc("model.visual.blocks.20.attn.q.rotarymodel.visual.blocks.20.fattention_bf16")
#loc945 = loc("model.visual.blocks.20.attn.k.rotarymodel.visual.blocks.20.fattention_bf16")
#loc946 = loc("load_model.visual.blocks.20.attn.q.reshape")
#loc947 = loc("load_model.visual.blocks.20.attn.k.reshape")
#loc948 = loc("model.visual.blocks.20.attn.q.reshapemodel.visual.blocks.20.attn.q.rotary_f32")
#loc949 = loc("model.visual.blocks.20.attn.k.reshapemodel.visual.blocks.20.attn.k.rotary_f32")
#loc950 = loc("model.visual.blocks.20.attn.q.rotary")
#loc951 = loc("model.visual.blocks.20.attn.k.rotary")
#loc952 = loc("model.visual.blocks.20.fattention")
#loc953 = loc("model.visual.blocks.20.fattention.reshape")
#loc954 = loc("model.visual.blocks.20.attn.proj")
#loc955 = loc("model.visual.blocks.20.attn.proj.add")
#loc956 = loc("model.visual.blocks.20.norm2")
#loc957 = loc("model.visual.blocks.20.mlp.linear_fc1")
#loc958 = loc("model.visual.blocks.20.mlp.linear_fc1model.visual.blocks.20.mlp.linear_fc1.gelu_f32")
#loc959 = loc("model.visual.blocks.20.mlp.linear_fc1.gelu")
#loc960 = loc("model.visual.blocks.20.mlp.linear_fc1.gelumodel.visual.blocks.20.mlp.linear_fc2_bf16")
#loc961 = loc("model.visual.blocks.20.mlp.linear_fc2")
#loc962 = loc("model.visual.blocks.20.mlp.linear_fc2.add")
#loc963 = loc("model.visual.blocks.21.norm1")
#loc964 = loc("model.visual.blocks.21.attn.v")
#loc965 = loc("model.visual.blocks.21.attn.k")
#loc966 = loc("model.visual.blocks.21.attn.q")
#loc967 = loc("model.visual.blocks.21.attn.v.reshape")
#loc968 = loc("model.visual.blocks.21.attn.k.reshape")
#loc969 = loc("model.visual.blocks.21.attn.q.reshape")
#loc970 = loc("model.visual.blocks.21.attn.q.rotarymodel.visual.blocks.21.fattention_bf16")
#loc971 = loc("model.visual.blocks.21.attn.k.rotarymodel.visual.blocks.21.fattention_bf16")
#loc972 = loc("load_model.visual.blocks.21.attn.q.reshape")
#loc973 = loc("load_model.visual.blocks.21.attn.k.reshape")
#loc974 = loc("model.visual.blocks.21.attn.q.reshapemodel.visual.blocks.21.attn.q.rotary_f32")
#loc975 = loc("model.visual.blocks.21.attn.k.reshapemodel.visual.blocks.21.attn.k.rotary_f32")
#loc976 = loc("model.visual.blocks.21.attn.q.rotary")
#loc977 = loc("model.visual.blocks.21.attn.k.rotary")
#loc978 = loc("model.visual.blocks.21.fattention")
#loc979 = loc("model.visual.blocks.21.fattention.reshape")
#loc980 = loc("model.visual.blocks.21.attn.proj")
#loc981 = loc("model.visual.blocks.21.attn.proj.add")
#loc982 = loc("model.visual.blocks.21.norm2")
#loc983 = loc("model.visual.blocks.21.mlp.linear_fc1")
#loc984 = loc("model.visual.blocks.21.mlp.linear_fc1model.visual.blocks.21.mlp.linear_fc1.gelu_f32")
#loc985 = loc("model.visual.blocks.21.mlp.linear_fc1.gelu")
#loc986 = loc("model.visual.blocks.21.mlp.linear_fc1.gelumodel.visual.blocks.21.mlp.linear_fc2_bf16")
#loc987 = loc("model.visual.blocks.21.mlp.linear_fc2")
#loc988 = loc("model.visual.blocks.21.mlp.linear_fc2.add")
#loc989 = loc("model.visual.blocks.22.norm1")
#loc990 = loc("model.visual.blocks.22.attn.v")
#loc991 = loc("model.visual.blocks.22.attn.k")
#loc992 = loc("model.visual.blocks.22.attn.q")
#loc993 = loc("model.visual.blocks.22.attn.v.reshape")
#loc994 = loc("model.visual.blocks.22.attn.k.reshape")
#loc995 = loc("model.visual.blocks.22.attn.q.reshape")
#loc996 = loc("model.visual.blocks.22.attn.q.rotarymodel.visual.blocks.22.fattention_bf16")
#loc997 = loc("model.visual.blocks.22.attn.k.rotarymodel.visual.blocks.22.fattention_bf16")
#loc998 = loc("load_model.visual.blocks.22.attn.q.reshape")
#loc999 = loc("load_model.visual.blocks.22.attn.k.reshape")
#loc1000 = loc("model.visual.blocks.22.attn.q.reshapemodel.visual.blocks.22.attn.q.rotary_f32")
#loc1001 = loc("model.visual.blocks.22.attn.k.reshapemodel.visual.blocks.22.attn.k.rotary_f32")
#loc1002 = loc("model.visual.blocks.22.attn.q.rotary")
#loc1003 = loc("model.visual.blocks.22.attn.k.rotary")
#loc1004 = loc("model.visual.blocks.22.fattention")
#loc1005 = loc("model.visual.blocks.22.fattention.reshape")
#loc1006 = loc("model.visual.blocks.22.attn.proj")
#loc1007 = loc("model.visual.blocks.22.attn.proj.add")
#loc1008 = loc("model.visual.blocks.22.norm2")
#loc1009 = loc("model.visual.blocks.22.mlp.linear_fc1")
#loc1010 = loc("model.visual.blocks.22.mlp.linear_fc1model.visual.blocks.22.mlp.linear_fc1.gelu_f32")
#loc1011 = loc("model.visual.blocks.22.mlp.linear_fc1.gelu")
#loc1012 = loc("model.visual.blocks.22.mlp.linear_fc1.gelumodel.visual.blocks.22.mlp.linear_fc2_bf16")
#loc1013 = loc("model.visual.blocks.22.mlp.linear_fc2")
#loc1014 = loc("model.visual.blocks.22.mlp.linear_fc2.add")
#loc1015 = loc("model.visual.blocks.23.norm1")
#loc1016 = loc("model.visual.blocks.23.attn.v")
#loc1017 = loc("model.visual.blocks.23.attn.k")
#loc1018 = loc("model.visual.blocks.23.attn.q")
#loc1019 = loc("model.visual.blocks.23.attn.v.reshape")
#loc1020 = loc("model.visual.blocks.23.attn.k.reshape")
#loc1021 = loc("model.visual.blocks.23.attn.q.reshape")
#loc1022 = loc("model.visual.blocks.23.attn.q.rotarymodel.visual.blocks.23.fattention_bf16")
#loc1023 = loc("model.visual.blocks.23.attn.k.rotarymodel.visual.blocks.23.fattention_bf16")
#loc1024 = loc("load_model.visual.blocks.23.attn.q.reshape")
#loc1025 = loc("load_model.visual.blocks.23.attn.k.reshape")
#loc1026 = loc("model.visual.blocks.23.attn.q.reshapemodel.visual.blocks.23.attn.q.rotary_f32")
#loc1027 = loc("model.visual.blocks.23.attn.k.reshapemodel.visual.blocks.23.attn.k.rotary_f32")
#loc1028 = loc("model.visual.blocks.23.attn.q.rotary")
#loc1029 = loc("model.visual.blocks.23.attn.k.rotary")
#loc1030 = loc("model.visual.blocks.23.fattention")
#loc1031 = loc("model.visual.blocks.23.fattention.reshape")
#loc1032 = loc("model.visual.blocks.23.attn.proj")
#loc1033 = loc("model.visual.blocks.23.attn.proj.add")
#loc1034 = loc("model.visual.blocks.23.norm2")
#loc1035 = loc("model.visual.blocks.23.mlp.linear_fc1")
#loc1036 = loc("model.visual.blocks.23.mlp.linear_fc1model.visual.blocks.23.mlp.linear_fc1.gelu_f32")
#loc1037 = loc("model.visual.blocks.23.mlp.linear_fc1.gelu")
#loc1038 = loc("model.visual.blocks.23.mlp.linear_fc1.gelumodel.visual.blocks.23.mlp.linear_fc2_bf16")
#loc1039 = loc("model.visual.blocks.23.mlp.linear_fc2")
#loc1040 = loc("model.visual.blocks.23.mlp.linear_fc2.add")
#loc1041 = loc("model.visual.merger.norm")
#loc1042 = loc("model.visual.merger.linear_fc1.preshape")
#loc1043 = loc("model.visual.merger.linear_fc1")
#loc1044 = loc("model.visual.merger.linear_fc1model.visual.merger.linear_fc1.gelu_f32")
#loc1045 = loc("model.visual.merger.linear_fc1.gelu")
#loc1046 = loc("model.visual.merger.linear_fc1.gelumodel.visual.merger.linear_fc2_bf16")
#loc1047 = loc("model.visual.merger.linear_fc2")
#loc1048 = loc(fused[#loc422, #loc423])
#loc1049 = loc(fused[#loc450, #loc451])
#loc1050 = loc(fused[#loc476, #loc477])
#loc1051 = loc(fused[#loc502, #loc503])
#loc1052 = loc(fused[#loc528, #loc529])
#loc1053 = loc(fused[#loc554, #loc555])
#loc1054 = loc(fused[#loc580, #loc581])
#loc1055 = loc(fused[#loc606, #loc607])
#loc1056 = loc(fused[#loc632, #loc633])
#loc1057 = loc(fused[#loc658, #loc659])
#loc1058 = loc(fused[#loc684, #loc685])
#loc1059 = loc(fused[#loc710, #loc711])
#loc1060 = loc(fused[#loc736, #loc737])
#loc1061 = loc(fused[#loc762, #loc763])
#loc1062 = loc(fused[#loc788, #loc789])
#loc1063 = loc(fused[#loc814, #loc815])
#loc1064 = loc(fused[#loc840, #loc841])
#loc1065 = loc(fused[#loc866, #loc867])
#loc1066 = loc(fused[#loc892, #loc893])
#loc1067 = loc(fused[#loc918, #loc919])
#loc1068 = loc(fused[#loc944, #loc945])
#loc1069 = loc(fused[#loc970, #loc971])
#loc1070 = loc(fused[#loc996, #loc997])
#loc1071 = loc(fused[#loc1022, #loc1023])

