#loc = loc(unknown)
module @vit attributes {module.FLOPs = 1953274134528 : i64, module.addr_mode = "basic", module.asymmetric = false, module.chip = "bm1684x", module.cores = 1 : i64, module.devices = 1 : i64, module.high_precision = true, module.mode = "BF16", module.platform = "LLM_QUANTIZED", module.q_group_size = 0 : i64, module.q_symmetric = false, module.state = "TPU_LOWERED", module.top_run_mode = "STATIC", module.weight_file = "vit_bm1684x_bf16_tpu_weights.npz"} {
  func.func @main(%arg0: tensor<2304x1536xf32> loc(unknown), %arg1: tensor<2304x2xsi32> loc(unknown), %arg2: tensor<2304x4xsi32> loc(unknown), %arg3: tensor<2304x4x1xf32> loc(unknown)) -> tensor<576x2048xf32> {
    %0 = "top.None"() : () -> none loc(#loc)
    %1 = "top.Input"(%arg0) {do_preprocess = false} : (tensor<2304x1536xf32>) -> tensor<2304x1536xf32> loc(#loc1)
    %2 = "tpu.Cast"(%1) {round_mode = #tpu<round_mode HalfAwayFromZero>, with_scale = true} : (tensor<2304x1536xf32>) -> tensor<2304x1536xbf16> loc(#loc2)
    %3 = "top.Input"(%arg1) {do_preprocess = false} : (tensor<2304x2xsi32>) -> tensor<2304x2xsi32> loc(#loc3)
    %4 = "top.Input"(%arg2) {do_preprocess = false} : (tensor<2304x4xsi32>) -> tensor<2304x4xsi32> loc(#loc4)
    %5 = "top.Input"(%arg3) {do_preprocess = false} : (tensor<2304x4x1xf32>) -> tensor<2304x4x1xf32> loc(#loc5)
    %6 = "tpu.Cast"(%5) {round_mode = #tpu<round_mode HalfAwayFromZero>, with_scale = true} : (tensor<2304x4x1xf32>) -> tensor<2304x4x1xbf16> loc(#loc6)
    %7 = "top.Weight"() : () -> tensor<1536x1024xbf16> loc(#loc7)
    %8 = "top.Weight"() : () -> tensor<1x1024xbf16> loc(#loc8)
    %9 = "tpu.MatMul"(%2, %7, %8, %0, %0) {do_relu = false, dq_type = "NONE", fuse_rq = false, hdim_is_batch = false, input_zp = 0 : i64, is_lora = false, keep_dims = true, left_reuse = 1 : i64, left_transpose = false, multipliers = [1], output_transpose = false, q_group_size = 0 : i64, quant_mode = #tpu<rq_mode MultiplierShift>, relu_limit = -1.000000e+00 : f64, right_transpose = false, right_zp = 0 : i64, round_mode = #tpu<round_mode HalfAwayFromZero>, rshifts = [0]} : (tensor<2304x1536xbf16>, tensor<1536x1024xbf16>, tensor<1x1024xbf16>, none, none) -> tensor<2304x1024xbf16> loc(#loc9)
    %10 = "top.Weight"() : () -> tensor<2304x1024xbf16> loc(#loc10)
    %11 = "tpu.Gather"(%10, %4, %0) {axis = 0 : si32, if_neg_index = true, is_lora = false, is_scalar = false, keepdims = true} : (tensor<2304x1024xbf16>, tensor<2304x4xsi32>, none) -> tensor<2304x4x1024xbf16> loc(#loc11)
    %12 = "tpu.Mul"(%11, %6) {do_relu = false, is_scalar = false, multiplier = 1 : si32, quant_mode = #tpu<rq_mode MultiplierShift>, relu_limit = -1.000000e+00 : f64, rshift = 0 : si32} : (tensor<2304x4x1024xbf16>, tensor<2304x4x1xbf16>) -> tensor<2304x4x1024xbf16> loc(#loc12)
    %13 = "tpu.Reduce"(%12, %0, %0) {axes = [1], is_scalar = false, keepdims = false, mode = "ReduceSum"} : (tensor<2304x4x1024xbf16>, none, none) -> tensor<2304x1024xbf16> loc(#loc13)
    %14 = "tpu.Add"(%9, %13) {do_relu = false, is_scalar = false, relu_limit = -1.000000e+00 : f64} : (tensor<2304x1024xbf16>, tensor<2304x1024xbf16>) -> tensor<2304x1024xbf16> loc(#loc14)
    %15 = "top.Weight"() : () -> tensor<2304x16xbf16> loc(#loc15)
    %16 = "tpu.Gather"(%15, %3, %0) {axis = 0 : si32, if_neg_index = true, is_lora = false, is_scalar = false, keepdims = true} : (tensor<2304x16xbf16>, tensor<2304x2xsi32>, none) -> tensor<2304x2x16xbf16> loc(#loc16)
    %17 = "tpu.Reshape"(%16) {flatten_start_dim = -1 : i64, shape = [1, -1, 1, 32]} : (tensor<2304x2x16xbf16>) -> tensor<1x2304x1x32xbf16> loc(#loc17)
    %18 = "tpu.Tile"(%17, %0) {tile = [1, 1, 1, 2]} : (tensor<1x2304x1x32xbf16>, none) -> tensor<1x2304x1x64xbf16> loc(#loc18)
    %19 = "tpu.Cast"(%18) {round_mode = #tpu<round_mode HalfAwayFromZero>, with_scale = true} : (tensor<1x2304x1x64xbf16>) -> tensor<1x2304x1x64xf32> loc(#loc19)
    %20 = "top.Weight"() : () -> tensor<2304x16xbf16> loc(#loc20)
    %21 = "tpu.Gather"(%20, %3, %0) {axis = 0 : si32, if_neg_index = true, is_lora = false, is_scalar = false, keepdims = true} : (tensor<2304x16xbf16>, tensor<2304x2xsi32>, none) -> tensor<2304x2x16xbf16> loc(#loc21)
    %22 = "tpu.Reshape"(%21) {flatten_start_dim = -1 : i64, shape = [1, -1, 1, 32]} : (tensor<2304x2x16xbf16>) -> tensor<1x2304x1x32xbf16> loc(#loc22)
    %23 = "tpu.Tile"(%22, %0) {tile = [1, 1, 1, 2]} : (tensor<1x2304x1x32xbf16>, none) -> tensor<1x2304x1x64xbf16> loc(#loc23)
    %24 = "tpu.Cast"(%23) {round_mode = #tpu<round_mode HalfAwayFromZero>, with_scale = true} : (tensor<1x2304x1x64xbf16>) -> tensor<1x2304x1x64xf32> loc(#loc24)
    %25 = "top.Weight"() : () -> tensor<1x1024xbf16> loc(#loc25)
    %26 = "top.Weight"() : () -> tensor<1x1024xbf16> loc(#loc26)
    %27 = "tpu.LayerNorm"(%14, %25, %26, %0, %0) {axis = 1 : si32, eps = 9.9999999999999995E-7 : f64, normalized_shape = [1024]} : (tensor<2304x1024xbf16>, tensor<1x1024xbf16>, tensor<1x1024xbf16>, none, none) -> tensor<2304x1024xbf16> loc(#loc27)
    %28 = "top.Weight"() : () -> tensor<1024x1024xbf16> loc(#loc28)
    %29 = "top.Weight"() : () -> tensor<1x1024xbf16> loc(#loc29)
    %30 = "tpu.MatMul"(%27, %28, %29, %0, %0) {do_relu = false, dq_type = "NONE", fuse_rq = false, hdim_is_batch = false, input_zp = 0 : i64, is_lora = false, keep_dims = true, left_reuse = 1 : i64, left_transpose = false, multipliers = [1], output_transpose = false, q_group_size = 0 : i64, quant_mode = #tpu<rq_mode MultiplierShift>, relu_limit = -1.000000e+00 : f64, right_transpose = false, right_zp = 0 : i64, round_mode = #tpu<round_mode HalfAwayFromZero>, rshifts = [0]} : (tensor<2304x1024xbf16>, tensor<1024x1024xbf16>, tensor<1x1024xbf16>, none, none) -> tensor<2304x1024xbf16> loc(#loc30)
    %31 = "top.Weight"() : () -> tensor<1024x1024xbf16> loc(#loc31)
    %32 = "top.Weight"() : () -> tensor<1x1024xbf16> loc(#loc32)
    %33 = "tpu.MatMul"(%27, %31, %32, %0, %0) {do_relu = false, dq_type = "NONE", fuse_rq = false, hdim_is_batch = false, input_zp = 0 : i64, is_lora = false, keep_dims = true, left_reuse = 1 : i64, left_transpose = false, multipliers = [1], output_transpose = false, q_group_size = 0 : i64, quant_mode = #tpu<rq_mode MultiplierShift>, relu_limit = -1.000000e+00 : f64, right_transpose = false, right_zp = 0 : i64, round_mode = #tpu<round_mode HalfAwayFromZero>, rshifts = [0]} : (tensor<2304x1024xbf16>, tensor<1024x1024xbf16>, tensor<1x1024xbf16>, none, none) -> tensor<2304x1024xbf16> loc(#loc33)
    %34 = "top.Weight"() : () -> tensor<1024x1024xbf16> loc(#loc34)
    %35 = "top.Weight"() : () -> tensor<1x1024xbf16> loc(#loc35)
    %36 = "tpu.MatMul"(%27, %34, %35, %0, %0) {do_relu = false, dq_type = "NONE", fuse_rq = false, hdim_is_batch = false, input_zp = 0 : i64, is_lora = false, keep_dims = true, left_reuse = 1 : i64, left_transpose = false, multipliers = [1], output_transpose = false, q_group_size = 0 : i64, quant_mode = #tpu<rq_mode MultiplierShift>, relu_limit = -1.000000e+00 : f64, right_transpose = false, right_zp = 0 : i64, round_mode = #tpu<round_mode HalfAwayFromZero>, rshifts = [0]} : (tensor<2304x1024xbf16>, tensor<1024x1024xbf16>, tensor<1x1024xbf16>, none, none) -> tensor<2304x1024xbf16> loc(#loc36)
    %37 = "tpu.Reshape"(%30) {flatten_start_dim = -1 : i64, shape = [1, -1, 16, 64]} : (tensor<2304x1024xbf16>) -> tensor<1x2304x16x64xbf16> loc(#loc37)
    %38 = "tpu.Cast"(%37) {round_mode = #tpu<round_mode HalfAwayFromZero>, with_scale = true} : (tensor<1x2304x16x64xbf16>) -> tensor<1x2304x16x64xf32> loc(#loc38)
    %39 = "tpu.Reshape"(%33) {flatten_start_dim = -1 : i64, shape = [1, -1, 16, 64]} : (tensor<2304x1024xbf16>) -> tensor<1x2304x16x64xbf16> loc(#loc39)
    %40 = "tpu.Cast"(%39) {round_mode = #tpu<round_mode HalfAwayFromZero>, with_scale = true} : (tensor<1x2304x16x64xbf16>) -> tensor<1x2304x16x64xf32> loc(#loc40)
    %41 = "tpu.Reshape"(%36) {flatten_start_dim = -1 : i64, shape = [1, -1, 16, 64]} : (tensor<2304x1024xbf16>) -> tensor<1x2304x16x64xbf16> loc(#loc41)
    %42 = "tpu.Rope"(%38, %24, %19) {add_round_mode = #tpu<round_mode HalfAwayFromZero>, add_saturation = true, add_shift = 0 : si32, force_f32 = true, is_permute_optimize = false, mul1_round_mode = #tpu<round_mode HalfAwayFromZero>, mul1_saturation = true, mul1_shift = 0 : si32, mul2_round_mode = #tpu<round_mode HalfAwayFromZero>, mul2_saturation = true, mul2_shift = 0 : si32, rope_mode = #tpu<rope_mode contiguous_halves>} : (tensor<1x2304x16x64xf32>, tensor<1x2304x1x64xf32>, tensor<1x2304x1x64xf32>) -> tensor<1x2304x16x64xf32> loc(#loc42)
    %43 = "tpu.Cast"(%42) {round_mode = #tpu<round_mode HalfAwayFromZero>, with_scale = true} : (tensor<1x2304x16x64xf32>) -> tensor<1x2304x16x64xbf16> loc(#loc43)
    %44 = "tpu.Rope"(%40, %24, %19) {add_round_mode = #tpu<round_mode HalfAwayFromZero>, add_saturation = true, add_shift = 0 : si32, force_f32 = true, is_permute_optimize = false, mul1_round_mode = #tpu<round_mode HalfAwayFromZero>, mul1_saturation = true, mul1_shift = 0 : si32, mul2_round_mode = #tpu<round_mode HalfAwayFromZero>, mul2_saturation = true, mul2_shift = 0 : si32, rope_mode = #tpu<rope_mode contiguous_halves>} : (tensor<1x2304x16x64xf32>, tensor<1x2304x1x64xf32>, tensor<1x2304x1x64xf32>) -> tensor<1x2304x16x64xf32> loc(#loc44)
    %45 = "tpu.Cast"(%44) {round_mode = #tpu<round_mode HalfAwayFromZero>, with_scale = true} : (tensor<1x2304x16x64xf32>) -> tensor<1x2304x16x64xbf16> loc(#loc45)
    %46 = "tpu.FAttention"(%43, %45, %41, %0, %0) {batch = 1 : i64, dim = 64 : i64, keep_dims = true, kv_head = 16 : i64, mk = 2304 : i64, mq = 2304 : i64, q_head = 16 : i64, scale = 1.250000e-01 : f64} : (tensor<1x2304x16x64xbf16>, tensor<1x2304x16x64xbf16>, tensor<1x2304x16x64xbf16>, none, none) -> tensor<1x2304x16x64xbf16> loc(#loc46)
    %47 = "tpu.Reshape"(%46) {flatten_start_dim = -1 : i64, shape = [-1, 1024]} : (tensor<1x2304x16x64xbf16>) -> tensor<2304x1024xbf16> loc(#loc47)
    %48 = "top.Weight"() : () -> tensor<1024x1024xbf16> loc(#loc48)
    %49 = "top.Weight"() : () -> tensor<1x1024xbf16> loc(#loc49)
    %50 = "tpu.MatMul"(%47, %48, %49, %0, %0) {do_relu = false, dq_type = "NONE", fuse_rq = false, hdim_is_batch = false, input_zp = 0 : i64, is_lora = false, keep_dims = true, left_reuse = 1 : i64, left_transpose = false, multipliers = [1], output_transpose = false, q_group_size = 0 : i64, quant_mode = #tpu<rq_mode MultiplierShift>, relu_limit = -1.000000e+00 : f64, right_transpose = false, right_zp = 0 : i64, round_mode = #tpu<round_mode HalfAwayFromZero>, rshifts = [0]} : (tensor<2304x1024xbf16>, tensor<1024x1024xbf16>, tensor<1x1024xbf16>, none, none) -> tensor<2304x1024xbf16> loc(#loc50)
    %51 = "tpu.Add"(%14, %50) {do_relu = false, is_scalar = false, relu_limit = -1.000000e+00 : f64} : (tensor<2304x1024xbf16>, tensor<2304x1024xbf16>) -> tensor<2304x1024xbf16> loc(#loc51)
    %52 = "top.Weight"() : () -> tensor<1x1024xbf16> loc(#loc52)
    %53 = "top.Weight"() : () -> tensor<1x1024xbf16> loc(#loc53)
    %54 = "tpu.LayerNorm"(%51, %52, %53, %0, %0) {axis = 1 : si32, eps = 9.9999999999999995E-7 : f64, normalized_shape = [1024]} : (tensor<2304x1024xbf16>, tensor<1x1024xbf16>, tensor<1x1024xbf16>, none, none) -> tensor<2304x1024xbf16> loc(#loc54)
    %55 = "top.Weight"() : () -> tensor<1024x4096xbf16> loc(#loc55)
    %56 = "top.Weight"() : () -> tensor<1x4096xbf16> loc(#loc56)
    %57 = "tpu.MatMul"(%54, %55, %56, %0, %0) {do_relu = false, dq_type = "NONE", fuse_rq = false, hdim_is_batch = false, input_zp = 0 : i64, is_lora = false, keep_dims = true, left_reuse = 1 : i64, left_transpose = false, multipliers = [1], output_transpose = false, q_group_size = 0 : i64, quant_mode = #tpu<rq_mode MultiplierShift>, relu_limit = -1.000000e+00 : f64, right_transpose = false, right_zp = 0 : i64, round_mode = #tpu<round_mode HalfAwayFromZero>, rshifts = [0]} : (tensor<2304x1024xbf16>, tensor<1024x4096xbf16>, tensor<1x4096xbf16>, none, none) -> tensor<2304x4096xbf16> loc(#loc57)
    %58 = "tpu.Cast"(%57) {round_mode = #tpu<round_mode HalfAwayFromZero>, with_scale = true} : (tensor<2304x4096xbf16>) -> tensor<2304x4096xf32> loc(#loc58)
    %59 = "tpu.Active"(%58) {mode = #tpu<active_mode TGELU>} : (tensor<2304x4096xf32>) -> tensor<2304x4096xf32> loc(#loc59)
    %60 = "tpu.Cast"(%59) {round_mode = #tpu<round_mode HalfAwayFromZero>, with_scale = true} : (tensor<2304x4096xf32>) -> tensor<2304x4096xbf16> loc(#loc60)
    %61 = "top.Weight"() : () -> tensor<4096x1024xbf16> loc(#loc61)
    %62 = "top.Weight"() : () -> tensor<1x1024xbf16> loc(#loc62)
    %63 = "tpu.MatMul"(%60, %61, %62, %0, %0) {do_relu = false, dq_type = "NONE", fuse_rq = false, hdim_is_batch = false, input_zp = 0 : i64, is_lora = false, keep_dims = true, left_reuse = 1 : i64, left_transpose = false, multipliers = [1], output_transpose = false, q_group_size = 0 : i64, quant_mode = #tpu<rq_mode MultiplierShift>, relu_limit = -1.000000e+00 : f64, right_transpose = false, right_zp = 0 : i64, round_mode = #tpu<round_mode HalfAwayFromZero>, rshifts = [0]} : (tensor<2304x4096xbf16>, tensor<4096x1024xbf16>, tensor<1x1024xbf16>, none, none) -> tensor<2304x1024xbf16> loc(#loc63)
    %64 = "tpu.Add"(%51, %63) {do_relu = false, is_scalar = false, relu_limit = -1.000000e+00 : f64} : (tensor<2304x1024xbf16>, tensor<2304x1024xbf16>) -> tensor<2304x1024xbf16> loc(#loc64)
    %65 = "top.Weight"() : () -> tensor<1x1024xbf16> loc(#loc65)
    %66 = "top.Weight"() : () -> tensor<1x1024xbf16> loc(#loc66)
    %67 = "tpu.LayerNorm"(%64, %65, %66, %0, %0) {axis = 1 : si32, eps = 9.9999999999999995E-7 : f64, normalized_shape = [1024]} : (tensor<2304x1024xbf16>, tensor<1x1024xbf16>, tensor<1x1024xbf16>, none, none) -> tensor<2304x1024xbf16> loc(#loc67)
    %68 = "top.Weight"() : () -> tensor<1024x1024xbf16> loc(#loc68)
    %69 = "top.Weight"() : () -> tensor<1x1024xbf16> loc(#loc69)
    %70 = "tpu.MatMul"(%67, %68, %69, %0, %0) {do_relu = false, dq_type = "NONE", fuse_rq = false, hdim_is_batch = false, input_zp = 0 : i64, is_lora = false, keep_dims = true, left_reuse = 1 : i64, left_transpose = false, multipliers = [1], output_transpose = false, q_group_size = 0 : i64, quant_mode = #tpu<rq_mode MultiplierShift>, relu_limit = -1.000000e+00 : f64, right_transpose = false, right_zp = 0 : i64, round_mode = #tpu<round_mode HalfAwayFromZero>, rshifts = [0]} : (tensor<2304x1024xbf16>, tensor<1024x1024xbf16>, tensor<1x1024xbf16>, none, none) -> tensor<2304x1024xbf16> loc(#loc70)
    %71 = "top.Weight"() : () -> tensor<1024x1024xbf16> loc(#loc71)
    %72 = "top.Weight"() : () -> tensor<1x1024xbf16> loc(#loc72)
    %73 = "tpu.MatMul"(%67, %71, %72, %0, %0) {do_relu = false, dq_type = "NONE", fuse_rq = false, hdim_is_batch = false, input_zp = 0 : i64, is_lora = false, keep_dims = true, left_reuse = 1 : i64, left_transpose = false, multipliers = [1], output_transpose = false, q_group_size = 0 : i64, quant_mode = #tpu<rq_mode MultiplierShift>, relu_limit = -1.000000e+00 : f64, right_transpose = false, right_zp = 0 : i64, round_mode = #tpu<round_mode HalfAwayFromZero>, rshifts = [0]} : (tensor<2304x1024xbf16>, tensor<1024x1024xbf16>, tensor<1x1024xbf16>, none, none) -> tensor<2304x1024xbf16> loc(#loc73)
    %74 = "top.Weight"() : () -> tensor<1024x1024xbf16> loc(#loc74)
    %75 = "top.Weight"() : () -> tensor<1x1024xbf16> loc(#loc75)
    %76 = "tpu.MatMul"(%67, %74, %75, %0, %0) {do_relu = false, dq_type = "NONE", fuse_rq = false, hdim_is_batch = false, input_zp = 0 : i64, is_lora = false, keep_dims = true, left_reuse = 1 : i64, left_transpose = false, multipliers = [1], output_transpose = false, q_group_size = 0 : i64, quant_mode = #tpu<rq_mode MultiplierShift>, relu_limit = -1.000000e+00 : f64, right_transpose = false, right_zp = 0 : i64, round_mode = #tpu<round_mode HalfAwayFromZero>, rshifts = [0]} : (tensor<2304x1024xbf16>, tensor<1024x1024xbf16>, tensor<1x1024xbf16>, none, none) -> tensor<2304x1024xbf16> loc(#loc76)
    %77 = "tpu.Reshape"(%70) {flatten_start_dim = -1 : i64, shape = [1, -1, 16, 64]} : (tensor<2304x1024xbf16>) -> tensor<1x2304x16x64xbf16> loc(#loc77)
    %78 = "tpu.Cast"(%77) {round_mode = #tpu<round_mode HalfAwayFromZero>, with_scale = true} : (tensor<1x2304x16x64xbf16>) -> tensor<1x2304x16x64xf32> loc(#loc78)
    %79 = "tpu.Reshape"(%73) {flatten_start_dim = -1 : i64, shape = [1, -1, 16, 64]} : (tensor<2304x1024xbf16>) -> tensor<1x2304x16x64xbf16> loc(#loc79)
    %80 = "tpu.Cast"(%79) {round_mode = #tpu<round_mode HalfAwayFromZero>, with_scale = true} : (tensor<1x2304x16x64xbf16>) -> tensor<1x2304x16x64xf32> loc(#loc80)
    %81 = "tpu.Reshape"(%76) {flatten_start_dim = -1 : i64, shape = [1, -1, 16, 64]} : (tensor<2304x1024xbf16>) -> tensor<1x2304x16x64xbf16> loc(#loc81)
    %82 = "tpu.Rope"(%78, %24, %19) {add_round_mode = #tpu<round_mode HalfAwayFromZero>, add_saturation = true, add_shift = 0 : si32, force_f32 = true, is_permute_optimize = false, mul1_round_mode = #tpu<round_mode HalfAwayFromZero>, mul1_saturation = true, mul1_shift = 0 : si32, mul2_round_mode = #tpu<round_mode HalfAwayFromZero>, mul2_saturation = true, mul2_shift = 0 : si32, rope_mode = #tpu<rope_mode contiguous_halves>} : (tensor<1x2304x16x64xf32>, tensor<1x2304x1x64xf32>, tensor<1x2304x1x64xf32>) -> tensor<1x2304x16x64xf32> loc(#loc82)
    %83 = "tpu.Cast"(%82) {round_mode = #tpu<round_mode HalfAwayFromZero>, with_scale = true} : (tensor<1x2304x16x64xf32>) -> tensor<1x2304x16x64xbf16> loc(#loc83)
    %84 = "tpu.Rope"(%80, %24, %19) {add_round_mode = #tpu<round_mode HalfAwayFromZero>, add_saturation = true, add_shift = 0 : si32, force_f32 = true, is_permute_optimize = false, mul1_round_mode = #tpu<round_mode HalfAwayFromZero>, mul1_saturation = true, mul1_shift = 0 : si32, mul2_round_mode = #tpu<round_mode HalfAwayFromZero>, mul2_saturation = true, mul2_shift = 0 : si32, rope_mode = #tpu<rope_mode contiguous_halves>} : (tensor<1x2304x16x64xf32>, tensor<1x2304x1x64xf32>, tensor<1x2304x1x64xf32>) -> tensor<1x2304x16x64xf32> loc(#loc84)
    %85 = "tpu.Cast"(%84) {round_mode = #tpu<round_mode HalfAwayFromZero>, with_scale = true} : (tensor<1x2304x16x64xf32>) -> tensor<1x2304x16x64xbf16> loc(#loc85)
    %86 = "tpu.FAttention"(%83, %85, %81, %0, %0) {batch = 1 : i64, dim = 64 : i64, keep_dims = true, kv_head = 16 : i64, mk = 2304 : i64, mq = 2304 : i64, q_head = 16 : i64, scale = 1.250000e-01 : f64} : (tensor<1x2304x16x64xbf16>, tensor<1x2304x16x64xbf16>, tensor<1x2304x16x64xbf16>, none, none) -> tensor<1x2304x16x64xbf16> loc(#loc86)
    %87 = "tpu.Reshape"(%86) {flatten_start_dim = -1 : i64, shape = [-1, 1024]} : (tensor<1x2304x16x64xbf16>) -> tensor<2304x1024xbf16> loc(#loc87)
    %88 = "top.Weight"() : () -> tensor<1024x1024xbf16> loc(#loc88)
    %89 = "top.Weight"() : () -> tensor<1x1024xbf16> loc(#loc89)
    %90 = "tpu.MatMul"(%87, %88, %89, %0, %0) {do_relu = false, dq_type = "NONE", fuse_rq = false, hdim_is_batch = false, input_zp = 0 : i64, is_lora = false, keep_dims = true, left_reuse = 1 : i64, left_transpose = false, multipliers = [1], output_transpose = false, q_group_size = 0 : i64, quant_mode = #tpu<rq_mode MultiplierShift>, relu_limit = -1.000000e+00 : f64, right_transpose = false, right_zp = 0 : i64, round_mode = #tpu<round_mode HalfAwayFromZero>, rshifts = [0]} : (tensor<2304x1024xbf16>, tensor<1024x1024xbf16>, tensor<1x1024xbf16>, none, none) -> tensor<2304x1024xbf16> loc(#loc90)
    %91 = "tpu.Add"(%64, %90) {do_relu = false, is_scalar = false, relu_limit = -1.000000e+00 : f64} : (tensor<2304x1024xbf16>, tensor<2304x1024xbf16>) -> tensor<2304x1024xbf16> loc(#loc91)
    %92 = "top.Weight"() : () -> tensor<1x1024xbf16> loc(#loc92)
    %93 = "top.Weight"() : () -> tensor<1x1024xbf16> loc(#loc93)
    %94 = "tpu.LayerNorm"(%91, %92, %93, %0, %0) {axis = 1 : si32, eps = 9.9999999999999995E-7 : f64, normalized_shape = [1024]} : (tensor<2304x1024xbf16>, tensor<1x1024xbf16>, tensor<1x1024xbf16>, none, none) -> tensor<2304x1024xbf16> loc(#loc94)
    %95 = "top.Weight"() : () -> tensor<1024x4096xbf16> loc(#loc95)
    %96 = "top.Weight"() : () -> tensor<1x4096xbf16> loc(#loc96)
    %97 = "tpu.MatMul"(%94, %95, %96, %0, %0) {do_relu = false, dq_type = "NONE", fuse_rq = false, hdim_is_batch = false, input_zp = 0 : i64, is_lora = false, keep_dims = true, left_reuse = 1 : i64, left_transpose = false, multipliers = [1], output_transpose = false, q_group_size = 0 : i64, quant_mode = #tpu<rq_mode MultiplierShift>, relu_limit = -1.000000e+00 : f64, right_transpose = false, right_zp = 0 : i64, round_mode = #tpu<round_mode HalfAwayFromZero>, rshifts = [0]} : (tensor<2304x1024xbf16>, tensor<1024x4096xbf16>, tensor<1x4096xbf16>, none, none) -> tensor<2304x4096xbf16> loc(#loc97)
    %98 = "tpu.Cast"(%97) {round_mode = #tpu<round_mode HalfAwayFromZero>, with_scale = true} : (tensor<2304x4096xbf16>) -> tensor<2304x4096xf32> loc(#loc98)
    %99 = "tpu.Active"(%98) {mode = #tpu<active_mode TGELU>} : (tensor<2304x4096xf32>) -> tensor<2304x4096xf32> loc(#loc99)
    %100 = "tpu.Cast"(%99) {round_mode = #tpu<round_mode HalfAwayFromZero>, with_scale = true} : (tensor<2304x4096xf32>) -> tensor<2304x4096xbf16> loc(#loc100)
    %101 = "top.Weight"() : () -> tensor<4096x1024xbf16> loc(#loc101)
    %102 = "top.Weight"() : () -> tensor<1x1024xbf16> loc(#loc102)
    %103 = "tpu.MatMul"(%100, %101, %102, %0, %0) {do_relu = false, dq_type = "NONE", fuse_rq = false, hdim_is_batch = false, input_zp = 0 : i64, is_lora = false, keep_dims = true, left_reuse = 1 : i64, left_transpose = false, multipliers = [1], output_transpose = false, q_group_size = 0 : i64, quant_mode = #tpu<rq_mode MultiplierShift>, relu_limit = -1.000000e+00 : f64, right_transpose = false, right_zp = 0 : i64, round_mode = #tpu<round_mode HalfAwayFromZero>, rshifts = [0]} : (tensor<2304x4096xbf16>, tensor<4096x1024xbf16>, tensor<1x1024xbf16>, none, none) -> tensor<2304x1024xbf16> loc(#loc103)
    %104 = "tpu.Add"(%91, %103) {do_relu = false, is_scalar = false, relu_limit = -1.000000e+00 : f64} : (tensor<2304x1024xbf16>, tensor<2304x1024xbf16>) -> tensor<2304x1024xbf16> loc(#loc104)
    %105 = "top.Weight"() : () -> tensor<1x1024xbf16> loc(#loc105)
    %106 = "top.Weight"() : () -> tensor<1x1024xbf16> loc(#loc106)
    %107 = "tpu.LayerNorm"(%104, %105, %106, %0, %0) {axis = 1 : si32, eps = 9.9999999999999995E-7 : f64, normalized_shape = [1024]} : (tensor<2304x1024xbf16>, tensor<1x1024xbf16>, tensor<1x1024xbf16>, none, none) -> tensor<2304x1024xbf16> loc(#loc107)
    %108 = "top.Weight"() : () -> tensor<1024x1024xbf16> loc(#loc108)
    %109 = "top.Weight"() : () -> tensor<1x1024xbf16> loc(#loc109)
    %110 = "tpu.MatMul"(%107, %108, %109, %0, %0) {do_relu = false, dq_type = "NONE", fuse_rq = false, hdim_is_batch = false, input_zp = 0 : i64, is_lora = false, keep_dims = true, left_reuse = 1 : i64, left_transpose = false, multipliers = [1], output_transpose = false, q_group_size = 0 : i64, quant_mode = #tpu<rq_mode MultiplierShift>, relu_limit = -1.000000e+00 : f64, right_transpose = false, right_zp = 0 : i64, round_mode = #tpu<round_mode HalfAwayFromZero>, rshifts = [0]} : (tensor<2304x1024xbf16>, tensor<1024x1024xbf16>, tensor<1x1024xbf16>, none, none) -> tensor<2304x1024xbf16> loc(#loc110)
    %111 = "top.Weight"() : () -> tensor<1024x1024xbf16> loc(#loc111)
    %112 = "top.Weight"() : () -> tensor<1x1024xbf16> loc(#loc112)
    %113 = "tpu.MatMul"(%107, %111, %112, %0, %0) {do_relu = false, dq_type = "NONE", fuse_rq = false, hdim_is_batch = false, input_zp = 0 : i64, is_lora = false, keep_dims = true, left_reuse = 1 : i64, left_transpose = false, multipliers = [1], output_transpose = false, q_group_size = 0 : i64, quant_mode = #tpu<rq_mode MultiplierShift>, relu_limit = -1.000000e+00 : f64, right_transpose = false, right_zp = 0 : i64, round_mode = #tpu<round_mode HalfAwayFromZero>, rshifts = [0]} : (tensor<2304x1024xbf16>, tensor<1024x1024xbf16>, tensor<1x1024xbf16>, none, none) -> tensor<2304x1024xbf16> loc(#loc113)
    %114 = "top.Weight"() : () -> tensor<1024x1024xbf16> loc(#loc114)
    %115 = "top.Weight"() : () -> tensor<1x1024xbf16> loc(#loc115)
    %116 = "tpu.MatMul"(%107, %114, %115, %0, %0) {do_relu = false, dq_type = "NONE", fuse_rq = false, hdim_is_batch = false, input_zp = 0 : i64, is_lora = false, keep_dims = true, left_reuse = 1 : i64, left_transpose = false, multipliers = [1], output_transpose = false, q_group_size = 0 : i64, quant_mode = #tpu<rq_mode MultiplierShift>, relu_limit = -1.000000e+00 : f64, right_transpose = false, right_zp = 0 : i64, round_mode = #tpu<round_mode HalfAwayFromZero>, rshifts = [0]} : (tensor<2304x1024xbf16>, tensor<1024x1024xbf16>, tensor<1x1024xbf16>, none, none) -> tensor<2304x1024xbf16> loc(#loc116)
    %117 = "tpu.Reshape"(%110) {flatten_start_dim = -1 : i64, shape = [1, -1, 16, 64]} : (tensor<2304x1024xbf16>) -> tensor<1x2304x16x64xbf16> loc(#loc117)
    %118 = "tpu.Cast"(%117) {round_mode = #tpu<round_mode HalfAwayFromZero>, with_scale = true} : (tensor<1x2304x16x64xbf16>) -> tensor<1x2304x16x64xf32> loc(#loc118)
    %119 = "tpu.Reshape"(%113) {flatten_start_dim = -1 : i64, shape = [1, -1, 16, 64]} : (tensor<2304x1024xbf16>) -> tensor<1x2304x16x64xbf16> loc(#loc119)
    %120 = "tpu.Cast"(%119) {round_mode = #tpu<round_mode HalfAwayFromZero>, with_scale = true} : (tensor<1x2304x16x64xbf16>) -> tensor<1x2304x16x64xf32> loc(#loc120)
    %121 = "tpu.Reshape"(%116) {flatten_start_dim = -1 : i64, shape = [1, -1, 16, 64]} : (tensor<2304x1024xbf16>) -> tensor<1x2304x16x64xbf16> loc(#loc121)
    %122 = "tpu.Rope"(%118, %24, %19) {add_round_mode = #tpu<round_mode HalfAwayFromZero>, add_saturation = true, add_shift = 0 : si32, force_f32 = true, is_permute_optimize = false, mul1_round_mode = #tpu<round_mode HalfAwayFromZero>, mul1_saturation = true, mul1_shift = 0 : si32, mul2_round_mode = #tpu<round_mode HalfAwayFromZero>, mul2_saturation = true, mul2_shift = 0 : si32, rope_mode = #tpu<rope_mode contiguous_halves>} : (tensor<1x2304x16x64xf32>, tensor<1x2304x1x64xf32>, tensor<1x2304x1x64xf32>) -> tensor<1x2304x16x64xf32> loc(#loc122)
    %123 = "tpu.Cast"(%122) {round_mode = #tpu<round_mode HalfAwayFromZero>, with_scale = true} : (tensor<1x2304x16x64xf32>) -> tensor<1x2304x16x64xbf16> loc(#loc123)
    %124 = "tpu.Rope"(%120, %24, %19) {add_round_mode = #tpu<round_mode HalfAwayFromZero>, add_saturation = true, add_shift = 0 : si32, force_f32 = true, is_permute_optimize = false, mul1_round_mode = #tpu<round_mode HalfAwayFromZero>, mul1_saturation = true, mul1_shift = 0 : si32, mul2_round_mode = #tpu<round_mode HalfAwayFromZero>, mul2_saturation = true, mul2_shift = 0 : si32, rope_mode = #tpu<rope_mode contiguous_halves>} : (tensor<1x2304x16x64xf32>, tensor<1x2304x1x64xf32>, tensor<1x2304x1x64xf32>) -> tensor<1x2304x16x64xf32> loc(#loc124)
    %125 = "tpu.Cast"(%124) {round_mode = #tpu<round_mode HalfAwayFromZero>, with_scale = true} : (tensor<1x2304x16x64xf32>) -> tensor<1x2304x16x64xbf16> loc(#loc125)
    %126 = "tpu.FAttention"(%123, %125, %121, %0, %0) {batch = 1 : i64, dim = 64 : i64, keep_dims = true, kv_head = 16 : i64, mk = 2304 : i64, mq = 2304 : i64, q_head = 16 : i64, scale = 1.250000e-01 : f64} : (tensor<1x2304x16x64xbf16>, tensor<1x2304x16x64xbf16>, tensor<1x2304x16x64xbf16>, none, none) -> tensor<1x2304x16x64xbf16> loc(#loc126)
    %127 = "tpu.Reshape"(%126) {flatten_start_dim = -1 : i64, shape = [-1, 1024]} : (tensor<1x2304x16x64xbf16>) -> tensor<2304x1024xbf16> loc(#loc127)
    %128 = "top.Weight"() : () -> tensor<1024x1024xbf16> loc(#loc128)
    %129 = "top.Weight"() : () -> tensor<1x1024xbf16> loc(#loc129)
    %130 = "tpu.MatMul"(%127, %128, %129, %0, %0) {do_relu = false, dq_type = "NONE", fuse_rq = false, hdim_is_batch = false, input_zp = 0 : i64, is_lora = false, keep_dims = true, left_reuse = 1 : i64, left_transpose = false, multipliers = [1], output_transpose = false, q_group_size = 0 : i64, quant_mode = #tpu<rq_mode MultiplierShift>, relu_limit = -1.000000e+00 : f64, right_transpose = false, right_zp = 0 : i64, round_mode = #tpu<round_mode HalfAwayFromZero>, rshifts = [0]} : (tensor<2304x1024xbf16>, tensor<1024x1024xbf16>, tensor<1x1024xbf16>, none, none) -> tensor<2304x1024xbf16> loc(#loc130)
    %131 = "tpu.Add"(%104, %130) {do_relu = false, is_scalar = false, relu_limit = -1.000000e+00 : f64} : (tensor<2304x1024xbf16>, tensor<2304x1024xbf16>) -> tensor<2304x1024xbf16> loc(#loc131)
    %132 = "top.Weight"() : () -> tensor<1x1024xbf16> loc(#loc132)
    %133 = "top.Weight"() : () -> tensor<1x1024xbf16> loc(#loc133)
    %134 = "tpu.LayerNorm"(%131, %132, %133, %0, %0) {axis = 1 : si32, eps = 9.9999999999999995E-7 : f64, normalized_shape = [1024]} : (tensor<2304x1024xbf16>, tensor<1x1024xbf16>, tensor<1x1024xbf16>, none, none) -> tensor<2304x1024xbf16> loc(#loc134)
    %135 = "top.Weight"() : () -> tensor<1024x4096xbf16> loc(#loc135)
    %136 = "top.Weight"() : () -> tensor<1x4096xbf16> loc(#loc136)
    %137 = "tpu.MatMul"(%134, %135, %136, %0, %0) {do_relu = false, dq_type = "NONE", fuse_rq = false, hdim_is_batch = false, input_zp = 0 : i64, is_lora = false, keep_dims = true, left_reuse = 1 : i64, left_transpose = false, multipliers = [1], output_transpose = false, q_group_size = 0 : i64, quant_mode = #tpu<rq_mode MultiplierShift>, relu_limit = -1.000000e+00 : f64, right_transpose = false, right_zp = 0 : i64, round_mode = #tpu<round_mode HalfAwayFromZero>, rshifts = [0]} : (tensor<2304x1024xbf16>, tensor<1024x4096xbf16>, tensor<1x4096xbf16>, none, none) -> tensor<2304x4096xbf16> loc(#loc137)
    %138 = "tpu.Cast"(%137) {round_mode = #tpu<round_mode HalfAwayFromZero>, with_scale = true} : (tensor<2304x4096xbf16>) -> tensor<2304x4096xf32> loc(#loc138)
    %139 = "tpu.Active"(%138) {mode = #tpu<active_mode TGELU>} : (tensor<2304x4096xf32>) -> tensor<2304x4096xf32> loc(#loc139)
    %140 = "tpu.Cast"(%139) {round_mode = #tpu<round_mode HalfAwayFromZero>, with_scale = true} : (tensor<2304x4096xf32>) -> tensor<2304x4096xbf16> loc(#loc140)
    %141 = "top.Weight"() : () -> tensor<4096x1024xbf16> loc(#loc141)
    %142 = "top.Weight"() : () -> tensor<1x1024xbf16> loc(#loc142)
    %143 = "tpu.MatMul"(%140, %141, %142, %0, %0) {do_relu = false, dq_type = "NONE", fuse_rq = false, hdim_is_batch = false, input_zp = 0 : i64, is_lora = false, keep_dims = true, left_reuse = 1 : i64, left_transpose = false, multipliers = [1], output_transpose = false, q_group_size = 0 : i64, quant_mode = #tpu<rq_mode MultiplierShift>, relu_limit = -1.000000e+00 : f64, right_transpose = false, right_zp = 0 : i64, round_mode = #tpu<round_mode HalfAwayFromZero>, rshifts = [0]} : (tensor<2304x4096xbf16>, tensor<4096x1024xbf16>, tensor<1x1024xbf16>, none, none) -> tensor<2304x1024xbf16> loc(#loc143)
    %144 = "tpu.Add"(%131, %143) {do_relu = false, is_scalar = false, relu_limit = -1.000000e+00 : f64} : (tensor<2304x1024xbf16>, tensor<2304x1024xbf16>) -> tensor<2304x1024xbf16> loc(#loc144)
    %145 = "top.Weight"() : () -> tensor<1x1024xbf16> loc(#loc145)
    %146 = "top.Weight"() : () -> tensor<1x1024xbf16> loc(#loc146)
    %147 = "tpu.LayerNorm"(%144, %145, %146, %0, %0) {axis = 1 : si32, eps = 9.9999999999999995E-7 : f64, normalized_shape = [1024]} : (tensor<2304x1024xbf16>, tensor<1x1024xbf16>, tensor<1x1024xbf16>, none, none) -> tensor<2304x1024xbf16> loc(#loc147)
    %148 = "top.Weight"() : () -> tensor<1024x1024xbf16> loc(#loc148)
    %149 = "top.Weight"() : () -> tensor<1x1024xbf16> loc(#loc149)
    %150 = "tpu.MatMul"(%147, %148, %149, %0, %0) {do_relu = false, dq_type = "NONE", fuse_rq = false, hdim_is_batch = false, input_zp = 0 : i64, is_lora = false, keep_dims = true, left_reuse = 1 : i64, left_transpose = false, multipliers = [1], output_transpose = false, q_group_size = 0 : i64, quant_mode = #tpu<rq_mode MultiplierShift>, relu_limit = -1.000000e+00 : f64, right_transpose = false, right_zp = 0 : i64, round_mode = #tpu<round_mode HalfAwayFromZero>, rshifts = [0]} : (tensor<2304x1024xbf16>, tensor<1024x1024xbf16>, tensor<1x1024xbf16>, none, none) -> tensor<2304x1024xbf16> loc(#loc150)
    %151 = "top.Weight"() : () -> tensor<1024x1024xbf16> loc(#loc151)
    %152 = "top.Weight"() : () -> tensor<1x1024xbf16> loc(#loc152)
    %153 = "tpu.MatMul"(%147, %151, %152, %0, %0) {do_relu = false, dq_type = "NONE", fuse_rq = false, hdim_is_batch = false, input_zp = 0 : i64, is_lora = false, keep_dims = true, left_reuse = 1 : i64, left_transpose = false, multipliers = [1], output_transpose = false, q_group_size = 0 : i64, quant_mode = #tpu<rq_mode MultiplierShift>, relu_limit = -1.000000e+00 : f64, right_transpose = false, right_zp = 0 : i64, round_mode = #tpu<round_mode HalfAwayFromZero>, rshifts = [0]} : (tensor<2304x1024xbf16>, tensor<1024x1024xbf16>, tensor<1x1024xbf16>, none, none) -> tensor<2304x1024xbf16> loc(#loc153)
    %154 = "top.Weight"() : () -> tensor<1024x1024xbf16> loc(#loc154)
    %155 = "top.Weight"() : () -> tensor<1x1024xbf16> loc(#loc155)
    %156 = "tpu.MatMul"(%147, %154, %155, %0, %0) {do_relu = false, dq_type = "NONE", fuse_rq = false, hdim_is_batch = false, input_zp = 0 : i64, is_lora = false, keep_dims = true, left_reuse = 1 : i64, left_transpose = false, multipliers = [1], output_transpose = false, q_group_size = 0 : i64, quant_mode = #tpu<rq_mode MultiplierShift>, relu_limit = -1.000000e+00 : f64, right_transpose = false, right_zp = 0 : i64, round_mode = #tpu<round_mode HalfAwayFromZero>, rshifts = [0]} : (tensor<2304x1024xbf16>, tensor<1024x1024xbf16>, tensor<1x1024xbf16>, none, none) -> tensor<2304x1024xbf16> loc(#loc156)
    %157 = "tpu.Reshape"(%150) {flatten_start_dim = -1 : i64, shape = [1, -1, 16, 64]} : (tensor<2304x1024xbf16>) -> tensor<1x2304x16x64xbf16> loc(#loc157)
    %158 = "tpu.Cast"(%157) {round_mode = #tpu<round_mode HalfAwayFromZero>, with_scale = true} : (tensor<1x2304x16x64xbf16>) -> tensor<1x2304x16x64xf32> loc(#loc158)
    %159 = "tpu.Reshape"(%153) {flatten_start_dim = -1 : i64, shape = [1, -1, 16, 64]} : (tensor<2304x1024xbf16>) -> tensor<1x2304x16x64xbf16> loc(#loc159)
    %160 = "tpu.Cast"(%159) {round_mode = #tpu<round_mode HalfAwayFromZero>, with_scale = true} : (tensor<1x2304x16x64xbf16>) -> tensor<1x2304x16x64xf32> loc(#loc160)
    %161 = "tpu.Reshape"(%156) {flatten_start_dim = -1 : i64, shape = [1, -1, 16, 64]} : (tensor<2304x1024xbf16>) -> tensor<1x2304x16x64xbf16> loc(#loc161)
    %162 = "tpu.Rope"(%158, %24, %19) {add_round_mode = #tpu<round_mode HalfAwayFromZero>, add_saturation = true, add_shift = 0 : si32, force_f32 = true, is_permute_optimize = false, mul1_round_mode = #tpu<round_mode HalfAwayFromZero>, mul1_saturation = true, mul1_shift = 0 : si32, mul2_round_mode = #tpu<round_mode HalfAwayFromZero>, mul2_saturation = true, mul2_shift = 0 : si32, rope_mode = #tpu<rope_mode contiguous_halves>} : (tensor<1x2304x16x64xf32>, tensor<1x2304x1x64xf32>, tensor<1x2304x1x64xf32>) -> tensor<1x2304x16x64xf32> loc(#loc162)
    %163 = "tpu.Cast"(%162) {round_mode = #tpu<round_mode HalfAwayFromZero>, with_scale = true} : (tensor<1x2304x16x64xf32>) -> tensor<1x2304x16x64xbf16> loc(#loc163)
    %164 = "tpu.Rope"(%160, %24, %19) {add_round_mode = #tpu<round_mode HalfAwayFromZero>, add_saturation = true, add_shift = 0 : si32, force_f32 = true, is_permute_optimize = false, mul1_round_mode = #tpu<round_mode HalfAwayFromZero>, mul1_saturation = true, mul1_shift = 0 : si32, mul2_round_mode = #tpu<round_mode HalfAwayFromZero>, mul2_saturation = true, mul2_shift = 0 : si32, rope_mode = #tpu<rope_mode contiguous_halves>} : (tensor<1x2304x16x64xf32>, tensor<1x2304x1x64xf32>, tensor<1x2304x1x64xf32>) -> tensor<1x2304x16x64xf32> loc(#loc164)
    %165 = "tpu.Cast"(%164) {round_mode = #tpu<round_mode HalfAwayFromZero>, with_scale = true} : (tensor<1x2304x16x64xf32>) -> tensor<1x2304x16x64xbf16> loc(#loc165)
    %166 = "tpu.FAttention"(%163, %165, %161, %0, %0) {batch = 1 : i64, dim = 64 : i64, keep_dims = true, kv_head = 16 : i64, mk = 2304 : i64, mq = 2304 : i64, q_head = 16 : i64, scale = 1.250000e-01 : f64} : (tensor<1x2304x16x64xbf16>, tensor<1x2304x16x64xbf16>, tensor<1x2304x16x64xbf16>, none, none) -> tensor<1x2304x16x64xbf16> loc(#loc166)
    %167 = "tpu.Reshape"(%166) {flatten_start_dim = -1 : i64, shape = [-1, 1024]} : (tensor<1x2304x16x64xbf16>) -> tensor<2304x1024xbf16> loc(#loc167)
    %168 = "top.Weight"() : () -> tensor<1024x1024xbf16> loc(#loc168)
    %169 = "top.Weight"() : () -> tensor<1x1024xbf16> loc(#loc169)
    %170 = "tpu.MatMul"(%167, %168, %169, %0, %0) {do_relu = false, dq_type = "NONE", fuse_rq = false, hdim_is_batch = false, input_zp = 0 : i64, is_lora = false, keep_dims = true, left_reuse = 1 : i64, left_transpose = false, multipliers = [1], output_transpose = false, q_group_size = 0 : i64, quant_mode = #tpu<rq_mode MultiplierShift>, relu_limit = -1.000000e+00 : f64, right_transpose = false, right_zp = 0 : i64, round_mode = #tpu<round_mode HalfAwayFromZero>, rshifts = [0]} : (tensor<2304x1024xbf16>, tensor<1024x1024xbf16>, tensor<1x1024xbf16>, none, none) -> tensor<2304x1024xbf16> loc(#loc170)
    %171 = "tpu.Add"(%144, %170) {do_relu = false, is_scalar = false, relu_limit = -1.000000e+00 : f64} : (tensor<2304x1024xbf16>, tensor<2304x1024xbf16>) -> tensor<2304x1024xbf16> loc(#loc171)
    %172 = "top.Weight"() : () -> tensor<1x1024xbf16> loc(#loc172)
    %173 = "top.Weight"() : () -> tensor<1x1024xbf16> loc(#loc173)
    %174 = "tpu.LayerNorm"(%171, %172, %173, %0, %0) {axis = 1 : si32, eps = 9.9999999999999995E-7 : f64, normalized_shape = [1024]} : (tensor<2304x1024xbf16>, tensor<1x1024xbf16>, tensor<1x1024xbf16>, none, none) -> tensor<2304x1024xbf16> loc(#loc174)
    %175 = "top.Weight"() : () -> tensor<1024x4096xbf16> loc(#loc175)
    %176 = "top.Weight"() : () -> tensor<1x4096xbf16> loc(#loc176)
    %177 = "tpu.MatMul"(%174, %175, %176, %0, %0) {do_relu = false, dq_type = "NONE", fuse_rq = false, hdim_is_batch = false, input_zp = 0 : i64, is_lora = false, keep_dims = true, left_reuse = 1 : i64, left_transpose = false, multipliers = [1], output_transpose = false, q_group_size = 0 : i64, quant_mode = #tpu<rq_mode MultiplierShift>, relu_limit = -1.000000e+00 : f64, right_transpose = false, right_zp = 0 : i64, round_mode = #tpu<round_mode HalfAwayFromZero>, rshifts = [0]} : (tensor<2304x1024xbf16>, tensor<1024x4096xbf16>, tensor<1x4096xbf16>, none, none) -> tensor<2304x4096xbf16> loc(#loc177)
    %178 = "tpu.Cast"(%177) {round_mode = #tpu<round_mode HalfAwayFromZero>, with_scale = true} : (tensor<2304x4096xbf16>) -> tensor<2304x4096xf32> loc(#loc178)
    %179 = "tpu.Active"(%178) {mode = #tpu<active_mode TGELU>} : (tensor<2304x4096xf32>) -> tensor<2304x4096xf32> loc(#loc179)
    %180 = "tpu.Cast"(%179) {round_mode = #tpu<round_mode HalfAwayFromZero>, with_scale = true} : (tensor<2304x4096xf32>) -> tensor<2304x4096xbf16> loc(#loc180)
    %181 = "top.Weight"() : () -> tensor<4096x1024xbf16> loc(#loc181)
    %182 = "top.Weight"() : () -> tensor<1x1024xbf16> loc(#loc182)
    %183 = "tpu.MatMul"(%180, %181, %182, %0, %0) {do_relu = false, dq_type = "NONE", fuse_rq = false, hdim_is_batch = false, input_zp = 0 : i64, is_lora = false, keep_dims = true, left_reuse = 1 : i64, left_transpose = false, multipliers = [1], output_transpose = false, q_group_size = 0 : i64, quant_mode = #tpu<rq_mode MultiplierShift>, relu_limit = -1.000000e+00 : f64, right_transpose = false, right_zp = 0 : i64, round_mode = #tpu<round_mode HalfAwayFromZero>, rshifts = [0]} : (tensor<2304x4096xbf16>, tensor<4096x1024xbf16>, tensor<1x1024xbf16>, none, none) -> tensor<2304x1024xbf16> loc(#loc183)
    %184 = "tpu.Add"(%171, %183) {do_relu = false, is_scalar = false, relu_limit = -1.000000e+00 : f64} : (tensor<2304x1024xbf16>, tensor<2304x1024xbf16>) -> tensor<2304x1024xbf16> loc(#loc184)
    %185 = "top.Weight"() : () -> tensor<1x1024xbf16> loc(#loc185)
    %186 = "top.Weight"() : () -> tensor<1x1024xbf16> loc(#loc186)
    %187 = "tpu.LayerNorm"(%184, %185, %186, %0, %0) {axis = 1 : si32, eps = 9.9999999999999995E-7 : f64, normalized_shape = [1024]} : (tensor<2304x1024xbf16>, tensor<1x1024xbf16>, tensor<1x1024xbf16>, none, none) -> tensor<2304x1024xbf16> loc(#loc187)
    %188 = "top.Weight"() : () -> tensor<1024x1024xbf16> loc(#loc188)
    %189 = "top.Weight"() : () -> tensor<1x1024xbf16> loc(#loc189)
    %190 = "tpu.MatMul"(%187, %188, %189, %0, %0) {do_relu = false, dq_type = "NONE", fuse_rq = false, hdim_is_batch = false, input_zp = 0 : i64, is_lora = false, keep_dims = true, left_reuse = 1 : i64, left_transpose = false, multipliers = [1], output_transpose = false, q_group_size = 0 : i64, quant_mode = #tpu<rq_mode MultiplierShift>, relu_limit = -1.000000e+00 : f64, right_transpose = false, right_zp = 0 : i64, round_mode = #tpu<round_mode HalfAwayFromZero>, rshifts = [0]} : (tensor<2304x1024xbf16>, tensor<1024x1024xbf16>, tensor<1x1024xbf16>, none, none) -> tensor<2304x1024xbf16> loc(#loc190)
    %191 = "top.Weight"() : () -> tensor<1024x1024xbf16> loc(#loc191)
    %192 = "top.Weight"() : () -> tensor<1x1024xbf16> loc(#loc192)
    %193 = "tpu.MatMul"(%187, %191, %192, %0, %0) {do_relu = false, dq_type = "NONE", fuse_rq = false, hdim_is_batch = false, input_zp = 0 : i64, is_lora = false, keep_dims = true, left_reuse = 1 : i64, left_transpose = false, multipliers = [1], output_transpose = false, q_group_size = 0 : i64, quant_mode = #tpu<rq_mode MultiplierShift>, relu_limit = -1.000000e+00 : f64, right_transpose = false, right_zp = 0 : i64, round_mode = #tpu<round_mode HalfAwayFromZero>, rshifts = [0]} : (tensor<2304x1024xbf16>, tensor<1024x1024xbf16>, tensor<1x1024xbf16>, none, none) -> tensor<2304x1024xbf16> loc(#loc193)
    %194 = "top.Weight"() : () -> tensor<1024x1024xbf16> loc(#loc194)
    %195 = "top.Weight"() : () -> tensor<1x1024xbf16> loc(#loc195)
    %196 = "tpu.MatMul"(%187, %194, %195, %0, %0) {do_relu = false, dq_type = "NONE", fuse_rq = false, hdim_is_batch = false, input_zp = 0 : i64, is_lora = false, keep_dims = true, left_reuse = 1 : i64, left_transpose = false, multipliers = [1], output_transpose = false, q_group_size = 0 : i64, quant_mode = #tpu<rq_mode MultiplierShift>, relu_limit = -1.000000e+00 : f64, right_transpose = false, right_zp = 0 : i64, round_mode = #tpu<round_mode HalfAwayFromZero>, rshifts = [0]} : (tensor<2304x1024xbf16>, tensor<1024x1024xbf16>, tensor<1x1024xbf16>, none, none) -> tensor<2304x1024xbf16> loc(#loc196)
    %197 = "tpu.Reshape"(%190) {flatten_start_dim = -1 : i64, shape = [1, -1, 16, 64]} : (tensor<2304x1024xbf16>) -> tensor<1x2304x16x64xbf16> loc(#loc197)
    %198 = "tpu.Cast"(%197) {round_mode = #tpu<round_mode HalfAwayFromZero>, with_scale = true} : (tensor<1x2304x16x64xbf16>) -> tensor<1x2304x16x64xf32> loc(#loc198)
    %199 = "tpu.Reshape"(%193) {flatten_start_dim = -1 : i64, shape = [1, -1, 16, 64]} : (tensor<2304x1024xbf16>) -> tensor<1x2304x16x64xbf16> loc(#loc199)
    %200 = "tpu.Cast"(%199) {round_mode = #tpu<round_mode HalfAwayFromZero>, with_scale = true} : (tensor<1x2304x16x64xbf16>) -> tensor<1x2304x16x64xf32> loc(#loc200)
    %201 = "tpu.Reshape"(%196) {flatten_start_dim = -1 : i64, shape = [1, -1, 16, 64]} : (tensor<2304x1024xbf16>) -> tensor<1x2304x16x64xbf16> loc(#loc201)
    %202 = "tpu.Rope"(%198, %24, %19) {add_round_mode = #tpu<round_mode HalfAwayFromZero>, add_saturation = true, add_shift = 0 : si32, force_f32 = true, is_permute_optimize = false, mul1_round_mode = #tpu<round_mode HalfAwayFromZero>, mul1_saturation = true, mul1_shift = 0 : si32, mul2_round_mode = #tpu<round_mode HalfAwayFromZero>, mul2_saturation = true, mul2_shift = 0 : si32, rope_mode = #tpu<rope_mode contiguous_halves>} : (tensor<1x2304x16x64xf32>, tensor<1x2304x1x64xf32>, tensor<1x2304x1x64xf32>) -> tensor<1x2304x16x64xf32> loc(#loc202)
    %203 = "tpu.Cast"(%202) {round_mode = #tpu<round_mode HalfAwayFromZero>, with_scale = true} : (tensor<1x2304x16x64xf32>) -> tensor<1x2304x16x64xbf16> loc(#loc203)
    %204 = "tpu.Rope"(%200, %24, %19) {add_round_mode = #tpu<round_mode HalfAwayFromZero>, add_saturation = true, add_shift = 0 : si32, force_f32 = true, is_permute_optimize = false, mul1_round_mode = #tpu<round_mode HalfAwayFromZero>, mul1_saturation = true, mul1_shift = 0 : si32, mul2_round_mode = #tpu<round_mode HalfAwayFromZero>, mul2_saturation = true, mul2_shift = 0 : si32, rope_mode = #tpu<rope_mode contiguous_halves>} : (tensor<1x2304x16x64xf32>, tensor<1x2304x1x64xf32>, tensor<1x2304x1x64xf32>) -> tensor<1x2304x16x64xf32> loc(#loc204)
    %205 = "tpu.Cast"(%204) {round_mode = #tpu<round_mode HalfAwayFromZero>, with_scale = true} : (tensor<1x2304x16x64xf32>) -> tensor<1x2304x16x64xbf16> loc(#loc205)
    %206 = "tpu.FAttention"(%203, %205, %201, %0, %0) {batch = 1 : i64, dim = 64 : i64, keep_dims = true, kv_head = 16 : i64, mk = 2304 : i64, mq = 2304 : i64, q_head = 16 : i64, scale = 1.250000e-01 : f64} : (tensor<1x2304x16x64xbf16>, tensor<1x2304x16x64xbf16>, tensor<1x2304x16x64xbf16>, none, none) -> tensor<1x2304x16x64xbf16> loc(#loc206)
    %207 = "tpu.Reshape"(%206) {flatten_start_dim = -1 : i64, shape = [-1, 1024]} : (tensor<1x2304x16x64xbf16>) -> tensor<2304x1024xbf16> loc(#loc207)
    %208 = "top.Weight"() : () -> tensor<1024x1024xbf16> loc(#loc208)
    %209 = "top.Weight"() : () -> tensor<1x1024xbf16> loc(#loc209)
    %210 = "tpu.MatMul"(%207, %208, %209, %0, %0) {do_relu = false, dq_type = "NONE", fuse_rq = false, hdim_is_batch = false, input_zp = 0 : i64, is_lora = false, keep_dims = true, left_reuse = 1 : i64, left_transpose = false, multipliers = [1], output_transpose = false, q_group_size = 0 : i64, quant_mode = #tpu<rq_mode MultiplierShift>, relu_limit = -1.000000e+00 : f64, right_transpose = false, right_zp = 0 : i64, round_mode = #tpu<round_mode HalfAwayFromZero>, rshifts = [0]} : (tensor<2304x1024xbf16>, tensor<1024x1024xbf16>, tensor<1x1024xbf16>, none, none) -> tensor<2304x1024xbf16> loc(#loc210)
    %211 = "tpu.Add"(%184, %210) {do_relu = false, is_scalar = false, relu_limit = -1.000000e+00 : f64} : (tensor<2304x1024xbf16>, tensor<2304x1024xbf16>) -> tensor<2304x1024xbf16> loc(#loc211)
    %212 = "top.Weight"() : () -> tensor<1x1024xbf16> loc(#loc212)
    %213 = "top.Weight"() : () -> tensor<1x1024xbf16> loc(#loc213)
    %214 = "tpu.LayerNorm"(%211, %212, %213, %0, %0) {axis = 1 : si32, eps = 9.9999999999999995E-7 : f64, normalized_shape = [1024]} : (tensor<2304x1024xbf16>, tensor<1x1024xbf16>, tensor<1x1024xbf16>, none, none) -> tensor<2304x1024xbf16> loc(#loc214)
    %215 = "top.Weight"() : () -> tensor<1024x4096xbf16> loc(#loc215)
    %216 = "top.Weight"() : () -> tensor<1x4096xbf16> loc(#loc216)
    %217 = "tpu.MatMul"(%214, %215, %216, %0, %0) {do_relu = false, dq_type = "NONE", fuse_rq = false, hdim_is_batch = false, input_zp = 0 : i64, is_lora = false, keep_dims = true, left_reuse = 1 : i64, left_transpose = false, multipliers = [1], output_transpose = false, q_group_size = 0 : i64, quant_mode = #tpu<rq_mode MultiplierShift>, relu_limit = -1.000000e+00 : f64, right_transpose = false, right_zp = 0 : i64, round_mode = #tpu<round_mode HalfAwayFromZero>, rshifts = [0]} : (tensor<2304x1024xbf16>, tensor<1024x4096xbf16>, tensor<1x4096xbf16>, none, none) -> tensor<2304x4096xbf16> loc(#loc217)
    %218 = "tpu.Cast"(%217) {round_mode = #tpu<round_mode HalfAwayFromZero>, with_scale = true} : (tensor<2304x4096xbf16>) -> tensor<2304x4096xf32> loc(#loc218)
    %219 = "tpu.Active"(%218) {mode = #tpu<active_mode TGELU>} : (tensor<2304x4096xf32>) -> tensor<2304x4096xf32> loc(#loc219)
    %220 = "tpu.Cast"(%219) {round_mode = #tpu<round_mode HalfAwayFromZero>, with_scale = true} : (tensor<2304x4096xf32>) -> tensor<2304x4096xbf16> loc(#loc220)
    %221 = "top.Weight"() : () -> tensor<4096x1024xbf16> loc(#loc221)
    %222 = "top.Weight"() : () -> tensor<1x1024xbf16> loc(#loc222)
    %223 = "tpu.MatMul"(%220, %221, %222, %0, %0) {do_relu = false, dq_type = "NONE", fuse_rq = false, hdim_is_batch = false, input_zp = 0 : i64, is_lora = false, keep_dims = true, left_reuse = 1 : i64, left_transpose = false, multipliers = [1], output_transpose = false, q_group_size = 0 : i64, quant_mode = #tpu<rq_mode MultiplierShift>, relu_limit = -1.000000e+00 : f64, right_transpose = false, right_zp = 0 : i64, round_mode = #tpu<round_mode HalfAwayFromZero>, rshifts = [0]} : (tensor<2304x4096xbf16>, tensor<4096x1024xbf16>, tensor<1x1024xbf16>, none, none) -> tensor<2304x1024xbf16> loc(#loc223)
    %224 = "tpu.Add"(%211, %223) {do_relu = false, is_scalar = false, relu_limit = -1.000000e+00 : f64} : (tensor<2304x1024xbf16>, tensor<2304x1024xbf16>) -> tensor<2304x1024xbf16> loc(#loc224)
    %225 = "top.Weight"() : () -> tensor<1x1024xbf16> loc(#loc225)
    %226 = "top.Weight"() : () -> tensor<1x1024xbf16> loc(#loc226)
    %227 = "tpu.LayerNorm"(%224, %225, %226, %0, %0) {axis = 1 : si32, eps = 9.9999999999999995E-7 : f64, normalized_shape = [1024]} : (tensor<2304x1024xbf16>, tensor<1x1024xbf16>, tensor<1x1024xbf16>, none, none) -> tensor<2304x1024xbf16> loc(#loc227)
    %228 = "top.Weight"() : () -> tensor<1024x1024xbf16> loc(#loc228)
    %229 = "top.Weight"() : () -> tensor<1x1024xbf16> loc(#loc229)
    %230 = "tpu.MatMul"(%227, %228, %229, %0, %0) {do_relu = false, dq_type = "NONE", fuse_rq = false, hdim_is_batch = false, input_zp = 0 : i64, is_lora = false, keep_dims = true, left_reuse = 1 : i64, left_transpose = false, multipliers = [1], output_transpose = false, q_group_size = 0 : i64, quant_mode = #tpu<rq_mode MultiplierShift>, relu_limit = -1.000000e+00 : f64, right_transpose = false, right_zp = 0 : i64, round_mode = #tpu<round_mode HalfAwayFromZero>, rshifts = [0]} : (tensor<2304x1024xbf16>, tensor<1024x1024xbf16>, tensor<1x1024xbf16>, none, none) -> tensor<2304x1024xbf16> loc(#loc230)
    %231 = "top.Weight"() : () -> tensor<1024x1024xbf16> loc(#loc231)
    %232 = "top.Weight"() : () -> tensor<1x1024xbf16> loc(#loc232)
    %233 = "tpu.MatMul"(%227, %231, %232, %0, %0) {do_relu = false, dq_type = "NONE", fuse_rq = false, hdim_is_batch = false, input_zp = 0 : i64, is_lora = false, keep_dims = true, left_reuse = 1 : i64, left_transpose = false, multipliers = [1], output_transpose = false, q_group_size = 0 : i64, quant_mode = #tpu<rq_mode MultiplierShift>, relu_limit = -1.000000e+00 : f64, right_transpose = false, right_zp = 0 : i64, round_mode = #tpu<round_mode HalfAwayFromZero>, rshifts = [0]} : (tensor<2304x1024xbf16>, tensor<1024x1024xbf16>, tensor<1x1024xbf16>, none, none) -> tensor<2304x1024xbf16> loc(#loc233)
    %234 = "top.Weight"() : () -> tensor<1024x1024xbf16> loc(#loc234)
    %235 = "top.Weight"() : () -> tensor<1x1024xbf16> loc(#loc235)
    %236 = "tpu.MatMul"(%227, %234, %235, %0, %0) {do_relu = false, dq_type = "NONE", fuse_rq = false, hdim_is_batch = false, input_zp = 0 : i64, is_lora = false, keep_dims = true, left_reuse = 1 : i64, left_transpose = false, multipliers = [1], output_transpose = false, q_group_size = 0 : i64, quant_mode = #tpu<rq_mode MultiplierShift>, relu_limit = -1.000000e+00 : f64, right_transpose = false, right_zp = 0 : i64, round_mode = #tpu<round_mode HalfAwayFromZero>, rshifts = [0]} : (tensor<2304x1024xbf16>, tensor<1024x1024xbf16>, tensor<1x1024xbf16>, none, none) -> tensor<2304x1024xbf16> loc(#loc236)
    %237 = "tpu.Reshape"(%230) {flatten_start_dim = -1 : i64, shape = [1, -1, 16, 64]} : (tensor<2304x1024xbf16>) -> tensor<1x2304x16x64xbf16> loc(#loc237)
    %238 = "tpu.Cast"(%237) {round_mode = #tpu<round_mode HalfAwayFromZero>, with_scale = true} : (tensor<1x2304x16x64xbf16>) -> tensor<1x2304x16x64xf32> loc(#loc238)
    %239 = "tpu.Reshape"(%233) {flatten_start_dim = -1 : i64, shape = [1, -1, 16, 64]} : (tensor<2304x1024xbf16>) -> tensor<1x2304x16x64xbf16> loc(#loc239)
    %240 = "tpu.Cast"(%239) {round_mode = #tpu<round_mode HalfAwayFromZero>, with_scale = true} : (tensor<1x2304x16x64xbf16>) -> tensor<1x2304x16x64xf32> loc(#loc240)
    %241 = "tpu.Reshape"(%236) {flatten_start_dim = -1 : i64, shape = [1, -1, 16, 64]} : (tensor<2304x1024xbf16>) -> tensor<1x2304x16x64xbf16> loc(#loc241)
    %242 = "tpu.Rope"(%238, %24, %19) {add_round_mode = #tpu<round_mode HalfAwayFromZero>, add_saturation = true, add_shift = 0 : si32, force_f32 = true, is_permute_optimize = false, mul1_round_mode = #tpu<round_mode HalfAwayFromZero>, mul1_saturation = true, mul1_shift = 0 : si32, mul2_round_mode = #tpu<round_mode HalfAwayFromZero>, mul2_saturation = true, mul2_shift = 0 : si32, rope_mode = #tpu<rope_mode contiguous_halves>} : (tensor<1x2304x16x64xf32>, tensor<1x2304x1x64xf32>, tensor<1x2304x1x64xf32>) -> tensor<1x2304x16x64xf32> loc(#loc242)
    %243 = "tpu.Cast"(%242) {round_mode = #tpu<round_mode HalfAwayFromZero>, with_scale = true} : (tensor<1x2304x16x64xf32>) -> tensor<1x2304x16x64xbf16> loc(#loc243)
    %244 = "tpu.Rope"(%240, %24, %19) {add_round_mode = #tpu<round_mode HalfAwayFromZero>, add_saturation = true, add_shift = 0 : si32, force_f32 = true, is_permute_optimize = false, mul1_round_mode = #tpu<round_mode HalfAwayFromZero>, mul1_saturation = true, mul1_shift = 0 : si32, mul2_round_mode = #tpu<round_mode HalfAwayFromZero>, mul2_saturation = true, mul2_shift = 0 : si32, rope_mode = #tpu<rope_mode contiguous_halves>} : (tensor<1x2304x16x64xf32>, tensor<1x2304x1x64xf32>, tensor<1x2304x1x64xf32>) -> tensor<1x2304x16x64xf32> loc(#loc244)
    %245 = "tpu.Cast"(%244) {round_mode = #tpu<round_mode HalfAwayFromZero>, with_scale = true} : (tensor<1x2304x16x64xf32>) -> tensor<1x2304x16x64xbf16> loc(#loc245)
    %246 = "tpu.FAttention"(%243, %245, %241, %0, %0) {batch = 1 : i64, dim = 64 : i64, keep_dims = true, kv_head = 16 : i64, mk = 2304 : i64, mq = 2304 : i64, q_head = 16 : i64, scale = 1.250000e-01 : f64} : (tensor<1x2304x16x64xbf16>, tensor<1x2304x16x64xbf16>, tensor<1x2304x16x64xbf16>, none, none) -> tensor<1x2304x16x64xbf16> loc(#loc246)
    %247 = "tpu.Reshape"(%246) {flatten_start_dim = -1 : i64, shape = [-1, 1024]} : (tensor<1x2304x16x64xbf16>) -> tensor<2304x1024xbf16> loc(#loc247)
    %248 = "top.Weight"() : () -> tensor<1024x1024xbf16> loc(#loc248)
    %249 = "top.Weight"() : () -> tensor<1x1024xbf16> loc(#loc249)
    %250 = "tpu.MatMul"(%247, %248, %249, %0, %0) {do_relu = false, dq_type = "NONE", fuse_rq = false, hdim_is_batch = false, input_zp = 0 : i64, is_lora = false, keep_dims = true, left_reuse = 1 : i64, left_transpose = false, multipliers = [1], output_transpose = false, q_group_size = 0 : i64, quant_mode = #tpu<rq_mode MultiplierShift>, relu_limit = -1.000000e+00 : f64, right_transpose = false, right_zp = 0 : i64, round_mode = #tpu<round_mode HalfAwayFromZero>, rshifts = [0]} : (tensor<2304x1024xbf16>, tensor<1024x1024xbf16>, tensor<1x1024xbf16>, none, none) -> tensor<2304x1024xbf16> loc(#loc250)
    %251 = "tpu.Add"(%224, %250) {do_relu = false, is_scalar = false, relu_limit = -1.000000e+00 : f64} : (tensor<2304x1024xbf16>, tensor<2304x1024xbf16>) -> tensor<2304x1024xbf16> loc(#loc251)
    %252 = "top.Weight"() : () -> tensor<1x1024xbf16> loc(#loc252)
    %253 = "top.Weight"() : () -> tensor<1x1024xbf16> loc(#loc253)
    %254 = "tpu.LayerNorm"(%251, %252, %253, %0, %0) {axis = 1 : si32, eps = 9.9999999999999995E-7 : f64, normalized_shape = [1024]} : (tensor<2304x1024xbf16>, tensor<1x1024xbf16>, tensor<1x1024xbf16>, none, none) -> tensor<2304x1024xbf16> loc(#loc254)
    %255 = "top.Weight"() : () -> tensor<1024x4096xbf16> loc(#loc255)
    %256 = "top.Weight"() : () -> tensor<1x4096xbf16> loc(#loc256)
    %257 = "tpu.MatMul"(%254, %255, %256, %0, %0) {do_relu = false, dq_type = "NONE", fuse_rq = false, hdim_is_batch = false, input_zp = 0 : i64, is_lora = false, keep_dims = true, left_reuse = 1 : i64, left_transpose = false, multipliers = [1], output_transpose = false, q_group_size = 0 : i64, quant_mode = #tpu<rq_mode MultiplierShift>, relu_limit = -1.000000e+00 : f64, right_transpose = false, right_zp = 0 : i64, round_mode = #tpu<round_mode HalfAwayFromZero>, rshifts = [0]} : (tensor<2304x1024xbf16>, tensor<1024x4096xbf16>, tensor<1x4096xbf16>, none, none) -> tensor<2304x4096xbf16> loc(#loc257)
    %258 = "tpu.Cast"(%257) {round_mode = #tpu<round_mode HalfAwayFromZero>, with_scale = true} : (tensor<2304x4096xbf16>) -> tensor<2304x4096xf32> loc(#loc258)
    %259 = "tpu.Active"(%258) {mode = #tpu<active_mode TGELU>} : (tensor<2304x4096xf32>) -> tensor<2304x4096xf32> loc(#loc259)
    %260 = "tpu.Cast"(%259) {round_mode = #tpu<round_mode HalfAwayFromZero>, with_scale = true} : (tensor<2304x4096xf32>) -> tensor<2304x4096xbf16> loc(#loc260)
    %261 = "top.Weight"() : () -> tensor<4096x1024xbf16> loc(#loc261)
    %262 = "top.Weight"() : () -> tensor<1x1024xbf16> loc(#loc262)
    %263 = "tpu.MatMul"(%260, %261, %262, %0, %0) {do_relu = false, dq_type = "NONE", fuse_rq = false, hdim_is_batch = false, input_zp = 0 : i64, is_lora = false, keep_dims = true, left_reuse = 1 : i64, left_transpose = false, multipliers = [1], output_transpose = false, q_group_size = 0 : i64, quant_mode = #tpu<rq_mode MultiplierShift>, relu_limit = -1.000000e+00 : f64, right_transpose = false, right_zp = 0 : i64, round_mode = #tpu<round_mode HalfAwayFromZero>, rshifts = [0]} : (tensor<2304x4096xbf16>, tensor<4096x1024xbf16>, tensor<1x1024xbf16>, none, none) -> tensor<2304x1024xbf16> loc(#loc263)
    %264 = "tpu.Add"(%251, %263) {do_relu = false, is_scalar = false, relu_limit = -1.000000e+00 : f64} : (tensor<2304x1024xbf16>, tensor<2304x1024xbf16>) -> tensor<2304x1024xbf16> loc(#loc264)
    %265 = "top.Weight"() : () -> tensor<1x1024xbf16> loc(#loc265)
    %266 = "top.Weight"() : () -> tensor<1x1024xbf16> loc(#loc266)
    %267 = "tpu.LayerNorm"(%264, %265, %266, %0, %0) {axis = 1 : si32, eps = 9.9999999999999995E-7 : f64, normalized_shape = [1024]} : (tensor<2304x1024xbf16>, tensor<1x1024xbf16>, tensor<1x1024xbf16>, none, none) -> tensor<2304x1024xbf16> loc(#loc267)
    %268 = "top.Weight"() : () -> tensor<1024x1024xbf16> loc(#loc268)
    %269 = "top.Weight"() : () -> tensor<1x1024xbf16> loc(#loc269)
    %270 = "tpu.MatMul"(%267, %268, %269, %0, %0) {do_relu = false, dq_type = "NONE", fuse_rq = false, hdim_is_batch = false, input_zp = 0 : i64, is_lora = false, keep_dims = true, left_reuse = 1 : i64, left_transpose = false, multipliers = [1], output_transpose = false, q_group_size = 0 : i64, quant_mode = #tpu<rq_mode MultiplierShift>, relu_limit = -1.000000e+00 : f64, right_transpose = false, right_zp = 0 : i64, round_mode = #tpu<round_mode HalfAwayFromZero>, rshifts = [0]} : (tensor<2304x1024xbf16>, tensor<1024x1024xbf16>, tensor<1x1024xbf16>, none, none) -> tensor<2304x1024xbf16> loc(#loc270)
    %271 = "top.Weight"() : () -> tensor<1024x1024xbf16> loc(#loc271)
    %272 = "top.Weight"() : () -> tensor<1x1024xbf16> loc(#loc272)
    %273 = "tpu.MatMul"(%267, %271, %272, %0, %0) {do_relu = false, dq_type = "NONE", fuse_rq = false, hdim_is_batch = false, input_zp = 0 : i64, is_lora = false, keep_dims = true, left_reuse = 1 : i64, left_transpose = false, multipliers = [1], output_transpose = false, q_group_size = 0 : i64, quant_mode = #tpu<rq_mode MultiplierShift>, relu_limit = -1.000000e+00 : f64, right_transpose = false, right_zp = 0 : i64, round_mode = #tpu<round_mode HalfAwayFromZero>, rshifts = [0]} : (tensor<2304x1024xbf16>, tensor<1024x1024xbf16>, tensor<1x1024xbf16>, none, none) -> tensor<2304x1024xbf16> loc(#loc273)
    %274 = "top.Weight"() : () -> tensor<1024x1024xbf16> loc(#loc274)
    %275 = "top.Weight"() : () -> tensor<1x1024xbf16> loc(#loc275)
    %276 = "tpu.MatMul"(%267, %274, %275, %0, %0) {do_relu = false, dq_type = "NONE", fuse_rq = false, hdim_is_batch = false, input_zp = 0 : i64, is_lora = false, keep_dims = true, left_reuse = 1 : i64, left_transpose = false, multipliers = [1], output_transpose = false, q_group_size = 0 : i64, quant_mode = #tpu<rq_mode MultiplierShift>, relu_limit = -1.000000e+00 : f64, right_transpose = false, right_zp = 0 : i64, round_mode = #tpu<round_mode HalfAwayFromZero>, rshifts = [0]} : (tensor<2304x1024xbf16>, tensor<1024x1024xbf16>, tensor<1x1024xbf16>, none, none) -> tensor<2304x1024xbf16> loc(#loc276)
    %277 = "tpu.Reshape"(%270) {flatten_start_dim = -1 : i64, shape = [1, -1, 16, 64]} : (tensor<2304x1024xbf16>) -> tensor<1x2304x16x64xbf16> loc(#loc277)
    %278 = "tpu.Cast"(%277) {round_mode = #tpu<round_mode HalfAwayFromZero>, with_scale = true} : (tensor<1x2304x16x64xbf16>) -> tensor<1x2304x16x64xf32> loc(#loc278)
    %279 = "tpu.Reshape"(%273) {flatten_start_dim = -1 : i64, shape = [1, -1, 16, 64]} : (tensor<2304x1024xbf16>) -> tensor<1x2304x16x64xbf16> loc(#loc279)
    %280 = "tpu.Cast"(%279) {round_mode = #tpu<round_mode HalfAwayFromZero>, with_scale = true} : (tensor<1x2304x16x64xbf16>) -> tensor<1x2304x16x64xf32> loc(#loc280)
    %281 = "tpu.Reshape"(%276) {flatten_start_dim = -1 : i64, shape = [1, -1, 16, 64]} : (tensor<2304x1024xbf16>) -> tensor<1x2304x16x64xbf16> loc(#loc281)
    %282 = "tpu.Rope"(%278, %24, %19) {add_round_mode = #tpu<round_mode HalfAwayFromZero>, add_saturation = true, add_shift = 0 : si32, force_f32 = true, is_permute_optimize = false, mul1_round_mode = #tpu<round_mode HalfAwayFromZero>, mul1_saturation = true, mul1_shift = 0 : si32, mul2_round_mode = #tpu<round_mode HalfAwayFromZero>, mul2_saturation = true, mul2_shift = 0 : si32, rope_mode = #tpu<rope_mode contiguous_halves>} : (tensor<1x2304x16x64xf32>, tensor<1x2304x1x64xf32>, tensor<1x2304x1x64xf32>) -> tensor<1x2304x16x64xf32> loc(#loc282)
    %283 = "tpu.Cast"(%282) {round_mode = #tpu<round_mode HalfAwayFromZero>, with_scale = true} : (tensor<1x2304x16x64xf32>) -> tensor<1x2304x16x64xbf16> loc(#loc283)
    %284 = "tpu.Rope"(%280, %24, %19) {add_round_mode = #tpu<round_mode HalfAwayFromZero>, add_saturation = true, add_shift = 0 : si32, force_f32 = true, is_permute_optimize = false, mul1_round_mode = #tpu<round_mode HalfAwayFromZero>, mul1_saturation = true, mul1_shift = 0 : si32, mul2_round_mode = #tpu<round_mode HalfAwayFromZero>, mul2_saturation = true, mul2_shift = 0 : si32, rope_mode = #tpu<rope_mode contiguous_halves>} : (tensor<1x2304x16x64xf32>, tensor<1x2304x1x64xf32>, tensor<1x2304x1x64xf32>) -> tensor<1x2304x16x64xf32> loc(#loc284)
    %285 = "tpu.Cast"(%284) {round_mode = #tpu<round_mode HalfAwayFromZero>, with_scale = true} : (tensor<1x2304x16x64xf32>) -> tensor<1x2304x16x64xbf16> loc(#loc285)
    %286 = "tpu.FAttention"(%283, %285, %281, %0, %0) {batch = 1 : i64, dim = 64 : i64, keep_dims = true, kv_head = 16 : i64, mk = 2304 : i64, mq = 2304 : i64, q_head = 16 : i64, scale = 1.250000e-01 : f64} : (tensor<1x2304x16x64xbf16>, tensor<1x2304x16x64xbf16>, tensor<1x2304x16x64xbf16>, none, none) -> tensor<1x2304x16x64xbf16> loc(#loc286)
    %287 = "tpu.Reshape"(%286) {flatten_start_dim = -1 : i64, shape = [-1, 1024]} : (tensor<1x2304x16x64xbf16>) -> tensor<2304x1024xbf16> loc(#loc287)
    %288 = "top.Weight"() : () -> tensor<1024x1024xbf16> loc(#loc288)
    %289 = "top.Weight"() : () -> tensor<1x1024xbf16> loc(#loc289)
    %290 = "tpu.MatMul"(%287, %288, %289, %0, %0) {do_relu = false, dq_type = "NONE", fuse_rq = false, hdim_is_batch = false, input_zp = 0 : i64, is_lora = false, keep_dims = true, left_reuse = 1 : i64, left_transpose = false, multipliers = [1], output_transpose = false, q_group_size = 0 : i64, quant_mode = #tpu<rq_mode MultiplierShift>, relu_limit = -1.000000e+00 : f64, right_transpose = false, right_zp = 0 : i64, round_mode = #tpu<round_mode HalfAwayFromZero>, rshifts = [0]} : (tensor<2304x1024xbf16>, tensor<1024x1024xbf16>, tensor<1x1024xbf16>, none, none) -> tensor<2304x1024xbf16> loc(#loc290)
    %291 = "tpu.Add"(%264, %290) {do_relu = false, is_scalar = false, relu_limit = -1.000000e+00 : f64} : (tensor<2304x1024xbf16>, tensor<2304x1024xbf16>) -> tensor<2304x1024xbf16> loc(#loc291)
    %292 = "top.Weight"() : () -> tensor<1x1024xbf16> loc(#loc292)
    %293 = "top.Weight"() : () -> tensor<1x1024xbf16> loc(#loc293)
    %294 = "tpu.LayerNorm"(%291, %292, %293, %0, %0) {axis = 1 : si32, eps = 9.9999999999999995E-7 : f64, normalized_shape = [1024]} : (tensor<2304x1024xbf16>, tensor<1x1024xbf16>, tensor<1x1024xbf16>, none, none) -> tensor<2304x1024xbf16> loc(#loc294)
    %295 = "top.Weight"() : () -> tensor<1024x4096xbf16> loc(#loc295)
    %296 = "top.Weight"() : () -> tensor<1x4096xbf16> loc(#loc296)
    %297 = "tpu.MatMul"(%294, %295, %296, %0, %0) {do_relu = false, dq_type = "NONE", fuse_rq = false, hdim_is_batch = false, input_zp = 0 : i64, is_lora = false, keep_dims = true, left_reuse = 1 : i64, left_transpose = false, multipliers = [1], output_transpose = false, q_group_size = 0 : i64, quant_mode = #tpu<rq_mode MultiplierShift>, relu_limit = -1.000000e+00 : f64, right_transpose = false, right_zp = 0 : i64, round_mode = #tpu<round_mode HalfAwayFromZero>, rshifts = [0]} : (tensor<2304x1024xbf16>, tensor<1024x4096xbf16>, tensor<1x4096xbf16>, none, none) -> tensor<2304x4096xbf16> loc(#loc297)
    %298 = "tpu.Cast"(%297) {round_mode = #tpu<round_mode HalfAwayFromZero>, with_scale = true} : (tensor<2304x4096xbf16>) -> tensor<2304x4096xf32> loc(#loc298)
    %299 = "tpu.Active"(%298) {mode = #tpu<active_mode TGELU>} : (tensor<2304x4096xf32>) -> tensor<2304x4096xf32> loc(#loc299)
    %300 = "tpu.Cast"(%299) {round_mode = #tpu<round_mode HalfAwayFromZero>, with_scale = true} : (tensor<2304x4096xf32>) -> tensor<2304x4096xbf16> loc(#loc300)
    %301 = "top.Weight"() : () -> tensor<4096x1024xbf16> loc(#loc301)
    %302 = "top.Weight"() : () -> tensor<1x1024xbf16> loc(#loc302)
    %303 = "tpu.MatMul"(%300, %301, %302, %0, %0) {do_relu = false, dq_type = "NONE", fuse_rq = false, hdim_is_batch = false, input_zp = 0 : i64, is_lora = false, keep_dims = true, left_reuse = 1 : i64, left_transpose = false, multipliers = [1], output_transpose = false, q_group_size = 0 : i64, quant_mode = #tpu<rq_mode MultiplierShift>, relu_limit = -1.000000e+00 : f64, right_transpose = false, right_zp = 0 : i64, round_mode = #tpu<round_mode HalfAwayFromZero>, rshifts = [0]} : (tensor<2304x4096xbf16>, tensor<4096x1024xbf16>, tensor<1x1024xbf16>, none, none) -> tensor<2304x1024xbf16> loc(#loc303)
    %304 = "tpu.Add"(%291, %303) {do_relu = false, is_scalar = false, relu_limit = -1.000000e+00 : f64} : (tensor<2304x1024xbf16>, tensor<2304x1024xbf16>) -> tensor<2304x1024xbf16> loc(#loc304)
    %305 = "top.Weight"() : () -> tensor<1x1024xbf16> loc(#loc305)
    %306 = "top.Weight"() : () -> tensor<1x1024xbf16> loc(#loc306)
    %307 = "tpu.LayerNorm"(%304, %305, %306, %0, %0) {axis = 1 : si32, eps = 9.9999999999999995E-7 : f64, normalized_shape = [1024]} : (tensor<2304x1024xbf16>, tensor<1x1024xbf16>, tensor<1x1024xbf16>, none, none) -> tensor<2304x1024xbf16> loc(#loc307)
    %308 = "top.Weight"() : () -> tensor<1024x1024xbf16> loc(#loc308)
    %309 = "top.Weight"() : () -> tensor<1x1024xbf16> loc(#loc309)
    %310 = "tpu.MatMul"(%307, %308, %309, %0, %0) {do_relu = false, dq_type = "NONE", fuse_rq = false, hdim_is_batch = false, input_zp = 0 : i64, is_lora = false, keep_dims = true, left_reuse = 1 : i64, left_transpose = false, multipliers = [1], output_transpose = false, q_group_size = 0 : i64, quant_mode = #tpu<rq_mode MultiplierShift>, relu_limit = -1.000000e+00 : f64, right_transpose = false, right_zp = 0 : i64, round_mode = #tpu<round_mode HalfAwayFromZero>, rshifts = [0]} : (tensor<2304x1024xbf16>, tensor<1024x1024xbf16>, tensor<1x1024xbf16>, none, none) -> tensor<2304x1024xbf16> loc(#loc310)
    %311 = "top.Weight"() : () -> tensor<1024x1024xbf16> loc(#loc311)
    %312 = "top.Weight"() : () -> tensor<1x1024xbf16> loc(#loc312)
    %313 = "tpu.MatMul"(%307, %311, %312, %0, %0) {do_relu = false, dq_type = "NONE", fuse_rq = false, hdim_is_batch = false, input_zp = 0 : i64, is_lora = false, keep_dims = true, left_reuse = 1 : i64, left_transpose = false, multipliers = [1], output_transpose = false, q_group_size = 0 : i64, quant_mode = #tpu<rq_mode MultiplierShift>, relu_limit = -1.000000e+00 : f64, right_transpose = false, right_zp = 0 : i64, round_mode = #tpu<round_mode HalfAwayFromZero>, rshifts = [0]} : (tensor<2304x1024xbf16>, tensor<1024x1024xbf16>, tensor<1x1024xbf16>, none, none) -> tensor<2304x1024xbf16> loc(#loc313)
    %314 = "top.Weight"() : () -> tensor<1024x1024xbf16> loc(#loc314)
    %315 = "top.Weight"() : () -> tensor<1x1024xbf16> loc(#loc315)
    %316 = "tpu.MatMul"(%307, %314, %315, %0, %0) {do_relu = false, dq_type = "NONE", fuse_rq = false, hdim_is_batch = false, input_zp = 0 : i64, is_lora = false, keep_dims = true, left_reuse = 1 : i64, left_transpose = false, multipliers = [1], output_transpose = false, q_group_size = 0 : i64, quant_mode = #tpu<rq_mode MultiplierShift>, relu_limit = -1.000000e+00 : f64, right_transpose = false, right_zp = 0 : i64, round_mode = #tpu<round_mode HalfAwayFromZero>, rshifts = [0]} : (tensor<2304x1024xbf16>, tensor<1024x1024xbf16>, tensor<1x1024xbf16>, none, none) -> tensor<2304x1024xbf16> loc(#loc316)
    %317 = "tpu.Reshape"(%310) {flatten_start_dim = -1 : i64, shape = [1, -1, 16, 64]} : (tensor<2304x1024xbf16>) -> tensor<1x2304x16x64xbf16> loc(#loc317)
    %318 = "tpu.Cast"(%317) {round_mode = #tpu<round_mode HalfAwayFromZero>, with_scale = true} : (tensor<1x2304x16x64xbf16>) -> tensor<1x2304x16x64xf32> loc(#loc318)
    %319 = "tpu.Reshape"(%313) {flatten_start_dim = -1 : i64, shape = [1, -1, 16, 64]} : (tensor<2304x1024xbf16>) -> tensor<1x2304x16x64xbf16> loc(#loc319)
    %320 = "tpu.Cast"(%319) {round_mode = #tpu<round_mode HalfAwayFromZero>, with_scale = true} : (tensor<1x2304x16x64xbf16>) -> tensor<1x2304x16x64xf32> loc(#loc320)
    %321 = "tpu.Reshape"(%316) {flatten_start_dim = -1 : i64, shape = [1, -1, 16, 64]} : (tensor<2304x1024xbf16>) -> tensor<1x2304x16x64xbf16> loc(#loc321)
    %322 = "tpu.Rope"(%318, %24, %19) {add_round_mode = #tpu<round_mode HalfAwayFromZero>, add_saturation = true, add_shift = 0 : si32, force_f32 = true, is_permute_optimize = false, mul1_round_mode = #tpu<round_mode HalfAwayFromZero>, mul1_saturation = true, mul1_shift = 0 : si32, mul2_round_mode = #tpu<round_mode HalfAwayFromZero>, mul2_saturation = true, mul2_shift = 0 : si32, rope_mode = #tpu<rope_mode contiguous_halves>} : (tensor<1x2304x16x64xf32>, tensor<1x2304x1x64xf32>, tensor<1x2304x1x64xf32>) -> tensor<1x2304x16x64xf32> loc(#loc322)
    %323 = "tpu.Cast"(%322) {round_mode = #tpu<round_mode HalfAwayFromZero>, with_scale = true} : (tensor<1x2304x16x64xf32>) -> tensor<1x2304x16x64xbf16> loc(#loc323)
    %324 = "tpu.Rope"(%320, %24, %19) {add_round_mode = #tpu<round_mode HalfAwayFromZero>, add_saturation = true, add_shift = 0 : si32, force_f32 = true, is_permute_optimize = false, mul1_round_mode = #tpu<round_mode HalfAwayFromZero>, mul1_saturation = true, mul1_shift = 0 : si32, mul2_round_mode = #tpu<round_mode HalfAwayFromZero>, mul2_saturation = true, mul2_shift = 0 : si32, rope_mode = #tpu<rope_mode contiguous_halves>} : (tensor<1x2304x16x64xf32>, tensor<1x2304x1x64xf32>, tensor<1x2304x1x64xf32>) -> tensor<1x2304x16x64xf32> loc(#loc324)
    %325 = "tpu.Cast"(%324) {round_mode = #tpu<round_mode HalfAwayFromZero>, with_scale = true} : (tensor<1x2304x16x64xf32>) -> tensor<1x2304x16x64xbf16> loc(#loc325)
    %326 = "tpu.FAttention"(%323, %325, %321, %0, %0) {batch = 1 : i64, dim = 64 : i64, keep_dims = true, kv_head = 16 : i64, mk = 2304 : i64, mq = 2304 : i64, q_head = 16 : i64, scale = 1.250000e-01 : f64} : (tensor<1x2304x16x64xbf16>, tensor<1x2304x16x64xbf16>, tensor<1x2304x16x64xbf16>, none, none) -> tensor<1x2304x16x64xbf16> loc(#loc326)
    %327 = "tpu.Reshape"(%326) {flatten_start_dim = -1 : i64, shape = [-1, 1024]} : (tensor<1x2304x16x64xbf16>) -> tensor<2304x1024xbf16> loc(#loc327)
    %328 = "top.Weight"() : () -> tensor<1024x1024xbf16> loc(#loc328)
    %329 = "top.Weight"() : () -> tensor<1x1024xbf16> loc(#loc329)
    %330 = "tpu.MatMul"(%327, %328, %329, %0, %0) {do_relu = false, dq_type = "NONE", fuse_rq = false, hdim_is_batch = false, input_zp = 0 : i64, is_lora = false, keep_dims = true, left_reuse = 1 : i64, left_transpose = false, multipliers = [1], output_transpose = false, q_group_size = 0 : i64, quant_mode = #tpu<rq_mode MultiplierShift>, relu_limit = -1.000000e+00 : f64, right_transpose = false, right_zp = 0 : i64, round_mode = #tpu<round_mode HalfAwayFromZero>, rshifts = [0]} : (tensor<2304x1024xbf16>, tensor<1024x1024xbf16>, tensor<1x1024xbf16>, none, none) -> tensor<2304x1024xbf16> loc(#loc330)
    %331 = "tpu.Add"(%304, %330) {do_relu = false, is_scalar = false, relu_limit = -1.000000e+00 : f64} : (tensor<2304x1024xbf16>, tensor<2304x1024xbf16>) -> tensor<2304x1024xbf16> loc(#loc331)
    %332 = "top.Weight"() : () -> tensor<1x1024xbf16> loc(#loc332)
    %333 = "top.Weight"() : () -> tensor<1x1024xbf16> loc(#loc333)
    %334 = "tpu.LayerNorm"(%331, %332, %333, %0, %0) {axis = 1 : si32, eps = 9.9999999999999995E-7 : f64, normalized_shape = [1024]} : (tensor<2304x1024xbf16>, tensor<1x1024xbf16>, tensor<1x1024xbf16>, none, none) -> tensor<2304x1024xbf16> loc(#loc334)
    %335 = "top.Weight"() : () -> tensor<1024x4096xbf16> loc(#loc335)
    %336 = "top.Weight"() : () -> tensor<1x4096xbf16> loc(#loc336)
    %337 = "tpu.MatMul"(%334, %335, %336, %0, %0) {do_relu = false, dq_type = "NONE", fuse_rq = false, hdim_is_batch = false, input_zp = 0 : i64, is_lora = false, keep_dims = true, left_reuse = 1 : i64, left_transpose = false, multipliers = [1], output_transpose = false, q_group_size = 0 : i64, quant_mode = #tpu<rq_mode MultiplierShift>, relu_limit = -1.000000e+00 : f64, right_transpose = false, right_zp = 0 : i64, round_mode = #tpu<round_mode HalfAwayFromZero>, rshifts = [0]} : (tensor<2304x1024xbf16>, tensor<1024x4096xbf16>, tensor<1x4096xbf16>, none, none) -> tensor<2304x4096xbf16> loc(#loc337)
    %338 = "tpu.Cast"(%337) {round_mode = #tpu<round_mode HalfAwayFromZero>, with_scale = true} : (tensor<2304x4096xbf16>) -> tensor<2304x4096xf32> loc(#loc338)
    %339 = "tpu.Active"(%338) {mode = #tpu<active_mode TGELU>} : (tensor<2304x4096xf32>) -> tensor<2304x4096xf32> loc(#loc339)
    %340 = "tpu.Cast"(%339) {round_mode = #tpu<round_mode HalfAwayFromZero>, with_scale = true} : (tensor<2304x4096xf32>) -> tensor<2304x4096xbf16> loc(#loc340)
    %341 = "top.Weight"() : () -> tensor<4096x1024xbf16> loc(#loc341)
    %342 = "top.Weight"() : () -> tensor<1x1024xbf16> loc(#loc342)
    %343 = "tpu.MatMul"(%340, %341, %342, %0, %0) {do_relu = false, dq_type = "NONE", fuse_rq = false, hdim_is_batch = false, input_zp = 0 : i64, is_lora = false, keep_dims = true, left_reuse = 1 : i64, left_transpose = false, multipliers = [1], output_transpose = false, q_group_size = 0 : i64, quant_mode = #tpu<rq_mode MultiplierShift>, relu_limit = -1.000000e+00 : f64, right_transpose = false, right_zp = 0 : i64, round_mode = #tpu<round_mode HalfAwayFromZero>, rshifts = [0]} : (tensor<2304x4096xbf16>, tensor<4096x1024xbf16>, tensor<1x1024xbf16>, none, none) -> tensor<2304x1024xbf16> loc(#loc343)
    %344 = "tpu.Add"(%331, %343) {do_relu = false, is_scalar = false, relu_limit = -1.000000e+00 : f64} : (tensor<2304x1024xbf16>, tensor<2304x1024xbf16>) -> tensor<2304x1024xbf16> loc(#loc344)
    %345 = "top.Weight"() : () -> tensor<1x1024xbf16> loc(#loc345)
    %346 = "top.Weight"() : () -> tensor<1x1024xbf16> loc(#loc346)
    %347 = "tpu.LayerNorm"(%344, %345, %346, %0, %0) {axis = 1 : si32, eps = 9.9999999999999995E-7 : f64, normalized_shape = [1024]} : (tensor<2304x1024xbf16>, tensor<1x1024xbf16>, tensor<1x1024xbf16>, none, none) -> tensor<2304x1024xbf16> loc(#loc347)
    %348 = "top.Weight"() : () -> tensor<1024x1024xbf16> loc(#loc348)
    %349 = "top.Weight"() : () -> tensor<1x1024xbf16> loc(#loc349)
    %350 = "tpu.MatMul"(%347, %348, %349, %0, %0) {do_relu = false, dq_type = "NONE", fuse_rq = false, hdim_is_batch = false, input_zp = 0 : i64, is_lora = false, keep_dims = true, left_reuse = 1 : i64, left_transpose = false, multipliers = [1], output_transpose = false, q_group_size = 0 : i64, quant_mode = #tpu<rq_mode MultiplierShift>, relu_limit = -1.000000e+00 : f64, right_transpose = false, right_zp = 0 : i64, round_mode = #tpu<round_mode HalfAwayFromZero>, rshifts = [0]} : (tensor<2304x1024xbf16>, tensor<1024x1024xbf16>, tensor<1x1024xbf16>, none, none) -> tensor<2304x1024xbf16> loc(#loc350)
    %351 = "top.Weight"() : () -> tensor<1024x1024xbf16> loc(#loc351)
    %352 = "top.Weight"() : () -> tensor<1x1024xbf16> loc(#loc352)
    %353 = "tpu.MatMul"(%347, %351, %352, %0, %0) {do_relu = false, dq_type = "NONE", fuse_rq = false, hdim_is_batch = false, input_zp = 0 : i64, is_lora = false, keep_dims = true, left_reuse = 1 : i64, left_transpose = false, multipliers = [1], output_transpose = false, q_group_size = 0 : i64, quant_mode = #tpu<rq_mode MultiplierShift>, relu_limit = -1.000000e+00 : f64, right_transpose = false, right_zp = 0 : i64, round_mode = #tpu<round_mode HalfAwayFromZero>, rshifts = [0]} : (tensor<2304x1024xbf16>, tensor<1024x1024xbf16>, tensor<1x1024xbf16>, none, none) -> tensor<2304x1024xbf16> loc(#loc353)
    %354 = "top.Weight"() : () -> tensor<1024x1024xbf16> loc(#loc354)
    %355 = "top.Weight"() : () -> tensor<1x1024xbf16> loc(#loc355)
    %356 = "tpu.MatMul"(%347, %354, %355, %0, %0) {do_relu = false, dq_type = "NONE", fuse_rq = false, hdim_is_batch = false, input_zp = 0 : i64, is_lora = false, keep_dims = true, left_reuse = 1 : i64, left_transpose = false, multipliers = [1], output_transpose = false, q_group_size = 0 : i64, quant_mode = #tpu<rq_mode MultiplierShift>, relu_limit = -1.000000e+00 : f64, right_transpose = false, right_zp = 0 : i64, round_mode = #tpu<round_mode HalfAwayFromZero>, rshifts = [0]} : (tensor<2304x1024xbf16>, tensor<1024x1024xbf16>, tensor<1x1024xbf16>, none, none) -> tensor<2304x1024xbf16> loc(#loc356)
    %357 = "tpu.Reshape"(%350) {flatten_start_dim = -1 : i64, shape = [1, -1, 16, 64]} : (tensor<2304x1024xbf16>) -> tensor<1x2304x16x64xbf16> loc(#loc357)
    %358 = "tpu.Cast"(%357) {round_mode = #tpu<round_mode HalfAwayFromZero>, with_scale = true} : (tensor<1x2304x16x64xbf16>) -> tensor<1x2304x16x64xf32> loc(#loc358)
    %359 = "tpu.Reshape"(%353) {flatten_start_dim = -1 : i64, shape = [1, -1, 16, 64]} : (tensor<2304x1024xbf16>) -> tensor<1x2304x16x64xbf16> loc(#loc359)
    %360 = "tpu.Cast"(%359) {round_mode = #tpu<round_mode HalfAwayFromZero>, with_scale = true} : (tensor<1x2304x16x64xbf16>) -> tensor<1x2304x16x64xf32> loc(#loc360)
    %361 = "tpu.Reshape"(%356) {flatten_start_dim = -1 : i64, shape = [1, -1, 16, 64]} : (tensor<2304x1024xbf16>) -> tensor<1x2304x16x64xbf16> loc(#loc361)
    %362 = "tpu.Rope"(%358, %24, %19) {add_round_mode = #tpu<round_mode HalfAwayFromZero>, add_saturation = true, add_shift = 0 : si32, force_f32 = true, is_permute_optimize = false, mul1_round_mode = #tpu<round_mode HalfAwayFromZero>, mul1_saturation = true, mul1_shift = 0 : si32, mul2_round_mode = #tpu<round_mode HalfAwayFromZero>, mul2_saturation = true, mul2_shift = 0 : si32, rope_mode = #tpu<rope_mode contiguous_halves>} : (tensor<1x2304x16x64xf32>, tensor<1x2304x1x64xf32>, tensor<1x2304x1x64xf32>) -> tensor<1x2304x16x64xf32> loc(#loc362)
    %363 = "tpu.Cast"(%362) {round_mode = #tpu<round_mode HalfAwayFromZero>, with_scale = true} : (tensor<1x2304x16x64xf32>) -> tensor<1x2304x16x64xbf16> loc(#loc363)
    %364 = "tpu.Rope"(%360, %24, %19) {add_round_mode = #tpu<round_mode HalfAwayFromZero>, add_saturation = true, add_shift = 0 : si32, force_f32 = true, is_permute_optimize = false, mul1_round_mode = #tpu<round_mode HalfAwayFromZero>, mul1_saturation = true, mul1_shift = 0 : si32, mul2_round_mode = #tpu<round_mode HalfAwayFromZero>, mul2_saturation = true, mul2_shift = 0 : si32, rope_mode = #tpu<rope_mode contiguous_halves>} : (tensor<1x2304x16x64xf32>, tensor<1x2304x1x64xf32>, tensor<1x2304x1x64xf32>) -> tensor<1x2304x16x64xf32> loc(#loc364)
    %365 = "tpu.Cast"(%364) {round_mode = #tpu<round_mode HalfAwayFromZero>, with_scale = true} : (tensor<1x2304x16x64xf32>) -> tensor<1x2304x16x64xbf16> loc(#loc365)
    %366 = "tpu.FAttention"(%363, %365, %361, %0, %0) {batch = 1 : i64, dim = 64 : i64, keep_dims = true, kv_head = 16 : i64, mk = 2304 : i64, mq = 2304 : i64, q_head = 16 : i64, scale = 1.250000e-01 : f64} : (tensor<1x2304x16x64xbf16>, tensor<1x2304x16x64xbf16>, tensor<1x2304x16x64xbf16>, none, none) -> tensor<1x2304x16x64xbf16> loc(#loc366)
    %367 = "tpu.Reshape"(%366) {flatten_start_dim = -1 : i64, shape = [-1, 1024]} : (tensor<1x2304x16x64xbf16>) -> tensor<2304x1024xbf16> loc(#loc367)
    %368 = "top.Weight"() : () -> tensor<1024x1024xbf16> loc(#loc368)
    %369 = "top.Weight"() : () -> tensor<1x1024xbf16> loc(#loc369)
    %370 = "tpu.MatMul"(%367, %368, %369, %0, %0) {do_relu = false, dq_type = "NONE", fuse_rq = false, hdim_is_batch = false, input_zp = 0 : i64, is_lora = false, keep_dims = true, left_reuse = 1 : i64, left_transpose = false, multipliers = [1], output_transpose = false, q_group_size = 0 : i64, quant_mode = #tpu<rq_mode MultiplierShift>, relu_limit = -1.000000e+00 : f64, right_transpose = false, right_zp = 0 : i64, round_mode = #tpu<round_mode HalfAwayFromZero>, rshifts = [0]} : (tensor<2304x1024xbf16>, tensor<1024x1024xbf16>, tensor<1x1024xbf16>, none, none) -> tensor<2304x1024xbf16> loc(#loc370)
    %371 = "tpu.Add"(%344, %370) {do_relu = false, is_scalar = false, relu_limit = -1.000000e+00 : f64} : (tensor<2304x1024xbf16>, tensor<2304x1024xbf16>) -> tensor<2304x1024xbf16> loc(#loc371)
    %372 = "top.Weight"() : () -> tensor<1x1024xbf16> loc(#loc372)
    %373 = "top.Weight"() : () -> tensor<1x1024xbf16> loc(#loc373)
    %374 = "tpu.LayerNorm"(%371, %372, %373, %0, %0) {axis = 1 : si32, eps = 9.9999999999999995E-7 : f64, normalized_shape = [1024]} : (tensor<2304x1024xbf16>, tensor<1x1024xbf16>, tensor<1x1024xbf16>, none, none) -> tensor<2304x1024xbf16> loc(#loc374)
    %375 = "top.Weight"() : () -> tensor<1024x4096xbf16> loc(#loc375)
    %376 = "top.Weight"() : () -> tensor<1x4096xbf16> loc(#loc376)
    %377 = "tpu.MatMul"(%374, %375, %376, %0, %0) {do_relu = false, dq_type = "NONE", fuse_rq = false, hdim_is_batch = false, input_zp = 0 : i64, is_lora = false, keep_dims = true, left_reuse = 1 : i64, left_transpose = false, multipliers = [1], output_transpose = false, q_group_size = 0 : i64, quant_mode = #tpu<rq_mode MultiplierShift>, relu_limit = -1.000000e+00 : f64, right_transpose = false, right_zp = 0 : i64, round_mode = #tpu<round_mode HalfAwayFromZero>, rshifts = [0]} : (tensor<2304x1024xbf16>, tensor<1024x4096xbf16>, tensor<1x4096xbf16>, none, none) -> tensor<2304x4096xbf16> loc(#loc377)
    %378 = "tpu.Cast"(%377) {round_mode = #tpu<round_mode HalfAwayFromZero>, with_scale = true} : (tensor<2304x4096xbf16>) -> tensor<2304x4096xf32> loc(#loc378)
    %379 = "tpu.Active"(%378) {mode = #tpu<active_mode TGELU>} : (tensor<2304x4096xf32>) -> tensor<2304x4096xf32> loc(#loc379)
    %380 = "tpu.Cast"(%379) {round_mode = #tpu<round_mode HalfAwayFromZero>, with_scale = true} : (tensor<2304x4096xf32>) -> tensor<2304x4096xbf16> loc(#loc380)
    %381 = "top.Weight"() : () -> tensor<4096x1024xbf16> loc(#loc381)
    %382 = "top.Weight"() : () -> tensor<1x1024xbf16> loc(#loc382)
    %383 = "tpu.MatMul"(%380, %381, %382, %0, %0) {do_relu = false, dq_type = "NONE", fuse_rq = false, hdim_is_batch = false, input_zp = 0 : i64, is_lora = false, keep_dims = true, left_reuse = 1 : i64, left_transpose = false, multipliers = [1], output_transpose = false, q_group_size = 0 : i64, quant_mode = #tpu<rq_mode MultiplierShift>, relu_limit = -1.000000e+00 : f64, right_transpose = false, right_zp = 0 : i64, round_mode = #tpu<round_mode HalfAwayFromZero>, rshifts = [0]} : (tensor<2304x4096xbf16>, tensor<4096x1024xbf16>, tensor<1x1024xbf16>, none, none) -> tensor<2304x1024xbf16> loc(#loc383)
    %384 = "tpu.Add"(%371, %383) {do_relu = false, is_scalar = false, relu_limit = -1.000000e+00 : f64} : (tensor<2304x1024xbf16>, tensor<2304x1024xbf16>) -> tensor<2304x1024xbf16> loc(#loc384)
    %385 = "top.Weight"() : () -> tensor<1x1024xbf16> loc(#loc385)
    %386 = "top.Weight"() : () -> tensor<1x1024xbf16> loc(#loc386)
    %387 = "tpu.LayerNorm"(%384, %385, %386, %0, %0) {axis = 1 : si32, eps = 9.9999999999999995E-7 : f64, normalized_shape = [1024]} : (tensor<2304x1024xbf16>, tensor<1x1024xbf16>, tensor<1x1024xbf16>, none, none) -> tensor<2304x1024xbf16> loc(#loc387)
    %388 = "top.Weight"() : () -> tensor<1024x1024xbf16> loc(#loc388)
    %389 = "top.Weight"() : () -> tensor<1x1024xbf16> loc(#loc389)
    %390 = "tpu.MatMul"(%387, %388, %389, %0, %0) {do_relu = false, dq_type = "NONE", fuse_rq = false, hdim_is_batch = false, input_zp = 0 : i64, is_lora = false, keep_dims = true, left_reuse = 1 : i64, left_transpose = false, multipliers = [1], output_transpose = false, q_group_size = 0 : i64, quant_mode = #tpu<rq_mode MultiplierShift>, relu_limit = -1.000000e+00 : f64, right_transpose = false, right_zp = 0 : i64, round_mode = #tpu<round_mode HalfAwayFromZero>, rshifts = [0]} : (tensor<2304x1024xbf16>, tensor<1024x1024xbf16>, tensor<1x1024xbf16>, none, none) -> tensor<2304x1024xbf16> loc(#loc390)
    %391 = "top.Weight"() : () -> tensor<1024x1024xbf16> loc(#loc391)
    %392 = "top.Weight"() : () -> tensor<1x1024xbf16> loc(#loc392)
    %393 = "tpu.MatMul"(%387, %391, %392, %0, %0) {do_relu = false, dq_type = "NONE", fuse_rq = false, hdim_is_batch = false, input_zp = 0 : i64, is_lora = false, keep_dims = true, left_reuse = 1 : i64, left_transpose = false, multipliers = [1], output_transpose = false, q_group_size = 0 : i64, quant_mode = #tpu<rq_mode MultiplierShift>, relu_limit = -1.000000e+00 : f64, right_transpose = false, right_zp = 0 : i64, round_mode = #tpu<round_mode HalfAwayFromZero>, rshifts = [0]} : (tensor<2304x1024xbf16>, tensor<1024x1024xbf16>, tensor<1x1024xbf16>, none, none) -> tensor<2304x1024xbf16> loc(#loc393)
    %394 = "top.Weight"() : () -> tensor<1024x1024xbf16> loc(#loc394)
    %395 = "top.Weight"() : () -> tensor<1x1024xbf16> loc(#loc395)
    %396 = "tpu.MatMul"(%387, %394, %395, %0, %0) {do_relu = false, dq_type = "NONE", fuse_rq = false, hdim_is_batch = false, input_zp = 0 : i64, is_lora = false, keep_dims = true, left_reuse = 1 : i64, left_transpose = false, multipliers = [1], output_transpose = false, q_group_size = 0 : i64, quant_mode = #tpu<rq_mode MultiplierShift>, relu_limit = -1.000000e+00 : f64, right_transpose = false, right_zp = 0 : i64, round_mode = #tpu<round_mode HalfAwayFromZero>, rshifts = [0]} : (tensor<2304x1024xbf16>, tensor<1024x1024xbf16>, tensor<1x1024xbf16>, none, none) -> tensor<2304x1024xbf16> loc(#loc396)
    %397 = "tpu.Reshape"(%390) {flatten_start_dim = -1 : i64, shape = [1, -1, 16, 64]} : (tensor<2304x1024xbf16>) -> tensor<1x2304x16x64xbf16> loc(#loc397)
    %398 = "tpu.Cast"(%397) {round_mode = #tpu<round_mode HalfAwayFromZero>, with_scale = true} : (tensor<1x2304x16x64xbf16>) -> tensor<1x2304x16x64xf32> loc(#loc398)
    %399 = "tpu.Reshape"(%393) {flatten_start_dim = -1 : i64, shape = [1, -1, 16, 64]} : (tensor<2304x1024xbf16>) -> tensor<1x2304x16x64xbf16> loc(#loc399)
    %400 = "tpu.Cast"(%399) {round_mode = #tpu<round_mode HalfAwayFromZero>, with_scale = true} : (tensor<1x2304x16x64xbf16>) -> tensor<1x2304x16x64xf32> loc(#loc400)
    %401 = "tpu.Reshape"(%396) {flatten_start_dim = -1 : i64, shape = [1, -1, 16, 64]} : (tensor<2304x1024xbf16>) -> tensor<1x2304x16x64xbf16> loc(#loc401)
    %402 = "tpu.Rope"(%398, %24, %19) {add_round_mode = #tpu<round_mode HalfAwayFromZero>, add_saturation = true, add_shift = 0 : si32, force_f32 = true, is_permute_optimize = false, mul1_round_mode = #tpu<round_mode HalfAwayFromZero>, mul1_saturation = true, mul1_shift = 0 : si32, mul2_round_mode = #tpu<round_mode HalfAwayFromZero>, mul2_saturation = true, mul2_shift = 0 : si32, rope_mode = #tpu<rope_mode contiguous_halves>} : (tensor<1x2304x16x64xf32>, tensor<1x2304x1x64xf32>, tensor<1x2304x1x64xf32>) -> tensor<1x2304x16x64xf32> loc(#loc402)
    %403 = "tpu.Cast"(%402) {round_mode = #tpu<round_mode HalfAwayFromZero>, with_scale = true} : (tensor<1x2304x16x64xf32>) -> tensor<1x2304x16x64xbf16> loc(#loc403)
    %404 = "tpu.Rope"(%400, %24, %19) {add_round_mode = #tpu<round_mode HalfAwayFromZero>, add_saturation = true, add_shift = 0 : si32, force_f32 = true, is_permute_optimize = false, mul1_round_mode = #tpu<round_mode HalfAwayFromZero>, mul1_saturation = true, mul1_shift = 0 : si32, mul2_round_mode = #tpu<round_mode HalfAwayFromZero>, mul2_saturation = true, mul2_shift = 0 : si32, rope_mode = #tpu<rope_mode contiguous_halves>} : (tensor<1x2304x16x64xf32>, tensor<1x2304x1x64xf32>, tensor<1x2304x1x64xf32>) -> tensor<1x2304x16x64xf32> loc(#loc404)
    %405 = "tpu.Cast"(%404) {round_mode = #tpu<round_mode HalfAwayFromZero>, with_scale = true} : (tensor<1x2304x16x64xf32>) -> tensor<1x2304x16x64xbf16> loc(#loc405)
    %406 = "tpu.FAttention"(%403, %405, %401, %0, %0) {batch = 1 : i64, dim = 64 : i64, keep_dims = true, kv_head = 16 : i64, mk = 2304 : i64, mq = 2304 : i64, q_head = 16 : i64, scale = 1.250000e-01 : f64} : (tensor<1x2304x16x64xbf16>, tensor<1x2304x16x64xbf16>, tensor<1x2304x16x64xbf16>, none, none) -> tensor<1x2304x16x64xbf16> loc(#loc406)
    %407 = "tpu.Reshape"(%406) {flatten_start_dim = -1 : i64, shape = [-1, 1024]} : (tensor<1x2304x16x64xbf16>) -> tensor<2304x1024xbf16> loc(#loc407)
    %408 = "top.Weight"() : () -> tensor<1024x1024xbf16> loc(#loc408)
    %409 = "top.Weight"() : () -> tensor<1x1024xbf16> loc(#loc409)
    %410 = "tpu.MatMul"(%407, %408, %409, %0, %0) {do_relu = false, dq_type = "NONE", fuse_rq = false, hdim_is_batch = false, input_zp = 0 : i64, is_lora = false, keep_dims = true, left_reuse = 1 : i64, left_transpose = false, multipliers = [1], output_transpose = false, q_group_size = 0 : i64, quant_mode = #tpu<rq_mode MultiplierShift>, relu_limit = -1.000000e+00 : f64, right_transpose = false, right_zp = 0 : i64, round_mode = #tpu<round_mode HalfAwayFromZero>, rshifts = [0]} : (tensor<2304x1024xbf16>, tensor<1024x1024xbf16>, tensor<1x1024xbf16>, none, none) -> tensor<2304x1024xbf16> loc(#loc410)
    %411 = "tpu.Add"(%384, %410) {do_relu = false, is_scalar = false, relu_limit = -1.000000e+00 : f64} : (tensor<2304x1024xbf16>, tensor<2304x1024xbf16>) -> tensor<2304x1024xbf16> loc(#loc411)
    %412 = "top.Weight"() : () -> tensor<1x1024xbf16> loc(#loc412)
    %413 = "top.Weight"() : () -> tensor<1x1024xbf16> loc(#loc413)
    %414 = "tpu.LayerNorm"(%411, %412, %413, %0, %0) {axis = 1 : si32, eps = 9.9999999999999995E-7 : f64, normalized_shape = [1024]} : (tensor<2304x1024xbf16>, tensor<1x1024xbf16>, tensor<1x1024xbf16>, none, none) -> tensor<2304x1024xbf16> loc(#loc414)
    %415 = "top.Weight"() : () -> tensor<1024x4096xbf16> loc(#loc415)
    %416 = "top.Weight"() : () -> tensor<1x4096xbf16> loc(#loc416)
    %417 = "tpu.MatMul"(%414, %415, %416, %0, %0) {do_relu = false, dq_type = "NONE", fuse_rq = false, hdim_is_batch = false, input_zp = 0 : i64, is_lora = false, keep_dims = true, left_reuse = 1 : i64, left_transpose = false, multipliers = [1], output_transpose = false, q_group_size = 0 : i64, quant_mode = #tpu<rq_mode MultiplierShift>, relu_limit = -1.000000e+00 : f64, right_transpose = false, right_zp = 0 : i64, round_mode = #tpu<round_mode HalfAwayFromZero>, rshifts = [0]} : (tensor<2304x1024xbf16>, tensor<1024x4096xbf16>, tensor<1x4096xbf16>, none, none) -> tensor<2304x4096xbf16> loc(#loc417)
    %418 = "tpu.Cast"(%417) {round_mode = #tpu<round_mode HalfAwayFromZero>, with_scale = true} : (tensor<2304x4096xbf16>) -> tensor<2304x4096xf32> loc(#loc418)
    %419 = "tpu.Active"(%418) {mode = #tpu<active_mode TGELU>} : (tensor<2304x4096xf32>) -> tensor<2304x4096xf32> loc(#loc419)
    %420 = "tpu.Cast"(%419) {round_mode = #tpu<round_mode HalfAwayFromZero>, with_scale = true} : (tensor<2304x4096xf32>) -> tensor<2304x4096xbf16> loc(#loc420)
    %421 = "top.Weight"() : () -> tensor<4096x1024xbf16> loc(#loc421)
    %422 = "top.Weight"() : () -> tensor<1x1024xbf16> loc(#loc422)
    %423 = "tpu.MatMul"(%420, %421, %422, %0, %0) {do_relu = false, dq_type = "NONE", fuse_rq = false, hdim_is_batch = false, input_zp = 0 : i64, is_lora = false, keep_dims = true, left_reuse = 1 : i64, left_transpose = false, multipliers = [1], output_transpose = false, q_group_size = 0 : i64, quant_mode = #tpu<rq_mode MultiplierShift>, relu_limit = -1.000000e+00 : f64, right_transpose = false, right_zp = 0 : i64, round_mode = #tpu<round_mode HalfAwayFromZero>, rshifts = [0]} : (tensor<2304x4096xbf16>, tensor<4096x1024xbf16>, tensor<1x1024xbf16>, none, none) -> tensor<2304x1024xbf16> loc(#loc423)
    %424 = "tpu.Add"(%411, %423) {do_relu = false, is_scalar = false, relu_limit = -1.000000e+00 : f64} : (tensor<2304x1024xbf16>, tensor<2304x1024xbf16>) -> tensor<2304x1024xbf16> loc(#loc424)
    %425 = "top.Weight"() : () -> tensor<1x1024xbf16> loc(#loc425)
    %426 = "top.Weight"() : () -> tensor<1x1024xbf16> loc(#loc426)
    %427 = "tpu.LayerNorm"(%424, %425, %426, %0, %0) {axis = 1 : si32, eps = 9.9999999999999995E-7 : f64, normalized_shape = [1024]} : (tensor<2304x1024xbf16>, tensor<1x1024xbf16>, tensor<1x1024xbf16>, none, none) -> tensor<2304x1024xbf16> loc(#loc427)
    %428 = "top.Weight"() : () -> tensor<1024x1024xbf16> loc(#loc428)
    %429 = "top.Weight"() : () -> tensor<1x1024xbf16> loc(#loc429)
    %430 = "tpu.MatMul"(%427, %428, %429, %0, %0) {do_relu = false, dq_type = "NONE", fuse_rq = false, hdim_is_batch = false, input_zp = 0 : i64, is_lora = false, keep_dims = true, left_reuse = 1 : i64, left_transpose = false, multipliers = [1], output_transpose = false, q_group_size = 0 : i64, quant_mode = #tpu<rq_mode MultiplierShift>, relu_limit = -1.000000e+00 : f64, right_transpose = false, right_zp = 0 : i64, round_mode = #tpu<round_mode HalfAwayFromZero>, rshifts = [0]} : (tensor<2304x1024xbf16>, tensor<1024x1024xbf16>, tensor<1x1024xbf16>, none, none) -> tensor<2304x1024xbf16> loc(#loc430)
    %431 = "top.Weight"() : () -> tensor<1024x1024xbf16> loc(#loc431)
    %432 = "top.Weight"() : () -> tensor<1x1024xbf16> loc(#loc432)
    %433 = "tpu.MatMul"(%427, %431, %432, %0, %0) {do_relu = false, dq_type = "NONE", fuse_rq = false, hdim_is_batch = false, input_zp = 0 : i64, is_lora = false, keep_dims = true, left_reuse = 1 : i64, left_transpose = false, multipliers = [1], output_transpose = false, q_group_size = 0 : i64, quant_mode = #tpu<rq_mode MultiplierShift>, relu_limit = -1.000000e+00 : f64, right_transpose = false, right_zp = 0 : i64, round_mode = #tpu<round_mode HalfAwayFromZero>, rshifts = [0]} : (tensor<2304x1024xbf16>, tensor<1024x1024xbf16>, tensor<1x1024xbf16>, none, none) -> tensor<2304x1024xbf16> loc(#loc433)
    %434 = "top.Weight"() : () -> tensor<1024x1024xbf16> loc(#loc434)
    %435 = "top.Weight"() : () -> tensor<1x1024xbf16> loc(#loc435)
    %436 = "tpu.MatMul"(%427, %434, %435, %0, %0) {do_relu = false, dq_type = "NONE", fuse_rq = false, hdim_is_batch = false, input_zp = 0 : i64, is_lora = false, keep_dims = true, left_reuse = 1 : i64, left_transpose = false, multipliers = [1], output_transpose = false, q_group_size = 0 : i64, quant_mode = #tpu<rq_mode MultiplierShift>, relu_limit = -1.000000e+00 : f64, right_transpose = false, right_zp = 0 : i64, round_mode = #tpu<round_mode HalfAwayFromZero>, rshifts = [0]} : (tensor<2304x1024xbf16>, tensor<1024x1024xbf16>, tensor<1x1024xbf16>, none, none) -> tensor<2304x1024xbf16> loc(#loc436)
    %437 = "tpu.Reshape"(%430) {flatten_start_dim = -1 : i64, shape = [1, -1, 16, 64]} : (tensor<2304x1024xbf16>) -> tensor<1x2304x16x64xbf16> loc(#loc437)
    %438 = "tpu.Cast"(%437) {round_mode = #tpu<round_mode HalfAwayFromZero>, with_scale = true} : (tensor<1x2304x16x64xbf16>) -> tensor<1x2304x16x64xf32> loc(#loc438)
    %439 = "tpu.Reshape"(%433) {flatten_start_dim = -1 : i64, shape = [1, -1, 16, 64]} : (tensor<2304x1024xbf16>) -> tensor<1x2304x16x64xbf16> loc(#loc439)
    %440 = "tpu.Cast"(%439) {round_mode = #tpu<round_mode HalfAwayFromZero>, with_scale = true} : (tensor<1x2304x16x64xbf16>) -> tensor<1x2304x16x64xf32> loc(#loc440)
    %441 = "tpu.Reshape"(%436) {flatten_start_dim = -1 : i64, shape = [1, -1, 16, 64]} : (tensor<2304x1024xbf16>) -> tensor<1x2304x16x64xbf16> loc(#loc441)
    %442 = "tpu.Rope"(%438, %24, %19) {add_round_mode = #tpu<round_mode HalfAwayFromZero>, add_saturation = true, add_shift = 0 : si32, force_f32 = true, is_permute_optimize = false, mul1_round_mode = #tpu<round_mode HalfAwayFromZero>, mul1_saturation = true, mul1_shift = 0 : si32, mul2_round_mode = #tpu<round_mode HalfAwayFromZero>, mul2_saturation = true, mul2_shift = 0 : si32, rope_mode = #tpu<rope_mode contiguous_halves>} : (tensor<1x2304x16x64xf32>, tensor<1x2304x1x64xf32>, tensor<1x2304x1x64xf32>) -> tensor<1x2304x16x64xf32> loc(#loc442)
    %443 = "tpu.Cast"(%442) {round_mode = #tpu<round_mode HalfAwayFromZero>, with_scale = true} : (tensor<1x2304x16x64xf32>) -> tensor<1x2304x16x64xbf16> loc(#loc443)
    %444 = "tpu.Rope"(%440, %24, %19) {add_round_mode = #tpu<round_mode HalfAwayFromZero>, add_saturation = true, add_shift = 0 : si32, force_f32 = true, is_permute_optimize = false, mul1_round_mode = #tpu<round_mode HalfAwayFromZero>, mul1_saturation = true, mul1_shift = 0 : si32, mul2_round_mode = #tpu<round_mode HalfAwayFromZero>, mul2_saturation = true, mul2_shift = 0 : si32, rope_mode = #tpu<rope_mode contiguous_halves>} : (tensor<1x2304x16x64xf32>, tensor<1x2304x1x64xf32>, tensor<1x2304x1x64xf32>) -> tensor<1x2304x16x64xf32> loc(#loc444)
    %445 = "tpu.Cast"(%444) {round_mode = #tpu<round_mode HalfAwayFromZero>, with_scale = true} : (tensor<1x2304x16x64xf32>) -> tensor<1x2304x16x64xbf16> loc(#loc445)
    %446 = "tpu.FAttention"(%443, %445, %441, %0, %0) {batch = 1 : i64, dim = 64 : i64, keep_dims = true, kv_head = 16 : i64, mk = 2304 : i64, mq = 2304 : i64, q_head = 16 : i64, scale = 1.250000e-01 : f64} : (tensor<1x2304x16x64xbf16>, tensor<1x2304x16x64xbf16>, tensor<1x2304x16x64xbf16>, none, none) -> tensor<1x2304x16x64xbf16> loc(#loc446)
    %447 = "tpu.Reshape"(%446) {flatten_start_dim = -1 : i64, shape = [-1, 1024]} : (tensor<1x2304x16x64xbf16>) -> tensor<2304x1024xbf16> loc(#loc447)
    %448 = "top.Weight"() : () -> tensor<1024x1024xbf16> loc(#loc448)
    %449 = "top.Weight"() : () -> tensor<1x1024xbf16> loc(#loc449)
    %450 = "tpu.MatMul"(%447, %448, %449, %0, %0) {do_relu = false, dq_type = "NONE", fuse_rq = false, hdim_is_batch = false, input_zp = 0 : i64, is_lora = false, keep_dims = true, left_reuse = 1 : i64, left_transpose = false, multipliers = [1], output_transpose = false, q_group_size = 0 : i64, quant_mode = #tpu<rq_mode MultiplierShift>, relu_limit = -1.000000e+00 : f64, right_transpose = false, right_zp = 0 : i64, round_mode = #tpu<round_mode HalfAwayFromZero>, rshifts = [0]} : (tensor<2304x1024xbf16>, tensor<1024x1024xbf16>, tensor<1x1024xbf16>, none, none) -> tensor<2304x1024xbf16> loc(#loc450)
    %451 = "tpu.Add"(%424, %450) {do_relu = false, is_scalar = false, relu_limit = -1.000000e+00 : f64} : (tensor<2304x1024xbf16>, tensor<2304x1024xbf16>) -> tensor<2304x1024xbf16> loc(#loc451)
    %452 = "top.Weight"() : () -> tensor<1x1024xbf16> loc(#loc452)
    %453 = "top.Weight"() : () -> tensor<1x1024xbf16> loc(#loc453)
    %454 = "tpu.LayerNorm"(%451, %452, %453, %0, %0) {axis = 1 : si32, eps = 9.9999999999999995E-7 : f64, normalized_shape = [1024]} : (tensor<2304x1024xbf16>, tensor<1x1024xbf16>, tensor<1x1024xbf16>, none, none) -> tensor<2304x1024xbf16> loc(#loc454)
    %455 = "top.Weight"() : () -> tensor<1024x4096xbf16> loc(#loc455)
    %456 = "top.Weight"() : () -> tensor<1x4096xbf16> loc(#loc456)
    %457 = "tpu.MatMul"(%454, %455, %456, %0, %0) {do_relu = false, dq_type = "NONE", fuse_rq = false, hdim_is_batch = false, input_zp = 0 : i64, is_lora = false, keep_dims = true, left_reuse = 1 : i64, left_transpose = false, multipliers = [1], output_transpose = false, q_group_size = 0 : i64, quant_mode = #tpu<rq_mode MultiplierShift>, relu_limit = -1.000000e+00 : f64, right_transpose = false, right_zp = 0 : i64, round_mode = #tpu<round_mode HalfAwayFromZero>, rshifts = [0]} : (tensor<2304x1024xbf16>, tensor<1024x4096xbf16>, tensor<1x4096xbf16>, none, none) -> tensor<2304x4096xbf16> loc(#loc457)
    %458 = "tpu.Cast"(%457) {round_mode = #tpu<round_mode HalfAwayFromZero>, with_scale = true} : (tensor<2304x4096xbf16>) -> tensor<2304x4096xf32> loc(#loc458)
    %459 = "tpu.Active"(%458) {mode = #tpu<active_mode TGELU>} : (tensor<2304x4096xf32>) -> tensor<2304x4096xf32> loc(#loc459)
    %460 = "tpu.Cast"(%459) {round_mode = #tpu<round_mode HalfAwayFromZero>, with_scale = true} : (tensor<2304x4096xf32>) -> tensor<2304x4096xbf16> loc(#loc460)
    %461 = "top.Weight"() : () -> tensor<4096x1024xbf16> loc(#loc461)
    %462 = "top.Weight"() : () -> tensor<1x1024xbf16> loc(#loc462)
    %463 = "tpu.MatMul"(%460, %461, %462, %0, %0) {do_relu = false, dq_type = "NONE", fuse_rq = false, hdim_is_batch = false, input_zp = 0 : i64, is_lora = false, keep_dims = true, left_reuse = 1 : i64, left_transpose = false, multipliers = [1], output_transpose = false, q_group_size = 0 : i64, quant_mode = #tpu<rq_mode MultiplierShift>, relu_limit = -1.000000e+00 : f64, right_transpose = false, right_zp = 0 : i64, round_mode = #tpu<round_mode HalfAwayFromZero>, rshifts = [0]} : (tensor<2304x4096xbf16>, tensor<4096x1024xbf16>, tensor<1x1024xbf16>, none, none) -> tensor<2304x1024xbf16> loc(#loc463)
    %464 = "tpu.Add"(%451, %463) {do_relu = false, is_scalar = false, relu_limit = -1.000000e+00 : f64} : (tensor<2304x1024xbf16>, tensor<2304x1024xbf16>) -> tensor<2304x1024xbf16> loc(#loc464)
    %465 = "top.Weight"() : () -> tensor<1x1024xbf16> loc(#loc465)
    %466 = "top.Weight"() : () -> tensor<1x1024xbf16> loc(#loc466)
    %467 = "tpu.LayerNorm"(%464, %465, %466, %0, %0) {axis = 1 : si32, eps = 9.9999999999999995E-7 : f64, normalized_shape = [1024]} : (tensor<2304x1024xbf16>, tensor<1x1024xbf16>, tensor<1x1024xbf16>, none, none) -> tensor<2304x1024xbf16> loc(#loc467)
    %468 = "top.Weight"() : () -> tensor<1024x1024xbf16> loc(#loc468)
    %469 = "top.Weight"() : () -> tensor<1x1024xbf16> loc(#loc469)
    %470 = "tpu.MatMul"(%467, %468, %469, %0, %0) {do_relu = false, dq_type = "NONE", fuse_rq = false, hdim_is_batch = false, input_zp = 0 : i64, is_lora = false, keep_dims = true, left_reuse = 1 : i64, left_transpose = false, multipliers = [1], output_transpose = false, q_group_size = 0 : i64, quant_mode = #tpu<rq_mode MultiplierShift>, relu_limit = -1.000000e+00 : f64, right_transpose = false, right_zp = 0 : i64, round_mode = #tpu<round_mode HalfAwayFromZero>, rshifts = [0]} : (tensor<2304x1024xbf16>, tensor<1024x1024xbf16>, tensor<1x1024xbf16>, none, none) -> tensor<2304x1024xbf16> loc(#loc470)
    %471 = "top.Weight"() : () -> tensor<1024x1024xbf16> loc(#loc471)
    %472 = "top.Weight"() : () -> tensor<1x1024xbf16> loc(#loc472)
    %473 = "tpu.MatMul"(%467, %471, %472, %0, %0) {do_relu = false, dq_type = "NONE", fuse_rq = false, hdim_is_batch = false, input_zp = 0 : i64, is_lora = false, keep_dims = true, left_reuse = 1 : i64, left_transpose = false, multipliers = [1], output_transpose = false, q_group_size = 0 : i64, quant_mode = #tpu<rq_mode MultiplierShift>, relu_limit = -1.000000e+00 : f64, right_transpose = false, right_zp = 0 : i64, round_mode = #tpu<round_mode HalfAwayFromZero>, rshifts = [0]} : (tensor<2304x1024xbf16>, tensor<1024x1024xbf16>, tensor<1x1024xbf16>, none, none) -> tensor<2304x1024xbf16> loc(#loc473)
    %474 = "top.Weight"() : () -> tensor<1024x1024xbf16> loc(#loc474)
    %475 = "top.Weight"() : () -> tensor<1x1024xbf16> loc(#loc475)
    %476 = "tpu.MatMul"(%467, %474, %475, %0, %0) {do_relu = false, dq_type = "NONE", fuse_rq = false, hdim_is_batch = false, input_zp = 0 : i64, is_lora = false, keep_dims = true, left_reuse = 1 : i64, left_transpose = false, multipliers = [1], output_transpose = false, q_group_size = 0 : i64, quant_mode = #tpu<rq_mode MultiplierShift>, relu_limit = -1.000000e+00 : f64, right_transpose = false, right_zp = 0 : i64, round_mode = #tpu<round_mode HalfAwayFromZero>, rshifts = [0]} : (tensor<2304x1024xbf16>, tensor<1024x1024xbf16>, tensor<1x1024xbf16>, none, none) -> tensor<2304x1024xbf16> loc(#loc476)
    %477 = "tpu.Reshape"(%470) {flatten_start_dim = -1 : i64, shape = [1, -1, 16, 64]} : (tensor<2304x1024xbf16>) -> tensor<1x2304x16x64xbf16> loc(#loc477)
    %478 = "tpu.Cast"(%477) {round_mode = #tpu<round_mode HalfAwayFromZero>, with_scale = true} : (tensor<1x2304x16x64xbf16>) -> tensor<1x2304x16x64xf32> loc(#loc478)
    %479 = "tpu.Reshape"(%473) {flatten_start_dim = -1 : i64, shape = [1, -1, 16, 64]} : (tensor<2304x1024xbf16>) -> tensor<1x2304x16x64xbf16> loc(#loc479)
    %480 = "tpu.Cast"(%479) {round_mode = #tpu<round_mode HalfAwayFromZero>, with_scale = true} : (tensor<1x2304x16x64xbf16>) -> tensor<1x2304x16x64xf32> loc(#loc480)
    %481 = "tpu.Reshape"(%476) {flatten_start_dim = -1 : i64, shape = [1, -1, 16, 64]} : (tensor<2304x1024xbf16>) -> tensor<1x2304x16x64xbf16> loc(#loc481)
    %482 = "tpu.Rope"(%478, %24, %19) {add_round_mode = #tpu<round_mode HalfAwayFromZero>, add_saturation = true, add_shift = 0 : si32, force_f32 = true, is_permute_optimize = false, mul1_round_mode = #tpu<round_mode HalfAwayFromZero>, mul1_saturation = true, mul1_shift = 0 : si32, mul2_round_mode = #tpu<round_mode HalfAwayFromZero>, mul2_saturation = true, mul2_shift = 0 : si32, rope_mode = #tpu<rope_mode contiguous_halves>} : (tensor<1x2304x16x64xf32>, tensor<1x2304x1x64xf32>, tensor<1x2304x1x64xf32>) -> tensor<1x2304x16x64xf32> loc(#loc482)
    %483 = "tpu.Cast"(%482) {round_mode = #tpu<round_mode HalfAwayFromZero>, with_scale = true} : (tensor<1x2304x16x64xf32>) -> tensor<1x2304x16x64xbf16> loc(#loc483)
    %484 = "tpu.Rope"(%480, %24, %19) {add_round_mode = #tpu<round_mode HalfAwayFromZero>, add_saturation = true, add_shift = 0 : si32, force_f32 = true, is_permute_optimize = false, mul1_round_mode = #tpu<round_mode HalfAwayFromZero>, mul1_saturation = true, mul1_shift = 0 : si32, mul2_round_mode = #tpu<round_mode HalfAwayFromZero>, mul2_saturation = true, mul2_shift = 0 : si32, rope_mode = #tpu<rope_mode contiguous_halves>} : (tensor<1x2304x16x64xf32>, tensor<1x2304x1x64xf32>, tensor<1x2304x1x64xf32>) -> tensor<1x2304x16x64xf32> loc(#loc484)
    %485 = "tpu.Cast"(%484) {round_mode = #tpu<round_mode HalfAwayFromZero>, with_scale = true} : (tensor<1x2304x16x64xf32>) -> tensor<1x2304x16x64xbf16> loc(#loc485)
    %486 = "tpu.FAttention"(%483, %485, %481, %0, %0) {batch = 1 : i64, dim = 64 : i64, keep_dims = true, kv_head = 16 : i64, mk = 2304 : i64, mq = 2304 : i64, q_head = 16 : i64, scale = 1.250000e-01 : f64} : (tensor<1x2304x16x64xbf16>, tensor<1x2304x16x64xbf16>, tensor<1x2304x16x64xbf16>, none, none) -> tensor<1x2304x16x64xbf16> loc(#loc486)
    %487 = "tpu.Reshape"(%486) {flatten_start_dim = -1 : i64, shape = [-1, 1024]} : (tensor<1x2304x16x64xbf16>) -> tensor<2304x1024xbf16> loc(#loc487)
    %488 = "top.Weight"() : () -> tensor<1024x1024xbf16> loc(#loc488)
    %489 = "top.Weight"() : () -> tensor<1x1024xbf16> loc(#loc489)
    %490 = "tpu.MatMul"(%487, %488, %489, %0, %0) {do_relu = false, dq_type = "NONE", fuse_rq = false, hdim_is_batch = false, input_zp = 0 : i64, is_lora = false, keep_dims = true, left_reuse = 1 : i64, left_transpose = false, multipliers = [1], output_transpose = false, q_group_size = 0 : i64, quant_mode = #tpu<rq_mode MultiplierShift>, relu_limit = -1.000000e+00 : f64, right_transpose = false, right_zp = 0 : i64, round_mode = #tpu<round_mode HalfAwayFromZero>, rshifts = [0]} : (tensor<2304x1024xbf16>, tensor<1024x1024xbf16>, tensor<1x1024xbf16>, none, none) -> tensor<2304x1024xbf16> loc(#loc490)
    %491 = "tpu.Add"(%464, %490) {do_relu = false, is_scalar = false, relu_limit = -1.000000e+00 : f64} : (tensor<2304x1024xbf16>, tensor<2304x1024xbf16>) -> tensor<2304x1024xbf16> loc(#loc491)
    %492 = "top.Weight"() : () -> tensor<1x1024xbf16> loc(#loc492)
    %493 = "top.Weight"() : () -> tensor<1x1024xbf16> loc(#loc493)
    %494 = "tpu.LayerNorm"(%491, %492, %493, %0, %0) {axis = 1 : si32, eps = 9.9999999999999995E-7 : f64, normalized_shape = [1024]} : (tensor<2304x1024xbf16>, tensor<1x1024xbf16>, tensor<1x1024xbf16>, none, none) -> tensor<2304x1024xbf16> loc(#loc494)
    %495 = "top.Weight"() : () -> tensor<1024x4096xbf16> loc(#loc495)
    %496 = "top.Weight"() : () -> tensor<1x4096xbf16> loc(#loc496)
    %497 = "tpu.MatMul"(%494, %495, %496, %0, %0) {do_relu = false, dq_type = "NONE", fuse_rq = false, hdim_is_batch = false, input_zp = 0 : i64, is_lora = false, keep_dims = true, left_reuse = 1 : i64, left_transpose = false, multipliers = [1], output_transpose = false, q_group_size = 0 : i64, quant_mode = #tpu<rq_mode MultiplierShift>, relu_limit = -1.000000e+00 : f64, right_transpose = false, right_zp = 0 : i64, round_mode = #tpu<round_mode HalfAwayFromZero>, rshifts = [0]} : (tensor<2304x1024xbf16>, tensor<1024x4096xbf16>, tensor<1x4096xbf16>, none, none) -> tensor<2304x4096xbf16> loc(#loc497)
    %498 = "tpu.Cast"(%497) {round_mode = #tpu<round_mode HalfAwayFromZero>, with_scale = true} : (tensor<2304x4096xbf16>) -> tensor<2304x4096xf32> loc(#loc498)
    %499 = "tpu.Active"(%498) {mode = #tpu<active_mode TGELU>} : (tensor<2304x4096xf32>) -> tensor<2304x4096xf32> loc(#loc499)
    %500 = "tpu.Cast"(%499) {round_mode = #tpu<round_mode HalfAwayFromZero>, with_scale = true} : (tensor<2304x4096xf32>) -> tensor<2304x4096xbf16> loc(#loc500)
    %501 = "top.Weight"() : () -> tensor<4096x1024xbf16> loc(#loc501)
    %502 = "top.Weight"() : () -> tensor<1x1024xbf16> loc(#loc502)
    %503 = "tpu.MatMul"(%500, %501, %502, %0, %0) {do_relu = false, dq_type = "NONE", fuse_rq = false, hdim_is_batch = false, input_zp = 0 : i64, is_lora = false, keep_dims = true, left_reuse = 1 : i64, left_transpose = false, multipliers = [1], output_transpose = false, q_group_size = 0 : i64, quant_mode = #tpu<rq_mode MultiplierShift>, relu_limit = -1.000000e+00 : f64, right_transpose = false, right_zp = 0 : i64, round_mode = #tpu<round_mode HalfAwayFromZero>, rshifts = [0]} : (tensor<2304x4096xbf16>, tensor<4096x1024xbf16>, tensor<1x1024xbf16>, none, none) -> tensor<2304x1024xbf16> loc(#loc503)
    %504 = "tpu.Add"(%491, %503) {do_relu = false, is_scalar = false, relu_limit = -1.000000e+00 : f64} : (tensor<2304x1024xbf16>, tensor<2304x1024xbf16>) -> tensor<2304x1024xbf16> loc(#loc504)
    %505 = "top.Weight"() : () -> tensor<1x1024xbf16> loc(#loc505)
    %506 = "top.Weight"() : () -> tensor<1x1024xbf16> loc(#loc506)
    %507 = "tpu.LayerNorm"(%504, %505, %506, %0, %0) {axis = 1 : si32, eps = 9.9999999999999995E-7 : f64, normalized_shape = [1024]} : (tensor<2304x1024xbf16>, tensor<1x1024xbf16>, tensor<1x1024xbf16>, none, none) -> tensor<2304x1024xbf16> loc(#loc507)
    %508 = "top.Weight"() : () -> tensor<1024x1024xbf16> loc(#loc508)
    %509 = "top.Weight"() : () -> tensor<1x1024xbf16> loc(#loc509)
    %510 = "tpu.MatMul"(%507, %508, %509, %0, %0) {do_relu = false, dq_type = "NONE", fuse_rq = false, hdim_is_batch = false, input_zp = 0 : i64, is_lora = false, keep_dims = true, left_reuse = 1 : i64, left_transpose = false, multipliers = [1], output_transpose = false, q_group_size = 0 : i64, quant_mode = #tpu<rq_mode MultiplierShift>, relu_limit = -1.000000e+00 : f64, right_transpose = false, right_zp = 0 : i64, round_mode = #tpu<round_mode HalfAwayFromZero>, rshifts = [0]} : (tensor<2304x1024xbf16>, tensor<1024x1024xbf16>, tensor<1x1024xbf16>, none, none) -> tensor<2304x1024xbf16> loc(#loc510)
    %511 = "top.Weight"() : () -> tensor<1024x1024xbf16> loc(#loc511)
    %512 = "top.Weight"() : () -> tensor<1x1024xbf16> loc(#loc512)
    %513 = "tpu.MatMul"(%507, %511, %512, %0, %0) {do_relu = false, dq_type = "NONE", fuse_rq = false, hdim_is_batch = false, input_zp = 0 : i64, is_lora = false, keep_dims = true, left_reuse = 1 : i64, left_transpose = false, multipliers = [1], output_transpose = false, q_group_size = 0 : i64, quant_mode = #tpu<rq_mode MultiplierShift>, relu_limit = -1.000000e+00 : f64, right_transpose = false, right_zp = 0 : i64, round_mode = #tpu<round_mode HalfAwayFromZero>, rshifts = [0]} : (tensor<2304x1024xbf16>, tensor<1024x1024xbf16>, tensor<1x1024xbf16>, none, none) -> tensor<2304x1024xbf16> loc(#loc513)
    %514 = "top.Weight"() : () -> tensor<1024x1024xbf16> loc(#loc514)
    %515 = "top.Weight"() : () -> tensor<1x1024xbf16> loc(#loc515)
    %516 = "tpu.MatMul"(%507, %514, %515, %0, %0) {do_relu = false, dq_type = "NONE", fuse_rq = false, hdim_is_batch = false, input_zp = 0 : i64, is_lora = false, keep_dims = true, left_reuse = 1 : i64, left_transpose = false, multipliers = [1], output_transpose = false, q_group_size = 0 : i64, quant_mode = #tpu<rq_mode MultiplierShift>, relu_limit = -1.000000e+00 : f64, right_transpose = false, right_zp = 0 : i64, round_mode = #tpu<round_mode HalfAwayFromZero>, rshifts = [0]} : (tensor<2304x1024xbf16>, tensor<1024x1024xbf16>, tensor<1x1024xbf16>, none, none) -> tensor<2304x1024xbf16> loc(#loc516)
    %517 = "tpu.Reshape"(%510) {flatten_start_dim = -1 : i64, shape = [1, -1, 16, 64]} : (tensor<2304x1024xbf16>) -> tensor<1x2304x16x64xbf16> loc(#loc517)
    %518 = "tpu.Cast"(%517) {round_mode = #tpu<round_mode HalfAwayFromZero>, with_scale = true} : (tensor<1x2304x16x64xbf16>) -> tensor<1x2304x16x64xf32> loc(#loc518)
    %519 = "tpu.Reshape"(%513) {flatten_start_dim = -1 : i64, shape = [1, -1, 16, 64]} : (tensor<2304x1024xbf16>) -> tensor<1x2304x16x64xbf16> loc(#loc519)
    %520 = "tpu.Cast"(%519) {round_mode = #tpu<round_mode HalfAwayFromZero>, with_scale = true} : (tensor<1x2304x16x64xbf16>) -> tensor<1x2304x16x64xf32> loc(#loc520)
    %521 = "tpu.Reshape"(%516) {flatten_start_dim = -1 : i64, shape = [1, -1, 16, 64]} : (tensor<2304x1024xbf16>) -> tensor<1x2304x16x64xbf16> loc(#loc521)
    %522 = "tpu.Rope"(%518, %24, %19) {add_round_mode = #tpu<round_mode HalfAwayFromZero>, add_saturation = true, add_shift = 0 : si32, force_f32 = true, is_permute_optimize = false, mul1_round_mode = #tpu<round_mode HalfAwayFromZero>, mul1_saturation = true, mul1_shift = 0 : si32, mul2_round_mode = #tpu<round_mode HalfAwayFromZero>, mul2_saturation = true, mul2_shift = 0 : si32, rope_mode = #tpu<rope_mode contiguous_halves>} : (tensor<1x2304x16x64xf32>, tensor<1x2304x1x64xf32>, tensor<1x2304x1x64xf32>) -> tensor<1x2304x16x64xf32> loc(#loc522)
    %523 = "tpu.Cast"(%522) {round_mode = #tpu<round_mode HalfAwayFromZero>, with_scale = true} : (tensor<1x2304x16x64xf32>) -> tensor<1x2304x16x64xbf16> loc(#loc523)
    %524 = "tpu.Rope"(%520, %24, %19) {add_round_mode = #tpu<round_mode HalfAwayFromZero>, add_saturation = true, add_shift = 0 : si32, force_f32 = true, is_permute_optimize = false, mul1_round_mode = #tpu<round_mode HalfAwayFromZero>, mul1_saturation = true, mul1_shift = 0 : si32, mul2_round_mode = #tpu<round_mode HalfAwayFromZero>, mul2_saturation = true, mul2_shift = 0 : si32, rope_mode = #tpu<rope_mode contiguous_halves>} : (tensor<1x2304x16x64xf32>, tensor<1x2304x1x64xf32>, tensor<1x2304x1x64xf32>) -> tensor<1x2304x16x64xf32> loc(#loc524)
    %525 = "tpu.Cast"(%524) {round_mode = #tpu<round_mode HalfAwayFromZero>, with_scale = true} : (tensor<1x2304x16x64xf32>) -> tensor<1x2304x16x64xbf16> loc(#loc525)
    %526 = "tpu.FAttention"(%523, %525, %521, %0, %0) {batch = 1 : i64, dim = 64 : i64, keep_dims = true, kv_head = 16 : i64, mk = 2304 : i64, mq = 2304 : i64, q_head = 16 : i64, scale = 1.250000e-01 : f64} : (tensor<1x2304x16x64xbf16>, tensor<1x2304x16x64xbf16>, tensor<1x2304x16x64xbf16>, none, none) -> tensor<1x2304x16x64xbf16> loc(#loc526)
    %527 = "tpu.Reshape"(%526) {flatten_start_dim = -1 : i64, shape = [-1, 1024]} : (tensor<1x2304x16x64xbf16>) -> tensor<2304x1024xbf16> loc(#loc527)
    %528 = "top.Weight"() : () -> tensor<1024x1024xbf16> loc(#loc528)
    %529 = "top.Weight"() : () -> tensor<1x1024xbf16> loc(#loc529)
    %530 = "tpu.MatMul"(%527, %528, %529, %0, %0) {do_relu = false, dq_type = "NONE", fuse_rq = false, hdim_is_batch = false, input_zp = 0 : i64, is_lora = false, keep_dims = true, left_reuse = 1 : i64, left_transpose = false, multipliers = [1], output_transpose = false, q_group_size = 0 : i64, quant_mode = #tpu<rq_mode MultiplierShift>, relu_limit = -1.000000e+00 : f64, right_transpose = false, right_zp = 0 : i64, round_mode = #tpu<round_mode HalfAwayFromZero>, rshifts = [0]} : (tensor<2304x1024xbf16>, tensor<1024x1024xbf16>, tensor<1x1024xbf16>, none, none) -> tensor<2304x1024xbf16> loc(#loc530)
    %531 = "tpu.Add"(%504, %530) {do_relu = false, is_scalar = false, relu_limit = -1.000000e+00 : f64} : (tensor<2304x1024xbf16>, tensor<2304x1024xbf16>) -> tensor<2304x1024xbf16> loc(#loc531)
    %532 = "top.Weight"() : () -> tensor<1x1024xbf16> loc(#loc532)
    %533 = "top.Weight"() : () -> tensor<1x1024xbf16> loc(#loc533)
    %534 = "tpu.LayerNorm"(%531, %532, %533, %0, %0) {axis = 1 : si32, eps = 9.9999999999999995E-7 : f64, normalized_shape = [1024]} : (tensor<2304x1024xbf16>, tensor<1x1024xbf16>, tensor<1x1024xbf16>, none, none) -> tensor<2304x1024xbf16> loc(#loc534)
    %535 = "top.Weight"() : () -> tensor<1024x4096xbf16> loc(#loc535)
    %536 = "top.Weight"() : () -> tensor<1x4096xbf16> loc(#loc536)
    %537 = "tpu.MatMul"(%534, %535, %536, %0, %0) {do_relu = false, dq_type = "NONE", fuse_rq = false, hdim_is_batch = false, input_zp = 0 : i64, is_lora = false, keep_dims = true, left_reuse = 1 : i64, left_transpose = false, multipliers = [1], output_transpose = false, q_group_size = 0 : i64, quant_mode = #tpu<rq_mode MultiplierShift>, relu_limit = -1.000000e+00 : f64, right_transpose = false, right_zp = 0 : i64, round_mode = #tpu<round_mode HalfAwayFromZero>, rshifts = [0]} : (tensor<2304x1024xbf16>, tensor<1024x4096xbf16>, tensor<1x4096xbf16>, none, none) -> tensor<2304x4096xbf16> loc(#loc537)
    %538 = "tpu.Cast"(%537) {round_mode = #tpu<round_mode HalfAwayFromZero>, with_scale = true} : (tensor<2304x4096xbf16>) -> tensor<2304x4096xf32> loc(#loc538)
    %539 = "tpu.Active"(%538) {mode = #tpu<active_mode TGELU>} : (tensor<2304x4096xf32>) -> tensor<2304x4096xf32> loc(#loc539)
    %540 = "tpu.Cast"(%539) {round_mode = #tpu<round_mode HalfAwayFromZero>, with_scale = true} : (tensor<2304x4096xf32>) -> tensor<2304x4096xbf16> loc(#loc540)
    %541 = "top.Weight"() : () -> tensor<4096x1024xbf16> loc(#loc541)
    %542 = "top.Weight"() : () -> tensor<1x1024xbf16> loc(#loc542)
    %543 = "tpu.MatMul"(%540, %541, %542, %0, %0) {do_relu = false, dq_type = "NONE", fuse_rq = false, hdim_is_batch = false, input_zp = 0 : i64, is_lora = false, keep_dims = true, left_reuse = 1 : i64, left_transpose = false, multipliers = [1], output_transpose = false, q_group_size = 0 : i64, quant_mode = #tpu<rq_mode MultiplierShift>, relu_limit = -1.000000e+00 : f64, right_transpose = false, right_zp = 0 : i64, round_mode = #tpu<round_mode HalfAwayFromZero>, rshifts = [0]} : (tensor<2304x4096xbf16>, tensor<4096x1024xbf16>, tensor<1x1024xbf16>, none, none) -> tensor<2304x1024xbf16> loc(#loc543)
    %544 = "tpu.Add"(%531, %543) {do_relu = false, is_scalar = false, relu_limit = -1.000000e+00 : f64} : (tensor<2304x1024xbf16>, tensor<2304x1024xbf16>) -> tensor<2304x1024xbf16> loc(#loc544)
    %545 = "top.Weight"() : () -> tensor<1x1024xbf16> loc(#loc545)
    %546 = "top.Weight"() : () -> tensor<1x1024xbf16> loc(#loc546)
    %547 = "tpu.LayerNorm"(%544, %545, %546, %0, %0) {axis = 1 : si32, eps = 9.9999999999999995E-7 : f64, normalized_shape = [1024]} : (tensor<2304x1024xbf16>, tensor<1x1024xbf16>, tensor<1x1024xbf16>, none, none) -> tensor<2304x1024xbf16> loc(#loc547)
    %548 = "top.Weight"() : () -> tensor<1024x1024xbf16> loc(#loc548)
    %549 = "top.Weight"() : () -> tensor<1x1024xbf16> loc(#loc549)
    %550 = "tpu.MatMul"(%547, %548, %549, %0, %0) {do_relu = false, dq_type = "NONE", fuse_rq = false, hdim_is_batch = false, input_zp = 0 : i64, is_lora = false, keep_dims = true, left_reuse = 1 : i64, left_transpose = false, multipliers = [1], output_transpose = false, q_group_size = 0 : i64, quant_mode = #tpu<rq_mode MultiplierShift>, relu_limit = -1.000000e+00 : f64, right_transpose = false, right_zp = 0 : i64, round_mode = #tpu<round_mode HalfAwayFromZero>, rshifts = [0]} : (tensor<2304x1024xbf16>, tensor<1024x1024xbf16>, tensor<1x1024xbf16>, none, none) -> tensor<2304x1024xbf16> loc(#loc550)
    %551 = "top.Weight"() : () -> tensor<1024x1024xbf16> loc(#loc551)
    %552 = "top.Weight"() : () -> tensor<1x1024xbf16> loc(#loc552)
    %553 = "tpu.MatMul"(%547, %551, %552, %0, %0) {do_relu = false, dq_type = "NONE", fuse_rq = false, hdim_is_batch = false, input_zp = 0 : i64, is_lora = false, keep_dims = true, left_reuse = 1 : i64, left_transpose = false, multipliers = [1], output_transpose = false, q_group_size = 0 : i64, quant_mode = #tpu<rq_mode MultiplierShift>, relu_limit = -1.000000e+00 : f64, right_transpose = false, right_zp = 0 : i64, round_mode = #tpu<round_mode HalfAwayFromZero>, rshifts = [0]} : (tensor<2304x1024xbf16>, tensor<1024x1024xbf16>, tensor<1x1024xbf16>, none, none) -> tensor<2304x1024xbf16> loc(#loc553)
    %554 = "top.Weight"() : () -> tensor<1024x1024xbf16> loc(#loc554)
    %555 = "top.Weight"() : () -> tensor<1x1024xbf16> loc(#loc555)
    %556 = "tpu.MatMul"(%547, %554, %555, %0, %0) {do_relu = false, dq_type = "NONE", fuse_rq = false, hdim_is_batch = false, input_zp = 0 : i64, is_lora = false, keep_dims = true, left_reuse = 1 : i64, left_transpose = false, multipliers = [1], output_transpose = false, q_group_size = 0 : i64, quant_mode = #tpu<rq_mode MultiplierShift>, relu_limit = -1.000000e+00 : f64, right_transpose = false, right_zp = 0 : i64, round_mode = #tpu<round_mode HalfAwayFromZero>, rshifts = [0]} : (tensor<2304x1024xbf16>, tensor<1024x1024xbf16>, tensor<1x1024xbf16>, none, none) -> tensor<2304x1024xbf16> loc(#loc556)
    %557 = "tpu.Reshape"(%550) {flatten_start_dim = -1 : i64, shape = [1, -1, 16, 64]} : (tensor<2304x1024xbf16>) -> tensor<1x2304x16x64xbf16> loc(#loc557)
    %558 = "tpu.Cast"(%557) {round_mode = #tpu<round_mode HalfAwayFromZero>, with_scale = true} : (tensor<1x2304x16x64xbf16>) -> tensor<1x2304x16x64xf32> loc(#loc558)
    %559 = "tpu.Reshape"(%553) {flatten_start_dim = -1 : i64, shape = [1, -1, 16, 64]} : (tensor<2304x1024xbf16>) -> tensor<1x2304x16x64xbf16> loc(#loc559)
    %560 = "tpu.Cast"(%559) {round_mode = #tpu<round_mode HalfAwayFromZero>, with_scale = true} : (tensor<1x2304x16x64xbf16>) -> tensor<1x2304x16x64xf32> loc(#loc560)
    %561 = "tpu.Reshape"(%556) {flatten_start_dim = -1 : i64, shape = [1, -1, 16, 64]} : (tensor<2304x1024xbf16>) -> tensor<1x2304x16x64xbf16> loc(#loc561)
    %562 = "tpu.Rope"(%558, %24, %19) {add_round_mode = #tpu<round_mode HalfAwayFromZero>, add_saturation = true, add_shift = 0 : si32, force_f32 = true, is_permute_optimize = false, mul1_round_mode = #tpu<round_mode HalfAwayFromZero>, mul1_saturation = true, mul1_shift = 0 : si32, mul2_round_mode = #tpu<round_mode HalfAwayFromZero>, mul2_saturation = true, mul2_shift = 0 : si32, rope_mode = #tpu<rope_mode contiguous_halves>} : (tensor<1x2304x16x64xf32>, tensor<1x2304x1x64xf32>, tensor<1x2304x1x64xf32>) -> tensor<1x2304x16x64xf32> loc(#loc562)
    %563 = "tpu.Cast"(%562) {round_mode = #tpu<round_mode HalfAwayFromZero>, with_scale = true} : (tensor<1x2304x16x64xf32>) -> tensor<1x2304x16x64xbf16> loc(#loc563)
    %564 = "tpu.Rope"(%560, %24, %19) {add_round_mode = #tpu<round_mode HalfAwayFromZero>, add_saturation = true, add_shift = 0 : si32, force_f32 = true, is_permute_optimize = false, mul1_round_mode = #tpu<round_mode HalfAwayFromZero>, mul1_saturation = true, mul1_shift = 0 : si32, mul2_round_mode = #tpu<round_mode HalfAwayFromZero>, mul2_saturation = true, mul2_shift = 0 : si32, rope_mode = #tpu<rope_mode contiguous_halves>} : (tensor<1x2304x16x64xf32>, tensor<1x2304x1x64xf32>, tensor<1x2304x1x64xf32>) -> tensor<1x2304x16x64xf32> loc(#loc564)
    %565 = "tpu.Cast"(%564) {round_mode = #tpu<round_mode HalfAwayFromZero>, with_scale = true} : (tensor<1x2304x16x64xf32>) -> tensor<1x2304x16x64xbf16> loc(#loc565)
    %566 = "tpu.FAttention"(%563, %565, %561, %0, %0) {batch = 1 : i64, dim = 64 : i64, keep_dims = true, kv_head = 16 : i64, mk = 2304 : i64, mq = 2304 : i64, q_head = 16 : i64, scale = 1.250000e-01 : f64} : (tensor<1x2304x16x64xbf16>, tensor<1x2304x16x64xbf16>, tensor<1x2304x16x64xbf16>, none, none) -> tensor<1x2304x16x64xbf16> loc(#loc566)
    %567 = "tpu.Reshape"(%566) {flatten_start_dim = -1 : i64, shape = [-1, 1024]} : (tensor<1x2304x16x64xbf16>) -> tensor<2304x1024xbf16> loc(#loc567)
    %568 = "top.Weight"() : () -> tensor<1024x1024xbf16> loc(#loc568)
    %569 = "top.Weight"() : () -> tensor<1x1024xbf16> loc(#loc569)
    %570 = "tpu.MatMul"(%567, %568, %569, %0, %0) {do_relu = false, dq_type = "NONE", fuse_rq = false, hdim_is_batch = false, input_zp = 0 : i64, is_lora = false, keep_dims = true, left_reuse = 1 : i64, left_transpose = false, multipliers = [1], output_transpose = false, q_group_size = 0 : i64, quant_mode = #tpu<rq_mode MultiplierShift>, relu_limit = -1.000000e+00 : f64, right_transpose = false, right_zp = 0 : i64, round_mode = #tpu<round_mode HalfAwayFromZero>, rshifts = [0]} : (tensor<2304x1024xbf16>, tensor<1024x1024xbf16>, tensor<1x1024xbf16>, none, none) -> tensor<2304x1024xbf16> loc(#loc570)
    %571 = "tpu.Add"(%544, %570) {do_relu = false, is_scalar = false, relu_limit = -1.000000e+00 : f64} : (tensor<2304x1024xbf16>, tensor<2304x1024xbf16>) -> tensor<2304x1024xbf16> loc(#loc571)
    %572 = "top.Weight"() : () -> tensor<1x1024xbf16> loc(#loc572)
    %573 = "top.Weight"() : () -> tensor<1x1024xbf16> loc(#loc573)
    %574 = "tpu.LayerNorm"(%571, %572, %573, %0, %0) {axis = 1 : si32, eps = 9.9999999999999995E-7 : f64, normalized_shape = [1024]} : (tensor<2304x1024xbf16>, tensor<1x1024xbf16>, tensor<1x1024xbf16>, none, none) -> tensor<2304x1024xbf16> loc(#loc574)
    %575 = "top.Weight"() : () -> tensor<1024x4096xbf16> loc(#loc575)
    %576 = "top.Weight"() : () -> tensor<1x4096xbf16> loc(#loc576)
    %577 = "tpu.MatMul"(%574, %575, %576, %0, %0) {do_relu = false, dq_type = "NONE", fuse_rq = false, hdim_is_batch = false, input_zp = 0 : i64, is_lora = false, keep_dims = true, left_reuse = 1 : i64, left_transpose = false, multipliers = [1], output_transpose = false, q_group_size = 0 : i64, quant_mode = #tpu<rq_mode MultiplierShift>, relu_limit = -1.000000e+00 : f64, right_transpose = false, right_zp = 0 : i64, round_mode = #tpu<round_mode HalfAwayFromZero>, rshifts = [0]} : (tensor<2304x1024xbf16>, tensor<1024x4096xbf16>, tensor<1x4096xbf16>, none, none) -> tensor<2304x4096xbf16> loc(#loc577)
    %578 = "tpu.Cast"(%577) {round_mode = #tpu<round_mode HalfAwayFromZero>, with_scale = true} : (tensor<2304x4096xbf16>) -> tensor<2304x4096xf32> loc(#loc578)
    %579 = "tpu.Active"(%578) {mode = #tpu<active_mode TGELU>} : (tensor<2304x4096xf32>) -> tensor<2304x4096xf32> loc(#loc579)
    %580 = "tpu.Cast"(%579) {round_mode = #tpu<round_mode HalfAwayFromZero>, with_scale = true} : (tensor<2304x4096xf32>) -> tensor<2304x4096xbf16> loc(#loc580)
    %581 = "top.Weight"() : () -> tensor<4096x1024xbf16> loc(#loc581)
    %582 = "top.Weight"() : () -> tensor<1x1024xbf16> loc(#loc582)
    %583 = "tpu.MatMul"(%580, %581, %582, %0, %0) {do_relu = false, dq_type = "NONE", fuse_rq = false, hdim_is_batch = false, input_zp = 0 : i64, is_lora = false, keep_dims = true, left_reuse = 1 : i64, left_transpose = false, multipliers = [1], output_transpose = false, q_group_size = 0 : i64, quant_mode = #tpu<rq_mode MultiplierShift>, relu_limit = -1.000000e+00 : f64, right_transpose = false, right_zp = 0 : i64, round_mode = #tpu<round_mode HalfAwayFromZero>, rshifts = [0]} : (tensor<2304x4096xbf16>, tensor<4096x1024xbf16>, tensor<1x1024xbf16>, none, none) -> tensor<2304x1024xbf16> loc(#loc583)
    %584 = "tpu.Add"(%571, %583) {do_relu = false, is_scalar = false, relu_limit = -1.000000e+00 : f64} : (tensor<2304x1024xbf16>, tensor<2304x1024xbf16>) -> tensor<2304x1024xbf16> loc(#loc584)
    %585 = "top.Weight"() : () -> tensor<1x1024xbf16> loc(#loc585)
    %586 = "top.Weight"() : () -> tensor<1x1024xbf16> loc(#loc586)
    %587 = "tpu.LayerNorm"(%584, %585, %586, %0, %0) {axis = 1 : si32, eps = 9.9999999999999995E-7 : f64, normalized_shape = [1024]} : (tensor<2304x1024xbf16>, tensor<1x1024xbf16>, tensor<1x1024xbf16>, none, none) -> tensor<2304x1024xbf16> loc(#loc587)
    %588 = "top.Weight"() : () -> tensor<1024x1024xbf16> loc(#loc588)
    %589 = "top.Weight"() : () -> tensor<1x1024xbf16> loc(#loc589)
    %590 = "tpu.MatMul"(%587, %588, %589, %0, %0) {do_relu = false, dq_type = "NONE", fuse_rq = false, hdim_is_batch = false, input_zp = 0 : i64, is_lora = false, keep_dims = true, left_reuse = 1 : i64, left_transpose = false, multipliers = [1], output_transpose = false, q_group_size = 0 : i64, quant_mode = #tpu<rq_mode MultiplierShift>, relu_limit = -1.000000e+00 : f64, right_transpose = false, right_zp = 0 : i64, round_mode = #tpu<round_mode HalfAwayFromZero>, rshifts = [0]} : (tensor<2304x1024xbf16>, tensor<1024x1024xbf16>, tensor<1x1024xbf16>, none, none) -> tensor<2304x1024xbf16> loc(#loc590)
    %591 = "top.Weight"() : () -> tensor<1024x1024xbf16> loc(#loc591)
    %592 = "top.Weight"() : () -> tensor<1x1024xbf16> loc(#loc592)
    %593 = "tpu.MatMul"(%587, %591, %592, %0, %0) {do_relu = false, dq_type = "NONE", fuse_rq = false, hdim_is_batch = false, input_zp = 0 : i64, is_lora = false, keep_dims = true, left_reuse = 1 : i64, left_transpose = false, multipliers = [1], output_transpose = false, q_group_size = 0 : i64, quant_mode = #tpu<rq_mode MultiplierShift>, relu_limit = -1.000000e+00 : f64, right_transpose = false, right_zp = 0 : i64, round_mode = #tpu<round_mode HalfAwayFromZero>, rshifts = [0]} : (tensor<2304x1024xbf16>, tensor<1024x1024xbf16>, tensor<1x1024xbf16>, none, none) -> tensor<2304x1024xbf16> loc(#loc593)
    %594 = "top.Weight"() : () -> tensor<1024x1024xbf16> loc(#loc594)
    %595 = "top.Weight"() : () -> tensor<1x1024xbf16> loc(#loc595)
    %596 = "tpu.MatMul"(%587, %594, %595, %0, %0) {do_relu = false, dq_type = "NONE", fuse_rq = false, hdim_is_batch = false, input_zp = 0 : i64, is_lora = false, keep_dims = true, left_reuse = 1 : i64, left_transpose = false, multipliers = [1], output_transpose = false, q_group_size = 0 : i64, quant_mode = #tpu<rq_mode MultiplierShift>, relu_limit = -1.000000e+00 : f64, right_transpose = false, right_zp = 0 : i64, round_mode = #tpu<round_mode HalfAwayFromZero>, rshifts = [0]} : (tensor<2304x1024xbf16>, tensor<1024x1024xbf16>, tensor<1x1024xbf16>, none, none) -> tensor<2304x1024xbf16> loc(#loc596)
    %597 = "tpu.Reshape"(%590) {flatten_start_dim = -1 : i64, shape = [1, -1, 16, 64]} : (tensor<2304x1024xbf16>) -> tensor<1x2304x16x64xbf16> loc(#loc597)
    %598 = "tpu.Cast"(%597) {round_mode = #tpu<round_mode HalfAwayFromZero>, with_scale = true} : (tensor<1x2304x16x64xbf16>) -> tensor<1x2304x16x64xf32> loc(#loc598)
    %599 = "tpu.Reshape"(%593) {flatten_start_dim = -1 : i64, shape = [1, -1, 16, 64]} : (tensor<2304x1024xbf16>) -> tensor<1x2304x16x64xbf16> loc(#loc599)
    %600 = "tpu.Cast"(%599) {round_mode = #tpu<round_mode HalfAwayFromZero>, with_scale = true} : (tensor<1x2304x16x64xbf16>) -> tensor<1x2304x16x64xf32> loc(#loc600)
    %601 = "tpu.Reshape"(%596) {flatten_start_dim = -1 : i64, shape = [1, -1, 16, 64]} : (tensor<2304x1024xbf16>) -> tensor<1x2304x16x64xbf16> loc(#loc601)
    %602 = "tpu.Rope"(%598, %24, %19) {add_round_mode = #tpu<round_mode HalfAwayFromZero>, add_saturation = true, add_shift = 0 : si32, force_f32 = true, is_permute_optimize = false, mul1_round_mode = #tpu<round_mode HalfAwayFromZero>, mul1_saturation = true, mul1_shift = 0 : si32, mul2_round_mode = #tpu<round_mode HalfAwayFromZero>, mul2_saturation = true, mul2_shift = 0 : si32, rope_mode = #tpu<rope_mode contiguous_halves>} : (tensor<1x2304x16x64xf32>, tensor<1x2304x1x64xf32>, tensor<1x2304x1x64xf32>) -> tensor<1x2304x16x64xf32> loc(#loc602)
    %603 = "tpu.Cast"(%602) {round_mode = #tpu<round_mode HalfAwayFromZero>, with_scale = true} : (tensor<1x2304x16x64xf32>) -> tensor<1x2304x16x64xbf16> loc(#loc603)
    %604 = "tpu.Rope"(%600, %24, %19) {add_round_mode = #tpu<round_mode HalfAwayFromZero>, add_saturation = true, add_shift = 0 : si32, force_f32 = true, is_permute_optimize = false, mul1_round_mode = #tpu<round_mode HalfAwayFromZero>, mul1_saturation = true, mul1_shift = 0 : si32, mul2_round_mode = #tpu<round_mode HalfAwayFromZero>, mul2_saturation = true, mul2_shift = 0 : si32, rope_mode = #tpu<rope_mode contiguous_halves>} : (tensor<1x2304x16x64xf32>, tensor<1x2304x1x64xf32>, tensor<1x2304x1x64xf32>) -> tensor<1x2304x16x64xf32> loc(#loc604)
    %605 = "tpu.Cast"(%604) {round_mode = #tpu<round_mode HalfAwayFromZero>, with_scale = true} : (tensor<1x2304x16x64xf32>) -> tensor<1x2304x16x64xbf16> loc(#loc605)
    %606 = "tpu.FAttention"(%603, %605, %601, %0, %0) {batch = 1 : i64, dim = 64 : i64, keep_dims = true, kv_head = 16 : i64, mk = 2304 : i64, mq = 2304 : i64, q_head = 16 : i64, scale = 1.250000e-01 : f64} : (tensor<1x2304x16x64xbf16>, tensor<1x2304x16x64xbf16>, tensor<1x2304x16x64xbf16>, none, none) -> tensor<1x2304x16x64xbf16> loc(#loc606)
    %607 = "tpu.Reshape"(%606) {flatten_start_dim = -1 : i64, shape = [-1, 1024]} : (tensor<1x2304x16x64xbf16>) -> tensor<2304x1024xbf16> loc(#loc607)
    %608 = "top.Weight"() : () -> tensor<1024x1024xbf16> loc(#loc608)
    %609 = "top.Weight"() : () -> tensor<1x1024xbf16> loc(#loc609)
    %610 = "tpu.MatMul"(%607, %608, %609, %0, %0) {do_relu = false, dq_type = "NONE", fuse_rq = false, hdim_is_batch = false, input_zp = 0 : i64, is_lora = false, keep_dims = true, left_reuse = 1 : i64, left_transpose = false, multipliers = [1], output_transpose = false, q_group_size = 0 : i64, quant_mode = #tpu<rq_mode MultiplierShift>, relu_limit = -1.000000e+00 : f64, right_transpose = false, right_zp = 0 : i64, round_mode = #tpu<round_mode HalfAwayFromZero>, rshifts = [0]} : (tensor<2304x1024xbf16>, tensor<1024x1024xbf16>, tensor<1x1024xbf16>, none, none) -> tensor<2304x1024xbf16> loc(#loc610)
    %611 = "tpu.Add"(%584, %610) {do_relu = false, is_scalar = false, relu_limit = -1.000000e+00 : f64} : (tensor<2304x1024xbf16>, tensor<2304x1024xbf16>) -> tensor<2304x1024xbf16> loc(#loc611)
    %612 = "top.Weight"() : () -> tensor<1x1024xbf16> loc(#loc612)
    %613 = "top.Weight"() : () -> tensor<1x1024xbf16> loc(#loc613)
    %614 = "tpu.LayerNorm"(%611, %612, %613, %0, %0) {axis = 1 : si32, eps = 9.9999999999999995E-7 : f64, normalized_shape = [1024]} : (tensor<2304x1024xbf16>, tensor<1x1024xbf16>, tensor<1x1024xbf16>, none, none) -> tensor<2304x1024xbf16> loc(#loc614)
    %615 = "top.Weight"() : () -> tensor<1024x4096xbf16> loc(#loc615)
    %616 = "top.Weight"() : () -> tensor<1x4096xbf16> loc(#loc616)
    %617 = "tpu.MatMul"(%614, %615, %616, %0, %0) {do_relu = false, dq_type = "NONE", fuse_rq = false, hdim_is_batch = false, input_zp = 0 : i64, is_lora = false, keep_dims = true, left_reuse = 1 : i64, left_transpose = false, multipliers = [1], output_transpose = false, q_group_size = 0 : i64, quant_mode = #tpu<rq_mode MultiplierShift>, relu_limit = -1.000000e+00 : f64, right_transpose = false, right_zp = 0 : i64, round_mode = #tpu<round_mode HalfAwayFromZero>, rshifts = [0]} : (tensor<2304x1024xbf16>, tensor<1024x4096xbf16>, tensor<1x4096xbf16>, none, none) -> tensor<2304x4096xbf16> loc(#loc617)
    %618 = "tpu.Cast"(%617) {round_mode = #tpu<round_mode HalfAwayFromZero>, with_scale = true} : (tensor<2304x4096xbf16>) -> tensor<2304x4096xf32> loc(#loc618)
    %619 = "tpu.Active"(%618) {mode = #tpu<active_mode TGELU>} : (tensor<2304x4096xf32>) -> tensor<2304x4096xf32> loc(#loc619)
    %620 = "tpu.Cast"(%619) {round_mode = #tpu<round_mode HalfAwayFromZero>, with_scale = true} : (tensor<2304x4096xf32>) -> tensor<2304x4096xbf16> loc(#loc620)
    %621 = "top.Weight"() : () -> tensor<4096x1024xbf16> loc(#loc621)
    %622 = "top.Weight"() : () -> tensor<1x1024xbf16> loc(#loc622)
    %623 = "tpu.MatMul"(%620, %621, %622, %0, %0) {do_relu = false, dq_type = "NONE", fuse_rq = false, hdim_is_batch = false, input_zp = 0 : i64, is_lora = false, keep_dims = true, left_reuse = 1 : i64, left_transpose = false, multipliers = [1], output_transpose = false, q_group_size = 0 : i64, quant_mode = #tpu<rq_mode MultiplierShift>, relu_limit = -1.000000e+00 : f64, right_transpose = false, right_zp = 0 : i64, round_mode = #tpu<round_mode HalfAwayFromZero>, rshifts = [0]} : (tensor<2304x4096xbf16>, tensor<4096x1024xbf16>, tensor<1x1024xbf16>, none, none) -> tensor<2304x1024xbf16> loc(#loc623)
    %624 = "tpu.Add"(%611, %623) {do_relu = false, is_scalar = false, relu_limit = -1.000000e+00 : f64} : (tensor<2304x1024xbf16>, tensor<2304x1024xbf16>) -> tensor<2304x1024xbf16> loc(#loc624)
    %625 = "top.Weight"() : () -> tensor<1x1024xbf16> loc(#loc625)
    %626 = "top.Weight"() : () -> tensor<1x1024xbf16> loc(#loc626)
    %627 = "tpu.LayerNorm"(%624, %625, %626, %0, %0) {axis = 1 : si32, eps = 9.9999999999999995E-7 : f64, normalized_shape = [1024]} : (tensor<2304x1024xbf16>, tensor<1x1024xbf16>, tensor<1x1024xbf16>, none, none) -> tensor<2304x1024xbf16> loc(#loc627)
    %628 = "top.Weight"() : () -> tensor<1024x1024xbf16> loc(#loc628)
    %629 = "top.Weight"() : () -> tensor<1x1024xbf16> loc(#loc629)
    %630 = "tpu.MatMul"(%627, %628, %629, %0, %0) {do_relu = false, dq_type = "NONE", fuse_rq = false, hdim_is_batch = false, input_zp = 0 : i64, is_lora = false, keep_dims = true, left_reuse = 1 : i64, left_transpose = false, multipliers = [1], output_transpose = false, q_group_size = 0 : i64, quant_mode = #tpu<rq_mode MultiplierShift>, relu_limit = -1.000000e+00 : f64, right_transpose = false, right_zp = 0 : i64, round_mode = #tpu<round_mode HalfAwayFromZero>, rshifts = [0]} : (tensor<2304x1024xbf16>, tensor<1024x1024xbf16>, tensor<1x1024xbf16>, none, none) -> tensor<2304x1024xbf16> loc(#loc630)
    %631 = "top.Weight"() : () -> tensor<1024x1024xbf16> loc(#loc631)
    %632 = "top.Weight"() : () -> tensor<1x1024xbf16> loc(#loc632)
    %633 = "tpu.MatMul"(%627, %631, %632, %0, %0) {do_relu = false, dq_type = "NONE", fuse_rq = false, hdim_is_batch = false, input_zp = 0 : i64, is_lora = false, keep_dims = true, left_reuse = 1 : i64, left_transpose = false, multipliers = [1], output_transpose = false, q_group_size = 0 : i64, quant_mode = #tpu<rq_mode MultiplierShift>, relu_limit = -1.000000e+00 : f64, right_transpose = false, right_zp = 0 : i64, round_mode = #tpu<round_mode HalfAwayFromZero>, rshifts = [0]} : (tensor<2304x1024xbf16>, tensor<1024x1024xbf16>, tensor<1x1024xbf16>, none, none) -> tensor<2304x1024xbf16> loc(#loc633)
    %634 = "top.Weight"() : () -> tensor<1024x1024xbf16> loc(#loc634)
    %635 = "top.Weight"() : () -> tensor<1x1024xbf16> loc(#loc635)
    %636 = "tpu.MatMul"(%627, %634, %635, %0, %0) {do_relu = false, dq_type = "NONE", fuse_rq = false, hdim_is_batch = false, input_zp = 0 : i64, is_lora = false, keep_dims = true, left_reuse = 1 : i64, left_transpose = false, multipliers = [1], output_transpose = false, q_group_size = 0 : i64, quant_mode = #tpu<rq_mode MultiplierShift>, relu_limit = -1.000000e+00 : f64, right_transpose = false, right_zp = 0 : i64, round_mode = #tpu<round_mode HalfAwayFromZero>, rshifts = [0]} : (tensor<2304x1024xbf16>, tensor<1024x1024xbf16>, tensor<1x1024xbf16>, none, none) -> tensor<2304x1024xbf16> loc(#loc636)
    %637 = "tpu.Reshape"(%630) {flatten_start_dim = -1 : i64, shape = [1, -1, 16, 64]} : (tensor<2304x1024xbf16>) -> tensor<1x2304x16x64xbf16> loc(#loc637)
    %638 = "tpu.Cast"(%637) {round_mode = #tpu<round_mode HalfAwayFromZero>, with_scale = true} : (tensor<1x2304x16x64xbf16>) -> tensor<1x2304x16x64xf32> loc(#loc638)
    %639 = "tpu.Reshape"(%633) {flatten_start_dim = -1 : i64, shape = [1, -1, 16, 64]} : (tensor<2304x1024xbf16>) -> tensor<1x2304x16x64xbf16> loc(#loc639)
    %640 = "tpu.Cast"(%639) {round_mode = #tpu<round_mode HalfAwayFromZero>, with_scale = true} : (tensor<1x2304x16x64xbf16>) -> tensor<1x2304x16x64xf32> loc(#loc640)
    %641 = "tpu.Reshape"(%636) {flatten_start_dim = -1 : i64, shape = [1, -1, 16, 64]} : (tensor<2304x1024xbf16>) -> tensor<1x2304x16x64xbf16> loc(#loc641)
    %642 = "tpu.Rope"(%638, %24, %19) {add_round_mode = #tpu<round_mode HalfAwayFromZero>, add_saturation = true, add_shift = 0 : si32, force_f32 = true, is_permute_optimize = false, mul1_round_mode = #tpu<round_mode HalfAwayFromZero>, mul1_saturation = true, mul1_shift = 0 : si32, mul2_round_mode = #tpu<round_mode HalfAwayFromZero>, mul2_saturation = true, mul2_shift = 0 : si32, rope_mode = #tpu<rope_mode contiguous_halves>} : (tensor<1x2304x16x64xf32>, tensor<1x2304x1x64xf32>, tensor<1x2304x1x64xf32>) -> tensor<1x2304x16x64xf32> loc(#loc642)
    %643 = "tpu.Cast"(%642) {round_mode = #tpu<round_mode HalfAwayFromZero>, with_scale = true} : (tensor<1x2304x16x64xf32>) -> tensor<1x2304x16x64xbf16> loc(#loc643)
    %644 = "tpu.Rope"(%640, %24, %19) {add_round_mode = #tpu<round_mode HalfAwayFromZero>, add_saturation = true, add_shift = 0 : si32, force_f32 = true, is_permute_optimize = false, mul1_round_mode = #tpu<round_mode HalfAwayFromZero>, mul1_saturation = true, mul1_shift = 0 : si32, mul2_round_mode = #tpu<round_mode HalfAwayFromZero>, mul2_saturation = true, mul2_shift = 0 : si32, rope_mode = #tpu<rope_mode contiguous_halves>} : (tensor<1x2304x16x64xf32>, tensor<1x2304x1x64xf32>, tensor<1x2304x1x64xf32>) -> tensor<1x2304x16x64xf32> loc(#loc644)
    %645 = "tpu.Cast"(%644) {round_mode = #tpu<round_mode HalfAwayFromZero>, with_scale = true} : (tensor<1x2304x16x64xf32>) -> tensor<1x2304x16x64xbf16> loc(#loc645)
    %646 = "tpu.FAttention"(%643, %645, %641, %0, %0) {batch = 1 : i64, dim = 64 : i64, keep_dims = true, kv_head = 16 : i64, mk = 2304 : i64, mq = 2304 : i64, q_head = 16 : i64, scale = 1.250000e-01 : f64} : (tensor<1x2304x16x64xbf16>, tensor<1x2304x16x64xbf16>, tensor<1x2304x16x64xbf16>, none, none) -> tensor<1x2304x16x64xbf16> loc(#loc646)
    %647 = "tpu.Reshape"(%646) {flatten_start_dim = -1 : i64, shape = [-1, 1024]} : (tensor<1x2304x16x64xbf16>) -> tensor<2304x1024xbf16> loc(#loc647)
    %648 = "top.Weight"() : () -> tensor<1024x1024xbf16> loc(#loc648)
    %649 = "top.Weight"() : () -> tensor<1x1024xbf16> loc(#loc649)
    %650 = "tpu.MatMul"(%647, %648, %649, %0, %0) {do_relu = false, dq_type = "NONE", fuse_rq = false, hdim_is_batch = false, input_zp = 0 : i64, is_lora = false, keep_dims = true, left_reuse = 1 : i64, left_transpose = false, multipliers = [1], output_transpose = false, q_group_size = 0 : i64, quant_mode = #tpu<rq_mode MultiplierShift>, relu_limit = -1.000000e+00 : f64, right_transpose = false, right_zp = 0 : i64, round_mode = #tpu<round_mode HalfAwayFromZero>, rshifts = [0]} : (tensor<2304x1024xbf16>, tensor<1024x1024xbf16>, tensor<1x1024xbf16>, none, none) -> tensor<2304x1024xbf16> loc(#loc650)
    %651 = "tpu.Add"(%624, %650) {do_relu = false, is_scalar = false, relu_limit = -1.000000e+00 : f64} : (tensor<2304x1024xbf16>, tensor<2304x1024xbf16>) -> tensor<2304x1024xbf16> loc(#loc651)
    %652 = "top.Weight"() : () -> tensor<1x1024xbf16> loc(#loc652)
    %653 = "top.Weight"() : () -> tensor<1x1024xbf16> loc(#loc653)
    %654 = "tpu.LayerNorm"(%651, %652, %653, %0, %0) {axis = 1 : si32, eps = 9.9999999999999995E-7 : f64, normalized_shape = [1024]} : (tensor<2304x1024xbf16>, tensor<1x1024xbf16>, tensor<1x1024xbf16>, none, none) -> tensor<2304x1024xbf16> loc(#loc654)
    %655 = "top.Weight"() : () -> tensor<1024x4096xbf16> loc(#loc655)
    %656 = "top.Weight"() : () -> tensor<1x4096xbf16> loc(#loc656)
    %657 = "tpu.MatMul"(%654, %655, %656, %0, %0) {do_relu = false, dq_type = "NONE", fuse_rq = false, hdim_is_batch = false, input_zp = 0 : i64, is_lora = false, keep_dims = true, left_reuse = 1 : i64, left_transpose = false, multipliers = [1], output_transpose = false, q_group_size = 0 : i64, quant_mode = #tpu<rq_mode MultiplierShift>, relu_limit = -1.000000e+00 : f64, right_transpose = false, right_zp = 0 : i64, round_mode = #tpu<round_mode HalfAwayFromZero>, rshifts = [0]} : (tensor<2304x1024xbf16>, tensor<1024x4096xbf16>, tensor<1x4096xbf16>, none, none) -> tensor<2304x4096xbf16> loc(#loc657)
    %658 = "tpu.Cast"(%657) {round_mode = #tpu<round_mode HalfAwayFromZero>, with_scale = true} : (tensor<2304x4096xbf16>) -> tensor<2304x4096xf32> loc(#loc658)
    %659 = "tpu.Active"(%658) {mode = #tpu<active_mode TGELU>} : (tensor<2304x4096xf32>) -> tensor<2304x4096xf32> loc(#loc659)
    %660 = "tpu.Cast"(%659) {round_mode = #tpu<round_mode HalfAwayFromZero>, with_scale = true} : (tensor<2304x4096xf32>) -> tensor<2304x4096xbf16> loc(#loc660)
    %661 = "top.Weight"() : () -> tensor<4096x1024xbf16> loc(#loc661)
    %662 = "top.Weight"() : () -> tensor<1x1024xbf16> loc(#loc662)
    %663 = "tpu.MatMul"(%660, %661, %662, %0, %0) {do_relu = false, dq_type = "NONE", fuse_rq = false, hdim_is_batch = false, input_zp = 0 : i64, is_lora = false, keep_dims = true, left_reuse = 1 : i64, left_transpose = false, multipliers = [1], output_transpose = false, q_group_size = 0 : i64, quant_mode = #tpu<rq_mode MultiplierShift>, relu_limit = -1.000000e+00 : f64, right_transpose = false, right_zp = 0 : i64, round_mode = #tpu<round_mode HalfAwayFromZero>, rshifts = [0]} : (tensor<2304x4096xbf16>, tensor<4096x1024xbf16>, tensor<1x1024xbf16>, none, none) -> tensor<2304x1024xbf16> loc(#loc663)
    %664 = "tpu.Add"(%651, %663) {do_relu = false, is_scalar = false, relu_limit = -1.000000e+00 : f64} : (tensor<2304x1024xbf16>, tensor<2304x1024xbf16>) -> tensor<2304x1024xbf16> loc(#loc664)
    %665 = "top.Weight"() : () -> tensor<1x1024xbf16> loc(#loc665)
    %666 = "top.Weight"() : () -> tensor<1x1024xbf16> loc(#loc666)
    %667 = "tpu.LayerNorm"(%664, %665, %666, %0, %0) {axis = 1 : si32, eps = 9.9999999999999995E-7 : f64, normalized_shape = [1024]} : (tensor<2304x1024xbf16>, tensor<1x1024xbf16>, tensor<1x1024xbf16>, none, none) -> tensor<2304x1024xbf16> loc(#loc667)
    %668 = "top.Weight"() : () -> tensor<1024x1024xbf16> loc(#loc668)
    %669 = "top.Weight"() : () -> tensor<1x1024xbf16> loc(#loc669)
    %670 = "tpu.MatMul"(%667, %668, %669, %0, %0) {do_relu = false, dq_type = "NONE", fuse_rq = false, hdim_is_batch = false, input_zp = 0 : i64, is_lora = false, keep_dims = true, left_reuse = 1 : i64, left_transpose = false, multipliers = [1], output_transpose = false, q_group_size = 0 : i64, quant_mode = #tpu<rq_mode MultiplierShift>, relu_limit = -1.000000e+00 : f64, right_transpose = false, right_zp = 0 : i64, round_mode = #tpu<round_mode HalfAwayFromZero>, rshifts = [0]} : (tensor<2304x1024xbf16>, tensor<1024x1024xbf16>, tensor<1x1024xbf16>, none, none) -> tensor<2304x1024xbf16> loc(#loc670)
    %671 = "top.Weight"() : () -> tensor<1024x1024xbf16> loc(#loc671)
    %672 = "top.Weight"() : () -> tensor<1x1024xbf16> loc(#loc672)
    %673 = "tpu.MatMul"(%667, %671, %672, %0, %0) {do_relu = false, dq_type = "NONE", fuse_rq = false, hdim_is_batch = false, input_zp = 0 : i64, is_lora = false, keep_dims = true, left_reuse = 1 : i64, left_transpose = false, multipliers = [1], output_transpose = false, q_group_size = 0 : i64, quant_mode = #tpu<rq_mode MultiplierShift>, relu_limit = -1.000000e+00 : f64, right_transpose = false, right_zp = 0 : i64, round_mode = #tpu<round_mode HalfAwayFromZero>, rshifts = [0]} : (tensor<2304x1024xbf16>, tensor<1024x1024xbf16>, tensor<1x1024xbf16>, none, none) -> tensor<2304x1024xbf16> loc(#loc673)
    %674 = "top.Weight"() : () -> tensor<1024x1024xbf16> loc(#loc674)
    %675 = "top.Weight"() : () -> tensor<1x1024xbf16> loc(#loc675)
    %676 = "tpu.MatMul"(%667, %674, %675, %0, %0) {do_relu = false, dq_type = "NONE", fuse_rq = false, hdim_is_batch = false, input_zp = 0 : i64, is_lora = false, keep_dims = true, left_reuse = 1 : i64, left_transpose = false, multipliers = [1], output_transpose = false, q_group_size = 0 : i64, quant_mode = #tpu<rq_mode MultiplierShift>, relu_limit = -1.000000e+00 : f64, right_transpose = false, right_zp = 0 : i64, round_mode = #tpu<round_mode HalfAwayFromZero>, rshifts = [0]} : (tensor<2304x1024xbf16>, tensor<1024x1024xbf16>, tensor<1x1024xbf16>, none, none) -> tensor<2304x1024xbf16> loc(#loc676)
    %677 = "tpu.Reshape"(%670) {flatten_start_dim = -1 : i64, shape = [1, -1, 16, 64]} : (tensor<2304x1024xbf16>) -> tensor<1x2304x16x64xbf16> loc(#loc677)
    %678 = "tpu.Cast"(%677) {round_mode = #tpu<round_mode HalfAwayFromZero>, with_scale = true} : (tensor<1x2304x16x64xbf16>) -> tensor<1x2304x16x64xf32> loc(#loc678)
    %679 = "tpu.Reshape"(%673) {flatten_start_dim = -1 : i64, shape = [1, -1, 16, 64]} : (tensor<2304x1024xbf16>) -> tensor<1x2304x16x64xbf16> loc(#loc679)
    %680 = "tpu.Cast"(%679) {round_mode = #tpu<round_mode HalfAwayFromZero>, with_scale = true} : (tensor<1x2304x16x64xbf16>) -> tensor<1x2304x16x64xf32> loc(#loc680)
    %681 = "tpu.Reshape"(%676) {flatten_start_dim = -1 : i64, shape = [1, -1, 16, 64]} : (tensor<2304x1024xbf16>) -> tensor<1x2304x16x64xbf16> loc(#loc681)
    %682 = "tpu.Rope"(%678, %24, %19) {add_round_mode = #tpu<round_mode HalfAwayFromZero>, add_saturation = true, add_shift = 0 : si32, force_f32 = true, is_permute_optimize = false, mul1_round_mode = #tpu<round_mode HalfAwayFromZero>, mul1_saturation = true, mul1_shift = 0 : si32, mul2_round_mode = #tpu<round_mode HalfAwayFromZero>, mul2_saturation = true, mul2_shift = 0 : si32, rope_mode = #tpu<rope_mode contiguous_halves>} : (tensor<1x2304x16x64xf32>, tensor<1x2304x1x64xf32>, tensor<1x2304x1x64xf32>) -> tensor<1x2304x16x64xf32> loc(#loc682)
    %683 = "tpu.Cast"(%682) {round_mode = #tpu<round_mode HalfAwayFromZero>, with_scale = true} : (tensor<1x2304x16x64xf32>) -> tensor<1x2304x16x64xbf16> loc(#loc683)
    %684 = "tpu.Rope"(%680, %24, %19) {add_round_mode = #tpu<round_mode HalfAwayFromZero>, add_saturation = true, add_shift = 0 : si32, force_f32 = true, is_permute_optimize = false, mul1_round_mode = #tpu<round_mode HalfAwayFromZero>, mul1_saturation = true, mul1_shift = 0 : si32, mul2_round_mode = #tpu<round_mode HalfAwayFromZero>, mul2_saturation = true, mul2_shift = 0 : si32, rope_mode = #tpu<rope_mode contiguous_halves>} : (tensor<1x2304x16x64xf32>, tensor<1x2304x1x64xf32>, tensor<1x2304x1x64xf32>) -> tensor<1x2304x16x64xf32> loc(#loc684)
    %685 = "tpu.Cast"(%684) {round_mode = #tpu<round_mode HalfAwayFromZero>, with_scale = true} : (tensor<1x2304x16x64xf32>) -> tensor<1x2304x16x64xbf16> loc(#loc685)
…
#loc190 = loc("model.visual.blocks.4.attn.q")
#loc191 = loc("model.visual.blocks.4.attn.k.weight_bf16")
#loc192 = loc("model.visual.blocks.4.attn.k.bias_bf16")
#loc193 = loc("model.visual.blocks.4.attn.k")
#loc194 = loc("model.visual.blocks.4.attn.v.weight_bf16")
#loc195 = loc("model.visual.blocks.4.attn.v.bias_bf16")
#loc196 = loc("model.visual.blocks.4.attn.v")
#loc197 = loc("model.visual.blocks.4.attn.q.reshape")
#loc198 = loc("model.visual.blocks.4.attn.q.reshapemodel.visual.blocks.4.attn.q.rotary_f32")
#loc199 = loc("model.visual.blocks.4.attn.k.reshape")
#loc200 = loc("model.visual.blocks.4.attn.k.reshapemodel.visual.blocks.4.attn.k.rotary_f32")
#loc201 = loc("model.visual.blocks.4.attn.v.reshape")
#loc202 = loc("model.visual.blocks.4.attn.q.rotary")
#loc203 = loc("model.visual.blocks.4.attn.q.rotarymodel.visual.blocks.4.fattention_bf16")
#loc204 = loc("model.visual.blocks.4.attn.k.rotary")
#loc205 = loc("model.visual.blocks.4.attn.k.rotarymodel.visual.blocks.4.fattention_bf16")
#loc206 = loc("model.visual.blocks.4.fattention")
#loc207 = loc("model.visual.blocks.4.fattention.reshape")
#loc208 = loc("model.visual.blocks.4.attn.proj.weight_bf16")
#loc209 = loc("model.visual.blocks.4.attn.proj.bias_bf16")
#loc210 = loc("model.visual.blocks.4.attn.proj")
#loc211 = loc("model.visual.blocks.4.attn.proj.add")
#loc212 = loc("model.visual.blocks.4.norm2.weight_bf16")
#loc213 = loc("model.visual.blocks.4.norm2.bias_bf16")
#loc214 = loc("model.visual.blocks.4.norm2")
#loc215 = loc("model.visual.blocks.4.mlp.linear_fc1.weight_bf16")
#loc216 = loc("model.visual.blocks.4.mlp.linear_fc1.bias_bf16")
#loc217 = loc("model.visual.blocks.4.mlp.linear_fc1")
#loc218 = loc("model.visual.blocks.4.mlp.linear_fc1model.visual.blocks.4.mlp.linear_fc1.gelu_f32")
#loc219 = loc("model.visual.blocks.4.mlp.linear_fc1.gelu")
#loc220 = loc("model.visual.blocks.4.mlp.linear_fc1.gelumodel.visual.blocks.4.mlp.linear_fc2_bf16")
#loc221 = loc("model.visual.blocks.4.mlp.linear_fc2.weight_bf16")
#loc222 = loc("model.visual.blocks.4.mlp.linear_fc2.bias_bf16")
#loc223 = loc("model.visual.blocks.4.mlp.linear_fc2")
#loc224 = loc("model.visual.blocks.4.mlp.linear_fc2.add")
#loc225 = loc("model.visual.blocks.5.norm1.weight_bf16")
#loc226 = loc("model.visual.blocks.5.norm1.bias_bf16")
#loc227 = loc("model.visual.blocks.5.norm1")
#loc228 = loc("model.visual.blocks.5.attn.q.weight_bf16")
#loc229 = loc("model.visual.blocks.5.attn.q.bias_bf16")
#loc230 = loc("model.visual.blocks.5.attn.q")
#loc231 = loc("model.visual.blocks.5.attn.k.weight_bf16")
#loc232 = loc("model.visual.blocks.5.attn.k.bias_bf16")
#loc233 = loc("model.visual.blocks.5.attn.k")
#loc234 = loc("model.visual.blocks.5.attn.v.weight_bf16")
#loc235 = loc("model.visual.blocks.5.attn.v.bias_bf16")
#loc236 = loc("model.visual.blocks.5.attn.v")
#loc237 = loc("model.visual.blocks.5.attn.q.reshape")
#loc238 = loc("model.visual.blocks.5.attn.q.reshapemodel.visual.blocks.5.attn.q.rotary_f32")
#loc239 = loc("model.visual.blocks.5.attn.k.reshape")
#loc240 = loc("model.visual.blocks.5.attn.k.reshapemodel.visual.blocks.5.attn.k.rotary_f32")
#loc241 = loc("model.visual.blocks.5.attn.v.reshape")
#loc242 = loc("model.visual.blocks.5.attn.q.rotary")
#loc243 = loc("model.visual.blocks.5.attn.q.rotarymodel.visual.blocks.5.fattention_bf16")
#loc244 = loc("model.visual.blocks.5.attn.k.rotary")
#loc245 = loc("model.visual.blocks.5.attn.k.rotarymodel.visual.blocks.5.fattention_bf16")
#loc246 = loc("model.visual.blocks.5.fattention")
#loc247 = loc("model.visual.blocks.5.fattention.reshape")
#loc248 = loc("model.visual.blocks.5.attn.proj.weight_bf16")
#loc249 = loc("model.visual.blocks.5.attn.proj.bias_bf16")
#loc250 = loc("model.visual.blocks.5.attn.proj")
#loc251 = loc("model.visual.blocks.5.attn.proj.add")
#loc252 = loc("model.visual.blocks.5.norm2.weight_bf16")
#loc253 = loc("model.visual.blocks.5.norm2.bias_bf16")
#loc254 = loc("model.visual.blocks.5.norm2")
#loc255 = loc("model.visual.blocks.5.mlp.linear_fc1.weight_bf16")
#loc256 = loc("model.visual.blocks.5.mlp.linear_fc1.bias_bf16")
#loc257 = loc("model.visual.blocks.5.mlp.linear_fc1")
#loc258 = loc("model.visual.blocks.5.mlp.linear_fc1model.visual.blocks.5.mlp.linear_fc1.gelu_f32")
#loc259 = loc("model.visual.blocks.5.mlp.linear_fc1.gelu")
#loc260 = loc("model.visual.blocks.5.mlp.linear_fc1.gelumodel.visual.blocks.5.mlp.linear_fc2_bf16")
#loc261 = loc("model.visual.blocks.5.mlp.linear_fc2.weight_bf16")
#loc262 = loc("model.visual.blocks.5.mlp.linear_fc2.bias_bf16")
#loc263 = loc("model.visual.blocks.5.mlp.linear_fc2")
#loc264 = loc("model.visual.blocks.5.mlp.linear_fc2.add")
#loc265 = loc("model.visual.blocks.6.norm1.weight_bf16")
#loc266 = loc("model.visual.blocks.6.norm1.bias_bf16")
#loc267 = loc("model.visual.blocks.6.norm1")
#loc268 = loc("model.visual.blocks.6.attn.q.weight_bf16")
#loc269 = loc("model.visual.blocks.6.attn.q.bias_bf16")
#loc270 = loc("model.visual.blocks.6.attn.q")
#loc271 = loc("model.visual.blocks.6.attn.k.weight_bf16")
#loc272 = loc("model.visual.blocks.6.attn.k.bias_bf16")
#loc273 = loc("model.visual.blocks.6.attn.k")
#loc274 = loc("model.visual.blocks.6.attn.v.weight_bf16")
#loc275 = loc("model.visual.blocks.6.attn.v.bias_bf16")
#loc276 = loc("model.visual.blocks.6.attn.v")
#loc277 = loc("model.visual.blocks.6.attn.q.reshape")
#loc278 = loc("model.visual.blocks.6.attn.q.reshapemodel.visual.blocks.6.attn.q.rotary_f32")
#loc279 = loc("model.visual.blocks.6.attn.k.reshape")
#loc280 = loc("model.visual.blocks.6.attn.k.reshapemodel.visual.blocks.6.attn.k.rotary_f32")
#loc281 = loc("model.visual.blocks.6.attn.v.reshape")
#loc282 = loc("model.visual.blocks.6.attn.q.rotary")
#loc283 = loc("model.visual.blocks.6.attn.q.rotarymodel.visual.blocks.6.fattention_bf16")
#loc284 = loc("model.visual.blocks.6.attn.k.rotary")
#loc285 = loc("model.visual.blocks.6.attn.k.rotarymodel.visual.blocks.6.fattention_bf16")
#loc286 = loc("model.visual.blocks.6.fattention")
#loc287 = loc("model.visual.blocks.6.fattention.reshape")
#loc288 = loc("model.visual.blocks.6.attn.proj.weight_bf16")
#loc289 = loc("model.visual.blocks.6.attn.proj.bias_bf16")
#loc290 = loc("model.visual.blocks.6.attn.proj")
#loc291 = loc("model.visual.blocks.6.attn.proj.add")
#loc292 = loc("model.visual.blocks.6.norm2.weight_bf16")
#loc293 = loc("model.visual.blocks.6.norm2.bias_bf16")
#loc294 = loc("model.visual.blocks.6.norm2")
#loc295 = loc("model.visual.blocks.6.mlp.linear_fc1.weight_bf16")
#loc296 = loc("model.visual.blocks.6.mlp.linear_fc1.bias_bf16")
#loc297 = loc("model.visual.blocks.6.mlp.linear_fc1")
#loc298 = loc("model.visual.blocks.6.mlp.linear_fc1model.visual.blocks.6.mlp.linear_fc1.gelu_f32")
#loc299 = loc("model.visual.blocks.6.mlp.linear_fc1.gelu")
#loc300 = loc("model.visual.blocks.6.mlp.linear_fc1.gelumodel.visual.blocks.6.mlp.linear_fc2_bf16")
#loc301 = loc("model.visual.blocks.6.mlp.linear_fc2.weight_bf16")
#loc302 = loc("model.visual.blocks.6.mlp.linear_fc2.bias_bf16")
#loc303 = loc("model.visual.blocks.6.mlp.linear_fc2")
#loc304 = loc("model.visual.blocks.6.mlp.linear_fc2.add")
#loc305 = loc("model.visual.blocks.7.norm1.weight_bf16")
#loc306 = loc("model.visual.blocks.7.norm1.bias_bf16")
#loc307 = loc("model.visual.blocks.7.norm1")
#loc308 = loc("model.visual.blocks.7.attn.q.weight_bf16")
#loc309 = loc("model.visual.blocks.7.attn.q.bias_bf16")
#loc310 = loc("model.visual.blocks.7.attn.q")
#loc311 = loc("model.visual.blocks.7.attn.k.weight_bf16")
#loc312 = loc("model.visual.blocks.7.attn.k.bias_bf16")
#loc313 = loc("model.visual.blocks.7.attn.k")
#loc314 = loc("model.visual.blocks.7.attn.v.weight_bf16")
#loc315 = loc("model.visual.blocks.7.attn.v.bias_bf16")
#loc316 = loc("model.visual.blocks.7.attn.v")
#loc317 = loc("model.visual.blocks.7.attn.q.reshape")
#loc318 = loc("model.visual.blocks.7.attn.q.reshapemodel.visual.blocks.7.attn.q.rotary_f32")
#loc319 = loc("model.visual.blocks.7.attn.k.reshape")
#loc320 = loc("model.visual.blocks.7.attn.k.reshapemodel.visual.blocks.7.attn.k.rotary_f32")
#loc321 = loc("model.visual.blocks.7.attn.v.reshape")
#loc322 = loc("model.visual.blocks.7.attn.q.rotary")
#loc323 = loc("model.visual.blocks.7.attn.q.rotarymodel.visual.blocks.7.fattention_bf16")
#loc324 = loc("model.visual.blocks.7.attn.k.rotary")
#loc325 = loc("model.visual.blocks.7.attn.k.rotarymodel.visual.blocks.7.fattention_bf16")
#loc326 = loc("model.visual.blocks.7.fattention")
#loc327 = loc("model.visual.blocks.7.fattention.reshape")
#loc328 = loc("model.visual.blocks.7.attn.proj.weight_bf16")
#loc329 = loc("model.visual.blocks.7.attn.proj.bias_bf16")
#loc330 = loc("model.visual.blocks.7.attn.proj")
#loc331 = loc("model.visual.blocks.7.attn.proj.add")
#loc332 = loc("model.visual.blocks.7.norm2.weight_bf16")
#loc333 = loc("model.visual.blocks.7.norm2.bias_bf16")
#loc334 = loc("model.visual.blocks.7.norm2")
#loc335 = loc("model.visual.blocks.7.mlp.linear_fc1.weight_bf16")
#loc336 = loc("model.visual.blocks.7.mlp.linear_fc1.bias_bf16")
#loc337 = loc("model.visual.blocks.7.mlp.linear_fc1")
#loc338 = loc("model.visual.blocks.7.mlp.linear_fc1model.visual.blocks.7.mlp.linear_fc1.gelu_f32")
#loc339 = loc("model.visual.blocks.7.mlp.linear_fc1.gelu")
#loc340 = loc("model.visual.blocks.7.mlp.linear_fc1.gelumodel.visual.blocks.7.mlp.linear_fc2_bf16")
#loc341 = loc("model.visual.blocks.7.mlp.linear_fc2.weight_bf16")
#loc342 = loc("model.visual.blocks.7.mlp.linear_fc2.bias_bf16")
#loc343 = loc("model.visual.blocks.7.mlp.linear_fc2")
#loc344 = loc("model.visual.blocks.7.mlp.linear_fc2.add")
#loc345 = loc("model.visual.blocks.8.norm1.weight_bf16")
#loc346 = loc("model.visual.blocks.8.norm1.bias_bf16")
#loc347 = loc("model.visual.blocks.8.norm1")
#loc348 = loc("model.visual.blocks.8.attn.q.weight_bf16")
#loc349 = loc("model.visual.blocks.8.attn.q.bias_bf16")
#loc350 = loc("model.visual.blocks.8.attn.q")
#loc351 = loc("model.visual.blocks.8.attn.k.weight_bf16")
#loc352 = loc("model.visual.blocks.8.attn.k.bias_bf16")
#loc353 = loc("model.visual.blocks.8.attn.k")
#loc354 = loc("model.visual.blocks.8.attn.v.weight_bf16")
#loc355 = loc("model.visual.blocks.8.attn.v.bias_bf16")
#loc356 = loc("model.visual.blocks.8.attn.v")
#loc357 = loc("model.visual.blocks.8.attn.q.reshape")
#loc358 = loc("model.visual.blocks.8.attn.q.reshapemodel.visual.blocks.8.attn.q.rotary_f32")
#loc359 = loc("model.visual.blocks.8.attn.k.reshape")
#loc360 = loc("model.visual.blocks.8.attn.k.reshapemodel.visual.blocks.8.attn.k.rotary_f32")
#loc361 = loc("model.visual.blocks.8.attn.v.reshape")
#loc362 = loc("model.visual.blocks.8.attn.q.rotary")
#loc363 = loc("model.visual.blocks.8.attn.q.rotarymodel.visual.blocks.8.fattention_bf16")
#loc364 = loc("model.visual.blocks.8.attn.k.rotary")
#loc365 = loc("model.visual.blocks.8.attn.k.rotarymodel.visual.blocks.8.fattention_bf16")
#loc366 = loc("model.visual.blocks.8.fattention")
#loc367 = loc("model.visual.blocks.8.fattention.reshape")
#loc368 = loc("model.visual.blocks.8.attn.proj.weight_bf16")
#loc369 = loc("model.visual.blocks.8.attn.proj.bias_bf16")
#loc370 = loc("model.visual.blocks.8.attn.proj")
#loc371 = loc("model.visual.blocks.8.attn.proj.add")
#loc372 = loc("model.visual.blocks.8.norm2.weight_bf16")
#loc373 = loc("model.visual.blocks.8.norm2.bias_bf16")
#loc374 = loc("model.visual.blocks.8.norm2")
#loc375 = loc("model.visual.blocks.8.mlp.linear_fc1.weight_bf16")
#loc376 = loc("model.visual.blocks.8.mlp.linear_fc1.bias_bf16")
#loc377 = loc("model.visual.blocks.8.mlp.linear_fc1")
#loc378 = loc("model.visual.blocks.8.mlp.linear_fc1model.visual.blocks.8.mlp.linear_fc1.gelu_f32")
#loc379 = loc("model.visual.blocks.8.mlp.linear_fc1.gelu")
#loc380 = loc("model.visual.blocks.8.mlp.linear_fc1.gelumodel.visual.blocks.8.mlp.linear_fc2_bf16")
#loc381 = loc("model.visual.blocks.8.mlp.linear_fc2.weight_bf16")
#loc382 = loc("model.visual.blocks.8.mlp.linear_fc2.bias_bf16")
#loc383 = loc("model.visual.blocks.8.mlp.linear_fc2")
#loc384 = loc("model.visual.blocks.8.mlp.linear_fc2.add")
#loc385 = loc("model.visual.blocks.9.norm1.weight_bf16")
#loc386 = loc("model.visual.blocks.9.norm1.bias_bf16")
#loc387 = loc("model.visual.blocks.9.norm1")
#loc388 = loc("model.visual.blocks.9.attn.q.weight_bf16")
#loc389 = loc("model.visual.blocks.9.attn.q.bias_bf16")
#loc390 = loc("model.visual.blocks.9.attn.q")
#loc391 = loc("model.visual.blocks.9.attn.k.weight_bf16")
#loc392 = loc("model.visual.blocks.9.attn.k.bias_bf16")
#loc393 = loc("model.visual.blocks.9.attn.k")
#loc394 = loc("model.visual.blocks.9.attn.v.weight_bf16")
#loc395 = loc("model.visual.blocks.9.attn.v.bias_bf16")
#loc396 = loc("model.visual.blocks.9.attn.v")
#loc397 = loc("model.visual.blocks.9.attn.q.reshape")
#loc398 = loc("model.visual.blocks.9.attn.q.reshapemodel.visual.blocks.9.attn.q.rotary_f32")
#loc399 = loc("model.visual.blocks.9.attn.k.reshape")
#loc400 = loc("model.visual.blocks.9.attn.k.reshapemodel.visual.blocks.9.attn.k.rotary_f32")
#loc401 = loc("model.visual.blocks.9.attn.v.reshape")
#loc402 = loc("model.visual.blocks.9.attn.q.rotary")
#loc403 = loc("model.visual.blocks.9.attn.q.rotarymodel.visual.blocks.9.fattention_bf16")
#loc404 = loc("model.visual.blocks.9.attn.k.rotary")
#loc405 = loc("model.visual.blocks.9.attn.k.rotarymodel.visual.blocks.9.fattention_bf16")
#loc406 = loc("model.visual.blocks.9.fattention")
#loc407 = loc("model.visual.blocks.9.fattention.reshape")
#loc408 = loc("model.visual.blocks.9.attn.proj.weight_bf16")
#loc409 = loc("model.visual.blocks.9.attn.proj.bias_bf16")
#loc410 = loc("model.visual.blocks.9.attn.proj")
#loc411 = loc("model.visual.blocks.9.attn.proj.add")
#loc412 = loc("model.visual.blocks.9.norm2.weight_bf16")
#loc413 = loc("model.visual.blocks.9.norm2.bias_bf16")
#loc414 = loc("model.visual.blocks.9.norm2")
#loc415 = loc("model.visual.blocks.9.mlp.linear_fc1.weight_bf16")
#loc416 = loc("model.visual.blocks.9.mlp.linear_fc1.bias_bf16")
#loc417 = loc("model.visual.blocks.9.mlp.linear_fc1")
#loc418 = loc("model.visual.blocks.9.mlp.linear_fc1model.visual.blocks.9.mlp.linear_fc1.gelu_f32")
#loc419 = loc("model.visual.blocks.9.mlp.linear_fc1.gelu")
#loc420 = loc("model.visual.blocks.9.mlp.linear_fc1.gelumodel.visual.blocks.9.mlp.linear_fc2_bf16")
#loc421 = loc("model.visual.blocks.9.mlp.linear_fc2.weight_bf16")
#loc422 = loc("model.visual.blocks.9.mlp.linear_fc2.bias_bf16")
#loc423 = loc("model.visual.blocks.9.mlp.linear_fc2")
#loc424 = loc("model.visual.blocks.9.mlp.linear_fc2.add")
#loc425 = loc("model.visual.blocks.10.norm1.weight_bf16")
#loc426 = loc("model.visual.blocks.10.norm1.bias_bf16")
#loc427 = loc("model.visual.blocks.10.norm1")
#loc428 = loc("model.visual.blocks.10.attn.q.weight_bf16")
#loc429 = loc("model.visual.blocks.10.attn.q.bias_bf16")
#loc430 = loc("model.visual.blocks.10.attn.q")
#loc431 = loc("model.visual.blocks.10.attn.k.weight_bf16")
#loc432 = loc("model.visual.blocks.10.attn.k.bias_bf16")
#loc433 = loc("model.visual.blocks.10.attn.k")
#loc434 = loc("model.visual.blocks.10.attn.v.weight_bf16")
#loc435 = loc("model.visual.blocks.10.attn.v.bias_bf16")
#loc436 = loc("model.visual.blocks.10.attn.v")
#loc437 = loc("model.visual.blocks.10.attn.q.reshape")
#loc438 = loc("model.visual.blocks.10.attn.q.reshapemodel.visual.blocks.10.attn.q.rotary_f32")
#loc439 = loc("model.visual.blocks.10.attn.k.reshape")
#loc440 = loc("model.visual.blocks.10.attn.k.reshapemodel.visual.blocks.10.attn.k.rotary_f32")
#loc441 = loc("model.visual.blocks.10.attn.v.reshape")
#loc442 = loc("model.visual.blocks.10.attn.q.rotary")
#loc443 = loc("model.visual.blocks.10.attn.q.rotarymodel.visual.blocks.10.fattention_bf16")
#loc444 = loc("model.visual.blocks.10.attn.k.rotary")
#loc445 = loc("model.visual.blocks.10.attn.k.rotarymodel.visual.blocks.10.fattention_bf16")
#loc446 = loc("model.visual.blocks.10.fattention")
#loc447 = loc("model.visual.blocks.10.fattention.reshape")
#loc448 = loc("model.visual.blocks.10.attn.proj.weight_bf16")
#loc449 = loc("model.visual.blocks.10.attn.proj.bias_bf16")
#loc450 = loc("model.visual.blocks.10.attn.proj")
#loc451 = loc("model.visual.blocks.10.attn.proj.add")
#loc452 = loc("model.visual.blocks.10.norm2.weight_bf16")
#loc453 = loc("model.visual.blocks.10.norm2.bias_bf16")
#loc454 = loc("model.visual.blocks.10.norm2")
#loc455 = loc("model.visual.blocks.10.mlp.linear_fc1.weight_bf16")
#loc456 = loc("model.visual.blocks.10.mlp.linear_fc1.bias_bf16")
#loc457 = loc("model.visual.blocks.10.mlp.linear_fc1")
#loc458 = loc("model.visual.blocks.10.mlp.linear_fc1model.visual.blocks.10.mlp.linear_fc1.gelu_f32")
#loc459 = loc("model.visual.blocks.10.mlp.linear_fc1.gelu")
#loc460 = loc("model.visual.blocks.10.mlp.linear_fc1.gelumodel.visual.blocks.10.mlp.linear_fc2_bf16")
#loc461 = loc("model.visual.blocks.10.mlp.linear_fc2.weight_bf16")
#loc462 = loc("model.visual.blocks.10.mlp.linear_fc2.bias_bf16")
#loc463 = loc("model.visual.blocks.10.mlp.linear_fc2")
#loc464 = loc("model.visual.blocks.10.mlp.linear_fc2.add")
#loc465 = loc("model.visual.blocks.11.norm1.weight_bf16")
#loc466 = loc("model.visual.blocks.11.norm1.bias_bf16")
#loc467 = loc("model.visual.blocks.11.norm1")
#loc468 = loc("model.visual.blocks.11.attn.q.weight_bf16")
#loc469 = loc("model.visual.blocks.11.attn.q.bias_bf16")
#loc470 = loc("model.visual.blocks.11.attn.q")
#loc471 = loc("model.visual.blocks.11.attn.k.weight_bf16")
#loc472 = loc("model.visual.blocks.11.attn.k.bias_bf16")
#loc473 = loc("model.visual.blocks.11.attn.k")
#loc474 = loc("model.visual.blocks.11.attn.v.weight_bf16")
#loc475 = loc("model.visual.blocks.11.attn.v.bias_bf16")
#loc476 = loc("model.visual.blocks.11.attn.v")
#loc477 = loc("model.visual.blocks.11.attn.q.reshape")
#loc478 = loc("model.visual.blocks.11.attn.q.reshapemodel.visual.blocks.11.attn.q.rotary_f32")
#loc479 = loc("model.visual.blocks.11.attn.k.reshape")
#loc480 = loc("model.visual.blocks.11.attn.k.reshapemodel.visual.blocks.11.attn.k.rotary_f32")
#loc481 = loc("model.visual.blocks.11.attn.v.reshape")
#loc482 = loc("model.visual.blocks.11.attn.q.rotary")
#loc483 = loc("model.visual.blocks.11.attn.q.rotarymodel.visual.blocks.11.fattention_bf16")
#loc484 = loc("model.visual.blocks.11.attn.k.rotary")
#loc485 = loc("model.visual.blocks.11.attn.k.rotarymodel.visual.blocks.11.fattention_bf16")
#loc486 = loc("model.visual.blocks.11.fattention")
#loc487 = loc("model.visual.blocks.11.fattention.reshape")
#loc488 = loc("model.visual.blocks.11.attn.proj.weight_bf16")
#loc489 = loc("model.visual.blocks.11.attn.proj.bias_bf16")
#loc490 = loc("model.visual.blocks.11.attn.proj")
#loc491 = loc("model.visual.blocks.11.attn.proj.add")
#loc492 = loc("model.visual.blocks.11.norm2.weight_bf16")
#loc493 = loc("model.visual.blocks.11.norm2.bias_bf16")
#loc494 = loc("model.visual.blocks.11.norm2")
#loc495 = loc("model.visual.blocks.11.mlp.linear_fc1.weight_bf16")
#loc496 = loc("model.visual.blocks.11.mlp.linear_fc1.bias_bf16")
#loc497 = loc("model.visual.blocks.11.mlp.linear_fc1")
#loc498 = loc("model.visual.blocks.11.mlp.linear_fc1model.visual.blocks.11.mlp.linear_fc1.gelu_f32")
#loc499 = loc("model.visual.blocks.11.mlp.linear_fc1.gelu")
#loc500 = loc("model.visual.blocks.11.mlp.linear_fc1.gelumodel.visual.blocks.11.mlp.linear_fc2_bf16")
#loc501 = loc("model.visual.blocks.11.mlp.linear_fc2.weight_bf16")
#loc502 = loc("model.visual.blocks.11.mlp.linear_fc2.bias_bf16")
#loc503 = loc("model.visual.blocks.11.mlp.linear_fc2")
#loc504 = loc("model.visual.blocks.11.mlp.linear_fc2.add")
#loc505 = loc("model.visual.blocks.12.norm1.weight_bf16")
#loc506 = loc("model.visual.blocks.12.norm1.bias_bf16")
#loc507 = loc("model.visual.blocks.12.norm1")
#loc508 = loc("model.visual.blocks.12.attn.q.weight_bf16")
#loc509 = loc("model.visual.blocks.12.attn.q.bias_bf16")
#loc510 = loc("model.visual.blocks.12.attn.q")
#loc511 = loc("model.visual.blocks.12.attn.k.weight_bf16")
#loc512 = loc("model.visual.blocks.12.attn.k.bias_bf16")
#loc513 = loc("model.visual.blocks.12.attn.k")
#loc514 = loc("model.visual.blocks.12.attn.v.weight_bf16")
#loc515 = loc("model.visual.blocks.12.attn.v.bias_bf16")
#loc516 = loc("model.visual.blocks.12.attn.v")
#loc517 = loc("model.visual.blocks.12.attn.q.reshape")
#loc518 = loc("model.visual.blocks.12.attn.q.reshapemodel.visual.blocks.12.attn.q.rotary_f32")
#loc519 = loc("model.visual.blocks.12.attn.k.reshape")
#loc520 = loc("model.visual.blocks.12.attn.k.reshapemodel.visual.blocks.12.attn.k.rotary_f32")
#loc521 = loc("model.visual.blocks.12.attn.v.reshape")
#loc522 = loc("model.visual.blocks.12.attn.q.rotary")
#loc523 = loc("model.visual.blocks.12.attn.q.rotarymodel.visual.blocks.12.fattention_bf16")
#loc524 = loc("model.visual.blocks.12.attn.k.rotary")
#loc525 = loc("model.visual.blocks.12.attn.k.rotarymodel.visual.blocks.12.fattention_bf16")
#loc526 = loc("model.visual.blocks.12.fattention")
#loc527 = loc("model.visual.blocks.12.fattention.reshape")
#loc528 = loc("model.visual.blocks.12.attn.proj.weight_bf16")
#loc529 = loc("model.visual.blocks.12.attn.proj.bias_bf16")
#loc530 = loc("model.visual.blocks.12.attn.proj")
#loc531 = loc("model.visual.blocks.12.attn.proj.add")
#loc532 = loc("model.visual.blocks.12.norm2.weight_bf16")
#loc533 = loc("model.visual.blocks.12.norm2.bias_bf16")
#loc534 = loc("model.visual.blocks.12.norm2")
#loc535 = loc("model.visual.blocks.12.mlp.linear_fc1.weight_bf16")
#loc536 = loc("model.visual.blocks.12.mlp.linear_fc1.bias_bf16")
#loc537 = loc("model.visual.blocks.12.mlp.linear_fc1")
#loc538 = loc("model.visual.blocks.12.mlp.linear_fc1model.visual.blocks.12.mlp.linear_fc1.gelu_f32")
#loc539 = loc("model.visual.blocks.12.mlp.linear_fc1.gelu")
#loc540 = loc("model.visual.blocks.12.mlp.linear_fc1.gelumodel.visual.blocks.12.mlp.linear_fc2_bf16")
#loc541 = loc("model.visual.blocks.12.mlp.linear_fc2.weight_bf16")
#loc542 = loc("model.visual.blocks.12.mlp.linear_fc2.bias_bf16")
#loc543 = loc("model.visual.blocks.12.mlp.linear_fc2")
#loc544 = loc("model.visual.blocks.12.mlp.linear_fc2.add")
#loc545 = loc("model.visual.blocks.13.norm1.weight_bf16")
#loc546 = loc("model.visual.blocks.13.norm1.bias_bf16")
#loc547 = loc("model.visual.blocks.13.norm1")
#loc548 = loc("model.visual.blocks.13.attn.q.weight_bf16")
#loc549 = loc("model.visual.blocks.13.attn.q.bias_bf16")
#loc550 = loc("model.visual.blocks.13.attn.q")
#loc551 = loc("model.visual.blocks.13.attn.k.weight_bf16")
#loc552 = loc("model.visual.blocks.13.attn.k.bias_bf16")
#loc553 = loc("model.visual.blocks.13.attn.k")
#loc554 = loc("model.visual.blocks.13.attn.v.weight_bf16")
#loc555 = loc("model.visual.blocks.13.attn.v.bias_bf16")
#loc556 = loc("model.visual.blocks.13.attn.v")
#loc557 = loc("model.visual.blocks.13.attn.q.reshape")
#loc558 = loc("model.visual.blocks.13.attn.q.reshapemodel.visual.blocks.13.attn.q.rotary_f32")
#loc559 = loc("model.visual.blocks.13.attn.k.reshape")
#loc560 = loc("model.visual.blocks.13.attn.k.reshapemodel.visual.blocks.13.attn.k.rotary_f32")
#loc561 = loc("model.visual.blocks.13.attn.v.reshape")
#loc562 = loc("model.visual.blocks.13.attn.q.rotary")
#loc563 = loc("model.visual.blocks.13.attn.q.rotarymodel.visual.blocks.13.fattention_bf16")
#loc564 = loc("model.visual.blocks.13.attn.k.rotary")
#loc565 = loc("model.visual.blocks.13.attn.k.rotarymodel.visual.blocks.13.fattention_bf16")
#loc566 = loc("model.visual.blocks.13.fattention")
#loc567 = loc("model.visual.blocks.13.fattention.reshape")
#loc568 = loc("model.visual.blocks.13.attn.proj.weight_bf16")
#loc569 = loc("model.visual.blocks.13.attn.proj.bias_bf16")
#loc570 = loc("model.visual.blocks.13.attn.proj")
#loc571 = loc("model.visual.blocks.13.attn.proj.add")
#loc572 = loc("model.visual.blocks.13.norm2.weight_bf16")
#loc573 = loc("model.visual.blocks.13.norm2.bias_bf16")
#loc574 = loc("model.visual.blocks.13.norm2")
#loc575 = loc("model.visual.blocks.13.mlp.linear_fc1.weight_bf16")
#loc576 = loc("model.visual.blocks.13.mlp.linear_fc1.bias_bf16")
#loc577 = loc("model.visual.blocks.13.mlp.linear_fc1")
#loc578 = loc("model.visual.blocks.13.mlp.linear_fc1model.visual.blocks.13.mlp.linear_fc1.gelu_f32")
#loc579 = loc("model.visual.blocks.13.mlp.linear_fc1.gelu")
#loc580 = loc("model.visual.blocks.13.mlp.linear_fc1.gelumodel.visual.blocks.13.mlp.linear_fc2_bf16")
#loc581 = loc("model.visual.blocks.13.mlp.linear_fc2.weight_bf16")
#loc582 = loc("model.visual.blocks.13.mlp.linear_fc2.bias_bf16")
#loc583 = loc("model.visual.blocks.13.mlp.linear_fc2")
#loc584 = loc("model.visual.blocks.13.mlp.linear_fc2.add")
#loc585 = loc("model.visual.blocks.14.norm1.weight_bf16")
#loc586 = loc("model.visual.blocks.14.norm1.bias_bf16")
#loc587 = loc("model.visual.blocks.14.norm1")
#loc588 = loc("model.visual.blocks.14.attn.q.weight_bf16")
#loc589 = loc("model.visual.blocks.14.attn.q.bias_bf16")
#loc590 = loc("model.visual.blocks.14.attn.q")
#loc591 = loc("model.visual.blocks.14.attn.k.weight_bf16")
#loc592 = loc("model.visual.blocks.14.attn.k.bias_bf16")
#loc593 = loc("model.visual.blocks.14.attn.k")
#loc594 = loc("model.visual.blocks.14.attn.v.weight_bf16")
#loc595 = loc("model.visual.blocks.14.attn.v.bias_bf16")
#loc596 = loc("model.visual.blocks.14.attn.v")
#loc597 = loc("model.visual.blocks.14.attn.q.reshape")
#loc598 = loc("model.visual.blocks.14.attn.q.reshapemodel.visual.blocks.14.attn.q.rotary_f32")
#loc599 = loc("model.visual.blocks.14.attn.k.reshape")
#loc600 = loc("model.visual.blocks.14.attn.k.reshapemodel.visual.blocks.14.attn.k.rotary_f32")
#loc601 = loc("model.visual.blocks.14.attn.v.reshape")
#loc602 = loc("model.visual.blocks.14.attn.q.rotary")
#loc603 = loc("model.visual.blocks.14.attn.q.rotarymodel.visual.blocks.14.fattention_bf16")
#loc604 = loc("model.visual.blocks.14.attn.k.rotary")
#loc605 = loc("model.visual.blocks.14.attn.k.rotarymodel.visual.blocks.14.fattention_bf16")
#loc606 = loc("model.visual.blocks.14.fattention")
#loc607 = loc("model.visual.blocks.14.fattention.reshape")
#loc608 = loc("model.visual.blocks.14.attn.proj.weight_bf16")
#loc609 = loc("model.visual.blocks.14.attn.proj.bias_bf16")
#loc610 = loc("model.visual.blocks.14.attn.proj")
#loc611 = loc("model.visual.blocks.14.attn.proj.add")
#loc612 = loc("model.visual.blocks.14.norm2.weight_bf16")
#loc613 = loc("model.visual.blocks.14.norm2.bias_bf16")
#loc614 = loc("model.visual.blocks.14.norm2")
#loc615 = loc("model.visual.blocks.14.mlp.linear_fc1.weight_bf16")
#loc616 = loc("model.visual.blocks.14.mlp.linear_fc1.bias_bf16")
#loc617 = loc("model.visual.blocks.14.mlp.linear_fc1")
#loc618 = loc("model.visual.blocks.14.mlp.linear_fc1model.visual.blocks.14.mlp.linear_fc1.gelu_f32")
#loc619 = loc("model.visual.blocks.14.mlp.linear_fc1.gelu")
#loc620 = loc("model.visual.blocks.14.mlp.linear_fc1.gelumodel.visual.blocks.14.mlp.linear_fc2_bf16")
#loc621 = loc("model.visual.blocks.14.mlp.linear_fc2.weight_bf16")
#loc622 = loc("model.visual.blocks.14.mlp.linear_fc2.bias_bf16")
#loc623 = loc("model.visual.blocks.14.mlp.linear_fc2")
#loc624 = loc("model.visual.blocks.14.mlp.linear_fc2.add")
#loc625 = loc("model.visual.blocks.15.norm1.weight_bf16")
#loc626 = loc("model.visual.blocks.15.norm1.bias_bf16")
#loc627 = loc("model.visual.blocks.15.norm1")
#loc628 = loc("model.visual.blocks.15.attn.q.weight_bf16")
#loc629 = loc("model.visual.blocks.15.attn.q.bias_bf16")
#loc630 = loc("model.visual.blocks.15.attn.q")
#loc631 = loc("model.visual.blocks.15.attn.k.weight_bf16")
#loc632 = loc("model.visual.blocks.15.attn.k.bias_bf16")
#loc633 = loc("model.visual.blocks.15.attn.k")
#loc634 = loc("model.visual.blocks.15.attn.v.weight_bf16")
#loc635 = loc("model.visual.blocks.15.attn.v.bias_bf16")
#loc636 = loc("model.visual.blocks.15.attn.v")
#loc637 = loc("model.visual.blocks.15.attn.q.reshape")
#loc638 = loc("model.visual.blocks.15.attn.q.reshapemodel.visual.blocks.15.attn.q.rotary_f32")
#loc639 = loc("model.visual.blocks.15.attn.k.reshape")
#loc640 = loc("model.visual.blocks.15.attn.k.reshapemodel.visual.blocks.15.attn.k.rotary_f32")
#loc641 = loc("model.visual.blocks.15.attn.v.reshape")
#loc642 = loc("model.visual.blocks.15.attn.q.rotary")
#loc643 = loc("model.visual.blocks.15.attn.q.rotarymodel.visual.blocks.15.fattention_bf16")
#loc644 = loc("model.visual.blocks.15.attn.k.rotary")
#loc645 = loc("model.visual.blocks.15.attn.k.rotarymodel.visual.blocks.15.fattention_bf16")
#loc646 = loc("model.visual.blocks.15.fattention")
#loc647 = loc("model.visual.blocks.15.fattention.reshape")
#loc648 = loc("model.visual.blocks.15.attn.proj.weight_bf16")
#loc649 = loc("model.visual.blocks.15.attn.proj.bias_bf16")
#loc650 = loc("model.visual.blocks.15.attn.proj")
#loc651 = loc("model.visual.blocks.15.attn.proj.add")
#loc652 = loc("model.visual.blocks.15.norm2.weight_bf16")
#loc653 = loc("model.visual.blocks.15.norm2.bias_bf16")
#loc654 = loc("model.visual.blocks.15.norm2")
#loc655 = loc("model.visual.blocks.15.mlp.linear_fc1.weight_bf16")
#loc656 = loc("model.visual.blocks.15.mlp.linear_fc1.bias_bf16")
#loc657 = loc("model.visual.blocks.15.mlp.linear_fc1")
#loc658 = loc("model.visual.blocks.15.mlp.linear_fc1model.visual.blocks.15.mlp.linear_fc1.gelu_f32")
#loc659 = loc("model.visual.blocks.15.mlp.linear_fc1.gelu")
#loc660 = loc("model.visual.blocks.15.mlp.linear_fc1.gelumodel.visual.blocks.15.mlp.linear_fc2_bf16")
#loc661 = loc("model.visual.blocks.15.mlp.linear_fc2.weight_bf16")
#loc662 = loc("model.visual.blocks.15.mlp.linear_fc2.bias_bf16")
#loc663 = loc("model.visual.blocks.15.mlp.linear_fc2")
#loc664 = loc("model.visual.blocks.15.mlp.linear_fc2.add")
#loc665 = loc("model.visual.blocks.16.norm1.weight_bf16")
#loc666 = loc("model.visual.blocks.16.norm1.bias_bf16")
#loc667 = loc("model.visual.blocks.16.norm1")
#loc668 = loc("model.visual.blocks.16.attn.q.weight_bf16")
#loc669 = loc("model.visual.blocks.16.attn.q.bias_bf16")
#loc670 = loc("model.visual.blocks.16.attn.q")
#loc671 = loc("model.visual.blocks.16.attn.k.weight_bf16")
#loc672 = loc("model.visual.blocks.16.attn.k.bias_bf16")
#loc673 = loc("model.visual.blocks.16.attn.k")
#loc674 = loc("model.visual.blocks.16.attn.v.weight_bf16")
#loc675 = loc("model.visual.blocks.16.attn.v.bias_bf16")
#loc676 = loc("model.visual.blocks.16.attn.v")
#loc677 = loc("model.visual.blocks.16.attn.q.reshape")
#loc678 = loc("model.visual.blocks.16.attn.q.reshapemodel.visual.blocks.16.attn.q.rotary_f32")
#loc679 = loc("model.visual.blocks.16.attn.k.reshape")
#loc680 = loc("model.visual.blocks.16.attn.k.reshapemodel.visual.blocks.16.attn.k.rotary_f32")
#loc681 = loc("model.visual.blocks.16.attn.v.reshape")
#loc682 = loc("model.visual.blocks.16.attn.q.rotary")
#loc683 = loc("model.visual.blocks.16.attn.q.rotarymodel.visual.blocks.16.fattention_bf16")
#loc684 = loc("model.visual.blocks.16.attn.k.rotary")
#loc685 = loc("model.visual.blocks.16.attn.k.rotarymodel.visual.blocks.16.fattention_bf16")
#loc686 = loc("model.visual.blocks.16.fattention")
#loc687 = loc("model.visual.blocks.16.fattention.reshape")
#loc688 = loc("model.visual.blocks.16.attn.proj.weight_bf16")
#loc689 = loc("model.visual.blocks.16.attn.proj.bias_bf16")
#loc690 = loc("model.visual.blocks.16.attn.proj")
#loc691 = loc("model.visual.blocks.16.attn.proj.add")
#loc692 = loc("model.visual.blocks.16.norm2.weight_bf16")
#loc693 = loc("model.visual.blocks.16.norm2.bias_bf16")
#loc694 = loc("model.visual.blocks.16.norm2")
#loc695 = loc("model.visual.blocks.16.mlp.linear_fc1.weight_bf16")
#loc696 = loc("model.visual.blocks.16.mlp.linear_fc1.bias_bf16")
#loc697 = loc("model.visual.blocks.16.mlp.linear_fc1")
#loc698 = loc("model.visual.blocks.16.mlp.linear_fc1model.visual.blocks.16.mlp.linear_fc1.gelu_f32")
#loc699 = loc("model.visual.blocks.16.mlp.linear_fc1.gelu")
#loc700 = loc("model.visual.blocks.16.mlp.linear_fc1.gelumodel.visual.blocks.16.mlp.linear_fc2_bf16")
#loc701 = loc("model.visual.blocks.16.mlp.linear_fc2.weight_bf16")
#loc702 = loc("model.visual.blocks.16.mlp.linear_fc2.bias_bf16")
#loc703 = loc("model.visual.blocks.16.mlp.linear_fc2")
#loc704 = loc("model.visual.blocks.16.mlp.linear_fc2.add")
#loc705 = loc("model.visual.blocks.17.norm1.weight_bf16")
#loc706 = loc("model.visual.blocks.17.norm1.bias_bf16")
#loc707 = loc("model.visual.blocks.17.norm1")
#loc708 = loc("model.visual.blocks.17.attn.q.weight_bf16")
#loc709 = loc("model.visual.blocks.17.attn.q.bias_bf16")
#loc710 = loc("model.visual.blocks.17.attn.q")
#loc711 = loc("model.visual.blocks.17.attn.k.weight_bf16")
#loc712 = loc("model.visual.blocks.17.attn.k.bias_bf16")
#loc713 = loc("model.visual.blocks.17.attn.k")
#loc714 = loc("model.visual.blocks.17.attn.v.weight_bf16")
#loc715 = loc("model.visual.blocks.17.attn.v.bias_bf16")
#loc716 = loc("model.visual.blocks.17.attn.v")
#loc717 = loc("model.visual.blocks.17.attn.q.reshape")
#loc718 = loc("model.visual.blocks.17.attn.q.reshapemodel.visual.blocks.17.attn.q.rotary_f32")
#loc719 = loc("model.visual.blocks.17.attn.k.reshape")
#loc720 = loc("model.visual.blocks.17.attn.k.reshapemodel.visual.blocks.17.attn.k.rotary_f32")
#loc721 = loc("model.visual.blocks.17.attn.v.reshape")
#loc722 = loc("model.visual.blocks.17.attn.q.rotary")
#loc723 = loc("model.visual.blocks.17.attn.q.rotarymodel.visual.blocks.17.fattention_bf16")
#loc724 = loc("model.visual.blocks.17.attn.k.rotary")
#loc725 = loc("model.visual.blocks.17.attn.k.rotarymodel.visual.blocks.17.fattention_bf16")
#loc726 = loc("model.visual.blocks.17.fattention")
#loc727 = loc("model.visual.blocks.17.fattention.reshape")
#loc728 = loc("model.visual.blocks.17.attn.proj.weight_bf16")
#loc729 = loc("model.visual.blocks.17.attn.proj.bias_bf16")
#loc730 = loc("model.visual.blocks.17.attn.proj")
#loc731 = loc("model.visual.blocks.17.attn.proj.add")
#loc732 = loc("model.visual.blocks.17.norm2.weight_bf16")
#loc733 = loc("model.visual.blocks.17.norm2.bias_bf16")
#loc734 = loc("model.visual.blocks.17.norm2")
#loc735 = loc("model.visual.blocks.17.mlp.linear_fc1.weight_bf16")
#loc736 = loc("model.visual.blocks.17.mlp.linear_fc1.bias_bf16")
#loc737 = loc("model.visual.blocks.17.mlp.linear_fc1")
#loc738 = loc("model.visual.blocks.17.mlp.linear_fc1model.visual.blocks.17.mlp.linear_fc1.gelu_f32")
#loc739 = loc("model.visual.blocks.17.mlp.linear_fc1.gelu")
#loc740 = loc("model.visual.blocks.17.mlp.linear_fc1.gelumodel.visual.blocks.17.mlp.linear_fc2_bf16")
#loc741 = loc("model.visual.blocks.17.mlp.linear_fc2.weight_bf16")
#loc742 = loc("model.visual.blocks.17.mlp.linear_fc2.bias_bf16")
#loc743 = loc("model.visual.blocks.17.mlp.linear_fc2")
#loc744 = loc("model.visual.blocks.17.mlp.linear_fc2.add")
#loc745 = loc("model.visual.blocks.18.norm1.weight_bf16")
#loc746 = loc("model.visual.blocks.18.norm1.bias_bf16")
#loc747 = loc("model.visual.blocks.18.norm1")
#loc748 = loc("model.visual.blocks.18.attn.q.weight_bf16")
#loc749 = loc("model.visual.blocks.18.attn.q.bias_bf16")
#loc750 = loc("model.visual.blocks.18.attn.q")
#loc751 = loc("model.visual.blocks.18.attn.k.weight_bf16")
#loc752 = loc("model.visual.blocks.18.attn.k.bias_bf16")
#loc753 = loc("model.visual.blocks.18.attn.k")
#loc754 = loc("model.visual.blocks.18.attn.v.weight_bf16")
#loc755 = loc("model.visual.blocks.18.attn.v.bias_bf16")
#loc756 = loc("model.visual.blocks.18.attn.v")
#loc757 = loc("model.visual.blocks.18.attn.q.reshape")
#loc758 = loc("model.visual.blocks.18.attn.q.reshapemodel.visual.blocks.18.attn.q.rotary_f32")
#loc759 = loc("model.visual.blocks.18.attn.k.reshape")
#loc760 = loc("model.visual.blocks.18.attn.k.reshapemodel.visual.blocks.18.attn.k.rotary_f32")
#loc761 = loc("model.visual.blocks.18.attn.v.reshape")
#loc762 = loc("model.visual.blocks.18.attn.q.rotary")
#loc763 = loc("model.visual.blocks.18.attn.q.rotarymodel.visual.blocks.18.fattention_bf16")
#loc764 = loc("model.visual.blocks.18.attn.k.rotary")
#loc765 = loc("model.visual.blocks.18.attn.k.rotarymodel.visual.blocks.18.fattention_bf16")
#loc766 = loc("model.visual.blocks.18.fattention")
#loc767 = loc("model.visual.blocks.18.fattention.reshape")
#loc768 = loc("model.visual.blocks.18.attn.proj.weight_bf16")
#loc769 = loc("model.visual.blocks.18.attn.proj.bias_bf16")
#loc770 = loc("model.visual.blocks.18.attn.proj")
#loc771 = loc("model.visual.blocks.18.attn.proj.add")
#loc772 = loc("model.visual.blocks.18.norm2.weight_bf16")
#loc773 = loc("model.visual.blocks.18.norm2.bias_bf16")
#loc774 = loc("model.visual.blocks.18.norm2")
#loc775 = loc("model.visual.blocks.18.mlp.linear_fc1.weight_bf16")
#loc776 = loc("model.visual.blocks.18.mlp.linear_fc1.bias_bf16")
#loc777 = loc("model.visual.blocks.18.mlp.linear_fc1")
#loc778 = loc("model.visual.blocks.18.mlp.linear_fc1model.visual.blocks.18.mlp.linear_fc1.gelu_f32")
#loc779 = loc("model.visual.blocks.18.mlp.linear_fc1.gelu")
#loc780 = loc("model.visual.blocks.18.mlp.linear_fc1.gelumodel.visual.blocks.18.mlp.linear_fc2_bf16")
#loc781 = loc("model.visual.blocks.18.mlp.linear_fc2.weight_bf16")
#loc782 = loc("model.visual.blocks.18.mlp.linear_fc2.bias_bf16")
#loc783 = loc("model.visual.blocks.18.mlp.linear_fc2")
#loc784 = loc("model.visual.blocks.18.mlp.linear_fc2.add")
#loc785 = loc("model.visual.blocks.19.norm1.weight_bf16")
#loc786 = loc("model.visual.blocks.19.norm1.bias_bf16")
#loc787 = loc("model.visual.blocks.19.norm1")
#loc788 = loc("model.visual.blocks.19.attn.q.weight_bf16")
#loc789 = loc("model.visual.blocks.19.attn.q.bias_bf16")
#loc790 = loc("model.visual.blocks.19.attn.q")
#loc791 = loc("model.visual.blocks.19.attn.k.weight_bf16")
#loc792 = loc("model.visual.blocks.19.attn.k.bias_bf16")
#loc793 = loc("model.visual.blocks.19.attn.k")
#loc794 = loc("model.visual.blocks.19.attn.v.weight_bf16")
#loc795 = loc("model.visual.blocks.19.attn.v.bias_bf16")
#loc796 = loc("model.visual.blocks.19.attn.v")
#loc797 = loc("model.visual.blocks.19.attn.q.reshape")
#loc798 = loc("model.visual.blocks.19.attn.q.reshapemodel.visual.blocks.19.attn.q.rotary_f32")
#loc799 = loc("model.visual.blocks.19.attn.k.reshape")
#loc800 = loc("model.visual.blocks.19.attn.k.reshapemodel.visual.blocks.19.attn.k.rotary_f32")
#loc801 = loc("model.visual.blocks.19.attn.v.reshape")
#loc802 = loc("model.visual.blocks.19.attn.q.rotary")
#loc803 = loc("model.visual.blocks.19.attn.q.rotarymodel.visual.blocks.19.fattention_bf16")
#loc804 = loc("model.visual.blocks.19.attn.k.rotary")
#loc805 = loc("model.visual.blocks.19.attn.k.rotarymodel.visual.blocks.19.fattention_bf16")
#loc806 = loc("model.visual.blocks.19.fattention")
#loc807 = loc("model.visual.blocks.19.fattention.reshape")
#loc808 = loc("model.visual.blocks.19.attn.proj.weight_bf16")
#loc809 = loc("model.visual.blocks.19.attn.proj.bias_bf16")
#loc810 = loc("model.visual.blocks.19.attn.proj")
#loc811 = loc("model.visual.blocks.19.attn.proj.add")
#loc812 = loc("model.visual.blocks.19.norm2.weight_bf16")
#loc813 = loc("model.visual.blocks.19.norm2.bias_bf16")
#loc814 = loc("model.visual.blocks.19.norm2")
#loc815 = loc("model.visual.blocks.19.mlp.linear_fc1.weight_bf16")
#loc816 = loc("model.visual.blocks.19.mlp.linear_fc1.bias_bf16")
#loc817 = loc("model.visual.blocks.19.mlp.linear_fc1")
#loc818 = loc("model.visual.blocks.19.mlp.linear_fc1model.visual.blocks.19.mlp.linear_fc1.gelu_f32")
#loc819 = loc("model.visual.blocks.19.mlp.linear_fc1.gelu")
#loc820 = loc("model.visual.blocks.19.mlp.linear_fc1.gelumodel.visual.blocks.19.mlp.linear_fc2_bf16")
#loc821 = loc("model.visual.blocks.19.mlp.linear_fc2.weight_bf16")
#loc822 = loc("model.visual.blocks.19.mlp.linear_fc2.bias_bf16")
#loc823 = loc("model.visual.blocks.19.mlp.linear_fc2")
#loc824 = loc("model.visual.blocks.19.mlp.linear_fc2.add")
#loc825 = loc("model.visual.blocks.20.norm1.weight_bf16")
#loc826 = loc("model.visual.blocks.20.norm1.bias_bf16")
#loc827 = loc("model.visual.blocks.20.norm1")
#loc828 = loc("model.visual.blocks.20.attn.q.weight_bf16")
#loc829 = loc("model.visual.blocks.20.attn.q.bias_bf16")
#loc830 = loc("model.visual.blocks.20.attn.q")
#loc831 = loc("model.visual.blocks.20.attn.k.weight_bf16")
#loc832 = loc("model.visual.blocks.20.attn.k.bias_bf16")
#loc833 = loc("model.visual.blocks.20.attn.k")
#loc834 = loc("model.visual.blocks.20.attn.v.weight_bf16")
#loc835 = loc("model.visual.blocks.20.attn.v.bias_bf16")
#loc836 = loc("model.visual.blocks.20.attn.v")
#loc837 = loc("model.visual.blocks.20.attn.q.reshape")
#loc838 = loc("model.visual.blocks.20.attn.q.reshapemodel.visual.blocks.20.attn.q.rotary_f32")
#loc839 = loc("model.visual.blocks.20.attn.k.reshape")
#loc840 = loc("model.visual.blocks.20.attn.k.reshapemodel.visual.blocks.20.attn.k.rotary_f32")
#loc841 = loc("model.visual.blocks.20.attn.v.reshape")
#loc842 = loc("model.visual.blocks.20.attn.q.rotary")
#loc843 = loc("model.visual.blocks.20.attn.q.rotarymodel.visual.blocks.20.fattention_bf16")
#loc844 = loc("model.visual.blocks.20.attn.k.rotary")
#loc845 = loc("model.visual.blocks.20.attn.k.rotarymodel.visual.blocks.20.fattention_bf16")
#loc846 = loc("model.visual.blocks.20.fattention")
#loc847 = loc("model.visual.blocks.20.fattention.reshape")
#loc848 = loc("model.visual.blocks.20.attn.proj.weight_bf16")
#loc849 = loc("model.visual.blocks.20.attn.proj.bias_bf16")
#loc850 = loc("model.visual.blocks.20.attn.proj")
#loc851 = loc("model.visual.blocks.20.attn.proj.add")
#loc852 = loc("model.visual.blocks.20.norm2.weight_bf16")
#loc853 = loc("model.visual.blocks.20.norm2.bias_bf16")
#loc854 = loc("model.visual.blocks.20.norm2")
#loc855 = loc("model.visual.blocks.20.mlp.linear_fc1.weight_bf16")
#loc856 = loc("model.visual.blocks.20.mlp.linear_fc1.bias_bf16")
#loc857 = loc("model.visual.blocks.20.mlp.linear_fc1")
#loc858 = loc("model.visual.blocks.20.mlp.linear_fc1model.visual.blocks.20.mlp.linear_fc1.gelu_f32")
#loc859 = loc("model.visual.blocks.20.mlp.linear_fc1.gelu")
#loc860 = loc("model.visual.blocks.20.mlp.linear_fc1.gelumodel.visual.blocks.20.mlp.linear_fc2_bf16")
#loc861 = loc("model.visual.blocks.20.mlp.linear_fc2.weight_bf16")
#loc862 = loc("model.visual.blocks.20.mlp.linear_fc2.bias_bf16")
#loc863 = loc("model.visual.blocks.20.mlp.linear_fc2")
#loc864 = loc("model.visual.blocks.20.mlp.linear_fc2.add")
#loc865 = loc("model.visual.blocks.21.norm1.weight_bf16")
#loc866 = loc("model.visual.blocks.21.norm1.bias_bf16")
#loc867 = loc("model.visual.blocks.21.norm1")
#loc868 = loc("model.visual.blocks.21.attn.q.weight_bf16")
#loc869 = loc("model.visual.blocks.21.attn.q.bias_bf16")
#loc870 = loc("model.visual.blocks.21.attn.q")
#loc871 = loc("model.visual.blocks.21.attn.k.weight_bf16")
#loc872 = loc("model.visual.blocks.21.attn.k.bias_bf16")
#loc873 = loc("model.visual.blocks.21.attn.k")
#loc874 = loc("model.visual.blocks.21.attn.v.weight_bf16")
#loc875 = loc("model.visual.blocks.21.attn.v.bias_bf16")
#loc876 = loc("model.visual.blocks.21.attn.v")
#loc877 = loc("model.visual.blocks.21.attn.q.reshape")
#loc878 = loc("model.visual.blocks.21.attn.q.reshapemodel.visual.blocks.21.attn.q.rotary_f32")
#loc879 = loc("model.visual.blocks.21.attn.k.reshape")
#loc880 = loc("model.visual.blocks.21.attn.k.reshapemodel.visual.blocks.21.attn.k.rotary_f32")
#loc881 = loc("model.visual.blocks.21.attn.v.reshape")
#loc882 = loc("model.visual.blocks.21.attn.q.rotary")
#loc883 = loc("model.visual.blocks.21.attn.q.rotarymodel.visual.blocks.21.fattention_bf16")
#loc884 = loc("model.visual.blocks.21.attn.k.rotary")
#loc885 = loc("model.visual.blocks.21.attn.k.rotarymodel.visual.blocks.21.fattention_bf16")
#loc886 = loc("model.visual.blocks.21.fattention")
#loc887 = loc("model.visual.blocks.21.fattention.reshape")
#loc888 = loc("model.visual.blocks.21.attn.proj.weight_bf16")
#loc889 = loc("model.visual.blocks.21.attn.proj.bias_bf16")
#loc890 = loc("model.visual.blocks.21.attn.proj")
#loc891 = loc("model.visual.blocks.21.attn.proj.add")
#loc892 = loc("model.visual.blocks.21.norm2.weight_bf16")
#loc893 = loc("model.visual.blocks.21.norm2.bias_bf16")
#loc894 = loc("model.visual.blocks.21.norm2")
#loc895 = loc("model.visual.blocks.21.mlp.linear_fc1.weight_bf16")
#loc896 = loc("model.visual.blocks.21.mlp.linear_fc1.bias_bf16")
#loc897 = loc("model.visual.blocks.21.mlp.linear_fc1")
#loc898 = loc("model.visual.blocks.21.mlp.linear_fc1model.visual.blocks.21.mlp.linear_fc1.gelu_f32")
#loc899 = loc("model.visual.blocks.21.mlp.linear_fc1.gelu")
#loc900 = loc("model.visual.blocks.21.mlp.linear_fc1.gelumodel.visual.blocks.21.mlp.linear_fc2_bf16")
#loc901 = loc("model.visual.blocks.21.mlp.linear_fc2.weight_bf16")
#loc902 = loc("model.visual.blocks.21.mlp.linear_fc2.bias_bf16")
#loc903 = loc("model.visual.blocks.21.mlp.linear_fc2")
#loc904 = loc("model.visual.blocks.21.mlp.linear_fc2.add")
#loc905 = loc("model.visual.blocks.22.norm1.weight_bf16")
#loc906 = loc("model.visual.blocks.22.norm1.bias_bf16")
#loc907 = loc("model.visual.blocks.22.norm1")
#loc908 = loc("model.visual.blocks.22.attn.q.weight_bf16")
#loc909 = loc("model.visual.blocks.22.attn.q.bias_bf16")
#loc910 = loc("model.visual.blocks.22.attn.q")
#loc911 = loc("model.visual.blocks.22.attn.k.weight_bf16")
#loc912 = loc("model.visual.blocks.22.attn.k.bias_bf16")
#loc913 = loc("model.visual.blocks.22.attn.k")
#loc914 = loc("model.visual.blocks.22.attn.v.weight_bf16")
#loc915 = loc("model.visual.blocks.22.attn.v.bias_bf16")
#loc916 = loc("model.visual.blocks.22.attn.v")
#loc917 = loc("model.visual.blocks.22.attn.q.reshape")
#loc918 = loc("model.visual.blocks.22.attn.q.reshapemodel.visual.blocks.22.attn.q.rotary_f32")
#loc919 = loc("model.visual.blocks.22.attn.k.reshape")
#loc920 = loc("model.visual.blocks.22.attn.k.reshapemodel.visual.blocks.22.attn.k.rotary_f32")
#loc921 = loc("model.visual.blocks.22.attn.v.reshape")
#loc922 = loc("model.visual.blocks.22.attn.q.rotary")
#loc923 = loc("model.visual.blocks.22.attn.q.rotarymodel.visual.blocks.22.fattention_bf16")
#loc924 = loc("model.visual.blocks.22.attn.k.rotary")
#loc925 = loc("model.visual.blocks.22.attn.k.rotarymodel.visual.blocks.22.fattention_bf16")
#loc926 = loc("model.visual.blocks.22.fattention")
#loc927 = loc("model.visual.blocks.22.fattention.reshape")
#loc928 = loc("model.visual.blocks.22.attn.proj.weight_bf16")
#loc929 = loc("model.visual.blocks.22.attn.proj.bias_bf16")
#loc930 = loc("model.visual.blocks.22.attn.proj")
#loc931 = loc("model.visual.blocks.22.attn.proj.add")
#loc932 = loc("model.visual.blocks.22.norm2.weight_bf16")
#loc933 = loc("model.visual.blocks.22.norm2.bias_bf16")
#loc934 = loc("model.visual.blocks.22.norm2")
#loc935 = loc("model.visual.blocks.22.mlp.linear_fc1.weight_bf16")
#loc936 = loc("model.visual.blocks.22.mlp.linear_fc1.bias_bf16")
#loc937 = loc("model.visual.blocks.22.mlp.linear_fc1")
#loc938 = loc("model.visual.blocks.22.mlp.linear_fc1model.visual.blocks.22.mlp.linear_fc1.gelu_f32")
#loc939 = loc("model.visual.blocks.22.mlp.linear_fc1.gelu")
#loc940 = loc("model.visual.blocks.22.mlp.linear_fc1.gelumodel.visual.blocks.22.mlp.linear_fc2_bf16")
#loc941 = loc("model.visual.blocks.22.mlp.linear_fc2.weight_bf16")
#loc942 = loc("model.visual.blocks.22.mlp.linear_fc2.bias_bf16")
#loc943 = loc("model.visual.blocks.22.mlp.linear_fc2")
#loc944 = loc("model.visual.blocks.22.mlp.linear_fc2.add")
#loc945 = loc("model.visual.blocks.23.norm1.weight_bf16")
#loc946 = loc("model.visual.blocks.23.norm1.bias_bf16")
#loc947 = loc("model.visual.blocks.23.norm1")
#loc948 = loc("model.visual.blocks.23.attn.q.weight_bf16")
#loc949 = loc("model.visual.blocks.23.attn.q.bias_bf16")
#loc950 = loc("model.visual.blocks.23.attn.q")
#loc951 = loc("model.visual.blocks.23.attn.k.weight_bf16")
#loc952 = loc("model.visual.blocks.23.attn.k.bias_bf16")
#loc953 = loc("model.visual.blocks.23.attn.k")
#loc954 = loc("model.visual.blocks.23.attn.v.weight_bf16")
#loc955 = loc("model.visual.blocks.23.attn.v.bias_bf16")
#loc956 = loc("model.visual.blocks.23.attn.v")
#loc957 = loc("model.visual.blocks.23.attn.q.reshape")
#loc958 = loc("model.visual.blocks.23.attn.q.reshapemodel.visual.blocks.23.attn.q.rotary_f32")
#loc959 = loc("model.visual.blocks.23.attn.k.reshape")
#loc960 = loc("model.visual.blocks.23.attn.k.reshapemodel.visual.blocks.23.attn.k.rotary_f32")
#loc961 = loc("model.visual.blocks.23.attn.v.reshape")
#loc962 = loc("model.visual.blocks.23.attn.q.rotary")
#loc963 = loc("model.visual.blocks.23.attn.q.rotarymodel.visual.blocks.23.fattention_bf16")
#loc964 = loc("model.visual.blocks.23.attn.k.rotary")
#loc965 = loc("model.visual.blocks.23.attn.k.rotarymodel.visual.blocks.23.fattention_bf16")
#loc966 = loc("model.visual.blocks.23.fattention")
#loc967 = loc("model.visual.blocks.23.fattention.reshape")
#loc968 = loc("model.visual.blocks.23.attn.proj.weight_bf16")
#loc969 = loc("model.visual.blocks.23.attn.proj.bias_bf16")
#loc970 = loc("model.visual.blocks.23.attn.proj")
#loc971 = loc("model.visual.blocks.23.attn.proj.add")
#loc972 = loc("model.visual.blocks.23.norm2.weight_bf16")
#loc973 = loc("model.visual.blocks.23.norm2.bias_bf16")
#loc974 = loc("model.visual.blocks.23.norm2")
#loc975 = loc("model.visual.blocks.23.mlp.linear_fc1.weight_bf16")
#loc976 = loc("model.visual.blocks.23.mlp.linear_fc1.bias_bf16")
#loc977 = loc("model.visual.blocks.23.mlp.linear_fc1")
#loc978 = loc("model.visual.blocks.23.mlp.linear_fc1model.visual.blocks.23.mlp.linear_fc1.gelu_f32")
#loc979 = loc("model.visual.blocks.23.mlp.linear_fc1.gelu")
#loc980 = loc("model.visual.blocks.23.mlp.linear_fc1.gelumodel.visual.blocks.23.mlp.linear_fc2_bf16")
#loc981 = loc("model.visual.blocks.23.mlp.linear_fc2.weight_bf16")
#loc982 = loc("model.visual.blocks.23.mlp.linear_fc2.bias_bf16")
#loc983 = loc("model.visual.blocks.23.mlp.linear_fc2")
#loc984 = loc("model.visual.blocks.23.mlp.linear_fc2.add")
#loc985 = loc("model.visual.merger.norm.weight_bf16")
#loc986 = loc("model.visual.merger.norm.bias_bf16")
#loc987 = loc("model.visual.merger.norm")
#loc988 = loc("model.visual.merger.linear_fc1.preshape")
#loc989 = loc("model.visual.merger.linear_fc1.weight_bf16")
#loc990 = loc("model.visual.merger.linear_fc1.bias_bf16")
#loc991 = loc("model.visual.merger.linear_fc1")
#loc992 = loc("model.visual.merger.linear_fc1model.visual.merger.linear_fc1.gelu_f32")
#loc993 = loc("model.visual.merger.linear_fc1.gelu")
#loc994 = loc("model.visual.merger.linear_fc1.gelumodel.visual.merger.linear_fc2_bf16")
#loc995 = loc("model.visual.merger.linear_fc2.weight_bf16")
#loc996 = loc("model.visual.merger.linear_fc2.bias_bf16")
#loc997 = loc("model.visual.merger.linear_fc2")
#loc998 = loc("model.visual.merger.linear_fc2_f32")

